NODE/submission_models/drifter_59_tanh_1day.pth (torch, 81679 bytes, 4 tensors)

weight f4 [256, 4]
000000 00 54 75 bb 5e 54 89 3e 16 b3 d2 be 80 66 bc be
       -0.00374341 0.2682218 -0.41152257 -0.3679695
000010 f4 32 45 be ec 4b 09 3e 40 4f 22 bc ce fa ca 3e
       -0.19257718 0.13407868 -0.00990659 0.39644474
000020 70 bf 35 bd 4c 7b 07 3e ac bb 1a be 70 48 c9 bd
       -0.044372022 0.13230628 -0.15110654 -0.098282695
000030 17 97 f2 be e2 b1 a7 be 3f b5 60 be 70 ce 95 3b
       -0.47380897 -0.327529 -0.2194414 0.0045717284
000040 60 69 4a 3e 18 9b 99 3e 8c 8d ad be fc f4 5e be
       0.1976676 0.3000114 -0.33897054 -0.21773142
000050 98 f7 39 3e 4e 94 d4 3e 48 bd d2 bd 5c 91 bf 3e
       0.18160856 0.41519397 -0.10290009 0.37415588
000060 40 0d a5 bd 10 b5 58 3d 4a cd e7 3e ce 7b ed be
       -0.08059168 0.05290705 0.4527381 -0.46383518
000070 66 29 a1 be e0 9e 01 be dc 93 47 be 28 2f dd 3e
       -0.31476897 -0.12658262 -0.19489998 0.4320004
000080 1a ef a5 be c0 b0 6b be 1a da b2 be 76 c2 ef be
       -0.32408983 -0.23016644 -0.34932023 -0.4682805
000090 04 70 95 be 9e 0e dc 3e bc 76 64 3e 00 27 78 3e
       -0.29187024 0.42979902 0.22310919 0.24233627
0000a0 40 6a d7 3c 3a 3f 83 be c0 3e ad 3d 9e 06 ef be
       0.026295781 -0.25634176 0.08459234 -0.46684736
0000b0 1a fa b8 be c6 f9 83 be 26 85 a1 3e 26 19 96 3e
       -0.36128312 -0.257765 0.31546897 0.29316062
0000c0 c8 11 63 be 20 cb 93 bc 40 ba a3 3e 82 7f fe 3e
       -0.22174752 -0.018041193 0.31978035 0.49706656
0000d0 24 34 4b 3e c8 55 8a 3d fe a4 ab 3e c0 bb 96 be
       0.19844109 0.06754643 0.33524317 -0.29440117
0000e0 f8 d0 be 3d 6c 7a c6 be 18 6e b1 be d2 3e 84 be
       0.093172014 -0.38765275 -0.34654307 -0.25829178
0000f0 8c aa 67 3e f8 e7 4d 3e 6a a4 97 be c8 ad 1a 3e
       0.22623652 0.2010802 -0.29617625 0.15105355
000100 6e 89 8c 3e 20 3f 81 bd 40 64 9c 3c 00 44 ed 3d
       0.274486 -0.06310868 0.019090772 0.115852356
000110 00 d1 9e 3e 48 cf f5 3e 96 47 c5 be ec a1 3b be
       0.3101883 0.48009706 -0.38531178 -0.18323487
000120 98 38 49 3e d0 1b d4 3e e8 c5 de 3e 22 e2 e1 3e
       0.19650495 0.4142747 0.43510365 0.44117838
000130 78 ca cb 3d f8 9c de be 90 66 3c 3d ac 27 a0 be
       0.09950727 -0.43479133 0.04599625 -0.31280267
000140 8c 94 ee be 3e 74 e3 3e f0 a6 c2 3e fe 5d ff be
       -0.46597707 0.44424623 0.38017988 -0.49876398
000150 08 aa bf 3d c8 80 ac bd b8 82 a8 bd 1c 5f 6a be
       0.09358603 -0.084230006 -0.082280576 -0.22887844
000160 8c e4 44 3e 34 a1 97 be dc b1 3b 3e 16 76 81 3e
       0.19227809 -0.29615176 0.18329567 0.25285405
000170 5c 43 b7 3e 48 71 3f 3e 4a 5f fd be 00 11 a6 be
       0.3579358 0.18695557 -0.49486762 -0.32434845
000180 38 a6 7f 3e 18 53 d6 3d 96 b3 c7 be e8 68 93 be
       0.24965751 0.104650676 -0.390042 -0.28790975
000190 f2 d4 f0 3e 54 7f ac 3e b0 3e 5f be d4 dc 00 be
       0.47037464 0.33690894 -0.21801257 -0.12584239
0001a0 78 dd f3 be 80 3e 13 bc 78 c8 c0 be a2 77 c5 be
       -0.47629905 -0.008987069 -0.37652946 -0.38567835
0001b0 20 b0 e1 bc a0 bf 99 3d f4 ad 51 be 98 e7 97 3e
       -0.027549803 0.07507253 -0.20476514 0.2966888
0001c0 38 c9 9b be 68 49 e8 3e d0 6f af 3e 64 e1 d7 be
       -0.30426955 0.45368505 0.34264994 -0.42164147
0001d0 88 db fe bd 80 d2 b8 3c 18 67 95 3d d0 dd f2 3d
       -0.12444216 0.022561312 0.07295054 0.118587136
0001e0 5c ec 48 3e e0 59 f5 3c cc d1 79 be d4 45 72 3e
       0.19621414 0.029950082 -0.24396437 0.2365945
0001f0 56 91 f5 be a0 bb 97 be 3c 2b 00 be ec 66 79 be
       -0.47962445 -0.29635334 -0.12516493 -0.24355668
000200 5c 1d 33 be ba d2 d1 be 00 d2 d9 bd f8 e2 da 3d
       -0.17491668 -0.40981084 -0.106357574 0.10687822
000210 ac 43 da bf 36 72 a0 bf 7d eb 77 3f a4 55 d3 bd
       -1.7051902 -1.2534854 0.968437 -0.10319069
000220 80 ac 63 3c c0 ad 30 bd 10 3d cf 3d 60 c6 a2 3e
       0.013896108 -0.04313445 0.101190686 0.31791973
000230 79 6d 1c 40 81 d1 25 40 dc 08 1f 3f 8a ea 7e bd
       2.4441817 2.590912 0.62122893 -0.062235393
000240 66 f8 e5 be 40 ba 72 be ce 4f ae 3e 00 6b 54 bb
       -0.44916075 -0.23703861 0.3404526 -0.003241241
000250 dc 7c 7e be 02 2d c4 be 00 94 ef be ec 10 d8 be
       -0.24852318 -0.38315588 -0.46792603 -0.4220041
000260 70 b4 cf bd 56 64 8c 3e 74 67 8a 3e 02 e5 f6 be
       -0.101418376 0.274203 0.27032053 -0.48221594
000270 2e b0 9f 3e 8a 52 c8 be f0 7b d8 bd 1c 9a 4f be
       0.31189102 -0.39125472 -0.10570514 -0.20273632
000280 f0 3c c5 bd 10 0e c9 bd ba b8 e5 be 44 0a dd be
       -0.096307635 -0.09817135 -0.44867498 -0.43171895
000290 28 3c a0 bd 80 e1 d3 3b b8 96 68 be b8 de 40 3e
       -0.07823974 0.0064660907 -0.22713745 0.1883496
0002a0 3a 6a e6 be c0 36 0a bd a2 21 e1 3e 38 d7 50 be
       -0.4500292 -0.03374362 0.43970972 -0.203946
0002b0 36 2b e7 3e 38 6c 39 3e ae 07 e7 be 74 f8 a1 3e
       0.45150155 0.18107688 -0.45123047 0.31634867
0002c0 f0 53 6c bd 70 8f 64 be 14 b6 cc 3e 54 df ce be
       -0.057697237 -0.22320342 0.39982665 -0.4040476
0002d0 b0 c2 5b 3d c0 64 d6 bd 16 d0 b6 3e 08 ec 0e 3e
       0.053652465 -0.10468435 0.35705632 0.13957226
0002e0 cc 04 76 3e 40 d1 34 3e 00 3f f6 bd 50 5a d7 bd
       0.24025267 0.17657948 -0.12023735 -0.105152726
0002f0 00 f7 d2 be 4c b6 8a 3e 26 42 cb 3e 5c 29 af 3e
       -0.4120407 0.27092206 0.39698905 0.34211242
000300 ac 93 b4 be 60 ae b6 3c 90 76 b4 be 88 ec 8c be
       -0.35268915 0.022299945 -0.35246706 -0.2752421
000310 30 2c 95 be 34 f9 2e 3e c4 8d 98 be 00 ba 32 bc
       -0.29135275 0.17087251 -0.2979566 -0.010908604
000320 a0 4f ac 3c 04 06 a5 3e fa 83 c1 be 44 bf af be
       0.021034062 0.32231152 -0.37796003 -0.34325612
000330 3c a6 94 be d6 2e b3 3e cc 0b 38 be e0 ee d7 3e
       -0.29033077 0.3499667 -0.1797325 0.42174435
000340 a0 24 39 3e 40 aa 81 3d 00 ed 73 bb 08 6d ca bd
       0.18080378 0.06331301 -0.003722012 -0.09884077
000350 40 7a 80 3d 30 d3 e9 bd 00 3e 66 bb c0 a7 82 3d
       0.06273317 -0.11417234 -0.003513217 0.06379652
000360 98 3e c8 be 7a 2d 86 be d8 b7 ce 3e 86 c1 cf be
       -0.39110255 -0.2620657 0.40374637 -0.40577334
000370 20 0f 13 bd c0 3e fd 3e 10 f4 38 3e c0 f0 67 3c
       -0.035903096 0.49461937 0.18061852 0.01415652
000380 26 da dd be 2c a2 7d 3e 08 58 b6 be a8 56 11 be
       -0.43330497 0.24768895 -0.35614038 -0.14193213
000390 cc c8 2b be 38 a4 97 bd 80 36 b3 3b 96 26 d3 3e
       -0.16775817 -0.07404369 0.0054691434 0.41240376
0003a0 80 ab 7f 3d 20 4c e5 3e 30 99 9c 3e c6 d8 a1 be
       0.062419415 0.4478464 0.30585623 -0.31610698
0003b0 54 a2 65 3e 24 f7 b4 be 9c ff 58 be 40 97 16 3e
       0.22425205 -0.35344803 -0.21191257 0.14706135
0003c0 d4 45 26 3e 39 c4 c0 3e cd df 2a be 7d b2 82 bb
       0.16237575 0.37649706 -0.16686936 -0.0039885626
0003d0 7a cb 83 3e 5a 93 f7 be 42 15 b9 3e 30 b1 d3 be
       0.25741178 -0.48354608 0.3614903 -0.4134612
0003e0 00 d0 e1 3b e0 18 ae bd 0a d4 86 be d8 57 87 3d
       0.0068912506 -0.08500838 -0.26333648 0.06608552
0003f0 f2 b0 d3 3e e8 aa 15 be 56 fc 97 be 84 5b 3d be
       0.41345936 -0.14615977 -0.29684705 -0.18491942

bias f4 [256]
000000 c0 7e 0f bd aa ca f1 be 14 9b 93 be b9 13 48 3e
       -0.035032988 -0.47224933 -0.28829253 0.19538774
000010 70 a8 2d be da b2 b0 3e d2 60 ca 3e 10 f6 94 3d
       -0.16958785 0.34511453 0.39526993 0.07273495
000020 f0 f1 21 bd d0 85 22 be 20 1e cf bc b0 63 ba 3d
       -0.03953737 -0.15871358 -0.02528292 0.09101045
000030 be 8b c3 be 48 bb f4 bd e8 f0 d4 be 0a 1f 9d 3e
       -0.38192552 -0.119497836 -0.41590047 0.30687743
000040 b4 07 a3 be 02 de e9 3e d8 fb 03 be f4 a7 92 be
       -0.31841815 0.4567719 -0.1288904 -0.28643763
000050 f4 fd 75 3e 30 a8 98 3d cc 44 b1 3e 98 be 55 3e
       0.24022657 0.07453954 0.346228 0.20873487
000060 6a 9d f6 be e4 ea a1 3e 58 d5 c0 bd 08 4a 62 be
       -0.48166972 0.3162452 -0.09415692 -0.22098553
000070 e4 92 a2 3e 64 b5 ba 3e 9a 01 e1 be e0 2f 39 bd
       0.31752694 0.36466515 -0.43946534 -0.045211673
000080 98 3a d2 3e 22 8c 10 3d 12 ac d7 3e 6d 8d 30 be
       0.41060328 0.03528989 0.42123467 -0.1724145
000090 70 38 8d be 0a 23 dc 3e d0 69 55 3e 6a c1 f5 3e
       -0.2758212 0.42995483 0.20841146 0.47999126
0000a0 54 dc 55 be 7e 5e a4 be 50 0d 70 bd 62 0b f1 be
       -0.2088483 -0.32103342 -0.058606446 -0.47078997
0000b0 f8 b0 48 3e 98 d2 bc 3e 78 d1 f5 3d 40 5b 4a bd
       0.19598758 0.3687942 0.120028436 -0.04940343
0000c0 54 da 7d 3e 10 7f a2 be 24 6e fa 3e 4e 8d fe be
       0.24790317 -0.31737566 0.48912156 -0.49717182
0000d0 e6 3b f5 be 10 f9 f1 bd b8 1c d1 3e c0 0e 4d 3d
       -0.4789726 -0.11815083 0.40842223 0.050062895
0000e0 a4 a1 44 3e 56 a6 bb be 18 b8 3a 3e c0 d9 64 bd
       0.19202286 -0.36650342 0.18234289 -0.055871725
0000f0 72 4d 4b 3e 50 cc b4 3e 68 8e 5e 3e 20 36 2e bd
       0.19853762 0.35312128 0.21734011 -0.042532086
000100 60 4f fc bc e2 8e a0 be 04 31 39 be ca 5b a6 3e
       -0.030799568 -0.3135901 -0.18085104 0.32491904
000110 6c 4f 4d be 76 fc 9e 3e 3c 06 4b be 08 7d ee bd
       -0.20049828 0.31051987 -0.19826597 -0.116449416
000120 00 58 2e 3c 20 ec ea be 00 98 a3 bb 00 6e 4e bd
       0.010641098 -0.45883274 -0.004992485 -0.050397873
000130 20 fc 37 bd b0 b3 cc bd 18 d3 c9 3e ba ec bc 3e
       -0.04491818 -0.0999521 0.39418864 0.36899358
000140 71 9f 66 be 74 d6 6d 3e 4c cd c8 be 32 f0 d9 be
       -0.2252176 0.23226339 -0.3921913 -0.42566067
000150 58 82 1c 3e 80 c9 f0 3b ec d9 6e be b8 e9 f6 be
       0.15284097 0.0073482394 -0.23325318 -0.48225188
000160 b4 36 46 be fc 01 2b 3e 38 f4 ec be f6 b1 f8 be
       -0.19356805 0.16699976 -0.46280074 -0.48573273
000170 e0 ea 81 3d 68 6c b8 be cc 46 e0 be 3c 44 45 be
       0.06343627 -0.36020207 -0.43804014 -0.1926431
000180 68 dd a4 bd e8 a0 e8 be 34 f0 aa be 70 48 06 3d
       -0.080500424 -0.45435262 -0.33386385 0.032783926
000190 98 66 f1 be 80 ed 8f bd c6 4c a5 be 00 78 b1 be
       -0.47148585 -0.070277214 -0.32285136 -0.34661865
0001a0 5c 3b 49 3e 62 0a c5 be 6c 01 c2 be f8 fd 91 3e
       0.1965155 -0.38484484 -0.3789171 0.28514075
0001b0 18 74 bf 3d 7a 24 e9 3e f4 da 08 be c0 4d 77 be
       0.09348315 0.45535642 -0.13364774 -0.24150753
0001c0 00 89 3d bd 00 c9 25 3b a8 3c c3 3e 18 ff fe be
       -0.04627323 0.0025296807 0.38132215 -0.49803996
0001d0 b0 d1 11 bd fc 7b 62 3e 90 f9 8c be 84 15 82 be
       -0.035600364 0.22117609 -0.2753415 -0.2540704
0001e0 e0 6e 77 3e a0 4b f5 be 88 a4 f2 3d 24 96 9c be
       0.24163389 -0.4790926 0.11847788 -0.30583298
0001f0 e4 7e 7e 3e ee e3 da be d8 63 9d 3e 84 56 f2 be
       0.24853092 -0.42752022 0.30740237 -0.4733163
000200 62 2f d7 be 67 41 19 be 9c b9 c9 3e be 3c db be
       -0.42028338 -0.14966355 0.3939942 -0.4281978
000210 f0 61 64 be 20 d7 e0 3e e0 b8 ab bd 1c 1d 54 3e
       -0.22302985 0.43914127 -0.083848715 0.2071423
000220 f7 fa ca be a4 03 21 be 4a 01 82 be dc d2 d7 3e
       -0.39644596 -0.15724045 -0.25391608 0.4215306
000230 1c 80 54 3e 06 cc ba be b0 18 a5 3d 00 4f bc bb
       0.20751995 -0.36483783 0.080613494 -0.005746722
000240 88 5d 52 be 14 32 92 be c0 e6 29 be 36 c9 c9 3e
       -0.20543492 -0.28553832 -0.1659193 0.39411324
000250 a2 83 b7 be 22 5c b6 be 38 f6 1d be c0 82 0e 3c
       -0.35842615 -0.35617167 -0.15425956 0.008698165
000260 5c 5f 0b 3e 80 d3 75 3c c8 80 f6 bd c4 39 9b be
       0.13610595 0.015004039 -0.12036282 -0.3031751
000270 30 bd b7 bd 78 1b 4e be 6c d4 ce 3e 5e 31 f9 be
       -0.089716315 -0.20127666 0.4039644 -0.48670477
000280 ba 4a a3 be 72 47 d0 be 98 24 bb bd 76 7e c7 3e
       -0.3189295 -0.40679508 -0.09137839 0.3896367
000290 e0 64 e0 3e b6 dc de be 80 77 b1 bc 6a 43 96 3e
       0.43826962 -0.43527764 -0.021663427 0.29348308
0002a0 34 b0 61 3e ca b0 d1 3e 40 3b 63 bc 2a 01 ac be
       0.22039872 0.40955192 -0.013869107 -0.33594638
0002b0 10 5a a9 3e 80 92 2f be a2 8d 84 3e d8 59 fc bd
       0.33076525 -0.17145729 0.25889307 -0.12321824
0002c0 f0 a5 59 3e c8 40 e6 3e 02 0b ee 3e 06 fa e8 be
       0.21254706 0.449713 0.46492773 -0.45503253
0002d0 c6 56 a9 be ec b1 53 be 60 40 a3 be cc a1 f5 3e
       -0.33074015 -0.2067334 -0.31885052 0.47975004
0002e0 80 e0 34 bd b0 d0 a9 be a8 d5 63 be c4 67 8d be
       -0.044159412 -0.33167028 -0.22249472 -0.2761823
0002f0 fc e3 50 3e da 4b df be f8 b1 ee be d8 5a fc be
       0.20399469 -0.43612558 -0.46620154 -0.49288058
000300 a8 6d 5c 3e 28 29 7d 3e 0a ff 9e be 18 ee fd 3d
       0.21526206 0.24722731 -0.31053954 0.123989284
000310 ac f9 bc 3e e0 c9 94 3d d8 a8 d8 bd a0 4f 17 3d
       0.36909235 0.07265067 -0.105790794 0.03694117
000320 30 9a 5b bd 52 e5 80 3e b0 d3 ad be 78 d1 81 3e
       -0.05361384 0.25174958 -0.33950567 0.25355124
000330 a2 49 90 3e 9a 1a 9b be 50 0a d1 3e 76 70 fb 3e
       0.28181177 -0.30293733 0.4082818 0.49109238
000340 58 d8 49 be 88 68 0f be 74 28 7f 3e 3e 8e c8 be
       -0.19711435 -0.1400472 0.24917775 -0.39171022
000350 78 79 4a 3e 70 e7 ee 3d 4a 5d a1 3e 25 5d de be
       0.19772899 0.11665237 0.31516486 -0.4343044
000360 50 ae d4 be 40 f4 65 3e 8c 6d 38 3e b2 46 ee be
       -0.4153924 0.22456455 0.18010539 -0.4653831
000370 c6 c2 8e be 08 3c ea be 7e 67 b7 be a4 03 67 be
       -0.27882975 -0.45748925 -0.35821146 -0.22559983
000380 90 d9 d3 3e 00 d4 cb bd ae 08 93 3e 4a 1e f3 3e
       0.41376925 -0.09952545 0.2871756 0.47484046
000390 bc 55 69 3e 82 2c e5 be 34 d3 80 3e 64 4b 43 3e
       0.22786611 -0.4476052 0.25161135 0.19071728
0003a0 b2 6a c6 3e f4 86 fc be b0 71 9d 3e ee 8b d1 3e
       0.38753277 -0.4932171 0.307508 0.4092707
0003b0 62 2c ee be 50 46 56 3d 52 8a da 3e de 30 ba be
       -0.46518236 0.05231315 0.42683655 -0.36365408
0003c0 40 ff 27 3e c0 3d 62 3e ac 30 06 3e 97 a2 fe 3e
       0.16405964 0.22093868 0.13104504 0.4973342
0003d0 8a 9b d1 3e ec a2 db 3e d0 46 7f bd de b5 d6 3e
       0.4093898 0.42897737 -0.06232339 0.4193563
0003e0 d4 91 ee be 26 25 8a be a8 03 db bd d4 17 18 be
       -0.46595633 -0.26981467 -0.10694057 -0.1485284
0003f0 42 77 ec 3e 1c 7e 71 3e ee d0 a4 3e 34 22 ae 3e
       0.46184736 0.23583263 0.3219065 0.3401047

weight f4 [2, 256]
000000 2c cc 3e bd f7 af f0 bb ab 45 17 3c 92 91 70 3c
       -0.046581432 -0.0073451954 0.009232919 0.014683144
000010 34 14 04 3d 93 99 cc bc 93 83 99 bc 3a c5 55 3d
       0.03224583 -0.024975574 -0.018739497 0.052190043
000020 98 8a 88 bc 78 43 32 bd 78 03 2e 3d 9c ea 2c 3d
       -0.01666765 -0.043521374 0.042483777 0.04221593
000030 03 6b a1 bc ab f9 4a bc 40 76 3c bd 2a 38 56 bd
       -0.019704347 -0.012388627 -0.04601121 -0.052299656
000040 67 aa bf 3c d1 d9 d9 bc 76 5d 4b 3d 16 8c 4c bd
       0.023396684 -0.02659312 0.04964968 -0.049938284
000050 ab cc 0b bc 7a d2 be 3a 76 22 03 3d c0 9f 4f 3d
       -0.008532683 0.0014558577 0.032015286 0.05068946
000060 ba cc 2d 3d 6b 40 e2 3c 11 22 ea bc d6 41 37 bd
       0.04243157 0.027618608 -0.028580697 -0.04474052
000070 e4 95 64 bd 65 35 44 3b 9e da 77 3d 17 c2 40 bc
       -0.05580701 0.0029939052 0.060511224 -0.011765025
000080 59 68 33 bb ef 50 e6 bf 39 51 9c 3c 34 b0 cc 3f
       -0.0027375428 -1.7993449 0.019081699 1.5991273
000090 bb d4 7c bd e6 d1 33 bd 7a 0e 3e 3d c1 30 74 3c
       -0.061726313 -0.043901347 0.046400525 0.014904202
0000a0 dd 65 78 bb 3d 4e 35 3c ad f2 19 bc d2 5e 33 bd
       -0.0037902512 0.011066017 -0.009396237 -0.0437916
0000b0 58 c7 6e bd 18 f0 27 3d 9e 18 f0 bb af 05 bf bc
       -0.058295578 0.041000456 -0.0073271533 -0.02331814
0000c0 92 48 83 bc 55 31 0b bd 39 c6 96 bc 80 30 5c bd
       -0.016025815 -0.033982594 -0.018405067 -0.05375719
0000d0 e6 02 40 3d 19 33 d0 3c a0 ab 00 bd c5 9f af bc
       0.046877764 0.02541499 -0.031413674 -0.021438489
0000e0 e5 92 e6 3c dd 77 be bc 07 e2 87 3c 78 1a 8c 3c
       0.028146217 -0.023250515 0.01658727 0.017102465
0000f0 df 88 1f bd e7 20 81 3c 7f a3 73 3b 90 05 60 3d
       -0.03894889 0.01576276 0.0037176309 0.054692805
000100 53 61 b8 bc a7 7d 84 bc 68 22 5c 3d 66 9d 50 bd
       -0.022507345 -0.016173197 0.05374375 -0.050931357
000110 5c 73 97 3b a2 38 76 3d 93 6f e6 bc be fc 74 3d
       0.004621906 0.060112603 -0.028129375 0.059811346
000120 4e b9 62 3d 76 9a 6e 3d bc f0 bf bb 98 26 67 3d
       0.0553525 0.058252774 -0.005857555 0.05643329
000130 a9 f5 df bc 79 63 ae bc 8b c8 c0 3c 07 93 56 3c
       -0.02733882 -0.021287667 0.023533126 0.0130965775
000140 e1 73 6b 3f ac d8 72 3d 60 d1 1f bd 27 6e 07 3d
       0.9197369 0.059288666 -0.039018035 0.033064034
000150 e9 6c aa 3c 26 9f 06 3d 8d e7 f1 3c 45 65 c0 bc
       0.020803886 0.03286662 0.029529357 -0.02348579
000160 3a c4 4a bd 90 76 4c 3d 6a 6a 12 bd 66 1a 24 3d
       -0.049503542 0.049917758 -0.035746016 0.040064238
000170 1c 50 74 bd 5d 69 2f bc 14 c4 11 3a ed 6e 2f 3c
       -0.05964671 -0.010706273 0.0005560529 0.010707599
000180 d8 0e a2 3b c7 34 a2 3c f4 84 e7 bb 07 0a 79 3c
       0.004945617 0.019800557 -0.00706541 0.015200145
000190 f2 e5 7c 3d a8 14 26 bd 0b a8 58 bb 0b 92 c2 bc
       0.06174273 -0.040547043 -0.0033059146 -0.02375128
0001a0 c6 2f 60 3d fa b5 5a 3d 2a 72 d1 ba ff 58 b2 bc
       0.05473306 0.053396203 -0.0015979458 -0.021770952
0001b0 08 bd 1d bd 0e 9d 37 3d c6 84 90 bb fa aa 70 3d
       -0.038510352 0.044827513 -0.004410359 0.058756806
0001c0 30 8d 11 3d 82 a4 5f 3d 6c e9 4a 3d 9c ec 25 bd
       0.035535038 0.054600246 0.049539015 -0.04050885
0001d0 3b bc 96 3c 3d 2d d5 bc 5a e2 00 3d 0c 9f bb bb
       0.018400302 -0.026022548 0.031465866 -0.005725747
0001e0 2e cf ad 3b ba 7c 31 bd b0 3a 65 bd 6d 12 73 3f
       0.0053042388 -0.04333184 -0.055964172 0.9494999
0001f0 41 38 6c 3c be 68 ae 3b 3e 70 2d 3d 61 ab d6 bc
       0.014417709 0.005322545 0.04234337 -0.026204767
000200 e3 e0 b4 3c 3e 79 f2 bf 73 ea 55 3c e7 08 68 bc
       0.02207989 -1.894325 0.013056385 -0.014162279
000210 28 d9 32 3d 94 4d 60 3d 1e e8 5d 3d 2b 3a 3f 3b
       0.043664128 0.054761484 0.054176442 0.0029178958
000220 8c 44 cf 3f 14 58 7f bd 8a bb 15 bd 0d 45 35 3c
       1.6192794 -0.062339857 -0.036555804 0.011063826
000230 a3 f4 7d 39 16 8b 48 bd 0b 7d e3 bc be 00 f0 bc
       0.00024219094 -0.048960768 -0.027769586 -0.029297229
000240 5a 12 7e bd 4c d5 bf 3b 0c 14 2e 3d 63 ac d0 3c
       -0.06202922 0.0058542844 0.042499587 0.025472825
000250 93 23 f4 bc 10 83 6b bd 64 f8 4e bd b4 e5 a5 3a
       -0.02980212 -0.057498038 -0.050529853 0.0012656958
000260 8a 8a 30 3d 9f 37 d0 bc 8a bc 0b bd 11 21 08 bd
       0.04310087 -0.025417147 -0.03411535 -0.03323466
000270 8e ce ad bb 42 8c 73 bd 6e 78 61 bd 92 91 7b 3d
       -0.0053041643 -0.059459932 -0.05504649 0.061418124
000280 43 0d f5 bc 79 6f 3a bc 96 1d 88 bc 54 76 60 bd
       -0.02991355 -0.011379116 -0.01661567 -0.054800346
000290 6d 44 36 bc 7f 9a 9d 3c d5 c5 d0 bc 41 99 27 bb
       -0.011124712 0.019238709 -0.025484959 -0.0025573524
0002a0 d2 83 d4 b9 f4 69 7e bd 85 79 3a 3d a6 39 4f 3d
       -0.00040534005 -0.062112764 0.045526046 0.050592087
0002b0 42 fa 2e 3d b1 44 a7 bc 22 57 05 3d e0 49 70 bd
       0.042719133 -0.020418497 0.0325538 -0.058664203
0002c0 47 11 7f bc c9 85 4e bc df f0 b3 bc 15 2b d6 3c
       -0.015568084 -0.012605139 -0.021965442 0.02614359
0002d0 d1 6c e8 bc 90 e2 e9 bb a7 b6 94 bc 72 d7 70 bd
       -0.0283722 -0.007137604 -0.018153502 -0.058799215
0002e0 77 5c 27 bc c0 84 58 bd c4 b5 15 3d 04 42 09 3d
       -0.010214916 -0.052860975 0.0365503 0.033510223
0002f0 26 62 6f 3d 33 0f ab bc 8d 51 49 3b 67 d9 46 3c
       0.05844321 -0.020881271 0.0030718774 0.012136794
000300 03 fb 7f 3d ce 16 6b 3d e6 0d 04 bd 36 44 5a bd
       0.062495243 0.057394795 -0.032239817 -0.053287707
000310 60 4b 66 bd ec 6d f7 bc 40 ad 57 3d a7 d3 ac 3c
       -0.056224227 -0.030203782 0.05265546 0.021097017
000320 42 70 77 3d 1a 30 3e 3d 16 b5 84 3a 0e 19 1f bd
       0.06040979 0.046432592 0.0010124769 -0.038842253
000330 7e 8c 79 3d 8c ca 4d 3d cd 89 de 3c 6c 68 0b bd
       0.060925 0.050241992 0.027165318 -0.03403513
000340 74 3c 49 3d 24 ea b6 3b 2c d7 28 3d ed d1 d4 3c
       0.04912992 0.005582111 0.04122083 0.025979007
000350 9d 80 07 3d d0 32 60 bd fa 82 0d bd da fd 19 3d
       0.03308164 -0.05473596 -0.034548737 0.037595607
000360 d7 97 53 bc 8a 47 5e bd f0 5e 68 3d 88 36 a3 ba
       -0.012914619 -0.054267444 0.056731164 -0.0012452165
000370 62 13 4e 3d 96 a8 47 bd 21 68 af 3c e5 b9 c1 bc
       0.050311454 -0.04874476 0.021411957 -0.023648212
000380 31 54 d8 bc 89 51 57 bc 9f a4 bc bc 9a d7 0b 3d
       -0.026407333 -0.013141998 -0.023027716 0.03414116
000390 5f 4d 44 bc 1a ab 41 3d a9 ea 67 3c 11 7b 1c bc
       -0.011981337 0.047282316 0.014155068 -0.009550826
0003a0 10 6e 13 bd 2c d9 6a bd 7f 7d 94 bc 18 80 6d bd
       -0.035993636 -0.057336017 -0.018126247 -0.057983488
0003b0 65 f9 3b bc be d5 93 3a 74 77 87 bb af 5f fc bc
       -0.0114730345 0.001127891 -0.004134113 -0.030807344
0003c0 9c 1d 32 3d 02 9c 10 3d a2 08 7e bc da 9f ca bc
       0.04348527 0.03530503 -0.015504988 -0.024734426
0003d0 68 82 20 3d 58 29 5f 3d d6 f7 69 bd d7 fc 5e bc
       0.039186865 0.054482788 -0.05712112 -0.013610086
0003e0 74 8b c1 bb e7 80 b8 bc 22 fc 5a 3d 71 83 15 bc
       -0.0059065167 -0.022522403 0.05346311 -0.009125576
0003f0 26 9d 58 3d d3 71 54 39 84 a2 e1 bb b6 c2 15 bd
       0.052884243 0.00020260298 -0.0068858285 -0.036562644

bias f4 [2]
000000 64 45 4b 3d 68 25 c8 3c
       0.049626723 0.0244319
