NODE/submission_models/drifter_9_tanh_1day.pth (torch, 81679 bytes, 4 tensors)

weight f4 [256, 4]
00000000: 0054 75bb 5e54 893e 16b3 d2be 8066 bcbe
00000010: f432 45be ec4b 093e 404f 22bc cefa ca3e
00000020: 70bf 35bd 4c7b 073e acbb 1abe 7048 c9bd
00000030: 8c5d 22bf 0e02 6dc0 3cae febe a23b 3d3d
00000040: 6069 4a3e 189b 993e 8c8d adbe fcf4 5ebe
00000050: 98f7 393e 4e94 d43e 48bd d2bd 5c91 bf3e
00000060: 400d a5bd 10b5 583d 4acd e73e ce7b edbe
00000070: 6629 a1be e09e 01be dc93 47be 282f dd3e
00000080: 1aef a5be c0b0 6bbe 1ada b2be 76c2 efbe
00000090: 0470 95be 9e0e dc3e bc76 643e 0027 783e
000000a0: 406a d73c 3a3f 83be c03e ad3d 9e06 efbe
000000b0: 1afa b8be c6f9 83be 2685 a13e 2619 963e
000000c0: c811 63be 20cb 93bc 40ba a33e 827f fe3e
000000d0: 2434 4b3e c855 8a3d fea4 ab3e c0bb 96be
000000e0: f8d0 be3d 6c7a c6be 186e b1be d23e 84be
000000f0: 8caa 673e f8e7 4d3e 6aa4 97be c8ad 1a3e
00000100: 6e89 8c3e 203f 81bd 4064 9c3c 0044 ed3d
00000110: 00d1 9e3e 48cf f53e 9647 c5be eca1 3bbe
00000120: 9838 493e d01b d43e e8c5 de3e 22e2 e13e
00000130: 78ca cb3d f89c debe 9066 3c3d ac27 a0be
00000140: 8c94 eebe 3e74 e33e f0a6 c23e fe5d ffbe
00000150: 08aa bf3d c880 acbd b882 a8bd 1c5f 6abe
00000160: 8ce4 443e 34a1 97be dcb1 3b3e 1676 813e
00000170: 5c43 b73e 4871 3f3e 4a5f fdbe 0011 a6be
00000180: 38a6 7f3e 1853 d63d 96b3 c7be e868 93be
00000190: f2d4 f03e 547f ac3e b03e 5fbe d4dc 00be
000001a0: 78dd f3be 803e 13bc 78c8 c0be a277 c5be
000001b0: 20b0 e1bc a0bf 993d f4ad 51be 98e7 973e
000001c0: 38c9 9bbe 6849 e83e d06f af3e 64e1 d7be
000001d0: 88db febd 80d2 b83c 1867 953d d0dd f23d
000001e0: 5cec 483e e059 f53c ccd1 79be d445 723e
000001f0: 5691 f5be a0bb 97be 3c2b 00be ec66 79be
00000200: 5c1d 33be bad2 d1be 00d2 d9bd f8e2 da3d
00000210: 8334 84be 3a2b 923f 575b 6c3f f0e4 c0bd
00000220: 80ac 633c c0ad 30bd 103d cf3d 60c6 a23e
00000230: a236 f23e a6b7 a23e 2430 f73e 83f6 c0bc
00000240: 66f8 e5be 40ba 72be 564e ae3e c983 5dbb
00000250: dc7c 7ebe 022d c4be 0094 efbe ec10 d8be
00000260: 70b4 cfbd 5664 8c3e 7467 8a3e 02e5 f6be
00000270: 2eb0 9f3e 8a52 c8be f07b d8bd 1c9a 4fbe
00000280: f03c c5bd 100e c9bd bab8 e5be 440a ddbe
00000290: 283c a0bd 80e1 d33b b896 68be b8de 403e
000002a0: 3a6a e6be c036 0abd a221 e13e 38d7 50be
000002b0: 362b e73e 386c 393e ae07 e7be 74f8 a13e
000002c0: f053 6cbd 708f 64be 14b6 cc3e 54df cebe
000002d0: b0c2 5b3d c064 d6bd 16d0 b63e 08ec 0e3e
000002e0: cc04 763e 40d1 343e 003f f6bd 505a d7bd
000002f0: 00f7 d2be 4cb6 8a3e 2642 cb3e 5c29 af3e
00000300: ac93 b4be 60ae b63c 9076 b4be 88ec 8cbe
00000310: 302c 95be 34f9 2e3e c48d 98be 00ba 32bc
00000320: a04f ac3c 0406 a53e fa83 c1be 44bf afbe
00000330: 3ca6 94be d62e b33e cc0b 38be e0ee d73e
00000340: a024 393e 40aa 813d 00ed 73bb 086d cabd
00000350: 407a 803d 30d3 e9bd 003e 66bb c0a7 823d
00000360: 983e c8be 7a2d 86be d8b7 ce3e 86c1 cfbe
00000370: 200f 13bd c03e fd3e 10f4 383e c0f0 673c
00000380: 26da ddbe 2ca2 7d3e 0858 b6be a856 11be
00000390: ccc8 2bbe 38a4 97bd 8036 b33b 9626 d33e
000003a0: 80ab 7f3d 204c e53e 3099 9c3e c6d8 a1be
000003b0: 54a2 653e 24f7 b4be 9cff 58be 4097 163e
000003c0: a9db 0bc0 085f ab3e f26a 4cbf f467 a33d
000003d0: 7acb 833e 5a93 f7be 4215 b93e 30b1 d3be
000003e0: 00d0 e13b e018 aebd 0ad4 86be d857 873d
000003f0: f2b0 d33e e8aa 15be 56fc 97be 845b 3dbe
-0.00374341 0.2682218 -0.41152257 -0.3679695 -0.19257718 0.13407868 -0.00990659 0.39644474
-0.044372022 0.13230628 -0.15110654 -0.098282695 -0.6342399 -3.7032504 -0.49742305 0.04619945
0.1976676 0.3000114 -0.33897054 -0.21773142 0.18160856 0.41519397 -0.10290009 0.37415588
-0.08059168 0.05290705 0.4527381 -0.46383518 -0.31476897 -0.12658262 -0.19489998 0.4320004
-0.32408983 -0.23016644 -0.34932023 -0.4682805 -0.29187024 0.42979902 0.22310919 0.24233627
0.026295781 -0.25634176 0.08459234 -0.46684736 -0.36128312 -0.257765 0.31546897 0.29316062
-0.22174752 -0.018041193 0.31978035 0.49706656 0.19844109 0.06754643 0.33524317 -0.29440117
0.093172014 -0.38765275 -0.34654307 -0.25829178 0.22623652 0.2010802 -0.29617625 0.15105355
0.274486 -0.06310868 0.019090772 0.115852356 0.3101883 0.48009706 -0.38531178 -0.18323487
0.19650495 0.4142747 0.43510365 0.44117838 0.09950727 -0.43479133 0.04599625 -0.31280267
-0.46597707 0.44424623 0.38017988 -0.49876398 0.09358603 -0.084230006 -0.082280576 -0.22887844
0.19227809 -0.29615176 0.18329567 0.25285405 0.3579358 0.18695557 -0.49486762 -0.32434845
0.24965751 0.104650676 -0.390042 -0.28790975 0.47037464 0.33690894 -0.21801257 -0.12584239
-0.47629905 -0.008987069 -0.37652946 -0.38567835 -0.027549803 0.07507253 -0.20476514 0.2966888
-0.30426955 0.45368505 0.34264994 -0.42164147 -0.12444216 0.022561312 0.07295054 0.118587136
0.19621414 0.029950082 -0.24396437 0.2365945 -0.47962445 -0.29635334 -0.12516493 -0.24355668
-0.17491668 -0.40981084 -0.106357574 0.10687822 -0.25821313 1.1419442 0.92326874 -0.09418666
0.013896108 -0.04313445 0.101190686 0.31791973 0.47307307 0.31780738 0.48278916 -0.023555046
-0.44916075 -0.23703861 0.3404414 -0.0033800474 -0.24852318 -0.38315588 -0.46792603 -0.4220041
-0.101418376 0.274203 0.27032053 -0.48221594 0.31189102 -0.39125472 -0.10570514 -0.20273632
-0.096307635 -0.09817135 -0.44867498 -0.43171895 -0.07823974 0.0064660907 -0.22713745 0.1883496
-0.4500292 -0.03374362 0.43970972 -0.203946 0.45150155 0.18107688 -0.45123047 0.31634867
-0.057697237 -0.22320342 0.39982665 -0.4040476 0.053652465 -0.10468435 0.35705632 0.13957226
0.24025267 0.17657948 -0.12023735 -0.105152726 -0.4120407 0.27092206 0.39698905 0.34211242
-0.35268915 0.022299945 -0.35246706 -0.2752421 -0.29135275 0.17087251 -0.2979566 -0.010908604
0.021034062 0.32231152 -0.37796003 -0.34325612 -0.29033077 0.3499667 -0.1797325 0.42174435
0.18080378 0.06331301 -0.003722012 -0.09884077 0.06273317 -0.11417234 -0.003513217 0.06379652
-0.39110255 -0.2620657 0.40374637 -0.40577334 -0.035903096 0.49461937 0.18061852 0.01415652
-0.43330497 0.24768895 -0.35614038 -0.14193213 -0.16775817 -0.07404369 0.0054691434 0.41240376
0.062419415 0.4478464 0.30585623 -0.31610698 0.22425205 -0.35344803 -0.21191257 0.14706135
-2.185282 0.3347094 -0.79850686 0.07978812 0.25741178 -0.48354608 0.3614903 -0.4134612
0.0068912506 -0.08500838 -0.26333648 0.06608552 0.41345936 -0.14615977 -0.29684705 -0.18491942

bias f4 [256]
00000000: c07e 0fbd aaca f1be 149b 93be 1847 113e
00000010: 70a8 2dbe dab2 b03e d260 ca3e 10f6 943d
00000020: f0f1 21bd d085 22be 201e cfbc b063 ba3d
00000030: be8b c3be 48bb f4bd e8f0 d4be 0a1f 9d3e
00000040: b407 a3be 02de e93e d8fb 03be f4a7 92be
00000050: f4fd 753e 30a8 983d cc44 b13e 98be 553e
00000060: 6a9d f6be e4ea a13e 58d5 c0bd 084a 62be
00000070: e492 a23e 64b5 ba3e 9a01 e1be e02f 39bd
00000080: 983a d23e 3e29 693e 12ac d73e dd82 2ebe
00000090: 7038 8dbe 0a23 dc3e d069 553e 6ac1 f53e
000000a0: 54dc 55be 7e5e a4be 500d 70bd 620b f1be
000000b0: f8b0 483e 98d2 bc3e 78d1 f53d 405b 4abd
000000c0: 54da 7d3e 107f a2be 246e fa3e 4e8d febe
000000d0: e63b f5be 10f9 f1bd b81c d13e c00e 4d3d
000000e0: a4a1 443e 56a6 bbbe 18b8 3a3e c0d9 64bd
000000f0: 6129 523e 50cc b43e 688e 5e3e 2036 2ebd
00000100: 604f fcbc e28e a0be 0431 39be ca5b a63e
00000110: 6c4f 4dbe 76fc 9e3e 3c06 4bbe 087d eebd
00000120: 0058 2e3c 20ec eabe 0098 a3bb 006e 4ebd
00000130: 20fc 37bd b0b3 ccbd 18d3 c93e baec bc3e
00000140: 9efa b2be 74d6 6d3e 4ccd c8be 32f0 d9be
00000150: 5882 1c3e 80c9 f03b ecd9 6ebe b8e9 f6be
00000160: b436 46be fc01 2b3e 38f4 ecbe f6b1 f8be
00000170: e0ea 813d 686c b8be cc46 e0be 3c44 45be
00000180: 68dd a4bd e8a0 e8be 34f0 aabe 7048 063d
00000190: 9866 f1be 80ed 8fbd c64c a5be 0078 b1be
000001a0: 5c3b 493e 620a c5be 6c01 c2be f8fd 913e
000001b0: 1874 bf3d 7a24 e93e f4da 08be c04d 77be
000001c0: 0089 3dbd 00c9 253b a83c c33e 18ff febe
000001d0: b0d1 11bd fc7b 623e 90f9 8cbe 8415 82be
000001e0: e06e 773e a04b f5be 88a4 f23d 67af bcbe
000001f0: e47e 7e3e eee3 dabe d863 9d3e 8456 f2be
00000200: 622f d7be 9be4 473d 9cb9 c93e be3c dbbe
00000210: f061 64be 20d7 e03e e0b8 abbd 1c1d 543e
00000220: 159e d5be a403 21be 4a01 82be dcd2 d73e
00000230: 1c80 543e 06cc babe b018 a53d 004f bcbb
00000240: 885d 52be 1432 92be c0e6 29be 36c9 c93e
00000250: a283 b7be 225c b6be 38f6 1dbe c082 0e3c
00000260: 5c5f 0b3e 80d3 753c c880 f6bd c439 9bbe
00000270: 30bd b7bd 781b 4ebe 6cd4 ce3e 5e31 f9be
00000280: ba4a a3be 7247 d0be 9824 bbbd 767e c73e
00000290: e064 e03e b6dc debe 8077 b1bc 6a43 963e
000002a0: 34b0 613e cab0 d13e 403b 63bc 2a01 acbe
000002b0: 105a a93e 8092 2fbe a28d 843e d859 fcbd
000002c0: f0a5 593e c840 e63e 020b ee3e 06fa e8be
000002d0: c656 a9be ecb1 53be 6040 a3be cca1 f53e
000002e0: 80e0 34bd b0d0 a9be a8d5 63be c467 8dbe
000002f0: fce3 503e da4b dfbe f8b1 eebe d85a fcbe
00000300: a86d 5c3e 2829 7d3e 0aff 9ebe 18ee fd3d
00000310: acf9 bc3e e0c9 943d d8a8 d8bd a04f 173d
00000320: 309a 5bbd 52e5 803e b0d3 adbe 78d1 813e
00000330: a249 903e 9a1a 9bbe 500a d13e 7670 fb3e
00000340: 58d8 49be 8868 0fbe 7428 7f3e 3e8e c8be
00000350: 7879 4a3e 70e7 ee3d 4a5d a13e 6979 9ebe
00000360: 50ae d4be 40f4 653e 8c6d 383e b246 eebe
00000370: c6c2 8ebe 083c eabe 7e67 b7be a403 67be
00000380: 90d9 d33e 00d4 cbbd ae08 933e 4a1e f33e
00000390: bc55 693e 822c e5be 34d3 803e 644b 433e
000003a0: b26a c63e f486 fcbe b071 9d3e ee8b d13e
000003b0: 622c eebe 5046 563d 528a da3e de30 babe
000003c0: 40ff 273e c03d 623e ac30 063e 868b fe3e
000003d0: 8a9b d13e eca2 db3e d046 7fbd deb5 d63e
000003e0: d491 eebe 2625 8abe a803 dbbd d417 18be
000003f0: 4277 ec3e 1c7e 713e eed0 a43e 3422 ae3e
-0.035032988 -0.47224933 -0.28829253 0.14187276 -0.16958785 0.34511453 0.39526993 0.07273495
-0.03953737 -0.15871358 -0.02528292 0.09101045 -0.38192552 -0.119497836 -0.41590047 0.30687743
-0.31841815 0.4567719 -0.1288904 -0.28643763 0.24022657 0.07453954 0.346228 0.20873487
-0.48166972 0.3162452 -0.09415692 -0.22098553 0.31752694 0.36466515 -0.43946534 -0.045211673
0.41060328 0.22769639 0.42123467 -0.17042108 -0.2758212 0.42995483 0.20841146 0.47999126
-0.2088483 -0.32103342 -0.058606446 -0.47078997 0.19598758 0.3687942 0.120028436 -0.04940343
0.24790317 -0.31737566 0.48912156 -0.49717182 -0.4789726 -0.11815083 0.40842223 0.050062895
0.19202286 -0.36650342 0.18234289 -0.055871725 0.20523597 0.35312128 0.21734011 -0.042532086
-0.030799568 -0.3135901 -0.18085104 0.32491904 -0.20049828 0.31051987 -0.19826597 -0.116449416
0.010641098 -0.45883274 -0.004992485 -0.050397873 -0.04491818 -0.0999521 0.39418864 0.36899358
-0.3495683 0.23226339 -0.3921913 -0.42566067 0.15284097 0.0073482394 -0.23325318 -0.48225188
-0.19356805 0.16699976 -0.46280074 -0.48573273 0.06343627 -0.36020207 -0.43804014 -0.1926431
-0.080500424 -0.45435262 -0.33386385 0.032783926 -0.47148585 -0.070277214 -0.32285136 -0.34661865
0.1965155 -0.38484484 -0.3789171 0.28514075 0.09348315 0.45535642 -0.13364774 -0.24150753
-0.04627323 0.0025296807 0.38132215 -0.49803996 -0.035600364 0.22117609 -0.2753415 -0.2540704
0.24163389 -0.4790926 0.11847788 -0.3685257 0.24853092 -0.42752022 0.30740237 -0.4733163
-0.42028338 0.048802 0.3939942 -0.4281978 -0.22302985 0.43914127 -0.083848715 0.2071423
-0.4172217 -0.15724045 -0.25391608 0.4215306 0.20751995 -0.36483783 0.080613494 -0.005746722
-0.20543492 -0.28553832 -0.1659193 0.39411324 -0.35842615 -0.35617167 -0.15425956 0.008698165
0.13610595 0.015004039 -0.12036282 -0.3031751 -0.089716315 -0.20127666 0.4039644 -0.48670477
-0.3189295 -0.40679508 -0.09137839 0.3896367 0.43826962 -0.43527764 -0.021663427 0.29348308
0.22039872 0.40955192 -0.013869107 -0.33594638 0.33076525 -0.17145729 0.25889307 -0.12321824
0.21254706 0.449713 0.46492773 -0.45503253 -0.33074015 -0.2067334 -0.31885052 0.47975004
-0.044159412 -0.33167028 -0.22249472 -0.2761823 0.20399469 -0.43612558 -0.46620154 -0.49288058
0.21526206 0.24722731 -0.31053954 0.123989284 0.36909235 0.07265067 -0.105790794 0.03694117
-0.05361384 0.25174958 -0.33950567 0.25355124 0.28181177 -0.30293733 0.4082818 0.49109238
-0.19711435 -0.1400472 0.24917775 -0.39171022 0.19772899 0.11665237 0.31516486 -0.30952004
-0.4153924 0.22456455 0.18010539 -0.4653831 -0.27882975 -0.45748925 -0.35821146 -0.22559983
0.41376925 -0.09952545 0.2871756 0.47484046 0.22786611 -0.4476052 0.25161135 0.19071728
0.38753277 -0.4932171 0.307508 0.4092707 -0.46518236 0.05231315 0.42683655 -0.36365408
0.16405964 0.22093868 0.13104504 0.49715823 0.4093898 0.42897737 -0.06232339 0.4193563
-0.46595633 -0.26981467 -0.10694057 -0.1485284 0.46184736 0.23583263 0.3219065 0.3401047

weight f4 [2, 256]
00000000: d557 2fbd 2329 36bc bf16 553c 1b80 11c0
00000010: 8b88 133d 1482 ebbc 1336 75bc e350 463d
00000020: fb43 53bc cfb7 41bd cf77 3d3d 4576 1d3d
00000030: 7453 c0bc 6528 0dbc e901 2dbd 7fac 65bd
00000040: f4c1 a03c 60f1 babc 1fe9 3b3d bf17 3dbd
00000050: f1f6 9bbb 0f57 ab3b 785c e73c 1714 5f3d
00000060: 1141 3d3d 7b94 003d a039 cbbc 2db6 46bd
00000070: 8d21 55bd da3d 4cba 4766 683d e0f0 02bc
00000080: 7556 d5bb 3ba8 0440 63d1 7a3c d3e1 123d
00000090: 5a24 86bd 8f5d 24bd d182 4d3d d000 993c
000000a0: 608a 90b7 03fa ee3b f342 b8bb 29d3 42bd
000000b0: 0153 5fbd c17b 183d 99ec 68bb 14ee ddbc
000000c0: fdbf 48bc 147a f7bc 53bb 6fbc d7a4 6bbd
000000d0: 3d77 4f3d a84a b13c d06e e2bc 3888 cebc
000000e0: b3bd 023d 4860 ddbc 78ca a63c c363 5a3c
000000f0: 2ae9 c7be 5809 a03c fc53 68b8 e179 6f3d
00000100: dc78 99bc 1866 a3bc 11ae 4c3d 0f29 41bd
00000110: db8a 093c 4bc4 663d 09ac 02bd 6788 653d
00000120: f744 533d 7d0e 7e3d de9c 08bb 41b2 573d
00000130: 33de febc f87a 8fbc 18e0 a13c cbc1 183c
00000140: a8cc 103d 5564 633d 075d 10bd ccf3 ef3c
00000150: 5f84 8b3c cc55 ee3c 1cff d23c b44d dfbc
00000160: 9138 5abd 3902 3d3d c1de 21bd bd8e 333d
00000170: 12e2 81bd 4330 e3bb efd3 52bb 633b e33b
00000180: 0bb2 993a 381d c13c ab93 31bc dd38 3b3c
00000190: 9b71 6d3d ff88 35bd c0e6 f439 98a9 a3bc
000001a0: 6fbb 503d a341 4b3d d38b 0e3b 7041 d1bc
000001b0: af48 0ebd 6511 473d 8b13 06bc a336 613d
000001c0: df18 023d 2b30 503d c35d 5a3d 4578 16bd
000001d0: aca4 b53c bf15 f4bc b156 103d aba0 1bbc
000001e0: 46b3 c83a 11f1 40bd ffae 74bd 4ec5 a03f
000001f0: 1567 2e3c 8619 cb3a e7fb 1d3d e093 f5bc
00000200: 66f8 953c ffd5 f43f b8dd 893c b537 2abc
00000210: d164 233d e1c1 6f3d c773 4e3d 5b3f db3b
00000220: 698e f73f bde3 6fbd 3a47 06bd a3e7 ee3b
00000230: cb65 67bb bf16 39bd c932 01bd a774 07bd
00000240: 23c3 86bd 0066 083b b59f 1e3d 1e95 ef3c
00000250: 1b86 09bd 12f7 7abd bb6c 5ebd eb1b a53b
00000260: e1fe 3f3d 5c20 efbc e130 1bbd 9859 f1bc
00000270: c6b0 c8ba 2280 81bd 1704 52bd 3b1d 6c3d
00000280: f7fa 09bd 7740 78bc fb69 52bc fd01 51bd
00000290: 7515 74bc f082 bc3c 9aae efbc 4e57 9f3a
000002a0: bfea 88bb 9df5 6ebd e1ed 493d fdad 5e3d
000002b0: 996e 3e3d 2d5c 88bc ccc5 eb3c d3bd 7fbd
000002c0: 1471 9ebc 89b4 10bc 6008 95bc a442 b73c
000002d0: 6084 c9bc 7f80 5cbb 189f b3bc b825 80bd
000002e0: 7b16 d3bb 6910 49bd 1b2a 253d 5bb6 183d
000002f0: cfed 5f3d af26 8cbc 68cd 37ba 2708 093c
00000300: 78b7 873d d38a 7a3d 5433 e9bc 8db8 69bd
00000310: 09d7 56bd 4b2b 0bbd 9521 673d 18bc cb3c
00000320: 2872 833d 71a4 4d3d c1cf 9c3b 658d 2ebd
00000330: 2718 6a3d e33e 5d3d 3d72 fd3c 3ce8 f7bc
00000340: 1dc8 393d 461f ed3a d562 193d 7ce9 b53c
00000350: b818 f03c 79be 50bd 581d fcbc 1ca8 0640
00000360: 99c6 15bc 33d3 4ebd 99ea 583d afa9 253b
00000370: 0b9f 3e3d 3f34 38bd 967f 903c 54a2 e0bc
00000380: a73c f7bc 4491 8abc 28bc 9dbc a0c6 f83c
00000390: 2a0f 81bc c336 323d 7719 2a3c bf53 bdbb
000003a0: baf9 03bd 2f4d 7abd e329 6bbc 1cf4 7cbd
000003b0: 6350 fcbb f197 a03b eb8c 01bc 2fa4 0dbd
000003c0: f391 413d 5910 203d c0ec 9dbc b216 eabc
000003d0: 0b0e 113d b59d 6e3d 7f83 5abd ec66 8ebc
000003e0: e396 1ebc 7098 99bc 7970 6a3d 7b64 afbb
000003f0: cf28 493d edfd 69bb 73a2 2ebc 0d37 25bd
-0.042808373 -0.011118206 0.013005911 -2.273444 0.03601889 -0.02874855 -0.014966506 0.048416983
-0.012894626 -0.047294434 0.046256837 0.03844287 -0.023477294 -0.008615588 -0.04223815 -0.05607271
0.019623734 -0.022820175 0.04587662 -0.046165224 -0.0047596623 0.005228884 0.028242335 0.05446252
0.04620463 0.031391602 -0.024807751 -0.04851358 -0.05203395 -0.0007791199 0.056738164 -0.007991999
-0.0065105506 2.072768 0.015308711 0.035859894 -0.06549902 -0.040128287 0.050173584 0.018677145
-1.7230574e-05 0.0072929873 -0.0056232153 -0.04756466 -0.054522518 0.037227396 -0.0035541414 -0.027091064
-0.012252805 -0.030209579 -0.014632064 -0.05753025 0.050650824 0.021642044 -0.02764073 -0.025211439
0.031919193 -0.02702345 0.020360216 0.013329449 -0.39045078 0.019535705 -5.5391327e-05 0.058465842
-0.018734388 -0.019946143 0.04997069 -0.047158297 0.008394922 0.056339543 -0.031902347 0.056038287
0.051579442 0.062025536 -0.0020845453 0.05266023 -0.031111812 -0.01751469 0.019760177 0.009323548
0.035351425 0.055515606 -0.035244968 0.029291056 0.017030893 0.029093646 0.025756411 -0.027258731
-0.053276602 0.046144698 -0.039519075 0.043837298 -0.063419476 -0.0069332435 -0.003216978 0.0069345697
0.0011726035 0.023573503 -0.010838429 0.0114271315 0.05796967 -0.044320103 0.0004671123 -0.01997833
0.05096 0.049623143 0.0021750822 -0.025543898 -0.034737285 0.048600573 -0.00818337 0.054983746
0.031762 0.050827187 0.053312074 -0.03673579 0.022173248 -0.029795526 0.035238925 -0.009498755
0.0015312217 -0.0471049 -0.0597372 1.2560213 0.010644694 0.0015495277 0.03857031 -0.029977739
0.018306922 1.9127806 0.016829357 -0.010389258 0.039891068 0.058534507 0.050403383 0.006690902
1.9340335 -0.058566798 -0.03278277 0.007290797 -0.0035308476 -0.045187708 -0.031542573 -0.033070233
-0.06580188 0.002081275 0.038726527 0.02924591 -0.03357516 -0.06127078 -0.054302912 0.0050387285
0.04687393 -0.029190235 -0.03788841 -0.029461667 -0.0015311472 -0.063232675 -0.05127343 0.057645064
-0.033686604 -0.015152088 -0.0128426505 -0.051027287 -0.014897694 0.023011655 -0.029258061 0.0012156756
-0.0041783745 -0.058339704 0.049299125 0.054365147 0.046492193 -0.016645515 0.02878084 -0.06243689
-0.01934103 -0.008832105 -0.01819247 0.022370644 -0.024599254 -0.0033645926 -0.021926448 -0.06257194
-0.006441889 -0.049087916 0.040323358 0.037283283 0.05467015 -0.01710829 -0.0007011504 0.00836376
0.06626791 0.06116755 -0.028466858 -0.057060767 -0.052451167 -0.033976834 0.05642851 0.024869964
0.06418258 0.05020565 0.0047855084 -0.042615313 0.05715194 0.05401505 0.030938262 -0.030262105
0.04535686 0.0018090985 0.03744777 0.02220606 0.029308662 -0.0509629 -0.030775711 2.1040106
-0.009141588 -0.050494384 0.052958105 0.0025278141 0.046538394 -0.0449717 0.017638963 -0.027421154
-0.030180288 -0.016914971 -0.019254759 0.03036815 -0.015754301 0.043509256 0.010382048 -0.0057778056
-0.03222058 -0.061108764 -0.014353248 -0.06175624 -0.0077000125 0.0049009253 -0.007907133 -0.034580406
0.04725833 0.03907809 -0.01927793 -0.028575275 0.035413783 0.05825587 -0.05334806 -0.017383061
-0.009679529 -0.018749446 0.05723617 -0.0053525544 0.049111184 -0.003570433 -0.010658848 -0.040335704

bias f4 [2]
00000000: 11d1 3b3d 72a6 fb3c
0.045853678 0.030719016
