NODE/submission_models/drifter_70_tanh_1day.pth (torch, 81679 bytes, 4 tensors)

weight f4 [256, 4]
000000 00 54 75 bb 5e 54 89 3e 16 b3 d2 be 80 66 bc be
       -0.00374341 0.2682218 -0.41152257 -0.3679695
000010 f4 32 45 be ec 4b 09 3e 40 4f 22 bc ce fa ca 3e
       -0.19257718 0.13407868 -0.00990659 0.39644474
000020 70 bf 35 bd 4c 7b 07 3e ac bb 1a be 70 48 c9 bd
       -0.044372022 0.13230628 -0.15110654 -0.098282695
000030 bb 04 f2 be a3 d5 a5 be 28 f3 61 be 35 bc 63 3b
       -0.47269234 -0.32389554 -0.22065413 0.0034749631
000040 60 69 4a 3e 18 9b 99 3e 8c 8d ad be fc f4 5e be
       0.1976676 0.3000114 -0.33897054 -0.21773142
000050 98 f7 39 3e 4e 94 d4 3e 48 bd d2 bd 5c 91 bf 3e
       0.18160856 0.41519397 -0.10290009 0.37415588
000060 40 0d a5 bd 10 b5 58 3d 4a cd e7 3e ce 7b ed be
       -0.08059168 0.05290705 0.4527381 -0.46383518
000070 66 29 a1 be e0 9e 01 be dc 93 47 be 28 2f dd 3e
       -0.31476897 -0.12658262 -0.19489998 0.4320004
000080 1a ef a5 be c0 b0 6b be 1a da b2 be 76 c2 ef be
       -0.32408983 -0.23016644 -0.34932023 -0.4682805
000090 04 70 95 be 9e 0e dc 3e bc 76 64 3e 00 27 78 3e
       -0.29187024 0.42979902 0.22310919 0.24233627
0000a0 40 6a d7 3c 3a 3f 83 be c0 3e ad 3d 9e 06 ef be
       0.026295781 -0.25634176 0.08459234 -0.46684736
0000b0 1a fa b8 be c6 f9 83 be 26 85 a1 3e 26 19 96 3e
       -0.36128312 -0.257765 0.31546897 0.29316062
0000c0 c8 11 63 be 20 cb 93 bc 40 ba a3 3e 82 7f fe 3e
       -0.22174752 -0.018041193 0.31978035 0.49706656
0000d0 24 34 4b 3e c8 55 8a 3d fe a4 ab 3e c0 bb 96 be
       0.19844109 0.06754643 0.33524317 -0.29440117
0000e0 f8 d0 be 3d 6c 7a c6 be 18 6e b1 be d2 3e 84 be
       0.093172014 -0.38765275 -0.34654307 -0.25829178
0000f0 8c aa 67 3e f8 e7 4d 3e 6a a4 97 be c8 ad 1a 3e
       0.22623652 0.2010802 -0.29617625 0.15105355
000100 6e 89 8c 3e 20 3f 81 bd 40 64 9c 3c 00 44 ed 3d
       0.274486 -0.06310868 0.019090772 0.115852356
000110 00 d1 9e 3e 48 cf f5 3e 96 47 c5 be ec a1 3b be
       0.3101883 0.48009706 -0.38531178 -0.18323487
000120 98 38 49 3e d0 1b d4 3e e8 c5 de 3e 22 e2 e1 3e
       0.19650495 0.4142747 0.43510365 0.44117838
000130 78 ca cb 3d f8 9c de be 90 66 3c 3d ac 27 a0 be
       0.09950727 -0.43479133 0.04599625 -0.31280267
000140 8c 94 ee be 3e 74 e3 3e f0 a6 c2 3e fe 5d ff be
       -0.46597707 0.44424623 0.38017988 -0.49876398
000150 08 aa bf 3d c8 80 ac bd b8 82 a8 bd 1c 5f 6a be
       0.09358603 -0.084230006 -0.082280576 -0.22887844
000160 8c e4 44 3e 34 a1 97 be dc b1 3b 3e 16 76 81 3e
       0.19227809 -0.29615176 0.18329567 0.25285405
000170 5c 43 b7 3e 48 71 3f 3e 4a 5f fd be 00 11 a6 be
       0.3579358 0.18695557 -0.49486762 -0.32434845
000180 38 a6 7f 3e 18 53 d6 3d 96 b3 c7 be e8 68 93 be
       0.24965751 0.104650676 -0.390042 -0.28790975
000190 f2 d4 f0 3e 54 7f ac 3e b0 3e 5f be d4 dc 00 be
       0.47037464 0.33690894 -0.21801257 -0.12584239
0001a0 78 dd f3 be 80 3e 13 bc 78 c8 c0 be a2 77 c5 be
       -0.47629905 -0.008987069 -0.37652946 -0.38567835
0001b0 20 b0 e1 bc a0 bf 99 3d f4 ad 51 be 98 e7 97 3e
       -0.027549803 0.07507253 -0.20476514 0.2966888
0001c0 38 c9 9b be 68 49 e8 3e d0 6f af 3e 64 e1 d7 be
       -0.30426955 0.45368505 0.34264994 -0.42164147
0001d0 88 db fe bd 80 d2 b8 3c 18 67 95 3d d0 dd f2 3d
       -0.12444216 0.022561312 0.07295054 0.118587136
0001e0 5c ec 48 3e e0 59 f5 3c cc d1 79 be d4 45 72 3e
       0.19621414 0.029950082 -0.24396437 0.2365945
0001f0 56 91 f5 be a0 bb 97 be 3c 2b 00 be ec 66 79 be
       -0.47962445 -0.29635334 -0.12516493 -0.24355668
000200 5c 1d 33 be ba d2 d1 be 00 d2 d9 bd f8 e2 da 3d
       -0.17491668 -0.40981084 -0.106357574 0.10687822
000210 f6 9a c7 be e5 16 08 be ae 49 cc 3e 4a d5 43 bd
       -0.38985413 -0.13289984 0.39899963 -0.04781083
000220 80 ac 63 3c c0 ad 30 bd 10 3d cf 3d 60 c6 a2 3e
       0.013896108 -0.04313445 0.101190686 0.31791973
000230 55 54 d0 bf a8 40 07 40 e2 62 de 3f a9 b9 41 be
       -1.6275736 2.1133213 1.7373927 -0.1891848
000240 66 f8 e5 be 40 ba 72 be ce 4f ae 3e 00 6b 54 bb
       -0.44916075 -0.23703861 0.3404526 -0.003241241
000250 dc 7c 7e be 02 2d c4 be 00 94 ef be ec 10 d8 be
       -0.24852318 -0.38315588 -0.46792603 -0.4220041
000260 70 b4 cf bd 56 64 8c 3e 74 67 8a 3e 02 e5 f6 be
       -0.101418376 0.274203 0.27032053 -0.48221594
000270 2e b0 9f 3e 8a 52 c8 be f0 7b d8 bd 1c 9a 4f be
       0.31189102 -0.39125472 -0.10570514 -0.20273632
000280 f0 3c c5 bd 10 0e c9 bd ba b8 e5 be 44 0a dd be
       -0.096307635 -0.09817135 -0.44867498 -0.43171895
000290 28 3c a0 bd 80 e1 d3 3b b8 96 68 be b8 de 40 3e
       -0.07823974 0.0064660907 -0.22713745 0.1883496
0002a0 3a 6a e6 be c0 36 0a bd a2 21 e1 3e 38 d7 50 be
       -0.4500292 -0.03374362 0.43970972 -0.203946
0002b0 36 2b e7 3e 38 6c 39 3e ae 07 e7 be 74 f8 a1 3e
       0.45150155 0.18107688 -0.45123047 0.31634867
0002c0 f0 53 6c bd 70 8f 64 be 14 b6 cc 3e 54 df ce be
       -0.057697237 -0.22320342 0.39982665 -0.4040476
0002d0 b0 c2 5b 3d c0 64 d6 bd 16 d0 b6 3e 08 ec 0e 3e
       0.053652465 -0.10468435 0.35705632 0.13957226
0002e0 cc 04 76 3e 40 d1 34 3e 00 3f f6 bd 50 5a d7 bd
       0.24025267 0.17657948 -0.12023735 -0.105152726
0002f0 00 f7 d2 be 4c b6 8a 3e 26 42 cb 3e 5c 29 af 3e
       -0.4120407 0.27092206 0.39698905 0.34211242
000300 ac 93 b4 be 60 ae b6 3c 90 76 b4 be 88 ec 8c be
       -0.35268915 0.022299945 -0.35246706 -0.2752421
000310 30 2c 95 be 34 f9 2e 3e c4 8d 98 be 00 ba 32 bc
       -0.29135275 0.17087251 -0.2979566 -0.010908604
000320 a0 4f ac 3c 04 06 a5 3e fa 83 c1 be 44 bf af be
       0.021034062 0.32231152 -0.37796003 -0.34325612
000330 3c a6 94 be d6 2e b3 3e cc 0b 38 be e0 ee d7 3e
       -0.29033077 0.3499667 -0.1797325 0.42174435
000340 a0 24 39 3e 40 aa 81 3d 00 ed 73 bb 08 6d ca bd
       0.18080378 0.06331301 -0.003722012 -0.09884077
000350 40 7a 80 3d 30 d3 e9 bd 00 3e 66 bb c0 a7 82 3d
       0.06273317 -0.11417234 -0.003513217 0.06379652
000360 98 3e c8 be 7a 2d 86 be d8 b7 ce 3e 86 c1 cf be
       -0.39110255 -0.2620657 0.40374637 -0.40577334
000370 20 0f 13 bd c0 3e fd 3e 10 f4 38 3e c0 f0 67 3c
       -0.035903096 0.49461937 0.18061852 0.01415652
000380 26 da dd be 2c a2 7d 3e 08 58 b6 be a8 56 11 be
       -0.43330497 0.24768895 -0.35614038 -0.14193213
000390 cc c8 2b be 38 a4 97 bd 80 36 b3 3b 96 26 d3 3e
       -0.16775817 -0.07404369 0.0054691434 0.41240376
0003a0 80 ab 7f 3d 20 4c e5 3e 30 99 9c 3e c6 d8 a1 be
       0.062419415 0.4478464 0.30585623 -0.31610698
0003b0 54 a2 65 3e 24 f7 b4 be 9c ff 58 be 40 97 16 3e
       0.22425205 -0.35344803 -0.21191257 0.14706135
0003c0 39 16 27 3e e5 42 c0 3e 6f bc 29 be 70 b7 86 bb
       0.16317071 0.37551036 -0.16575788 -0.004111223
0003d0 7a cb 83 3e 5a 93 f7 be 42 15 b9 3e 30 b1 d3 be
       0.25741178 -0.48354608 0.3614903 -0.4134612
0003e0 00 d0 e1 3b e0 18 ae bd 0a d4 86 be d8 57 87 3d
       0.0068912506 -0.08500838 -0.26333648 0.06608552
0003f0 f2 b0 d3 3e e8 aa 15 be 56 fc 97 be 84 5b 3d be
       0.41345936 -0.14615977 -0.29684705 -0.18491942

bias f4 [256]
000000 c0 7e 0f bd aa ca f1 be 14 9b 93 be 79 45 46 3e
       -0.035032988 -0.47224933 -0.28829253 0.19362439
000010 70 a8 2d be da b2 b0 3e d2 60 ca 3e 10 f6 94 3d
       -0.16958785 0.34511453 0.39526993 0.07273495
000020 f0 f1 21 bd d0 85 22 be 20 1e cf bc b0 63 ba 3d
       -0.03953737 -0.15871358 -0.02528292 0.09101045
000030 be 8b c3 be 48 bb f4 bd e8 f0 d4 be 0a 1f 9d 3e
       -0.38192552 -0.119497836 -0.41590047 0.30687743
000040 b4 07 a3 be 02 de e9 3e d8 fb 03 be f4 a7 92 be
       -0.31841815 0.4567719 -0.1288904 -0.28643763
000050 f4 fd 75 3e 30 a8 98 3d cc 44 b1 3e 98 be 55 3e
       0.24022657 0.07453954 0.346228 0.20873487
000060 6a 9d f6 be e4 ea a1 3e 58 d5 c0 bd 08 4a 62 be
       -0.48166972 0.3162452 -0.09415692 -0.22098553
000070 e4 92 a2 3e 64 b5 ba 3e 9a 01 e1 be e0 2f 39 bd
       0.31752694 0.36466515 -0.43946534 -0.045211673
000080 98 3a d2 3e cd 9a 57 3e 12 ac d7 3e 75 81 bd be
       0.41060328 0.21055146 0.42123467 -0.3701283
000090 70 38 8d be 0a 23 dc 3e d0 69 55 3e 6a c1 f5 3e
       -0.2758212 0.42995483 0.20841146 0.47999126
0000a0 54 dc 55 be 7e 5e a4 be 50 0d 70 bd 62 0b f1 be
       -0.2088483 -0.32103342 -0.058606446 -0.47078997
0000b0 f8 b0 48 3e 98 d2 bc 3e 78 d1 f5 3d 40 5b 4a bd
       0.19598758 0.3687942 0.120028436 -0.04940343
0000c0 54 da 7d 3e 10 7f a2 be 24 6e fa 3e 4e 8d fe be
       0.24790317 -0.31737566 0.48912156 -0.49717182
0000d0 e6 3b f5 be 10 f9 f1 bd b8 1c d1 3e c0 0e 4d 3d
       -0.4789726 -0.11815083 0.40842223 0.050062895
0000e0 a4 a1 44 3e 56 a6 bb be 18 b8 3a 3e c0 d9 64 bd
       0.19202286 -0.36650342 0.18234289 -0.055871725
0000f0 84 03 4c 3e 50 cc b4 3e 68 8e 5e 3e 20 36 2e bd
       0.19923216 0.35312128 0.21734011 -0.042532086
000100 60 4f fc bc e2 8e a0 be 04 31 39 be ca 5b a6 3e
       -0.030799568 -0.3135901 -0.18085104 0.32491904
000110 6c 4f 4d be 76 fc 9e 3e 3c 06 4b be 08 7d ee bd
       -0.20049828 0.31051987 -0.19826597 -0.116449416
000120 00 58 2e 3c 20 ec ea be 00 98 a3 bb 00 6e 4e bd
       0.010641098 -0.45883274 -0.004992485 -0.050397873
000130 20 fc 37 bd b0 b3 cc bd 18 d3 c9 3e ba ec bc 3e
       -0.04491818 -0.0999521 0.39418864 0.36899358
000140 6d 4d 56 be 74 d6 6d 3e 4c cd c8 be 32 f0 d9 be
       -0.20927973 0.23226339 -0.3921913 -0.42566067
000150 58 82 1c 3e 80 c9 f0 3b ec d9 6e be b8 e9 f6 be
       0.15284097 0.0073482394 -0.23325318 -0.48225188
000160 b4 36 46 be fc 01 2b 3e 38 f4 ec be f6 b1 f8 be
       -0.19356805 0.16699976 -0.46280074 -0.48573273
000170 e0 ea 81 3d 68 6c b8 be cc 46 e0 be 3c 44 45 be
       0.06343627 -0.36020207 -0.43804014 -0.1926431
000180 68 dd a4 bd e8 a0 e8 be 34 f0 aa be 70 48 06 3d
       -0.080500424 -0.45435262 -0.33386385 0.032783926
000190 98 66 f1 be 80 ed 8f bd c6 4c a5 be 00 78 b1 be
       -0.47148585 -0.070277214 -0.32285136 -0.34661865
0001a0 5c 3b 49 3e 62 0a c5 be 6c 01 c2 be f8 fd 91 3e
       0.1965155 -0.38484484 -0.3789171 0.28514075
0001b0 18 74 bf 3d 7a 24 e9 3e f4 da 08 be c0 4d 77 be
       0.09348315 0.45535642 -0.13364774 -0.24150753
0001c0 00 89 3d bd 00 c9 25 3b a8 3c c3 3e 18 ff fe be
       -0.04627323 0.0025296807 0.38132215 -0.49803996
0001d0 b0 d1 11 bd fc 7b 62 3e 90 f9 8c be 84 15 82 be
       -0.035600364 0.22117609 -0.2753415 -0.2540704
0001e0 e0 6e 77 3e a0 4b f5 be 88 a4 f2 3d 72 80 04 bf
       0.24163389 -0.4790926 0.11847788 -0.5175849
0001f0 e4 7e 7e 3e ee e3 da be d8 63 9d 3e 84 56 f2 be
       0.24853092 -0.42752022 0.30740237 -0.4733163
000200 62 2f d7 be 39 3d fa ba 9c b9 c9 3e be 3c db be
       -0.42028338 -0.0019091732 0.3939942 -0.4281978
000210 f0 61 64 be 20 d7 e0 3e e0 b8 ab bd 1c 1d 54 3e
       -0.22302985 0.43914127 -0.083848715 0.2071423
000220 bd e1 08 bf a4 03 21 be 4a 01 82 be dc d2 d7 3e
       -0.5346945 -0.15724045 -0.25391608 0.4215306
000230 1c 80 54 3e 06 cc ba be b0 18 a5 3d 00 4f bc bb
       0.20751995 -0.36483783 0.080613494 -0.005746722
000240 88 5d 52 be 14 32 92 be c0 e6 29 be 36 c9 c9 3e
       -0.20543492 -0.28553832 -0.1659193 0.39411324
000250 a2 83 b7 be 22 5c b6 be 38 f6 1d be c0 82 0e 3c
       -0.35842615 -0.35617167 -0.15425956 0.008698165
000260 5c 5f 0b 3e 80 d3 75 3c c8 80 f6 bd c4 39 9b be
       0.13610595 0.015004039 -0.12036282 -0.3031751
000270 30 bd b7 bd 78 1b 4e be 6c d4 ce 3e 5e 31 f9 be
       -0.089716315 -0.20127666 0.4039644 -0.48670477
000280 ba 4a a3 be 72 47 d0 be 98 24 bb bd 76 7e c7 3e
       -0.3189295 -0.40679508 -0.09137839 0.3896367
000290 e0 64 e0 3e b6 dc de be 80 77 b1 bc 6a 43 96 3e
       0.43826962 -0.43527764 -0.021663427 0.29348308
0002a0 34 b0 61 3e ca b0 d1 3e 40 3b 63 bc 2a 01 ac be
       0.22039872 0.40955192 -0.013869107 -0.33594638
0002b0 10 5a a9 3e 80 92 2f be a2 8d 84 3e d8 59 fc bd
       0.33076525 -0.17145729 0.25889307 -0.12321824
0002c0 f0 a5 59 3e c8 40 e6 3e 02 0b ee 3e 06 fa e8 be
       0.21254706 0.449713 0.46492773 -0.45503253
0002d0 c6 56 a9 be ec b1 53 be 60 40 a3 be cc a1 f5 3e
       -0.33074015 -0.2067334 -0.31885052 0.47975004
0002e0 80 e0 34 bd b0 d0 a9 be a8 d5 63 be c4 67 8d be
       -0.044159412 -0.33167028 -0.22249472 -0.2761823
0002f0 fc e3 50 3e da 4b df be f8 b1 ee be d8 5a fc be
       0.20399469 -0.43612558 -0.46620154 -0.49288058
000300 a8 6d 5c 3e 28 29 7d 3e 0a ff 9e be 18 ee fd 3d
       0.21526206 0.24722731 -0.31053954 0.123989284
000310 ac f9 bc 3e e0 c9 94 3d d8 a8 d8 bd a0 4f 17 3d
       0.36909235 0.07265067 -0.105790794 0.03694117
000320 30 9a 5b bd 52 e5 80 3e b0 d3 ad be 78 d1 81 3e
       -0.05361384 0.25174958 -0.33950567 0.25355124
000330 a2 49 90 3e 9a 1a 9b be 50 0a d1 3e 76 70 fb 3e
       0.28181177 -0.30293733 0.4082818 0.49109238
000340 58 d8 49 be 88 68 0f be 74 28 7f 3e 3e 8e c8 be
       -0.19711435 -0.1400472 0.24917775 -0.39171022
000350 78 79 4a 3e 70 e7 ee 3d 4a 5d a1 3e 0a c1 e9 be
       0.19772899 0.11665237 0.31516486 -0.4565509
000360 50 ae d4 be 40 f4 65 3e 8c 6d 38 3e b2 46 ee be
       -0.4153924 0.22456455 0.18010539 -0.4653831
000370 c6 c2 8e be 08 3c ea be 7e 67 b7 be a4 03 67 be
       -0.27882975 -0.45748925 -0.35821146 -0.22559983
000380 90 d9 d3 3e 00 d4 cb bd ae 08 93 3e 4a 1e f3 3e
       0.41376925 -0.09952545 0.2871756 0.47484046
000390 bc 55 69 3e 82 2c e5 be 34 d3 80 3e 64 4b 43 3e
       0.22786611 -0.4476052 0.25161135 0.19071728
0003a0 b2 6a c6 3e f4 86 fc be b0 71 9d 3e ee 8b d1 3e
       0.38753277 -0.4932171 0.307508 0.4092707
0003b0 62 2c ee be 50 46 56 3d 52 8a da 3e de 30 ba be
       -0.46518236 0.05231315 0.42683655 -0.36365408
0003c0 40 ff 27 3e c0 3d 62 3e ac 30 06 3e b5 96 fe 3e
       0.16405964 0.22093868 0.13104504 0.49724355
0003d0 8a 9b d1 3e ec a2 db 3e d0 46 7f bd de b5 d6 3e
       0.4093898 0.42897737 -0.06232339 0.4193563
0003e0 d4 91 ee be 26 25 8a be a8 03 db bd d4 17 18 be
       -0.46595633 -0.26981467 -0.10694057 -0.1485284
0003f0 42 77 ec 3e 1c 7e 71 3e ee d0 a4 3e 34 22 ae 3e
       0.46184736 0.23583263 0.3219065 0.3401047

weight f4 [2, 256]
000000 9a bd a8 bc 54 83 08 bd bc 3e 10 3d ea 36 30 3d
       -0.020598222 -0.03332837 0.03521608 0.04302112
000010 ac 81 6e 3d 24 ba 50 bd ee 5b ed 3b 9d af d6 3c
       0.058229133 -0.050958768 0.007243625 0.026206786
000020 0b a0 18 3c 6d 58 8e bd 6e 38 8c 3d 78 fa 84 3c
       0.009315501 -0.0695046 0.068467006 0.016232714
000030 d8 22 3b bd 8b bb 5e 3c c2 11 a4 bc d1 52 a0 bd
       -0.045687526 0.013594518 -0.020027999 -0.07828296
000040 33 81 29 bb d9 e8 1f ba 2c e0 c1 3c 76 3d c4 bc
       -0.0025864362 -0.00061000657 0.023666464 -0.023955088
000050 35 f4 8e 3c ba c7 e0 3c 8d a9 c5 3b 9d 06 9d 3d
       0.017450431 0.027438987 0.006032175 0.07667277
000060 0d 1d 8c 3d 9c 8d 5b 3d 4f 3c 2a bb a8 d7 90 bd
       0.068414785 0.053601846 -0.0025975888 -0.07072383
000070 ec 50 f4 bc d9 53 bc bc 26 6d 0d 3d 19 f3 68 3c
       -0.029823743 -0.0229892 0.03452792 0.014218115
000080 96 47 eb bc 16 99 64 bd 51 25 e2 bb f5 95 f1 3e
       -0.028720658 -0.055810057 -0.006901421 0.4718472
000090 f5 a0 b3 bd 0c c9 92 bc fa 3d 94 3d 87 79 27 3d
       -0.087709345 -0.017918132 0.072383836 0.040887382
0000a0 d6 cd b5 3c f3 66 74 bc 32 e1 87 3c 26 e6 8e bd
       0.022192877 -0.014917123 0.016586874 -0.06977491
0000b0 e0 59 04 bd ca 0a 76 3c 59 d4 98 3c 28 f0 49 bd
       -0.032312274 0.015017221 0.018655943 -0.049301296
0000c0 07 24 23 3c 07 10 03 bc 6b 51 f8 3b fd 4e a3 bd
       0.00995732 -0.007999427 0.007578065 -0.0797405
0000d0 2f 38 95 3d 3c ee 14 ba e3 f2 b1 bb 3a 3d 42 bd
       0.07286107 -0.00056812516 -0.0054305657 -0.04742167
0000e0 d4 b6 5d 3d 42 a9 49 bd 5b 5e 2e 3d 45 80 11 bc
       0.054129437 -0.049233682 0.042570453 -0.0088806795
0000f0 c9 e9 59 bc cb fd 2a 3d 1f 66 b6 bc 83 39 a5 3d
       -0.013300368 0.041745942 -0.022265492 0.0806761
000100 cd c9 63 3b 2b ac 2c bd f9 69 e3 3c 18 60 cc bc
       0.0034757734 -0.04215638 0.027760493 -0.024948165
000110 66 b7 fa 3c 2a cb 0b 3d 2a a5 5d bd 46 8f 0a 3d
       0.03060503 0.0341293 -0.05411259 0.033828042
000120 c1 97 f0 3c d6 83 ac 3d 5f de a4 3c 4e 72 f9 3c
       0.029369237 0.08423583 0.020125566 0.030450013
000130 3a 68 5a bd 45 dc 99 3b 13 90 20 bb 35 22 53 bc
       -0.053322054 0.0046954476 -0.0024499937 -0.012886574
000140 96 ee df 3f 34 6b 08 3d d3 8f 55 bc fa 06 e8 3b
       1.7494686 0.033305362 -0.013034779 0.00708091
000150 9d b6 a9 bb f2 8e e1 3b 1f 68 68 3b f8 9f 4a bd
       -0.00517924 0.0068834955 0.0035462452 -0.049468964
000160 db 98 9a bd 6f 12 c4 3c e2 d7 7c bd f1 43 87 3d
       -0.07548686 0.023934571 -0.06172932 0.06604756
000170 b0 5e af bd c9 4b 7a 3c 6e 4c d0 bc 39 46 7a bc
       -0.08562982 0.015276858 -0.02542707 -0.015275531
000180 d8 56 ac bc ba 87 3b 3d f3 5d 07 bd 25 ab 30 bc
       -0.021037504 0.045783736 -0.03304858 -0.010782992
000190 7a 78 12 3d 13 41 88 bd 89 c5 b9 3c 0b 44 12 3b
       0.035759427 -0.06653037 0.0226772 0.0022318389
0001a0 c0 84 eb 3c 12 91 e0 3c 6a c3 c7 3c d6 99 43 bd
       0.028749824 0.027412925 0.024385173 -0.04775413
0001b0 83 3e 4d bc 44 05 91 3d be fb f8 bc 82 3d 06 3d
       -0.012527111 0.070810825 -0.030393478 0.032773502
0001c0 5f 7f 1c 3c 3a 6e ea 3c 74 ab 9a 3d e3 fc 6d bc
       0.009551852 0.028617013 0.07552233 -0.014525625
0001d0 74 cb 35 3d 02 04 55 bd d2 4f 6b 3d 2c e1 01 bd
       0.04438348 -0.052005775 0.05744917 -0.03170888
0001e0 c2 66 a9 bc 0c f5 8d bd 11 d4 a7 bd 74 e2 c3 3f
       -0.020678882 -0.069315046 -0.08194745 1.5303483
0001f0 ed 7c 3d bc 5e 40 a9 bc bc 05 86 3c 14 c3 55 bd
       -0.011565429 -0.020660575 0.016360156 -0.052187994
000200 39 cd 7f bb a4 15 30 bd f9 e7 1f 3d 45 ac 41 3c
       -0.0039032234 -0.042989388 0.039039586 0.011820857
000210 90 d7 90 3c 82 5d a5 3d 6d f5 e6 3c d2 c1 ec 3c
       0.017680913 0.08074476 0.0281932 0.028901014
000220 c4 16 1f 40 9c ea 14 bd d5 38 2d bc 23 70 74 bc
       2.4857645 -0.036356553 -0.010572632 -0.014919314
000230 a8 de d2 bc 6e 3b bc bc ea 2b 5c bd c8 6d 62 bd
       -0.025740936 -0.022977557 -0.053752817 -0.055280477
000240 c2 3f b4 bd 3b e5 a4 bc 58 4d 87 3c 96 c3 52 3d
       -0.08801223 -0.020128837 0.016516373 0.051456057
000250 3c 7f 64 bd 2e f8 aa bd ef b2 9c bd ee 38 df 3c
       -0.055785403 -0.08348118 -0.076513164 0.027248826
000260 f5 7b 8d 3d 34 89 52 bd 02 2a 76 bd 2c 9e ed bb
       0.069084086 -0.05140038 -0.060098656 -0.0072515216
000270 ea 66 a9 3c c0 fc ae bd 0d 16 ee bc 1a 24 11 3d
       0.020678956 -0.08544302 -0.029063249 0.03543482
000280 18 f4 64 bd 3d 09 19 bd 0b 7a 19 3c d6 11 ec bc
       -0.05589685 -0.037362326 0.009367476 -0.028817099
000290 73 fe 17 bd 96 3a 39 3d 50 d0 52 bd 61 e7 bf 3c
       -0.037107896 0.045221888 -0.051468194 0.02342576
0002a0 a2 2c d8 bc 7c fc 13 bd 82 73 92 3d 90 d3 9c 3d
       -0.02638847 -0.03612946 0.071509376 0.0765754
0002b0 d0 b3 8c 3d 7e 57 b6 3b e9 4e d7 3b 8a 5b ad bd
       0.06870234 0.005564629 0.006570686 -0.08464725
0002c0 a9 31 2a bd 69 2f 5b 3c a9 a6 83 3b a6 45 28 39
       -0.041551266 0.013378003 0.00401767 0.00016047675
0002d0 41 92 1c bb e2 61 9a 3c aa c8 34 bd 56 a2 ad bd
       -0.0023890885 0.018845502 -0.04413668 -0.08478229
0002e0 59 2c 81 3c a8 2e dc bc 9d 11 80 3d 7c af 73 3d
       0.015768217 -0.026877716 0.062533595 0.059493527
0002f0 ae f4 04 3d 6a 2d a7 3b 53 b0 bb bc d1 db 62 bc
       0.032459907 0.0051018493 -0.022911226 -0.013846354
000300 17 34 b5 3d 0e c2 aa 3d fd 04 cd bb d8 58 a2 bd
       0.08847826 0.08337794 -0.006256698 -0.07927102
000310 df bb f7 bc 6c 24 66 bd 5c 0d a1 3d 2a d7 40 3d
       -0.030240951 -0.05618708 0.07863876 0.047080196
000320 c6 ee b0 3d c9 4e 94 3d e2 25 dd 3c 3e c3 84 bd
       0.086392924 0.072415896 0.026995603 -0.06482552
000330 06 1f 0f 3d 04 1c 9c 3d 46 b2 59 3d 57 ec 03 bc
       0.034941696 0.07622531 0.05314853 -0.008051953
000340 2a 9e bd 3c 07 20 a7 bc 25 a7 79 3c de bc 89 b6
       0.023146708 -0.020401014 0.015237604 -4.104905e-06
000350 aa 9a e8 3b d4 8a eb bc 91 56 0c bc f7 5b 15 40
       0.0070985155 -0.028752722 -0.008565561 2.333738
000360 61 1d 56 3c 4c b4 e7 bc fc e2 fb 3c 26 a7 ca 3c
       0.013068528 -0.028284214 0.030747883 0.024737906
000370 10 4c c7 3c 6e 76 ba bc a5 c9 95 bb 47 4a 4b bd
       0.024328262 -0.02276155 -0.004571157 -0.049631383
000380 7a 97 56 bd be 41 20 bd 87 af 41 3b 25 a9 05 3c
       -0.052390553 -0.039125197 0.0029554085 0.008158003
000390 ba 80 1b bd 76 7b ae 3c 85 ca 41 bc 00 9d 86 3c
       -0.03796456 0.021299105 -0.01182807 0.016432285
0003a0 e3 02 24 bc 3d a3 aa bd 25 ba 00 3c ab f6 ab bd
       -0.010010454 -0.083319165 0.00785688 -0.083966576
0003b0 c9 bb 6d 3c ee 17 de 3c 6e b8 f6 bc 50 9d 68 bd
       0.0145101035 0.02711102 -0.03011724 -0.05679065
0003c0 7f 45 8e 3d 7a 09 7b 3d 7f ef 29 bd c5 05 50 bd
       0.06946849 0.061288334 -0.041488167 -0.050786752
0003d0 ed 53 58 3c 6d cb a4 3d bc 14 ff bc 94 2c 22 bd
       0.013203603 0.08046613 -0.031137817 -0.039593294
0003e0 bc 9e 02 bd 2d cd 62 3b ce b4 a2 3d cf 18 8a 3c
       -0.031889662 0.0034607158 0.07944642 0.016857533
0003f0 75 5f dc 3c ac 31 d3 bc a6 a1 06 bd 17 18 80 bd
       0.026900986 -0.025780521 -0.032869004 -0.06254595

bias f4 [2]
000000 4e b0 c1 3c 77 01 1c 3d
       0.023643639 0.038087334
