NODE/submission_models/drifter_82_tanh_1day.pth (torch, 45647 bytes, 4 tensors)

weight f4 [256, 4]
0	0xbb755400	-0.00374341
1	0x3e89545e	0.2682218
2	0xbed2b316	-0.41152257
3	0xbebc6680	-0.3679695
4	0xbe4532f4	-0.19257718
5	0x3e094bec	0.13407868
6	0xbc224f40	-0.00990659
7	0x3ecaface	0.39644474
8	0xbd35bf70	-0.044372022
9	0x3e077b4c	0.13230628
10	0xbe1abbac	-0.15110654
11	0xbdc94870	-0.098282695
12	0xbef3d5b9	-0.47623995
13	0xbea8572f	-0.32879016
14	0xbe5fc728	-0.21853316
15	0x3b273894	0.00255159
16	0x3e4a6960	0.1976676
17	0x3e999b18	0.3000114
18	0xbead8d8c	-0.33897054
19	0xbe5ef4fc	-0.21773142
20	0x3e39f798	0.18160856
21	0x3ed4944e	0.41519397
22	0xbdd2bd48	-0.10290009
23	0x3ebf915c	0.37415588
24	0xbda50d40	-0.08059168
25	0x3d58b510	0.05290705
26	0x3ee7cd4a	0.4527381
27	0xbeed7bce	-0.46383518
28	0xbea12966	-0.31476897
29	0xbe019ee0	-0.12658262
30	0xbe4793dc	-0.19489998
31	0x3edd2f28	0.4320004
32	0xbea5ef1a	-0.32408983
33	0xbe6bb0c0	-0.23016644
34	0xbeb2da1a	-0.34932023
35	0xbeefc276	-0.4682805
36	0xbe957004	-0.29187024
37	0x3edc0e9e	0.42979902
38	0x3e6476bc	0.22310919
39	0x3e782700	0.24233627
40	0x3cd76a40	0.026295781
41	0xbe833f3a	-0.25634176
42	0x3dad3ec0	0.08459234
43	0xbeef069e	-0.46684736
44	0xbeb8fa1a	-0.36128312
45	0xbe83f9c6	-0.257765
46	0x3ea18526	0.31546897
47	0x3e961926	0.29316062
48	0xbe6311c8	-0.22174752
49	0xbc93cb20	-0.018041193
50	0x3ea3ba40	0.31978035
51	0x3efe7f82	0.49706656
52	0x3e4b3424	0.19844109
53	0x3d8a55c8	0.06754643
54	0x3eaba4fe	0.33524317
55	0xbe96bbc0	-0.29440117
56	0x3dbed0f8	0.093172014
57	0xbec67a6c	-0.38765275
58	0xbeb16e18	-0.34654307
59	0xbe843ed2	-0.25829178
60	0x3e67aa8c	0.22623652
61	0x3e4de7f8	0.2010802
62	0xbe97a46a	-0.29617625
63	0x3e1aadc8	0.15105355
64	0x3e8c896e	0.274486
65	0xbd813f20	-0.06310868
66	0x3c9c6440	0.019090772
67	0x3ded4400	0.115852356
68	0x3e9ed100	0.3101883
69	0x3ef5cf48	0.48009706
70	0xbec54796	-0.38531178
71	0xbe3ba1ec	-0.18323487
72	0x3e493898	0.19650495
73	0x3ed41bd0	0.4142747
74	0x3edec5e8	0.43510365
75	0x3ee1e222	0.44117838
76	0x3dcbca78	0.09950727
77	0xbede9cf8	-0.43479133
78	0x3d3c6690	0.04599625
79	0xbea027ac	-0.31280267
80	0xbeee948c	-0.46597707
81	0x3ee3743e	0.44424623
82	0x3ec2a6f0	0.38017988
83	0xbeff5dfe	-0.49876398
84	0x3dbfaa08	0.09358603
85	0xbdac80c8	-0.084230006
86	0xbda882b8	-0.082280576
87	0xbe6a5f1c	-0.22887844
88	0x3e44e48c	0.19227809
89	0xbe97a134	-0.29615176
90	0x3e3bb1dc	0.18329567
91	0x3e817616	0.25285405
92	0x3eb7435c	0.3579358
93	0x3e3f7148	0.18695557
94	0xbefd5f4a	-0.49486762
95	0xbea61100	-0.32434845
96	0x3e7fa638	0.24965751
97	0x3dd65318	0.104650676
98	0xbec7b396	-0.390042
99	0xbe9368e8	-0.28790975
100	0x3ef0d4f2	0.47037464
101	0x3eac7f54	0.33690894
102	0xbe5f3eb0	-0.21801257
103	0xbe00dcd4	-0.12584239
104	0xbef3dd78	-0.47629905
105	0xbc133e80	-0.008987069
106	0xbec0c878	-0.37652946
107	0xbec577a2	-0.38567835
108	0xbce1b020	-0.027549803
109	0x3d99bfa0	0.07507253
110	0xbe51adf4	-0.20476514
111	0x3e97e798	0.2966888
112	0xbe9bc938	-0.30426955
113	0x3ee84968	0.45368505
114	0x3eaf6fd0	0.34264994
115	0xbed7e164	-0.42164147
116	0xbdfedb88	-0.12444216
117	0x3cb8d280	0.022561312
118	0x3d956718	0.07295054
119	0x3df2ddd0	0.118587136
120	0x3e48ec5c	0.19621414
121	0x3cf559e0	0.029950082
122	0xbe79d1cc	-0.24396437
123	0x3e7245d4	0.2365945
124	0xbef59156	-0.47962445
125	0xbe97bba0	-0.29635334
126	0xbe002b3c	-0.12516493
127	0xbe7966ec	-0.24355668
128	0xbe331d5c	-0.17491668
129	0xbed1d2ba	-0.40981084
130	0xbdd9d200	-0.106357574
131	0x3ddae2f8	0.10687822
132	0x3ff1d5ee	1.8893411
133	0x3fffca0e	1.9983537
134	0x3f5c0044	0.85937905
135	0xbdb4a800	-0.08821106
136	0x3c63ac80	0.013896108
137	0xbd30adc0	-0.04313445
138	0x3dcf3d10	0.101190686
139	0x3ea2c660	0.31791973
140	0x3ef27d4b	0.47361216
141	0x3ea29353	0.31753024
142	0x3ef4d145	0.4781591
143	0xbccb5a72	-0.024823401
144	0xbee5f866	-0.44916075
145	0xbe72ba40	-0.23703861
146	0x3eae4fce	0.3404526
147	0xbb546b00	-0.003241241
148	0xbe7e7cdc	-0.24852318
149	0xbec42d02	-0.38315588
150	0xbeef9400	-0.46792603
151	0xbed810ec	-0.4220041
152	0xbdcfb470	-0.101418376
153	0x3e8c6456	0.274203
154	0x3e8a6774	0.27032053
155	0xbef6e502	-0.48221594
156	0x3e9fb02e	0.31189102
157	0xbec8528a	-0.39125472
158	0xbdd87bf0	-0.10570514
159	0xbe4f9a1c	-0.20273632
160	0xbdc53cf0	-0.096307635
161	0xbdc90e10	-0.09817135
162	0xbee5b8ba	-0.44867498
163	0xbedd0a44	-0.43171895
164	0xbda03c28	-0.07823974
165	0x3bd3e180	0.0064660907
166	0xbe6896b8	-0.22713745
167	0x3e40deb8	0.1883496
168	0xbee66a3a	-0.4500292
169	0xbd0a36c0	-0.03374362
170	0x3ee121a2	0.43970972
171	0xbe50d738	-0.203946
172	0x3ee72b36	0.45150155
173	0x3e396c38	0.18107688
174	0xbee707ae	-0.45123047
175	0x3ea1f874	0.31634867
176	0xbd6c53f0	-0.057697237
177	0xbe648f70	-0.22320342
178	0x3eccb614	0.39982665
179	0xbecedf54	-0.4040476
180	0x3d5bc2b0	0.053652465
181	0xbdd664c0	-0.10468435
182	0x3eb6d016	0.35705632
183	0x3e0eec08	0.13957226
184	0x3e7604cc	0.24025267
185	0x3e34d140	0.17657948
186	0xbdf63f00	-0.12023735
187	0xbdd75a50	-0.105152726
188	0xbed2f700	-0.4120407
189	0x3e8ab64c	0.27092206
190	0x3ecb4226	0.39698905
191	0x3eaf295c	0.34211242
192	0xbeb493ac	-0.35268915
193	0x3cb6ae60	0.022299945
194	0xbeb47690	-0.35246706
195	0xbe8cec88	-0.2752421
196	0xbe952c30	-0.29135275
197	0x3e2ef934	0.17087251
198	0xbe988dc4	-0.2979566
199	0xbc32ba00	-0.010908604
200	0x3cac4fa0	0.021034062
201	0x3ea50604	0.32231152
202	0xbec183fa	-0.37796003
203	0xbeafbf44	-0.34325612
204	0xbe94a63c	-0.29033077
205	0x3eb32ed6	0.3499667
206	0xbe380bcc	-0.1797325
207	0x3ed7eee0	0.42174435
208	0x3e3924a0	0.18080378
209	0x3d81aa40	0.06331301
210	0xbb73ed00	-0.003722012
211	0xbdca6d08	-0.09884077
212	0x3d807a40	0.06273317
213	0xbde9d330	-0.11417234
214	0xbb663e00	-0.003513217
215	0x3d82a7c0	0.06379652
216	0xbec83e98	-0.39110255
217	0xbe862d7a	-0.2620657
218	0x3eceb7d8	0.40374637
219	0xbecfc186	-0.40577334
220	0xbd130f20	-0.035903096
221	0x3efd3ec0	0.49461937
222	0x3e38f410	0.18061852
223	0x3c67f0c0	0.01415652
224	0xbeddda26	-0.43330497
225	0x3e7da22c	0.24768895
226	0xbeb65808	-0.35614038
227	0xbe1156a8	-0.14193213
228	0xbe2bc8cc	-0.16775817
229	0xbd97a438	-0.07404369
230	0x3bb33680	0.0054691434
231	0x3ed32696	0.41240376
232	0x3d7fab80	0.062419415
233	0x3ee54c20	0.4478464
234	0x3e9c9930	0.30585623
235	0xbea1d8c6	-0.31610698
236	0x3e65a254	0.22425205
237	0xbeb4f724	-0.35344803
238	0xbe58ff9c	-0.21191257
239	0x3e169740	0.14706135
240	0x3e28bbe2	0.16477922
241	0x3ebfe348	0.3747809
242	0xbe294630	-0.1653068
243	0xbbab6bed	-0.0052313716
244	0x3e83cb7a	0.25741178
245	0xbef7935a	-0.48354608
246	0x3eb91542	0.3614903
247	0xbed3b130	-0.4134612
248	0x3be1d000	0.0068912506
249	0xbdae18e0	-0.08500838
250	0xbe86d40a	-0.26333648
251	0x3d8757d8	0.06608552
252	0x3ed3b0f2	0.41345936
253	0xbe15aae8	-0.14615977
254	0xbe97fc56	-0.29684705
255	0xbe3d5b84	-0.18491942

bias f4 [256]
0	0xbd0f7ec0	-0.035032988
1	0xbef1caaa	-0.47224933
2	0xbe939b14	-0.28829253
3	0x3e4dbc08	0.2009126
4	0xbe2da870	-0.16958785
5	0x3eb0b2da	0.34511453
6	0x3eca60d2	0.39526993
7	0x3d94f610	0.07273495
8	0xbd21f1f0	-0.03953737
9	0xbe2285d0	-0.15871358
10	0xbccf1e20	-0.02528292
11	0x3dba63b0	0.09101045
12	0xbec38bbe	-0.38192552
13	0xbdf4bb48	-0.119497836
14	0xbed4f0e8	-0.41590047
15	0x3e9d1f0a	0.30687743
16	0xbea307b4	-0.31841815
17	0x3ee9de02	0.4567719
18	0xbe03fbd8	-0.1288904
19	0xbe92a7f4	-0.28643763
20	0x3e75fdf4	0.24022657
21	0x3d98a830	0.07453954
22	0x3eb144cc	0.346228
23	0x3e55be98	0.20873487
24	0xbef69d6a	-0.48166972
25	0x3ea1eae4	0.3162452
26	0xbdc0d558	-0.09415692
27	0xbe624a08	-0.22098553
28	0x3ea292e4	0.31752694
29	0x3ebab564	0.36466515
30	0xbee1019a	-0.43946534
31	0xbd392fe0	-0.045211673
32	0x3ed23a98	0.41060328
33	0x3ea72c40	0.32650948
34	0x3ed7ac12	0.42123467
35	0xbe2f5200	-0.17121124
36	0xbe8d3870	-0.2758212
37	0x3edc230a	0.42995483
38	0x3e5569d0	0.20841146
39	0x3ef5c16a	0.47999126
40	0xbe55dc54	-0.2088483
41	0xbea45e7e	-0.32103342
42	0xbd700d50	-0.058606446
43	0xbef10b62	-0.47078997
44	0x3e48b0f8	0.19598758
45	0x3ebcd298	0.3687942
46	0x3df5d178	0.120028436
47	0xbd4a5b40	-0.04940343
48	0x3e7dda54	0.24790317
49	0xbea27f10	-0.31737566
50	0x3efa6e24	0.48912156
51	0xbefe8d4e	-0.49717182
52	0xbef53be6	-0.4789726
53	0xbdf1f910	-0.11815083
54	0x3ed11cb8	0.40842223
55	0x3d4d0ec0	0.050062895
56	0x3e44a1a4	0.19202286
57	0xbebba656	-0.36650342
58	0x3e3ab818	0.18234289
59	0xbd64d9c0	-0.055871725
60	0x3e4cff23	0.20019202
61	0x3eb4cc50	0.35312128
62	0x3e5e8e68	0.21734011
63	0xbd2e3620	-0.042532086
64	0xbcfc4f60	-0.030799568
65	0xbea08ee2	-0.3135901
66	0xbe393104	-0.18085104
67	0x3ea65bca	0.32491904
68	0xbe4d4f6c	-0.20049828
69	0x3e9efc76	0.31051987
70	0xbe4b063c	-0.19826597
71	0xbdee7d08	-0.116449416
72	0x3c2e5800	0.010641098
73	0xbeeaec20	-0.45883274
74	0xbba39800	-0.004992485
75	0xbd4e6e00	-0.050397873
76	0xbd37fc20	-0.04491818
77	0xbdccb3b0	-0.0999521
78	0x3ec9d318	0.39418864
79	0x3ebcecba	0.36899358
80	0xbeb27204	-0.34852612
81	0x3e6dd674	0.23226339
82	0xbec8cd4c	-0.3921913
83	0xbed9f032	-0.42566067
84	0x3e1c8258	0.15284097
85	0x3bf0c980	0.0073482394
86	0xbe6ed9ec	-0.23325318
87	0xbef6e9b8	-0.48225188
88	0xbe4636b4	-0.19356805
89	0x3e2b01fc	0.16699976
90	0xbeecf438	-0.46280074
91	0xbef8b1f6	-0.48573273
92	0x3d81eae0	0.06343627
93	0xbeb86c68	-0.36020207
94	0xbee046cc	-0.43804014
95	0xbe45443c	-0.1926431
96	0xbda4dd68	-0.080500424
97	0xbee8a0e8	-0.45435262
98	0xbeaaf034	-0.33386385
99	0x3d064870	0.032783926
100	0xbef16698	-0.47148585
101	0xbd8fed80	-0.070277214
102	0xbea54cc6	-0.32285136
103	0xbeb17800	-0.34661865
104	0x3e493b5c	0.1965155
105	0xbec50a62	-0.38484484
106	0xbec2016c	-0.3789171
107	0x3e91fdf8	0.28514075
108	0x3dbf7418	0.09348315
109	0x3ee9247a	0.45535642
110	0xbe08daf4	-0.13364774
111	0xbe774dc0	-0.24150753
112	0xbd3d8900	-0.04627323
113	0x3b25c900	0.0025296807
114	0x3ec33ca8	0.38132215
115	0xbefeff18	-0.49803996
116	0xbd11d1b0	-0.035600364
117	0x3e627bfc	0.22117609
118	0xbe8cf990	-0.2753415
119	0xbe821584	-0.2540704
120	0x3e776ee0	0.24163389
121	0xbef54ba0	-0.4790926
122	0x3df2a488	0.11847788
123	0xbe6aae14	-0.22917968
124	0x3e7e7ee4	0.24853092
125	0xbedae3ee	-0.42752022
126	0x3e9d63d8	0.30740237
127	0xbef25684	-0.4733163
128	0xbed72f62	-0.42028338
129	0x3dc700a6	0.097169206
130	0x3ec9b99c	0.3939942
131	0xbedb3cbe	-0.4281978
132	0xbe6461f0	-0.22302985
133	0x3ee0d720	0.43914127
134	0xbdabb8e0	-0.083848715
135	0x3e541d1c	0.2071423
136	0xbedf1e8a	-0.43577987
137	0xbe2103a4	-0.15724045
138	0xbe82014a	-0.25391608
139	0x3ed7d2dc	0.4215306
140	0x3e54801c	0.20751995
141	0xbebacc06	-0.36483783
142	0x3da518b0	0.080613494
143	0xbbbc4f00	-0.005746722
144	0xbe525d88	-0.20543492
145	0xbe923214	-0.28553832
146	0xbe29e6c0	-0.1659193
147	0x3ec9c936	0.39411324
148	0xbeb783a2	-0.35842615
149	0xbeb65c22	-0.35617167
150	0xbe1df638	-0.15425956
151	0x3c0e82c0	0.008698165
152	0x3e0b5f5c	0.13610595
153	0x3c75d380	0.015004039
154	0xbdf680c8	-0.12036282
155	0xbe9b39c4	-0.3031751
156	0xbdb7bd30	-0.089716315
157	0xbe4e1b78	-0.20127666
158	0x3eced46c	0.4039644
159	0xbef9315e	-0.48670477
160	0xbea34aba	-0.3189295
161	0xbed04772	-0.40679508
162	0xbdbb2498	-0.09137839
163	0x3ec77e76	0.3896367
164	0x3ee064e0	0.43826962
165	0xbededcb6	-0.43527764
166	0xbcb17780	-0.021663427
167	0x3e96436a	0.29348308
168	0x3e61b034	0.22039872
169	0x3ed1b0ca	0.40955192
170	0xbc633b40	-0.013869107
171	0xbeac012a	-0.33594638
172	0x3ea95a10	0.33076525
173	0xbe2f9280	-0.17145729
174	0x3e848da2	0.25889307
175	0xbdfc59d8	-0.12321824
176	0x3e59a5f0	0.21254706
177	0x3ee640c8	0.449713
178	0x3eee0b02	0.46492773
179	0xbee8fa06	-0.45503253
180	0xbea956c6	-0.33074015
181	0xbe53b1ec	-0.2067334
182	0xbea34060	-0.31885052
183	0x3ef5a1cc	0.47975004
184	0xbd34e080	-0.044159412
185	0xbea9d0b0	-0.33167028
186	0xbe63d5a8	-0.22249472
187	0xbe8d67c4	-0.2761823
188	0x3e50e3fc	0.20399469
189	0xbedf4bda	-0.43612558
190	0xbeeeb1f8	-0.46620154
191	0xbefc5ad8	-0.49288058
192	0x3e5c6da8	0.21526206
193	0x3e7d2928	0.24722731
194	0xbe9eff0a	-0.31053954
195	0x3dfdee18	0.123989284
196	0x3ebcf9ac	0.36909235
197	0x3d94c9e0	0.07265067
198	0xbdd8a8d8	-0.105790794
199	0x3d174fa0	0.03694117
200	0xbd5b9a30	-0.05361384
201	0x3e80e552	0.25174958
202	0xbeadd3b0	-0.33950567
203	0x3e81d178	0.25355124
204	0x3e9049a2	0.28181177
205	0xbe9b1a9a	-0.30293733
206	0x3ed10a50	0.4082818
207	0x3efb7076	0.49109238
208	0xbe49d858	-0.19711435
209	0xbe0f6888	-0.1400472
210	0x3e7f2874	0.24917775
211	0xbec88e3e	-0.39171022
212	0x3e4a7978	0.19772899
213	0x3deee770	0.11665237
214	0x3ea15d4a	0.31516486
215	0xbede5b68	-0.43429112
216	0xbed4ae50	-0.4153924
217	0x3e65f440	0.22456455
218	0x3e386d8c	0.18010539
219	0xbeee46b2	-0.4653831
220	0xbe8ec2c6	-0.27882975
221	0xbeea3c08	-0.45748925
222	0xbeb7677e	-0.35821146
223	0xbe6703a4	-0.22559983
224	0x3ed3d990	0.41376925
225	0xbdcbd400	-0.09952545
226	0x3e9308ae	0.2871756
227	0x3ef31e4a	0.47484046
228	0x3e6955bc	0.22786611
229	0xbee52c82	-0.4476052
230	0x3e80d334	0.25161135
231	0x3e434b64	0.19071728
232	0x3ec66ab2	0.38753277
233	0xbefc86f4	-0.4932171
234	0x3e9d71b0	0.307508
235	0x3ed18bee	0.4092707
236	0xbeee2c62	-0.46518236
237	0x3d564650	0.05231315
238	0x3eda8a52	0.42683655
239	0xbeba30de	-0.36365408
240	0x3e27ff40	0.16405964
241	0x3e623dc0	0.22093868
242	0x3e0630ac	0.13104504
243	0x3efe8c65	0.49716488
244	0x3ed19b8a	0.4093898
245	0x3edba2ec	0.42897737
246	0xbd7f46d0	-0.06232339
247	0x3ed6b5de	0.4193563
248	0xbeee91d4	-0.46595633
249	0xbe8a2526	-0.26981467
250	0xbddb03a8	-0.10694057
251	0xbe1817d4	-0.1485284
252	0x3eec7742	0.46184736
253	0x3e717e1c	0.23583263
254	0x3ea4d0ee	0.3219065
255	0x3eae2234	0.3401047

weight f4 [2, 256]
0	0xbd2a86f0	-0.041632593
1	0xbc496c48	-0.012293883
2	0x3c6859d8	0.014181577
3	0x3c517707	0.012784726
4	0x3d185970	0.03719467
5	0xbcf523b5	-0.029924253
6	0xbc61f2de	-0.013790814
7	0x3d417ffe	0.047241203
8	0xbc4000cc	-0.01171894
9	0xbd4688b4	-0.048470214
10	0x3d4248b4	0.047432616
11	0x3d18a560	0.03726709
12	0xbcc9f51d	-0.024653012
13	0xbbf3cae3	-0.0074399575
14	0xbd283104	-0.04106237
15	0xbd6a7d64	-0.057248488
16	0x3c97204b	0.018448016
17	0xbcb14fb7	-0.021644456
18	0x3d37183a	0.04470084
19	0xbd3846da	-0.044989444
20	0xbb6ae1e6	-0.0035840212
21	0x3bd1dd61	0.0064045643
22	0x3cddbac6	0.0270666
23	0x3d63e4fc	0.0556383
24	0x3d4211f6	0.04738041
25	0x3d056553	0.032567333
26	0xbcc197f7	-0.023632033
27	0xbd4b8712	-0.04968936
28	0xbd5050a8	-0.05085817
29	0xbb001bc6	-0.0019547804
30	0x3d639562	0.055562384
31	0xbbdf5bbb	-0.006816355
32	0xbbfbdcd5	-0.0076862373
33	0x3fd7b14f	1.6850985
34	0x3c678e36	0.014133027
35	0x3d0dad37	0.03458902
36	0xbd888cd8	-0.06667489
37	0xbd1f8caa	-0.038952507
38	0x3d5253b6	0.051349364
39	0x3ca2a262	0.01985282
40	0x3a97d6c9	0.0011584397
41	0x3bc873fb	0.0061173416
42	0xbb91bcd7	-0.0044475603
43	0xbd47a40e	-0.04874044
44	0xbd5a821c	-0.05334674
45	0x3d13aadc	0.036051616
46	0xbb1be000	-0.0023784637
47	0xbce78fbd	-0.028266782
48	0xbc357cd6	-0.0110771265
49	0xbcedd851	-0.029033812
50	0xbc5c7820	-0.013456374
51	0xbd7075bc	-0.05870603
52	0x3d544822	0.051826604
53	0x3ca7a8ff	0.020466326
54	0xbcd8cd26	-0.02646501
55	0xbcd829e1	-0.026387157
56	0x3d078e8c	0.033094928
57	0xbce701f1	-0.028199168
58	0x3cb06c21	0.021535935
59	0x3c47209e	0.012153773
60	0xbd0c1126	-0.03419604
61	0x3ca9ab01	0.020711424
62	0xbaa15b8c	-0.0012310608
63	0x3d744ac6	0.059641622
64	0xbc8fd733	-0.01755867
65	0xbcad07c1	-0.021121861
66	0x3d47dd2c	0.04879491
67	0xbd3c582a	-0.045982517
68	0x3c1cce04	0.009570602
69	0x3d61f366	0.055163763
70	0xbd077ce2	-0.033078082
71	0x3d60b782	0.054862507
72	0x3d4e7412	0.050403662
73	0x3d816fba	0.06320138
74	0xba6e414d	-0.000908871
75	0x3d52e15c	0.05148445
76	0xbd043fef	-0.032287534
77	0xbc85d95b	-0.016338995
78	0x3c983e6f	0.018584458
79	0x3c057ed0	0.00814791
80	0x3d12b2ba	0.03581498
81	0x3d5e9370	0.054339826
82	0xbd0b8c22	-0.034069188
83	0x3ce65207	0.028115286
84	0x3c81e2c7	0.015855206
85	0x3ce4b405	0.027917871
86	0x3cc95d73	0.024580693
87	0xbce8ef5d	-0.02843445
88	0xbd5f0976	-0.054452382
89	0x3d383154	0.044968918
90	0xbd26afa6	-0.040694855
91	0x3d385fa2	0.045013078
92	0xbd844a9d	-0.06459544
93	0xbbbcaa39	-0.005757597
94	0xbb8ff028	-0.0043926425
95	0x3bbcb559	0.005758923
96	0xb64e2522	-3.0718006e-06
97	0x3ccabee1	0.024749221
98	0xbc44d6d2	-0.012014108
99	0x3c27f5d8	0.010251485
100	0x3d68a0b6	0.05679389
101	0xbd3a59e4	-0.045495883
102	0x3ad75252	0.0016427732
103	0xbc9a07ef	-0.018802611
104	0x3d4bea8a	0.04978422
105	0x3d4670be	0.048447363
106	0x3b5b981e	0.0033507417
107	0xbcdae319	-0.026719617
108	0xbd0977ca	-0.033561505
109	0x3d4be24a	0.049776353
110	0xbc1956b4	-0.009359051
111	0x3d5c65be	0.053807966
112	0x3cfa9002	0.030586246
113	0x3d4b5f46	0.049651407
114	0x3d5f2ea8	0.054487854
115	0xbd11a760	-0.035560012
116	0x3cbf4655	0.023348967
117	0xbcfdb771	-0.03097126
118	0x3d152796	0.036414705
119	0xbc2ee3cc	-0.010674428
120	0x39ba686d	0.00035554488
121	0xbd45c1f6	-0.04828068
122	0xbd797fe4	-0.06091298
123	0x3fd4631d	1.6592747
124	0x3c1b2410	0.009469047
125	0x39c40177	0.00037385125
126	0x3d192b02	0.03739453
127	0xbcff3595	-0.03115348
128	0x3c8c56c7	0.017131222
129	0x3fcf4acb	1.61947
130	0x3c937f47	0.018005027
131	0xbc16f4b8	-0.009213619
132	0x3d1e93ec	0.038715288
133	0x3d7492c6	0.059710287
134	0x3d49a2e2	0.049227603
135	0x3c00e2e0	0.007866591
136	0x3ffa8d66	1.9574401
137	0xbd6b12d8	-0.057391018
138	0xbd01765a	-0.03160701
139	0x3bc8619b	0.006115151
140	0xbb9a3918	-0.004706513
141	0xbd3445da	-0.04401193
142	0xbd0603a0	-0.0327183
143	0xbd0c457e	-0.03424596
144	0xbd892b9f	-0.06697773
145	0x3a6d65ce	0.00090560026
146	0x3d19ced0	0.037550747
147	0x3cf93699	0.030421542
148	0xbd0e56f4	-0.034750894
149	0xbd7fc81e	-0.062446706
150	0xbd633da0	-0.055478692
151	0x3bcba22f	0.006214402
152	0x3d44cfc6	0.04804971
153	0xbcf8c1d5	-0.030365864
154	0xbd2001c6	-0.03906419
155	0xbce7b7d0	-0.02828589
156	0xb9ba5e6d	-0.00035547037
157	0xbd83e8ab	-0.06440862
158	0xbd4d3332	-0.05009765
159	0x3d674c56	0.056469284
160	0xbd0ecbd0	-0.03486234
161	0xbc85c1d0	-0.016327769
162	0xbc3f26c8	-0.011666961
163	0xbd4c3118	-0.049851507
164	0xbc83ac49	-0.016073363
165	0x3cc62499	0.024187373
166	0xbcf9500d	-0.030433679
167	0x3b1cb7e0	0.002391331
168	0xbbaf70fb	-0.0053540445
169	0xbd6a24b8	-0.057163924
170	0x3d4ebec6	0.050474904
171	0x3d637ee2	0.055540927
172	0x3d433f7e	0.047667973
173	0xbc7d7523	-0.015469822
174	0x3ce22409	0.027605074
175	0xbd824776	-0.06361286
176	0xbca812bd	-0.020516748
177	0xbbfae326	-0.0076564727
178	0xbc8b66c3	-0.017016774
179	0x3cada0fb	0.021194926
180	0xbcbfe2b7	-0.023423536
181	0xbb0f73ea	-0.0021889159
182	0xbcbd40c1	-0.023102166
183	0xbd828e42	-0.0637479
184	0xbbac905b	-0.005266232
185	0xbd443f84	-0.047912136
186	0x3d29fb00	0.041499138
187	0x3d1d8740	0.038459063
188	0x3d5b1cea	0.05349437
189	0xbc828513	-0.015932595
190	0xbaf5ff54	-0.001876811
191	0x3beb8a52	0.00718812
192	0x3d8a1ff5	0.067443766
193	0x3d7f5bde	0.06234347
194	0xbcdf91a1	-0.027291121
195	0xbd6e8972	-0.058236547
196	0xbd520624	-0.051275387
197	0xbd0ffc26	-0.035152577
198	0x3d6bf27a	0.05760429
199	0x3cd55dc1	0.026045682
200	0x3d85dab4	0.06535855
201	0x3d527556	0.05138143
202	0x3bc355fb	0.0059611774
203	0xbd335e4a	-0.043791093
204	0x3d654742	0.05597616
205	0x3d620fc8	0.05519083
206	0x3d0389fd	0.032114018
207	0xbcee467a	-0.02908634
208	0x3d34f738	0.04418108
209	0x3a260c59	0.00063342374
210	0x3d1491f0	0.03627199
211	0x3cac47d3	0.021030342
212	0x3ce676f5	0.028132895
213	0xbd4bed94	-0.04978712
214	0xbcf27b8f	-0.029599933
215	0x3d2e442a	0.042545475
216	0xbc0283a0	-0.007965952
217	0xbd4a024e	-0.049318604
218	0x3d5419b4	0.051782325
219	0x3b72b5fe	0.0037034745
220	0x3d39ce26	0.045362614
221	0xbd33635a	-0.04379592
222	0x3c86de03	0.016463285
223	0xbcea43fd	-0.028596872
224	0xbd006f32	-0.031356044
225	0xbc9432d5	-0.018090645
226	0xbc941a7f	-0.01807904
227	0x3cef24df	0.029192386
228	0xbc8ab0bf	-0.016929982
229	0x3d2d65de	0.042333476
230	0x3c16d678	0.009206407
231	0xbb96cd97	-0.004602145
232	0xbcfe51be	-0.031044837
233	0xbd7f1e3c	-0.062284693
234	0xbc57e6b0	-0.013177559
235	0xbd80e28e	-0.06293212
236	0xbbd5ca59	-0.006524366
237	0x3bc71e2d	0.0060765953
238	0xbc14d012	-0.009082811
239	0xbd127514	-0.035756186
240	0x3d4662d8	0.04843411
241	0x3d24e13e	0.04025387
242	0xbca78e67	-0.020453645
243	0xbcf38f5d	-0.029731447
244	0x3d0c3d26	0.034238003
245	0x3d736e9a	0.05943165
246	0xbd55b29a	-0.05217228
247	0xbc980881	-0.018558742
248	0xbc31da04	-0.010855202
249	0xbc8ff6c7	-0.017573727
250	0x3d6f415e	0.05841195
251	0xbb88de71	-0.0041769077
252	0x3d4457ea	0.047935404
253	0xbb9b8526	-0.004746097
254	0xbc41e596	-0.011834523
255	0xbd2a07f2	-0.041511483

bias f4 [2]
0	0x3d37004d	0.04467802
1	0x3ca124fe	0.01967096
