NODE/submission_models/drifter_65_tanh_1day.pth (torch, 45647 bytes, 4 tensors)

weight f4 [256, 4]
000000 00 54 75 bb 5e 54 89 3e 16 b3 d2 be 80 66 bc be
       -0.00374341 0.2682218 -0.41152257 -0.3679695
000010 f4 32 45 be ec 4b 09 3e 40 4f 22 bc ce fa ca 3e
       -0.19257718 0.13407868 -0.00990659 0.39644474
000020 70 bf 35 bd 4c 7b 07 3e ac bb 1a be 70 48 c9 bd
       -0.044372022 0.13230628 -0.15110654 -0.098282695
000030 b5 46 f5 be e4 97 a7 be 9d a0 5f be 5c 4a b4 3b
       -0.47905508 -0.3273307 -0.21838613 0.0055020284
000040 60 69 4a 3e 18 9b 99 3e 8c 8d ad be fc f4 5e be
       0.1976676 0.3000114 -0.33897054 -0.21773142
000050 98 f7 39 3e 4e 94 d4 3e 48 bd d2 bd 5c 91 bf 3e
       0.18160856 0.41519397 -0.10290009 0.37415588
000060 40 0d a5 bd 10 b5 58 3d 4a cd e7 3e ce 7b ed be
       -0.08059168 0.05290705 0.4527381 -0.46383518
000070 66 29 a1 be e0 9e 01 be dc 93 47 be 28 2f dd 3e
       -0.31476897 -0.12658262 -0.19489998 0.4320004
000080 1a ef a5 be c0 b0 6b be 1a da b2 be 76 c2 ef be
       -0.32408983 -0.23016644 -0.34932023 -0.4682805
000090 04 70 95 be 9e 0e dc 3e bc 76 64 3e 00 27 78 3e
       -0.29187024 0.42979902 0.22310919 0.24233627
0000a0 40 6a d7 3c 3a 3f 83 be c0 3e ad 3d 9e 06 ef be
       0.026295781 -0.25634176 0.08459234 -0.46684736
0000b0 1a fa b8 be c6 f9 83 be 26 85 a1 3e 26 19 96 3e
       -0.36128312 -0.257765 0.31546897 0.29316062
0000c0 c8 11 63 be 20 cb 93 bc 40 ba a3 3e 82 7f fe 3e
       -0.22174752 -0.018041193 0.31978035 0.49706656
0000d0 24 34 4b 3e c8 55 8a 3d fe a4 ab 3e c0 bb 96 be
       0.19844109 0.06754643 0.33524317 -0.29440117
0000e0 f8 d0 be 3d 6c 7a c6 be 18 6e b1 be d2 3e 84 be
       0.093172014 -0.38765275 -0.34654307 -0.25829178
0000f0 8c aa 67 3e f8 e7 4d 3e 6a a4 97 be c8 ad 1a 3e
       0.22623652 0.2010802 -0.29617625 0.15105355
000100 6e 89 8c 3e 20 3f 81 bd 40 64 9c 3c 00 44 ed 3d
       0.274486 -0.06310868 0.019090772 0.115852356
000110 00 d1 9e 3e 48 cf f5 3e 96 47 c5 be ec a1 3b be
       0.3101883 0.48009706 -0.38531178 -0.18323487
000120 98 38 49 3e d0 1b d4 3e e8 c5 de 3e 22 e2 e1 3e
       0.19650495 0.4142747 0.43510365 0.44117838
000130 78 ca cb 3d f8 9c de be 90 66 3c 3d ac 27 a0 be
       0.09950727 -0.43479133 0.04599625 -0.31280267
000140 8c 94 ee be 3e 74 e3 3e f0 a6 c2 3e fe 5d ff be
       -0.46597707 0.44424623 0.38017988 -0.49876398
000150 08 aa bf 3d c8 80 ac bd b8 82 a8 bd 1c 5f 6a be
       0.09358603 -0.084230006 -0.082280576 -0.22887844
000160 8c e4 44 3e 34 a1 97 be dc b1 3b 3e 16 76 81 3e
       0.19227809 -0.29615176 0.18329567 0.25285405
000170 5c 43 b7 3e 48 71 3f 3e 4a 5f fd be 00 11 a6 be
       0.3579358 0.18695557 -0.49486762 -0.32434845
000180 38 a6 7f 3e 18 53 d6 3d 96 b3 c7 be e8 68 93 be
       0.24965751 0.104650676 -0.390042 -0.28790975
000190 f2 d4 f0 3e 54 7f ac 3e b0 3e 5f be d4 dc 00 be
       0.47037464 0.33690894 -0.21801257 -0.12584239
0001a0 78 dd f3 be 80 3e 13 bc 78 c8 c0 be a2 77 c5 be
       -0.47629905 -0.008987069 -0.37652946 -0.38567835
0001b0 20 b0 e1 bc a0 bf 99 3d f4 ad 51 be 98 e7 97 3e
       -0.027549803 0.07507253 -0.20476514 0.2966888
0001c0 38 c9 9b be 68 49 e8 3e d0 6f af 3e 64 e1 d7 be
       -0.30426955 0.45368505 0.34264994 -0.42164147
0001d0 88 db fe bd 80 d2 b8 3c 18 67 95 3d d0 dd f2 3d
       -0.12444216 0.022561312 0.07295054 0.118587136
0001e0 5c ec 48 3e e0 59 f5 3c cc d1 79 be d4 45 72 3e
       0.19621414 0.029950082 -0.24396437 0.2365945
0001f0 56 91 f5 be a0 bb 97 be 3c 2b 00 be ec 66 79 be
       -0.47962445 -0.29635334 -0.12516493 -0.24355668
000200 5c 1d 33 be ba d2 d1 be 00 d2 d9 bd f8 e2 da 3d
       -0.17491668 -0.40981084 -0.106357574 0.10687822
000210 f8 e5 a0 be 8d 55 24 bd f1 47 c3 3e 0b d6 dd bc
       -0.31425452 -0.04012065 0.38140824 -0.027079603
000220 80 ac 63 3c c0 ad 30 bd 10 3d cf 3d 60 c6 a2 3e
       0.013896108 -0.04313445 0.101190686 0.31791973
000230 f8 bc 30 bf 07 a6 26 40 e3 06 62 3f 19 e1 cc bd
       -0.69038343 2.6038835 0.8829176 -0.100038715
000240 66 f8 e5 be 40 ba 72 be ce 4f ae 3e 00 6b 54 bb
       -0.44916075 -0.23703861 0.3404526 -0.003241241
000250 dc 7c 7e be 02 2d c4 be 00 94 ef be ec 10 d8 be
       -0.24852318 -0.38315588 -0.46792603 -0.4220041
000260 70 b4 cf bd 56 64 8c 3e 74 67 8a 3e 02 e5 f6 be
       -0.101418376 0.274203 0.27032053 -0.48221594
000270 2e b0 9f 3e 8a 52 c8 be f0 7b d8 bd 1c 9a 4f be
       0.31189102 -0.39125472 -0.10570514 -0.20273632
000280 f0 3c c5 bd 10 0e c9 bd ba b8 e5 be 44 0a dd be
       -0.096307635 -0.09817135 -0.44867498 -0.43171895
000290 28 3c a0 bd 80 e1 d3 3b b8 96 68 be b8 de 40 3e
       -0.07823974 0.0064660907 -0.22713745 0.1883496
0002a0 3a 6a e6 be c0 36 0a bd a2 21 e1 3e 38 d7 50 be
       -0.4500292 -0.03374362 0.43970972 -0.203946
0002b0 36 2b e7 3e 38 6c 39 3e ae 07 e7 be 74 f8 a1 3e
       0.45150155 0.18107688 -0.45123047 0.31634867
0002c0 f0 53 6c bd 70 8f 64 be 14 b6 cc 3e 54 df ce be
       -0.057697237 -0.22320342 0.39982665 -0.4040476
0002d0 b0 c2 5b 3d c0 64 d6 bd 16 d0 b6 3e 08 ec 0e 3e
       0.053652465 -0.10468435 0.35705632 0.13957226
0002e0 cc 04 76 3e 40 d1 34 3e 00 3f f6 bd 50 5a d7 bd
       0.24025267 0.17657948 -0.12023735 -0.105152726
0002f0 00 f7 d2 be 4c b6 8a 3e 26 42 cb 3e 5c 29 af 3e
       -0.4120407 0.27092206 0.39698905 0.34211242
000300 ac 93 b4 be 60 ae b6 3c 90 76 b4 be 88 ec 8c be
       -0.35268915 0.022299945 -0.35246706 -0.2752421
000310 30 2c 95 be 34 f9 2e 3e c4 8d 98 be 00 ba 32 bc
       -0.29135275 0.17087251 -0.2979566 -0.010908604
000320 a0 4f ac 3c 04 06 a5 3e fa 83 c1 be 44 bf af be
       0.021034062 0.32231152 -0.37796003 -0.34325612
000330 3c a6 94 be d6 2e b3 3e cc 0b 38 be e0 ee d7 3e
       -0.29033077 0.3499667 -0.1797325 0.42174435
000340 a0 24 39 3e 40 aa 81 3d 00 ed 73 bb 08 6d ca bd
       0.18080378 0.06331301 -0.003722012 -0.09884077
000350 40 7a 80 3d 30 d3 e9 bd 00 3e 66 bb c0 a7 82 3d
       0.06273317 -0.11417234 -0.003513217 0.06379652
000360 98 3e c8 be 7a 2d 86 be d8 b7 ce 3e 86 c1 cf be
       -0.39110255 -0.2620657 0.40374637 -0.40577334
000370 20 0f 13 bd c0 3e fd 3e 10 f4 38 3e c0 f0 67 3c
       -0.035903096 0.49461937 0.18061852 0.01415652
000380 26 da dd be 2c a2 7d 3e 08 58 b6 be a8 56 11 be
       -0.43330497 0.24768895 -0.35614038 -0.14193213
000390 cc c8 2b be 38 a4 97 bd 80 36 b3 3b 96 26 d3 3e
       -0.16775817 -0.07404369 0.0054691434 0.41240376
0003a0 80 ab 7f 3d 20 4c e5 3e 30 99 9c 3e c6 d8 a1 be
       0.062419415 0.4478464 0.30585623 -0.31610698
0003b0 54 a2 65 3e 24 f7 b4 be 9c ff 58 be 40 97 16 3e
       0.22425205 -0.35344803 -0.21191257 0.14706135
0003c0 84 07 29 3e 18 0d c0 3e 7d cd 25 be 2b 38 ec bb
       0.16506773 0.3750999 -0.16191669 -0.007208844
0003d0 7a cb 83 3e 5a 93 f7 be 42 15 b9 3e 30 b1 d3 be
       0.25741178 -0.48354608 0.3614903 -0.4134612
0003e0 00 d0 e1 3b e0 18 ae bd 0a d4 86 be d8 57 87 3d
       0.0068912506 -0.08500838 -0.26333648 0.06608552
0003f0 f2 b0 d3 3e e8 aa 15 be 56 fc 97 be 84 5b 3d be
       0.41345936 -0.14615977 -0.29684705 -0.18491942

bias f4 [256]
000000 c0 7e 0f bd aa ca f1 be 14 9b 93 be 1a 54 49 3e
       -0.035032988 -0.47224933 -0.28829253 0.19660988
000010 70 a8 2d be da b2 b0 3e d2 60 ca 3e 10 f6 94 3d
       -0.16958785 0.34511453 0.39526993 0.07273495
000020 f0 f1 21 bd d0 85 22 be 20 1e cf bc b0 63 ba 3d
       -0.03953737 -0.15871358 -0.02528292 0.09101045
000030 be 8b c3 be 48 bb f4 bd e8 f0 d4 be 0a 1f 9d 3e
       -0.38192552 -0.119497836 -0.41590047 0.30687743
000040 b4 07 a3 be 02 de e9 3e d8 fb 03 be f4 a7 92 be
       -0.31841815 0.4567719 -0.1288904 -0.28643763
000050 f4 fd 75 3e 30 a8 98 3d cc 44 b1 3e 98 be 55 3e
       0.24022657 0.07453954 0.346228 0.20873487
000060 6a 9d f6 be e4 ea a1 3e 58 d5 c0 bd 08 4a 62 be
       -0.48166972 0.3162452 -0.09415692 -0.22098553
000070 e4 92 a2 3e 64 b5 ba 3e 9a 01 e1 be e0 2f 39 bd
       0.31752694 0.36466515 -0.43946534 -0.045211673
000080 98 3a d2 3e 5f 0d 55 3e 12 ac d7 3e 6f 4e 50 be
       0.41060328 0.20805882 0.42123467 -0.2034242
000090 70 38 8d be 0a 23 dc 3e d0 69 55 3e 6a c1 f5 3e
       -0.2758212 0.42995483 0.20841146 0.47999126
0000a0 54 dc 55 be 7e 5e a4 be 50 0d 70 bd 62 0b f1 be
       -0.2088483 -0.32103342 -0.058606446 -0.47078997
0000b0 f8 b0 48 3e 98 d2 bc 3e 78 d1 f5 3d 40 5b 4a bd
       0.19598758 0.3687942 0.120028436 -0.04940343
0000c0 54 da 7d 3e 10 7f a2 be 24 6e fa 3e 4e 8d fe be
       0.24790317 -0.31737566 0.48912156 -0.49717182
0000d0 e6 3b f5 be 10 f9 f1 bd b8 1c d1 3e c0 0e 4d 3d
       -0.4789726 -0.11815083 0.40842223 0.050062895
0000e0 a4 a1 44 3e 56 a6 bb be 18 b8 3a 3e c0 d9 64 bd
       0.19202286 -0.36650342 0.18234289 -0.055871725
0000f0 e4 31 4d 3e 50 cc b4 3e 68 8e 5e 3e 20 36 2e bd
       0.20038563 0.35312128 0.21734011 -0.042532086
000100 60 4f fc bc e2 8e a0 be 04 31 39 be ca 5b a6 3e
       -0.030799568 -0.3135901 -0.18085104 0.32491904
000110 6c 4f 4d be 76 fc 9e 3e 3c 06 4b be 08 7d ee bd
       -0.20049828 0.31051987 -0.19826597 -0.116449416
000120 00 58 2e 3c 20 ec ea be 00 98 a3 bb 00 6e 4e bd
       0.010641098 -0.45883274 -0.004992485 -0.050397873
000130 20 fc 37 bd b0 b3 cc bd 18 d3 c9 3e ba ec bc 3e
       -0.04491818 -0.0999521 0.39418864 0.36899358
000140 96 af a7 be 74 d6 6d 3e 4c cd c8 be 32 f0 d9 be
       -0.3275115 0.23226339 -0.3921913 -0.42566067
000150 58 82 1c 3e 80 c9 f0 3b ec d9 6e be b8 e9 f6 be
       0.15284097 0.0073482394 -0.23325318 -0.48225188
000160 b4 36 46 be fc 01 2b 3e 38 f4 ec be f6 b1 f8 be
       -0.19356805 0.16699976 -0.46280074 -0.48573273
000170 e0 ea 81 3d 68 6c b8 be cc 46 e0 be 3c 44 45 be
       0.06343627 -0.36020207 -0.43804014 -0.1926431
000180 68 dd a4 bd e8 a0 e8 be 34 f0 aa be 70 48 06 3d
       -0.080500424 -0.45435262 -0.33386385 0.032783926
000190 98 66 f1 be 80 ed 8f bd c6 4c a5 be 00 78 b1 be
       -0.47148585 -0.070277214 -0.32285136 -0.34661865
0001a0 5c 3b 49 3e 62 0a c5 be 6c 01 c2 be f8 fd 91 3e
       0.1965155 -0.38484484 -0.3789171 0.28514075
0001b0 18 74 bf 3d 7a 24 e9 3e f4 da 08 be c0 4d 77 be
       0.09348315 0.45535642 -0.13364774 -0.24150753
0001c0 00 89 3d bd 00 c9 25 3b a8 3c c3 3e 18 ff fe be
       -0.04627323 0.0025296807 0.38132215 -0.49803996
0001d0 b0 d1 11 bd fc 7b 62 3e 90 f9 8c be 84 15 82 be
       -0.035600364 0.22117609 -0.2753415 -0.2540704
0001e0 e0 6e 77 3e a0 4b f5 be 88 a4 f2 3d 8c a5 c7 be
       0.24163389 -0.4790926 0.11847788 -0.3899349
0001f0 e4 7e 7e 3e ee e3 da be d8 63 9d 3e 84 56 f2 be
       0.24853092 -0.42752022 0.30740237 -0.4733163
000200 62 2f d7 be f3 34 f0 3b 9c b9 c9 3e be 3c db be
       -0.42028338 0.007330531 0.3939942 -0.4281978
000210 f0 61 64 be 20 d7 e0 3e e0 b8 ab bd 1c 1d 54 3e
       -0.22302985 0.43914127 -0.083848715 0.2071423
000220 70 49 f6 be a4 03 21 be 4a 01 82 be dc d2 d7 3e
       -0.48102903 -0.15724045 -0.25391608 0.4215306
000230 1c 80 54 3e 06 cc ba be b0 18 a5 3d 00 4f bc bb
       0.20751995 -0.36483783 0.080613494 -0.005746722
000240 88 5d 52 be 14 32 92 be c0 e6 29 be 36 c9 c9 3e
       -0.20543492 -0.28553832 -0.1659193 0.39411324
000250 a2 83 b7 be 22 5c b6 be 38 f6 1d be c0 82 0e 3c
       -0.35842615 -0.35617167 -0.15425956 0.008698165
000260 5c 5f 0b 3e 80 d3 75 3c c8 80 f6 bd c4 39 9b be
       0.13610595 0.015004039 -0.12036282 -0.3031751
000270 30 bd b7 bd 78 1b 4e be 6c d4 ce 3e 5e 31 f9 be
       -0.089716315 -0.20127666 0.4039644 -0.48670477
000280 ba 4a a3 be 72 47 d0 be 98 24 bb bd 76 7e c7 3e
       -0.3189295 -0.40679508 -0.09137839 0.3896367
000290 e0 64 e0 3e b6 dc de be 80 77 b1 bc 6a 43 96 3e
       0.43826962 -0.43527764 -0.021663427 0.29348308
0002a0 34 b0 61 3e ca b0 d1 3e 40 3b 63 bc 2a 01 ac be
       0.22039872 0.40955192 -0.013869107 -0.33594638
0002b0 10 5a a9 3e 80 92 2f be a2 8d 84 3e d8 59 fc bd
       0.33076525 -0.17145729 0.25889307 -0.12321824
0002c0 f0 a5 59 3e c8 40 e6 3e 02 0b ee 3e 06 fa e8 be
       0.21254706 0.449713 0.46492773 -0.45503253
0002d0 c6 56 a9 be ec b1 53 be 60 40 a3 be cc a1 f5 3e
       -0.33074015 -0.2067334 -0.31885052 0.47975004
0002e0 80 e0 34 bd b0 d0 a9 be a8 d5 63 be c4 67 8d be
       -0.044159412 -0.33167028 -0.22249472 -0.2761823
0002f0 fc e3 50 3e da 4b df be f8 b1 ee be d8 5a fc be
       0.20399469 -0.43612558 -0.46620154 -0.49288058
000300 a8 6d 5c 3e 28 29 7d 3e 0a ff 9e be 18 ee fd 3d
       0.21526206 0.24722731 -0.31053954 0.123989284
000310 ac f9 bc 3e e0 c9 94 3d d8 a8 d8 bd a0 4f 17 3d
       0.36909235 0.07265067 -0.105790794 0.03694117
000320 30 9a 5b bd 52 e5 80 3e b0 d3 ad be 78 d1 81 3e
       -0.05361384 0.25174958 -0.33950567 0.25355124
000330 a2 49 90 3e 9a 1a 9b be 50 0a d1 3e 76 70 fb 3e
       0.28181177 -0.30293733 0.4082818 0.49109238
000340 58 d8 49 be 88 68 0f be 74 28 7f 3e 3e 8e c8 be
       -0.19711435 -0.1400472 0.24917775 -0.39171022
000350 78 79 4a 3e 70 e7 ee 3d 4a 5d a1 3e 55 6a db be
       0.19772899 0.11665237 0.31516486 -0.42854562
000360 50 ae d4 be 40 f4 65 3e 8c 6d 38 3e b2 46 ee be
       -0.4153924 0.22456455 0.18010539 -0.4653831
000370 c6 c2 8e be 08 3c ea be 7e 67 b7 be a4 03 67 be
       -0.27882975 -0.45748925 -0.35821146 -0.22559983
000380 90 d9 d3 3e 00 d4 cb bd ae 08 93 3e 4a 1e f3 3e
       0.41376925 -0.09952545 0.2871756 0.47484046
000390 bc 55 69 3e 82 2c e5 be 34 d3 80 3e 64 4b 43 3e
       0.22786611 -0.4476052 0.25161135 0.19071728
0003a0 b2 6a c6 3e f4 86 fc be b0 71 9d 3e ee 8b d1 3e
       0.38753277 -0.4932171 0.307508 0.4092707
0003b0 62 2c ee be 50 46 56 3d 52 8a da 3e de 30 ba be
       -0.46518236 0.05231315 0.42683655 -0.36365408
0003c0 40 ff 27 3e c0 3d 62 3e ac 30 06 3e 1c 32 0f 3f
       0.16405964 0.22093868 0.13104504 0.55935836
0003d0 8a 9b d1 3e ec a2 db 3e d0 46 7f bd de b5 d6 3e
       0.4093898 0.42897737 -0.06232339 0.4193563
0003e0 d4 91 ee be 26 25 8a be a8 03 db bd d4 17 18 be
       -0.46595633 -0.26981467 -0.10694057 -0.1485284
0003f0 42 77 ec 3e 1c 7e 71 3e ee d0 a4 3e 34 22 ae 3e
       0.46184736 0.23583263 0.3219065 0.3401047

weight f4 [2, 256]
000000 c8 ef 16 bd bf e4 8b bc 97 5b 9b 3c 67 29 d4 3c
       -0.036849767 -0.017076848 0.018964572 0.025898648
000010 96 f0 2b 3d 10 29 0e bd db 95 13 bc d8 e8 2d 3d
       0.041977488 -0.03470713 -0.009007896 0.042458385
000020 70 47 e3 bb da 1f 5a bd da df 55 3d 24 0e 05 3d
       -0.0069360062 -0.053253032 0.052215435 0.03248419
000030 8d 23 f1 bc 09 21 2e bb dc 99 14 bd 91 14 7e bd
       -0.029435897 -0.0026569983 -0.036279544 -0.062031332
000040 9b e3 5f 3c 39 21 8a bc 14 81 23 3d b4 af 24 bd
       0.013665105 -0.016861545 0.03991802 -0.040206626
000050 9b 25 9d 3a ab 4b 37 3c 39 8c b6 3c 26 7c 77 3d
       0.0011989357 0.011187474 0.02228366 0.06042113
000060 1c a9 55 3d 86 fc 18 3d 5f 69 9a bc 38 1e 5f bd
       0.05216323 0.0373502 -0.018849073 -0.05447218
000070 82 b9 3c bd f4 c7 dc bb 3c fe 4f 3d c3 42 05 bb
       -0.04607535 -0.0067377035 0.050779566 -0.0020333983
000080 5f 4b 4c bc c0 b6 9a bc 2f 31 19 3c e8 e1 c8 3f
       -0.012469142 -0.01888597 0.009350105 1.5693941
000090 6b 58 92 bd 7c f5 0b bd dc ea 65 3d 0f d1 c9 3c
       -0.07145771 -0.03416966 0.056132182 0.02463582
0000a0 d2 af c2 3b 93 e6 ae 3a 9e d6 af 39 34 3b 5b bd
       0.0059413696 0.0013343863 0.00033538503 -0.053523257
0000b0 f6 ea 46 bd 9d 13 00 3d 3d 94 1d 3b 12 5f 07 bd
       -0.04856392 0.031268705 0.0024044656 -0.03304965
0000c0 76 3f ce bb d5 a9 c6 bc 17 1b 0e bc 73 06 82 bd
       -0.006294186 -0.024250904 -0.008673451 -0.06348886
0000d0 48 df 67 3d 83 7a 80 3c 91 9e b1 bc 48 58 ff bc
       0.056609422 0.015683418 -0.021682056 -0.031170025
0000e0 be 25 1b 3d 2c 18 07 bd b3 9a d7 3c 06 87 f1 3b
       0.03787779 -0.032982036 0.026318884 0.0073708324
0000f0 0d b4 f1 bc 97 d9 d0 3c 00 11 c5 bb f8 f0 83 3d
       -0.0295048 0.02549438 -0.0060139894 0.064424455
000100 6b 51 51 bc 53 36 d4 bc 06 46 34 3d 04 c1 28 bd
       -0.012775759 -0.02590481 0.044012092 -0.0411997
000110 31 2b 6b 3c 40 5c 4e 3d 14 14 1b bd 5c 20 4d 3d
       0.014353559 0.050380945 -0.037860945 0.05007969
000120 ec dc 3a 3d 4c 3b 8b 3d 16 e4 7d 3b 36 4a 3f 3d
       0.045620844 0.06798419 0.0038740686 0.046701632
000130 24 d7 17 bd bb 55 3d bc e3 1f 62 3c 73 86 5c 3b
       -0.03707041 -0.011556084 0.013801548 0.0033649474
000140 38 20 a5 3f 4a fc 4a 3d c9 e9 ef bc 8d 23 bf 3c
       1.2900457 0.049557008 -0.029286282 0.023332382
000150 93 68 35 3c 8d 85 bd 3c dd 2e a2 3c e2 0e 08 bd
       0.011072296 0.023134971 0.019797737 -0.03321732
000160 a6 a0 72 bd 2e 9a 24 3d cc 46 3a bd c8 f6 4b 3d
       -0.059235238 0.0401861 -0.045477673 0.049795896
000170 26 16 8e bd 43 7f 7f ba 15 55 16 bc 43 d8 7f 3a
       -0.06937818 -0.00097464415 -0.009175559 0.00097597035
000180 f8 d3 9c bb 53 ed f1 3c 03 9a 89 bc 3a 31 b3 3b
       -0.004786011 0.02953211 -0.016797071 0.0054685147
000190 90 09 55 3d 0a f1 4d bd b4 8e d2 3b e3 b2 65 bc
       0.052011073 -0.0502787 0.006425703 -0.014019701
0001a0 64 53 38 3d 98 d9 32 3d 0d 43 05 3c c0 08 01 bd
       0.045001402 0.043664545 0.008133662 -0.031502485
0001b0 1b c1 eb bc 70 79 5f 3d db b3 67 bc 98 ce 48 3d
       -0.028778603 0.05455917 -0.014142002 0.04902515
0001c0 85 61 d3 3c 20 c8 37 3d d6 c5 72 3d 45 20 fc bc
       0.025803337 0.04486859 0.059270702 -0.030777106
0001d0 e5 74 e6 3c ec 72 12 bd bc be 28 3d 07 41 7d bc
       0.028131912 -0.03575413 0.041197523 -0.015457398
0001e0 ae 13 91 bb 1c 59 59 bd 87 8b 86 bd 0c 9f 08 3d
       -0.004427395 -0.053063497 -0.065695815 0.033354804
0001f0 ae 8d 99 3b 1e 7a 90 bb c8 93 05 3d fe 31 13 bd
       0.004686079 -0.0044090888 0.03261164 -0.03593635
000200 93 50 4a 3c 01 64 c9 bc f7 ad ba 3c 06 2f 91 bb
       0.012348312 -0.024583818 0.022788031 -0.0044306545
000210 c1 fc 0a 3d f8 14 84 3d bc 0b 36 3d e7 3f 4f 3c
       0.03393245 0.06449312 0.044444785 0.012649513
000220 82 42 3f 3d b2 7b 57 bd 39 be db bc 11 9d ae 3a
       0.046694286 -0.0526082 -0.026824104 0.0013321956
000230 8d 79 1b bc b4 ae 20 bd d4 9a 19 bd b2 dc 1f bd
       -0.009489429 -0.03922911 -0.03750117 -0.03902883
000240 38 f7 92 bd f8 1a 7e bb 97 37 06 3d 80 32 10 3d
       -0.071760595 -0.00387734 0.03276786 0.03520441
000250 26 ee 21 bd a4 af 89 bd c7 d4 76 bd 13 2e 34 3c
       -0.039533757 -0.06722954 -0.060261514 0.010997313
000260 ec 66 58 3d 20 f8 0f bd ec 98 33 bd 59 89 c0 bc
       0.05283253 -0.03514874 -0.04384701 -0.023502992
000270 4e 14 91 3b 36 b4 8d bd 0c 9c 39 bd 30 b5 53 3d
       0.0044274693 -0.06919138 -0.045314834 0.051686466
000280 02 63 22 bd 7b f0 ac bc 76 93 e1 bb f2 99 38 bd
       -0.039645202 -0.021110764 -0.006884034 -0.04506869
000290 f3 da aa bc 1f 53 ed 3c 3a 3f 10 bd fa 15 eb 3b
       -0.020856356 0.0289703 -0.035216548 0.0071742507
0002a0 7d 15 26 bc 92 8d 56 bd ec 55 62 3d 08 16 77 3d
       -0.010136959 -0.052381106 0.055257723 0.060323745
0002b0 a4 d6 56 3d 1f 18 2f bc 8d f5 ba 3c 00 13 8c bd
       0.05245079 -0.010686903 0.022822166 -0.068395615
0002c0 53 41 cf bc 8c 51 3c bb 8b 70 48 bc 7d 72 86 3c
       -0.025299704 -0.002873513 -0.012233864 0.016412014
0002d0 25 b4 98 bc 5b 00 2a 3b 53 6f e4 bc cc 59 8c bd
       -0.018640587 0.0025940153 -0.027885115 -0.06853065
0002e0 23 61 fd b9 5e a8 30 bd 26 92 3d 3d 66 1e 31 3d
       -0.00048328293 -0.043129317 0.046281956 0.04324188
0002f0 c4 85 47 3d 2b ad 36 bc e6 39 da bb e6 9f 1d 3b
       0.048711553 -0.011149685 -0.006659734 0.0024051606
000300 8d eb 93 3d 84 79 89 3d 15 63 b8 bc 4e 10 81 bd
       0.07222662 0.067126304 -0.022508183 -0.06301938
000310 fe 6e 3e bd 56 93 23 bd ac 89 7f 3d 37 8c fc 3c
       -0.04649257 -0.039935432 0.062387154 0.030828578
000320 3c a6 8f 3d 7c 0c 66 3d fb 07 30 3c 70 f5 46 bd
       0.070141286 0.05616425 0.01074409 -0.04857391
000330 1c b0 51 3d ea a6 75 3d 30 21 17 3d fd 17 c7 bc
       0.05119334 0.059973635 0.036896884 -0.02430343
000340 12 60 21 3d ae f8 87 bb b4 fa 00 3d 55 19 85 3c
       0.03939826 -0.004149518 0.03148909 0.01624743
000350 79 48 bf 3c 6e 56 38 bd 19 4d cb bc 72 7b d9 3f
       0.023349987 -0.0450043 -0.024817036 1.6990798
000360 b4 99 50 bb 28 6b 36 bd 8e 82 40 3d 85 0a 0b 3c
       -0.0031829895 -0.044535786 0.046999507 0.008486395
000370 00 37 26 3d 34 cc 1f bd 0b 5f 3f 3c 32 b9 08 bd
       0.040579796 -0.039013103 0.011680375 -0.03337974
000380 64 06 14 bd 83 61 bb bc 03 d8 59 bc 61 f6 c7 3c
       -0.036138907 -0.022873646 -0.01329613 0.024409475
000390 6b df b1 bc b8 ce 19 3d 86 f2 90 3b 3d 95 3d 39
       -0.02171298 0.037550658 0.0044234423 0.0001808004
0003a0 41 23 d7 bc b3 5a 89 bd a1 89 09 bc 21 ae 8a bd
       -0.026261928 -0.06706753 -0.00839463 -0.06771494
0003b0 1d 40 e4 ba 13 ec 31 3c 3b 2d 63 bc 3a 0c 26 bd
       -0.0017414127 0.010859507 -0.013865764 -0.040539004
0003c0 fe f9 59 3d 64 78 38 3d ff bc ce bc fb 1a ce bf
       0.053216927 0.04503669 -0.025236605 -1.6101984
0003d0 d1 4b f1 3c e2 82 83 3d 74 1b 42 bd 2b 37 bf bc
       0.029455097 0.06421448 -0.047389463 -0.023341736
0003e0 a1 1b 80 bc 93 90 51 bc 44 6c 81 3d d7 de 1e 3a
       -0.015638174 -0.012790817 0.06319478 0.00060604274
0003f0 c4 c0 30 3d 95 1f 1c bc 67 21 88 bc 18 9f 3d bd
       0.043152586 -0.009529014 -0.01661749 -0.0462943

bias f4 [2]
000000 3d 69 23 3d a0 2f 18 3d
       0.039895285 0.037154794
