NODE/submission_models/drifter_84_tanh_1day.pth (torch, 45647 bytes, 4 tensors)

weight f4 [256, 4]
00000000: 0054 75bb 5e54 893e 16b3 d2be 8066 bcbe
00000010: f432 45be ec4b 093e 404f 22bc cefa ca3e
00000020: 70bf 35bd 4c7b 073e acbb 1abe 7048 c9bd
00000030: 8268 f4be 3b22 a9be 3413 5dbe 123b e93b
00000040: 6069 4a3e 189b 993e 8c8d adbe fcf4 5ebe
00000050: 98f7 393e 4e94 d43e 48bd d2bd 5c91 bf3e
00000060: 400d a5bd 10b5 583d 4acd e73e ce7b edbe
00000070: 6629 a1be e09e 01be dc93 47be 282f dd3e
00000080: 1aef a5be c0b0 6bbe 1ada b2be 76c2 efbe
00000090: 0470 95be 9e0e dc3e bc76 643e 0027 783e
000000a0: 406a d73c 3a3f 83be c03e ad3d 9e06 efbe
000000b0: 1afa b8be c6f9 83be 2685 a13e 2619 963e
000000c0: c811 63be 20cb 93bc 40ba a33e 827f fe3e
000000d0: 2434 4b3e c855 8a3d fea4 ab3e c0bb 96be
000000e0: f8d0 be3d 6c7a c6be 186e b1be d23e 84be
000000f0: 8caa 673e f8e7 4d3e 6aa4 97be c8ad 1a3e
00000100: 6e89 8c3e 203f 81bd 4064 9c3c 0044 ed3d
00000110: 00d1 9e3e 48cf f53e 9647 c5be eca1 3bbe
00000120: 9838 493e d01b d43e e8c5 de3e 22e2 e13e
00000130: 78ca cb3d f89c debe 9066 3c3d ac27 a0be
00000140: 8c94 eebe 3e74 e33e f0a6 c23e fe5d ffbe
00000150: 08aa bf3d c880 acbd b882 a8bd 1c5f 6abe
00000160: 8ce4 443e 34a1 97be dcb1 3b3e 1676 813e
00000170: 5c43 b73e 4871 3f3e 4a5f fdbe 0011 a6be
00000180: 38a6 7f3e 1853 d63d 96b3 c7be e868 93be
00000190: f2d4 f03e 547f ac3e b03e 5fbe d4dc 00be
000001a0: 78dd f3be 803e 13bc 78c8 c0be a277 c5be
000001b0: 20b0 e1bc a0bf 993d f4ad 51be 98e7 973e
000001c0: 38c9 9bbe 6849 e83e d06f af3e 64e1 d7be
000001d0: 88db febd 80d2 b83c 1867 953d d0dd f23d
000001e0: 5cec 483e e059 f53c ccd1 79be d445 723e
000001f0: 5691 f5be a0bb 97be 3c2b 00be ec66 79be
00000200: 5c1d 33be bad2 d1be 00d2 d9bd f8e2 da3d
00000210: 185f a93f a61c 963f 5a1b 3f3f bd90 c3bd
00000220: 80ac 633c c0ad 30bd 103d cf3d 60c6 a23e
00000230: ba7e f23e 0693 a23e 603b f33e 1176 08bd
00000240: 66f8 e5be 40ba 72be ce4f ae3e 006b 54bb
00000250: dc7c 7ebe 022d c4be 0094 efbe ec10 d8be
00000260: 70b4 cfbd 5664 8c3e 7467 8a3e 02e5 f6be
00000270: 2eb0 9f3e 8a52 c8be f07b d8bd 1c9a 4fbe
00000280: f03c c5bd 100e c9bd bab8 e5be 440a ddbe
00000290: 283c a0bd 80e1 d33b b896 68be b8de 403e
000002a0: 3a6a e6be c036 0abd a221 e13e 38d7 50be
000002b0: 362b e73e 386c 393e ae07 e7be 74f8 a13e
000002c0: f053 6cbd 708f 64be 14b6 cc3e 54df cebe
000002d0: b0c2 5b3d c064 d6bd 16d0 b63e 08ec 0e3e
000002e0: cc04 763e 40d1 343e 003f f6bd 505a d7bd
000002f0: 00f7 d2be 4cb6 8a3e 2642 cb3e 5c29 af3e
00000300: ac93 b4be 60ae b63c 9076 b4be 88ec 8cbe
00000310: 302c 95be 34f9 2e3e c48d 98be 00ba 32bc
00000320: a04f ac3c 0406 a53e fa83 c1be 44bf afbe
00000330: 3ca6 94be d62e b33e cc0b 38be e0ee d73e
00000340: a024 393e 40aa 813d 00ed 73bb 086d cabd
00000350: 407a 803d 30d3 e9bd 003e 66bb c0a7 823d
00000360: 983e c8be 7a2d 86be d8b7 ce3e 86c1 cfbe
00000370: 200f 13bd c03e fd3e 10f4 383e c0f0 673c
00000380: 26da ddbe 2ca2 7d3e 0858 b6be a856 11be
00000390: ccc8 2bbe 38a4 97bd 8036 b33b 9626 d33e
000003a0: 80ab 7f3d 204c e53e 3099 9c3e c6d8 a1be
000003b0: 54a2 653e 24f7 b4be 9cff 58be 4097 163e
000003c0: 5d32 bdbf bdcb ebbe df5f 37bf 067f bd3d
000003d0: 7acb 833e 5a93 f7be 4215 b93e 30b1 d3be
000003e0: 00d0 e13b e018 aebd 0ad4 86be d857 873d
000003f0: f2b0 d33e e8aa 15be 56fc 97be 845b 3dbe
-0.00374341 0.2682218 -0.41152257 -0.3679695 -0.19257718 0.13407868 -0.00990659 0.39644474
-0.044372022 0.13230628 -0.15110654 -0.098282695 -0.47735983 -0.33033928 -0.21589357 0.0071176374
0.1976676 0.3000114 -0.33897054 -0.21773142 0.18160856 0.41519397 -0.10290009 0.37415588
-0.08059168 0.05290705 0.4527381 -0.46383518 -0.31476897 -0.12658262 -0.19489998 0.4320004
-0.32408983 -0.23016644 -0.34932023 -0.4682805 -0.29187024 0.42979902 0.22310919 0.24233627
0.026295781 -0.25634176 0.08459234 -0.46684736 -0.36128312 -0.257765 0.31546897 0.29316062
-0.22174752 -0.018041193 0.31978035 0.49706656 0.19844109 0.06754643 0.33524317 -0.29440117
0.093172014 -0.38765275 -0.34654307 -0.25829178 0.22623652 0.2010802 -0.29617625 0.15105355
0.274486 -0.06310868 0.019090772 0.115852356 0.3101883 0.48009706 -0.38531178 -0.18323487
0.19650495 0.4142747 0.43510365 0.44117838 0.09950727 -0.43479133 0.04599625 -0.31280267
-0.46597707 0.44424623 0.38017988 -0.49876398 0.09358603 -0.084230006 -0.082280576 -0.22887844
0.19227809 -0.29615176 0.18329567 0.25285405 0.3579358 0.18695557 -0.49486762 -0.32434845
0.24965751 0.104650676 -0.390042 -0.28790975 0.47037464 0.33690894 -0.21801257 -0.12584239
-0.47629905 -0.008987069 -0.37652946 -0.38567835 -0.027549803 0.07507253 -0.20476514 0.2966888
-0.30426955 0.45368505 0.34264994 -0.42164147 -0.12444216 0.022561312 0.07295054 0.118587136
0.19621414 0.029950082 -0.24396437 0.2365945 -0.47962445 -0.29635334 -0.12516493 -0.24355668
-0.17491668 -0.40981084 -0.106357574 0.10687822 1.3232145 1.1727493 0.7465111 -0.09549091
0.013896108 -0.04313445 0.101190686 0.31791973 0.4736231 0.31752795 0.47506237 -0.033315722
-0.44916075 -0.23703861 0.3404526 -0.003241241 -0.24852318 -0.38315588 -0.46792603 -0.4220041
-0.101418376 0.274203 0.27032053 -0.48221594 0.31189102 -0.39125472 -0.10570514 -0.20273632
-0.096307635 -0.09817135 -0.44867498 -0.43171895 -0.07823974 0.0064660907 -0.22713745 0.1883496
-0.4500292 -0.03374362 0.43970972 -0.203946 0.45150155 0.18107688 -0.45123047 0.31634867
-0.057697237 -0.22320342 0.39982665 -0.4040476 0.053652465 -0.10468435 0.35705632 0.13957226
0.24025267 0.17657948 -0.12023735 -0.105152726 -0.4120407 0.27092206 0.39698905 0.34211242
-0.35268915 0.022299945 -0.35246706 -0.2752421 -0.29135275 0.17087251 -0.2979566 -0.010908604
0.021034062 0.32231152 -0.37796003 -0.34325612 -0.29033077 0.3499667 -0.1797325 0.42174435
0.18080378 0.06331301 -0.003722012 -0.09884077 0.06273317 -0.11417234 -0.003513217 0.06379652
-0.39110255 -0.2620657 0.40374637 -0.40577334 -0.035903096 0.49461937 0.18061852 0.01415652
-0.43330497 0.24768895 -0.35614038 -0.14193213 -0.16775817 -0.07404369 0.0054691434 0.41240376
0.062419415 0.4478464 0.30585623 -0.31610698 0.22425205 -0.35344803 -0.21191257 0.14706135
-1.4780995 -0.46053877 -0.7163066 0.092527434 0.25741178 -0.48354608 0.3614903 -0.4134612
0.0068912506 -0.08500838 -0.26333648 0.06608552 0.41345936 -0.14615977 -0.29684705 -0.18491942

bias f4 [256]
00000000: c07e 0fbd aaca f1be 149b 93be 6abd 4d3e
00000010: 70a8 2dbe dab2 b03e d260 ca3e 10f6 943d
00000020: f0f1 21bd d085 22be 201e cfbc b063 ba3d
00000030: be8b c3be 48bb f4bd e8f0 d4be 0a1f 9d3e
00000040: b407 a3be 02de e93e d8fb 03be f4a7 92be
00000050: f4fd 753e 30a8 983d cc44 b13e 98be 553e
00000060: 6a9d f6be e4ea a13e 58d5 c0bd 084a 62be
00000070: e492 a23e 64b5 ba3e 9a01 e1be e02f 39bd
00000080: 983a d23e 937c 433e 12ac d73e be74 2fbe
00000090: 7038 8dbe 0a23 dc3e d069 553e 6ac1 f53e
000000a0: 54dc 55be 7e5e a4be 500d 70bd 620b f1be
000000b0: f8b0 483e 98d2 bc3e 78d1 f53d 405b 4abd
000000c0: 54da 7d3e 107f a2be 246e fa3e 4e8d febe
000000d0: e63b f5be 10f9 f1bd b81c d13e c00e 4d3d
000000e0: a4a1 443e 56a6 bbbe 18b8 3a3e c0d9 64bd
000000f0: a6fe 623e 50cc b43e 688e 5e3e 2036 2ebd
00000100: 604f fcbc e28e a0be 0431 39be ca5b a63e
00000110: 6c4f 4dbe 76fc 9e3e 3c06 4bbe 087d eebd
00000120: 0058 2e3c 20ec eabe 0098 a3bb 006e 4ebd
00000130: 20fc 37bd b0b3 ccbd 18d3 c93e baec bc3e
00000140: b1af adbe 74d6 6d3e 4ccd c8be 32f0 d9be
00000150: 5882 1c3e 80c9 f03b ecd9 6ebe b8e9 f6be
00000160: b436 46be fc01 2b3e 38f4 ecbe f6b1 f8be
00000170: e0ea 813d 686c b8be cc46 e0be 3c44 45be
00000180: 68dd a4bd e8a0 e8be 34f0 aabe 7048 063d
00000190: 9866 f1be 80ed 8fbd c64c a5be 0078 b1be
000001a0: 5c3b 493e 620a c5be 6c01 c2be f8fd 913e
000001b0: 1874 bf3d 7a24 e93e f4da 08be c04d 77be
000001c0: 0089 3dbd 00c9 253b a83c c33e 18ff febe
000001d0: b0d1 11bd fc7b 623e 90f9 8cbe 8415 82be
000001e0: e06e 773e a04b f5be 88a4 f23d 1878 c8be
000001f0: e47e 7e3e eee3 dabe d863 9d3e 8456 f2be
00000200: 622f d7be 80e1 053c 9cb9 c93e be3c dbbe
00000210: f061 64be 20d7 e03e e0b8 abbd 1c1d 543e
00000220: 3f3f edbe a403 21be 4a01 82be dcd2 d73e
00000230: 1c80 543e 06cc babe b018 a53d 004f bcbb
00000240: 885d 52be 1432 92be c0e6 29be 36c9 c93e
00000250: a283 b7be 225c b6be 38f6 1dbe c082 0e3c
00000260: 5c5f 0b3e 80d3 753c c880 f6bd c439 9bbe
00000270: 30bd b7bd 781b 4ebe 6cd4 ce3e 5e31 f9be
00000280: ba4a a3be 7247 d0be 9824 bbbd 767e c73e
00000290: e064 e03e b6dc debe 8077 b1bc 6a43 963e
000002a0: 34b0 613e cab0 d13e 403b 63bc 2a01 acbe
000002b0: 105a a93e 8092 2fbe a28d 843e d859 fcbd
000002c0: f0a5 593e c840 e63e 020b ee3e 06fa e8be
000002d0: c656 a9be ecb1 53be 6040 a3be cca1 f53e
000002e0: 80e0 34bd b0d0 a9be a8d5 63be c467 8dbe
000002f0: fce3 503e da4b dfbe f8b1 eebe d85a fcbe
00000300: a86d 5c3e 2829 7d3e 0aff 9ebe 18ee fd3d
00000310: acf9 bc3e e0c9 943d d8a8 d8bd a04f 173d
00000320: 309a 5bbd 52e5 803e b0d3 adbe 78d1 813e
00000330: a249 903e 9a1a 9bbe 500a d13e 7670 fb3e
00000340: 58d8 49be 8868 0fbe 7428 7f3e 3e8e c8be
00000350: 7879 4a3e 70e7 ee3d 4a5d a13e b7b0 dabe
00000360: 50ae d4be 40f4 653e 8c6d 383e b246 eebe
00000370: c6c2 8ebe 083c eabe 7e67 b7be a403 67be
00000380: 90d9 d33e 00d4 cbbd ae08 933e 4a1e f33e
00000390: bc55 693e 822c e5be 34d3 803e 644b 433e
000003a0: b26a c63e f486 fcbe b071 9d3e ee8b d13e
000003b0: 622c eebe 5046 563d 528a da3e de30 babe
000003c0: 40ff 273e c03d 623e ac30 063e b44f d53e
000003d0: 8a9b d13e eca2 db3e d046 7fbd deb5 d63e
000003e0: d491 eebe 2625 8abe a803 dbbd d417 18be
000003f0: 4277 ec3e 1c7e 713e eed0 a43e 3422 ae3e
-0.035032988 -0.47224933 -0.28829253 0.20091787 -0.16958785 0.34511453 0.39526993 0.07273495
-0.03953737 -0.15871358 -0.02528292 0.09101045 -0.38192552 -0.119497836 -0.41590047 0.30687743
-0.31841815 0.4567719 -0.1288904 -0.28643763 0.24022657 0.07453954 0.346228 0.20873487
-0.48166972 0.3162452 -0.09415692 -0.22098553 0.31752694 0.36466515 -0.43946534 -0.045211673
0.41060328 0.1909049 0.42123467 -0.17134377 -0.2758212 0.42995483 0.20841146 0.47999126
-0.2088483 -0.32103342 -0.058606446 -0.47078997 0.19598758 0.3687942 0.120028436 -0.04940343
0.24790317 -0.31737566 0.48912156 -0.49717182 -0.4789726 -0.11815083 0.40842223 0.050062895
0.19202286 -0.36650342 0.18234289 -0.055871725 0.22167453 0.35312128 0.21734011 -0.042532086
-0.030799568 -0.3135901 -0.18085104 0.32491904 -0.20049828 0.31051987 -0.19826597 -0.116449416
0.010641098 -0.45883274 -0.004992485 -0.050397873 -0.04491818 -0.0999521 0.39418864 0.36899358
-0.33923104 0.23226339 -0.3921913 -0.42566067 0.15284097 0.0073482394 -0.23325318 -0.48225188
-0.19356805 0.16699976 -0.46280074 -0.48573273 0.06343627 -0.36020207 -0.43804014 -0.1926431
-0.080500424 -0.45435262 -0.33386385 0.032783926 -0.47148585 -0.070277214 -0.32285136 -0.34661865
0.1965155 -0.38484484 -0.3789171 0.28514075 0.09348315 0.45535642 -0.13364774 -0.24150753
-0.04627323 0.0025296807 0.38132215 -0.49803996 -0.035600364 0.22117609 -0.2753415 -0.2540704
0.24163389 -0.4790926 0.11847788 -0.39154124 0.24853092 -0.42752022 0.30740237 -0.4733163
-0.42028338 0.008171439 0.3939942 -0.4281978 -0.22302985 0.43914127 -0.083848715 0.2071423
-0.46337315 -0.15724045 -0.25391608 0.4215306 0.20751995 -0.36483783 0.080613494 -0.005746722
-0.20543492 -0.28553832 -0.1659193 0.39411324 -0.35842615 -0.35617167 -0.15425956 0.008698165
0.13610595 0.015004039 -0.12036282 -0.3031751 -0.089716315 -0.20127666 0.4039644 -0.48670477
-0.3189295 -0.40679508 -0.09137839 0.3896367 0.43826962 -0.43527764 -0.021663427 0.29348308
0.22039872 0.40955192 -0.013869107 -0.33594638 0.33076525 -0.17145729 0.25889307 -0.12321824
0.21254706 0.449713 0.46492773 -0.45503253 -0.33074015 -0.2067334 -0.31885052 0.47975004
-0.044159412 -0.33167028 -0.22249472 -0.2761823 0.20399469 -0.43612558 -0.46620154 -0.49288058
0.21526206 0.24722731 -0.31053954 0.123989284 0.36909235 0.07265067 -0.105790794 0.03694117
-0.05361384 0.25174958 -0.33950567 0.25355124 0.28181177 -0.30293733 0.4082818 0.49109238
-0.19711435 -0.1400472 0.24917775 -0.39171022 0.19772899 0.11665237 0.31516486 -0.42712948
-0.4153924 0.22456455 0.18010539 -0.4653831 -0.27882975 -0.45748925 -0.35821146 -0.22559983
0.41376925 -0.09952545 0.2871756 0.47484046 0.22786611 -0.4476052 0.25161135 0.19071728
0.38753277 -0.4932171 0.307508 0.4092707 -0.46518236 0.05231315 0.42683655 -0.36365408
0.16405964 0.22093868 0.13104504 0.4166237 0.4093898 0.42897737 -0.06232339 0.4193563
-0.46595633 -0.26981467 -0.10694057 -0.1485284 0.46184736 0.23583263 0.3219065 0.3401047

weight f4 [2, 256]
00000000: 714d ffbc 9d76 babc 75ed c93c cd3a 023d
00000010: aa39 433d 2072 25bd c3c7 59bb c49f 163d
00000020: defe a3ba ee68 71bd ee28 6d3d 5b8a db3c
00000030: ceda 0fbd a66e 463b 8aa1 fabc d3ae 8abd
00000040: b4bf 023c 8c1e 37bc 0038 0c3d a066 0dbd
00000050: 4791 e13b e637 8a3c 59fa 873c a362 873d
00000060: 30f2 6c3d 9845 303d 1eaf 57bc 4c67 76bd
00000070: 6e70 25bd de87 4bbc 28b5 383d e84c 6f3b
00000080: b7b7 94bc cbe9 673f f334 703b 2870 c53c
00000090: f7fc 9dbd e758 e9bc f033 7d3d ef62 f83c
000000a0: c67b 3e3c 338e 8ebb 4745 c53b 4884 72bd
000000b0: e2a1 2fbd 5995 d13c ec88 043c 23a8 1ebd
000000c0: b9bd 1fba f317 98bc bfdc 43bb ffaa 8dbd
000000d0: 5c28 7f3d 1cd1 233c b10c 83bc 36f5 16bd
000000e0: d06e 323d 3d61 1ebd 4816 033d 0afd dc3a
000000f0: 0b60 1bbf 726b ff3c 5eac 3fbc 8595 8f3d
00000100: c75a e8bb 1464 01bd f2fc 1c3d f077 11bd
00000110: 7b27 a43c 2c13 373d 265d 32bd 48d7 353d
00000120: d893 233d d9df 963d cf9c 1c3c 2201 283d
00000130: 3620 2fbd 6b63 c0bb fcfb 043c 3b09 18bb
00000140: 99b6 4c3d 36b3 333d e557 c1bc ad91 903c
00000150: 1f89 b03b adf3 8e3c 2c3a 673c f357 1fbd
00000160: d9f4 84bd 1a51 0d3d e08f 51bd dc3f 633d
00000170: b3ba 99bd f757 9a3b fe78 73bc d74c 9abb
00000180: c68d 2bbc ad3f 103d e12b b8bc 13d1 62b9
00000190: 7cc0 3d3d 1e3a 65bd 346b 463c fc8e 08bc
000001a0: 500a 213d 8490 1b3d f666 623c d251 18bd
000001b0: 352f bdbc 84c2 763d d36b a2bc 8485 313d
000001c0: a1cf a43c 0c7f 203d 7307 853d 618e cdbc
000001d0: 6783 0a3d febb 29bd d007 403d 6332 adbc
000001e0: a2ad 25bc 30a2 70bd 1530 92bd a1da 2f3f
000001f0: 7ee8 82ba d960 25bc 9d95 dc3c 107b 2abd
00000200: 1159 da3b 3fc7 6b3f d73f e93c 3b63 a43a
00000210: 6b67 e73c 85b9 8f3d a8c2 1e3d f131 963c
00000220: 8727 e1be 9e32 40bd 572c adbc 93a0 8ebb
00000230: 769d 78bc a065 09bd e6e3 30bd c425 37bd
00000240: c39b 9ebd 87aa 1cbc 36dd dd3c 927b 273d
00000250: 3837 39bd 3154 95bd f50e 87bd 19a9 883c
00000260: 00b0 6f3d 3041 27bd 00e2 4abd 77f7 91bc
00000270: 1aad 253c c358 99bd f852 22bd 1c6c 3c3d
00000280: 14ac 39bd 5b82 dbbc d82e 9dba de50 21bd
00000290: d36c d9bc 90f2 0d3d 4c88 27bd e6ae 523c
000002a0: c39c 81bc 7e44 3fbd 009f 793d 952f 873d
000002b0: b81f 6e3d 47e8 a3bb ad63 8c3c 8db7 97bd
000002c0: 33d3 fdbc 223e 383b 0199 d6bb 14c1 2f3c
000002d0: a844 54bc eca3 073c 9c80 09bd 59fe 97bd
000002e0: c371 aa3b 4a5f 19bd 3adb 543d 7a67 483d
000002f0: b03c 303d 5312 b3bb d640 4abc c5ef 56bb
00000300: 1990 9f3d 111e 953d 35d1 89bc dbb4 8cbd
00000310: ea25 27bd 68dc 3abd 5f69 8b3d 258f 153d
00000320: c94a 9b3d 9055 7d3d 0b96 863c 843e 5ebd
00000330: 0867 3a3d 0378 863d 426a 2e3d 1b86 98bc
00000340: fe16 0a3d 1e20 21bc 8163 d33c c40e 2d3c
00000350: 99b6 903c 5a0d 21bd 37bb 9cbc 1085 833f
00000360: 00f6 233b 1422 1fbd 7a39 293d 6c2e 683c
00000370: eced 0e3d 2083 08bd 0976 c43b 4302 20bd
00000380: 764f 2bbd 63f3 e9bc 1e68 f9bb 7f64 993c
00000390: 4b71 e0bc a485 023d 3b55 a5ba 8534 c03b
000003a0: 5d91 a8bc 3fff 94bd 0597 31bb af52 96bd
000003b0: d337 813b 1a88 873c 8428 a0bc 4e55 3dbd
000003c0: 1243 713d 78c1 4f3d df4e fdbc 9c49 a2bf
000003d0: edb9 c23c 6f27 8f3d 60d2 2abd 0bc9 edbc
000003e0: 7fad aebc 1bd9 e8bb d110 8d3d b923 ce3b
000003f0: b077 193d 7e43 79bc 47b3 b6bc 2ce8 54bd
-0.031164857 -0.022761637 0.024649361 0.031794358 0.047662415 -0.04039204 -0.003323064 0.036773458
-0.001251187 -0.05893796 0.05790036 0.026799371 -0.035120778 0.0030278354 -0.030594606 -0.06771626
0.007980276 -0.011176717 0.034233093 -0.0345217 0.0068837735 0.016872358 0.016598867 0.0661061
0.057848155 0.04303512 -0.01316431 -0.060157105 -0.040390424 -0.01242253 0.04509464 0.0036514346
-0.018154008 0.90591115 0.0036652654 0.024101332 -0.07714265 -0.028484775 0.06181711 0.030320613
0.01162619 -0.0043504476 0.0060202214 -0.059208184 -0.042878993 0.02558391 0.008089285 -0.038734566
-0.00060936395 -0.018566107 -0.0029886214 -0.069173805 0.06229435 0.009998586 -0.015997263 -0.036854945
0.04356271 -0.038666952 0.03200367 0.001686008 -0.60693425 0.031179164 -0.01169881 0.070109405
-0.0070908996 -0.031589583 0.038327165 -0.035514772 0.020038357 0.044696018 -0.043545865 0.04439476
0.039935917 0.07366914 0.00955887 0.041016705 -0.042755328 -0.0058712265 0.008116718 -0.002319886
0.049978826 0.04387208 -0.023601482 0.017647589 0.00538744 0.017450178 0.01411299 -0.038902234
-0.064920135 0.034501173 -0.0511626 0.055480823 -0.07506313 0.0047101933 -0.01486039 -0.004708867
-0.010470813 0.035216976 -0.02248186 -0.00021630926 0.046326146 -0.055963628 0.01211052 -0.008334871
0.039316475 0.037979618 0.013818493 -0.037187405 -0.0230938 0.0602441 -0.019826805 0.04334022
0.020118536 0.03918366 0.064955615 -0.025092306 0.03381672 -0.04143905 0.04688245 -0.02114219
-0.010112198 -0.058748424 -0.07138077 0.68692976 -0.0009987501 -0.010093891 0.02692681 -0.041621268
0.0066634496 0.921009 0.028472824 0.001254178 0.028247556 0.07017807 0.038759857 0.01833436
-0.4397547 -0.046923272 -0.021139307 -0.004352638 -0.01517426 -0.033544183 -0.04318609 -0.04471375
-0.07744553 -0.009562141 0.02708302 0.04088933 -0.045218676 -0.07291449 -0.0659465 0.016682195
0.058517456 -0.040833652 -0.049531937 -0.017818196 0.010112071 -0.07487633 -0.039629906 0.04600154
-0.045330122 -0.026795557 -0.001199211 -0.03938376 -0.02654115 0.034655154 -0.040901467 0.012859082
-0.01582182 -0.04669618 0.06094265 0.066008724 0.058135718 -0.005002055 0.017137373 -0.074080564
-0.030984497 0.0028113206 -0.006549001 0.010727186 -0.012955822 0.008278828 -0.033569917 -0.0742156
0.0052015497 -0.03744439 0.051966883 0.048926808 0.043026626 -0.005464831 -0.01234456 -0.0032796722
0.07791156 0.07281125 -0.01682339 -0.06870433 -0.040807642 -0.045620352 0.06807207 0.036513466
0.075826235 0.061849177 0.016428968 -0.05425884 0.045508415 0.06565859 0.042581804 -0.018618634
0.033713333 -0.0098343175 0.025804283 0.010562602 0.017665194 -0.039319374 -0.01913224 1.0274982
0.0025018454 -0.03885086 0.04131458 0.014171224 0.03489487 -0.033328176 0.005995516 -0.039064657
-0.041823827 -0.028558439 -0.0076112887 0.018724678 -0.027397772 0.03186573 -0.0012613902 0.005865636
-0.020577127 -0.07275247 -0.0027098071 -0.073399894 0.0039434223 0.01654439 -0.01955057 -0.04622393
0.058901854 0.050721616 -0.030921398 -1.2678714 0.023770297 0.06989943 -0.041704535 -0.029026529
-0.021322964 -0.007105959 0.06887973 0.0062908796 0.03746766 -0.015213845 -0.022302283 -0.05197923

bias f4 [2]
00000000: 1b20 0c3d 9dc6 e63c
0.034210306 0.028170878
