NODE/submission_models/drifter_14_tanh_1day.pth (torch, 81679 bytes, 4 tensors)

weight f4 [256, 4]
00000000: 0054 75bb 5e54 893e 16b3 d2be 8066 bcbe
00000010: f432 45be ec4b 093e 404f 22bc cefa ca3e
00000020: 70bf 35bd 4c7b 073e acbb 1abe 7048 c9bd
00000030: 1ed4 f2be c5ee a8be 2918 60be 5c88 dd3a
00000040: 6069 4a3e 189b 993e 8c8d adbe fcf4 5ebe
00000050: 98f7 393e 4e94 d43e 48bd d2bd 5c91 bf3e
00000060: 400d a5bd 10b5 583d 4acd e73e ce7b edbe
00000070: 6629 a1be e09e 01be dc93 47be 282f dd3e
00000080: 1aef a5be c0b0 6bbe 1ada b2be 76c2 efbe
00000090: 0470 95be 9e0e dc3e bc76 643e 0027 783e
000000a0: 406a d73c 3a3f 83be c03e ad3d 9e06 efbe
000000b0: 1afa b8be c6f9 83be 2685 a13e 2619 963e
000000c0: c811 63be 20cb 93bc 40ba a33e 827f fe3e
000000d0: 2434 4b3e c855 8a3d fea4 ab3e c0bb 96be
000000e0: f8d0 be3d 6c7a c6be 186e b1be d23e 84be
000000f0: 8caa 673e f8e7 4d3e 6aa4 97be c8ad 1a3e
00000100: 6e89 8c3e 203f 81bd 4064 9c3c 0044 ed3d
00000110: 00d1 9e3e 48cf f53e 9647 c5be eca1 3bbe
00000120: 9838 493e d01b d43e e8c5 de3e 22e2 e13e
00000130: 78ca cb3d f89c debe 9066 3c3d ac27 a0be
00000140: 8c94 eebe 3e74 e33e f0a6 c23e fe5d ffbe
00000150: 08aa bf3d c880 acbd b882 a8bd 1c5f 6abe
00000160: 8ce4 443e 34a1 97be dcb1 3b3e 1676 813e
00000170: 5c43 b73e 4871 3f3e 4a5f fdbe 0011 a6be
00000180: 38a6 7f3e 1853 d63d 96b3 c7be e868 93be
00000190: f2d4 f03e 547f ac3e b03e 5fbe d4dc 00be
000001a0: 78dd f3be 803e 13bc 78c8 c0be a277 c5be
000001b0: 20b0 e1bc a0bf 993d f4ad 51be 98e7 973e
000001c0: 38c9 9bbe 6849 e83e d06f af3e 64e1 d7be
000001d0: 88db febd 80d2 b83c 1867 953d d0dd f23d
000001e0: 5cec 483e e059 f53c ccd1 79be d445 723e
000001f0: 5691 f5be a0bb 97be 3c2b 00be ec66 79be
00000200: 5c1d 33be bad2 d1be 00d2 d9bd f8e2 da3d
00000210: d730 4ac0 98ac 8abc a83e 533e 1edb d0bc
00000220: 80ac 633c c0ad 30bd 103d cf3d 60c6 a23e
00000230: 3b55 5d40 9d46 4240 d754 483f 9de5 9cbd
00000240: 66f8 e5be 40ba 72be 114e ae3e 3861 62bb
00000250: dc7c 7ebe 022d c4be 0094 efbe ec10 d8be
00000260: 70b4 cfbd 5664 8c3e 7467 8a3e 02e5 f6be
00000270: 2eb0 9f3e 8a52 c8be f07b d8bd 1c9a 4fbe
00000280: f03c c5bd 100e c9bd bab8 e5be 440a ddbe
00000290: 283c a0bd 80e1 d33b b896 68be b8de 403e
000002a0: 3a6a e6be c036 0abd a221 e13e 38d7 50be
000002b0: 362b e73e 386c 393e ae07 e7be 74f8 a13e
000002c0: f053 6cbd 708f 64be 14b6 cc3e 54df cebe
000002d0: b0c2 5b3d c064 d6bd 16d0 b63e 08ec 0e3e
000002e0: cc04 763e 40d1 343e 003f f6bd 505a d7bd
000002f0: 00f7 d2be 4cb6 8a3e 2642 cb3e 5c29 af3e
00000300: ac93 b4be 60ae b63c 9076 b4be 88ec 8cbe
00000310: 302c 95be 34f9 2e3e c48d 98be 00ba 32bc
00000320: a04f ac3c 0406 a53e fa83 c1be 44bf afbe
00000330: 3ca6 94be d62e b33e cc0b 38be e0ee d73e
00000340: a024 393e 40aa 813d 00ed 73bb 086d cabd
00000350: 407a 803d 30d3 e9bd 003e 66bb c0a7 823d
00000360: 983e c8be 7a2d 86be d8b7 ce3e 86c1 cfbe
00000370: 200f 13bd c03e fd3e 10f4 383e c0f0 673c
00000380: 26da ddbe 2ca2 7d3e 0858 b6be a856 11be
00000390: ccc8 2bbe 38a4 97bd 8036 b33b 9626 d33e
000003a0: 80ab 7f3d 204c e53e 3099 9c3e c6d8 a1be
000003b0: 54a2 653e 24f7 b4be 9cff 58be 4097 163e
000003c0: 4456 0540 a578 3c40 d985 673e 91dc a1bc
000003d0: 7acb 833e 5a93 f7be 4215 b93e 30b1 d3be
000003e0: 00d0 e13b e018 aebd 0ad4 86be d857 873d
000003f0: f2b0 d33e e8aa 15be 56fc 97be 845b 3dbe
-0.00374341 0.2682218 -0.41152257 -0.3679695 -0.19257718 0.13407868 -0.00990659 0.39644474
-0.044372022 0.13230628 -0.15110654 -0.098282695 -0.47427458 -0.32994667 -0.21884216 0.00169016
0.1976676 0.3000114 -0.33897054 -0.21773142 0.18160856 0.41519397 -0.10290009 0.37415588
-0.08059168 0.05290705 0.4527381 -0.46383518 -0.31476897 -0.12658262 -0.19489998 0.4320004
-0.32408983 -0.23016644 -0.34932023 -0.4682805 -0.29187024 0.42979902 0.22310919 0.24233627
0.026295781 -0.25634176 0.08459234 -0.46684736 -0.36128312 -0.257765 0.31546897 0.29316062
-0.22174752 -0.018041193 0.31978035 0.49706656 0.19844109 0.06754643 0.33524317 -0.29440117
0.093172014 -0.38765275 -0.34654307 -0.25829178 0.22623652 0.2010802 -0.29617625 0.15105355
0.274486 -0.06310868 0.019090772 0.115852356 0.3101883 0.48009706 -0.38531178 -0.18323487
0.19650495 0.4142747 0.43510365 0.44117838 0.09950727 -0.43479133 0.04599625 -0.31280267
-0.46597707 0.44424623 0.38017988 -0.49876398 0.09358603 -0.084230006 -0.082280576 -0.22887844
0.19227809 -0.29615176 0.18329567 0.25285405 0.3579358 0.18695557 -0.49486762 -0.32434845
0.24965751 0.104650676 -0.390042 -0.28790975 0.47037464 0.33690894 -0.21801257 -0.12584239
-0.47629905 -0.008987069 -0.37652946 -0.38567835 -0.027549803 0.07507253 -0.20476514 0.2966888
-0.30426955 0.45368505 0.34264994 -0.42164147 -0.12444216 0.022561312 0.07295054 0.118587136
0.19621414 0.029950082 -0.24396437 0.2365945 -0.47962445 -0.29635334 -0.12516493 -0.24355668
-0.17491668 -0.40981084 -0.106357574 0.10687822 -3.159231 -0.016928002 0.2062937 -0.025495108
0.013896108 -0.04313445 0.101190686 0.31791973 3.458327 3.03556 0.78254455 -0.07660983
-0.44916075 -0.23703861 0.34043935 -0.003454281 -0.24852318 -0.38315588 -0.46792603 -0.4220041
-0.101418376 0.274203 0.27032053 -0.48221594 0.31189102 -0.39125472 -0.10570514 -0.20273632
-0.096307635 -0.09817135 -0.44867498 -0.43171895 -0.07823974 0.0064660907 -0.22713745 0.1883496
-0.4500292 -0.03374362 0.43970972 -0.203946 0.45150155 0.18107688 -0.45123047 0.31634867
-0.057697237 -0.22320342 0.39982665 -0.4040476 0.053652465 -0.10468435 0.35705632 0.13957226
0.24025267 0.17657948 -0.12023735 -0.105152726 -0.4120407 0.27092206 0.39698905 0.34211242
-0.35268915 0.022299945 -0.35246706 -0.2752421 -0.29135275 0.17087251 -0.2979566 -0.010908604
0.021034062 0.32231152 -0.37796003 -0.34325612 -0.29033077 0.3499667 -0.1797325 0.42174435
0.18080378 0.06331301 -0.003722012 -0.09884077 0.06273317 -0.11417234 -0.003513217 0.06379652
-0.39110255 -0.2620657 0.40374637 -0.40577334 -0.035903096 0.49461937 0.18061852 0.01415652
-0.43330497 0.24768895 -0.35614038 -0.14193213 -0.16775817 -0.07404369 0.0054691434 0.41240376
0.062419415 0.4478464 0.30585623 -0.31610698 0.22425205 -0.35344803 -0.21191257 0.14706135
2.0833902 2.9448636 0.22609653 -0.019758495 0.25741178 -0.48354608 0.3614903 -0.4134612
0.0068912506 -0.08500838 -0.26333648 0.06608552 0.41345936 -0.14615977 -0.29684705 -0.18491942

bias f4 [256]
00000000: c07e 0fbd aaca f1be 149b 93be c821 4d3e
00000010: 70a8 2dbe dab2 b03e d260 ca3e 10f6 943d
00000020: f0f1 21bd d085 22be 201e cfbc b063 ba3d
00000030: be8b c3be 48bb f4bd e8f0 d4be 0a1f 9d3e
00000040: b407 a3be 02de e93e d8fb 03be f4a7 92be
00000050: f4fd 753e 30a8 983d cc44 b13e 98be 553e
00000060: 6a9d f6be e4ea a13e 58d5 c0bd 084a 62be
00000070: e492 a23e 64b5 ba3e 9a01 e1be e02f 39bd
00000080: 983a d23e 9238 303e 12ac d73e 7285 edbd
00000090: 7038 8dbe 0a23 dc3e d069 553e 6ac1 f53e
000000a0: 54dc 55be 7e5e a4be 500d 70bd 620b f1be
000000b0: f8b0 483e 98d2 bc3e 78d1 f53d 405b 4abd
000000c0: 54da 7d3e 107f a2be 246e fa3e 4e8d febe
000000d0: e63b f5be 10f9 f1bd b81c d13e c00e 4d3d
000000e0: a4a1 443e 56a6 bbbe 18b8 3a3e c0d9 64bd
000000f0: 9726 873e 50cc b43e 688e 5e3e 2036 2ebd
00000100: 604f fcbc e28e a0be 0431 39be ca5b a63e
00000110: 6c4f 4dbe 76fc 9e3e 3c06 4bbe 087d eebd
00000120: 0058 2e3c 20ec eabe 0098 a3bb 006e 4ebd
00000130: 20fc 37bd b0b3 ccbd 18d3 c93e baec bc3e
00000140: 0e6b a6be 74d6 6d3e 4ccd c8be 32f0 d9be
00000150: 5882 1c3e 80c9 f03b ecd9 6ebe b8e9 f6be
00000160: b436 46be fc01 2b3e 38f4 ecbe f6b1 f8be
00000170: e0ea 813d 686c b8be cc46 e0be 3c44 45be
00000180: 68dd a4bd e8a0 e8be 34f0 aabe 7048 063d
00000190: 9866 f1be 80ed 8fbd c64c a5be 0078 b1be
000001a0: 5c3b 493e 620a c5be 6c01 c2be f8fd 913e
000001b0: 1874 bf3d 7a24 e93e f4da 08be c04d 77be
000001c0: 0089 3dbd 00c9 253b a83c c33e 18ff febe
000001d0: b0d1 11bd fc7b 623e 90f9 8cbe 8415 82be
000001e0: e06e 773e a04b f5be 88a4 f23d 1e1b b9be
000001f0: e47e 7e3e eee3 dabe d863 9d3e 8456 f2be
00000200: 622f d7be 83dd f03b 9cb9 c93e be3c dbbe
00000210: f061 64be 20d7 e03e e0b8 abbd 1c1d 543e
00000220: 00c7 d1be a403 21be 4a01 82be dcd2 d73e
00000230: 1c80 543e 06cc babe b018 a53d 004f bcbb
00000240: 885d 52be 1432 92be c0e6 29be 36c9 c93e
00000250: a283 b7be 225c b6be 38f6 1dbe c082 0e3c
00000260: 5c5f 0b3e 80d3 753c c880 f6bd c439 9bbe
00000270: 30bd b7bd 781b 4ebe 6cd4 ce3e 5e31 f9be
00000280: ba4a a3be 7247 d0be 9824 bbbd 767e c73e
00000290: e064 e03e b6dc debe 8077 b1bc 6a43 963e
000002a0: 34b0 613e cab0 d13e 403b 63bc 2a01 acbe
000002b0: 105a a93e 8092 2fbe a28d 843e d859 fcbd
000002c0: f0a5 593e c840 e63e 020b ee3e 06fa e8be
000002d0: c656 a9be ecb1 53be 6040 a3be cca1 f53e
000002e0: 80e0 34bd b0d0 a9be a8d5 63be c467 8dbe
000002f0: fce3 503e da4b dfbe f8b1 eebe d85a fcbe
00000300: a86d 5c3e 2829 7d3e 0aff 9ebe 18ee fd3d
00000310: acf9 bc3e e0c9 943d d8a8 d8bd a04f 173d
00000320: 309a 5bbd 52e5 803e b0d3 adbe 78d1 813e
00000330: a249 903e 9a1a 9bbe 500a d13e 7670 fb3e
00000340: 58d8 49be 8868 0fbe 7428 7f3e 3e8e c8be
00000350: 7879 4a3e 70e7 ee3d 4a5d a13e 6e53 debe
00000360: 50ae d4be 40f4 653e 8c6d 383e b246 eebe
00000370: c6c2 8ebe 083c eabe 7e67 b7be a403 67be
00000380: 90d9 d33e 00d4 cbbd ae08 933e 4a1e f33e
00000390: bc55 693e 822c e5be 34d3 803e 644b 433e
000003a0: b26a c63e f486 fcbe b071 9d3e ee8b d13e
000003b0: 622c eebe 5046 563d 528a da3e de30 babe
000003c0: 40ff 273e c03d 623e ac30 063e 94c9 fc3e
000003d0: 8a9b d13e eca2 db3e d046 7fbd deb5 d63e
000003e0: d491 eebe 2625 8abe a803 dbbd d417 18be
000003f0: 4277 ec3e 1c7e 713e eed0 a43e 3422 ae3e
-0.035032988 -0.47224933 -0.28829253 0.20032418 -0.16958785 0.34511453 0.39526993 0.07273495
-0.03953737 -0.15871358 -0.02528292 0.09101045 -0.38192552 -0.119497836 -0.41590047 0.30687743
-0.31841815 0.4567719 -0.1288904 -0.28643763 0.24022657 0.07453954 0.346228 0.20873487
-0.48166972 0.3162452 -0.09415692 -0.22098553 0.31752694 0.36466515 -0.43946534 -0.045211673
0.41060328 0.1720908 0.42123467 -0.11597718 -0.2758212 0.42995483 0.20841146 0.47999126
-0.2088483 -0.32103342 -0.058606446 -0.47078997 0.19598758 0.3687942 0.120028436 -0.04940343
0.24790317 -0.31737566 0.48912156 -0.49717182 -0.4789726 -0.11815083 0.40842223 0.050062895
0.19202286 -0.36650342 0.18234289 -0.055871725 0.2639663 0.35312128 0.21734011 -0.042532086
-0.030799568 -0.3135901 -0.18085104 0.32491904 -0.20049828 0.31051987 -0.19826597 -0.116449416
0.010641098 -0.45883274 -0.004992485 -0.050397873 -0.04491818 -0.0999521 0.39418864 0.36899358
-0.3250355 0.23226339 -0.3921913 -0.42566067 0.15284097 0.0073482394 -0.23325318 -0.48225188
-0.19356805 0.16699976 -0.46280074 -0.48573273 0.06343627 -0.36020207 -0.43804014 -0.1926431
-0.080500424 -0.45435262 -0.33386385 0.032783926 -0.47148585 -0.070277214 -0.32285136 -0.34661865
0.1965155 -0.38484484 -0.3789171 0.28514075 0.09348315 0.45535642 -0.13364774 -0.24150753
-0.04627323 0.0025296807 0.38132215 -0.49803996 -0.035600364 0.22117609 -0.2753415 -0.2540704
0.24163389 -0.4790926 0.11847788 -0.361535 0.24853092 -0.42752022 0.30740237 -0.4733163
-0.42028338 0.007350625 0.3939942 -0.4281978 -0.22302985 0.43914127 -0.083848715 0.2071423
-0.40972137 -0.15724045 -0.25391608 0.4215306 0.20751995 -0.36483783 0.080613494 -0.005746722
-0.20543492 -0.28553832 -0.1659193 0.39411324 -0.35842615 -0.35617167 -0.15425956 0.008698165
0.13610595 0.015004039 -0.12036282 -0.3031751 -0.089716315 -0.20127666 0.4039644 -0.48670477
-0.3189295 -0.40679508 -0.09137839 0.3896367 0.43826962 -0.43527764 -0.021663427 0.29348308
0.22039872 0.40955192 -0.013869107 -0.33594638 0.33076525 -0.17145729 0.25889307 -0.12321824
0.21254706 0.449713 0.46492773 -0.45503253 -0.33074015 -0.2067334 -0.31885052 0.47975004
-0.044159412 -0.33167028 -0.22249472 -0.2761823 0.20399469 -0.43612558 -0.46620154 -0.49288058
0.21526206 0.24722731 -0.31053954 0.123989284 0.36909235 0.07265067 -0.105790794 0.03694117
-0.05361384 0.25174958 -0.33950567 0.25355124 0.28181177 -0.30293733 0.4082818 0.49109238
-0.19711435 -0.1400472 0.24917775 -0.39171022 0.19772899 0.11665237 0.31516486 -0.43423027
-0.4153924 0.22456455 0.18010539 -0.4653831 -0.27882975 -0.45748925 -0.35821146 -0.22559983
0.41376925 -0.09952545 0.2871756 0.47484046 0.22786611 -0.4476052 0.25161135 0.19071728
0.38753277 -0.4932171 0.307508 0.4092707 -0.46518236 0.05231315 0.42683655 -0.36365408
0.16405964 0.22093868 0.13104504 0.49372542 0.4093898 0.42897737 -0.06232339 0.4193563
-0.46595633 -0.26981467 -0.10694057 -0.1485284 0.46184736 0.23583263 0.3219065 0.3401047

weight f4 [2, 256]
00000000: 134b 98bc 98bc 10bd 0778 183d 8526 123d
00000010: dfba 763d 59f3 58bd 1c93 173c 3d3d c63c
00000020: 2c85 393c 1075 92bd 0f55 903d c00f 693c
00000030: 095c 43bd a8a0 7f3c 3f9f 93bc 6a6f a4bd
00000040: a88a 96bb 9233 b73a b36d b13c f5ca b3bc
00000050: cb66 9f3c 3d3a f13c aedf 833b 3023 a13d
00000060: b139 903d d7c6 633d 14a0 1aba 3ff4 94bd
00000070: 8fde e3bc 65c6 ccbc f333 053d 20ec 843c
00000080: 1bba fbbc b3d9 b5bf caf7 11bc e786 1640
00000090: 18be b7bd 8156 82bc 915a 983d b6b2 2f3d
000000a0: 5f40 c63c 10a6 8abc d353 983c b902 93bd
000000b0: 6141 f8bc c025 553c f746 a93c 4f29 52bd
000000c0: 2c09 443c 1356 c4bb e40d 1d3c 986b a7bd
000000d0: c454 993d a3cf 28bb fd51 60bb 6776 4abd
000000e0: 0ff0 653d 6be2 51bd 8d97 363d 6065 32bc
000000f0: e9ea 1140 f736 333d abd8 c6bc 2056 a93d
00000100: 17af b33b 5de5 34bd 9ff7 d23c 8fed bbbc
00000110: ff94 053d f791 033d 65de 65bd 1356 023d
00000120: 6325 e03c 7aa0 b03d ed50 b53c ebff e83c
00000130: 77a1 62bd 82a6 db3b 1512 92bb 4e07 74bc
00000140: 5ebb e43f 0032 003d c2aa 34bc c83c a63b
00000150: d680 ebbb e9c4 9f3b 8ea7 c93a 21d9 52bd
00000160: 72b5 9ebd e99f b33c 8388 82bd 8260 8b3d
00000170: 567b b3bd 7a98 8d3c fbbe e0bc b295 8dbc
00000180: 69c9 bcbc e9c0 433d 3d97 0fbd 3c90 51bc
00000190: 413f 0a3d a45d 8cbd 1138 ca3c 13ec 8a3b
000001a0: 5312 db3c c31e d03c f735 d83c 01d3 4bbd
000001b0: 6059 2cbc dc21 953d 29b7 04bd a008 fc3c
000001c0: d934 f73b cbfb d93c 0ac8 9e3d c617 4dbc
000001d0: a104 3e3d 393d 5dbd 1189 733d 761a 0abd
000001e0: 59d9 b9bc b211 92bd aef0 abbd 560c 2140
000001f0: 0662 5ebc f5b2 b9bc 5226 6b3c 4bfc 5dbd
00000200: c0b0 c1bb 3fb6 cfbb 2921 283d 5e91 623c
00000210: 0365 803c 207a a93d 0983 d63c 5b34 fd3c
00000220: d62b 0540 69b1 0cbd d653 0cbc a8aa 8abc
00000230: 3551 e3bc f3c8 abbc 2565 64bd 01a7 6abd
00000240: 5c5c b8bd c957 b5bc 94b5 6d3c cbfc 5a3d
00000250: 77b8 6cbd d014 afbd 7ecf a0bd 75ab ef3c
00000260: 9798 913d 69c2 5abd 3563 7ebd 0cd4 abbb
00000270: 81d9 b93c 6619 b3bd a3a3 ddbc e7ea 083d
00000280: 552d 6dbd 7242 21bd 2c5f 3a3c 6f9f dbbc
00000290: b037 20bd ca73 413d 8509 5bbd ed59 d03c
000002a0: 2f9f e8bc 51c3 0bbd 1990 963d 20f0 a03d
000002b0: 75d0 903d c121 f83b e584 953b 2c78 b1bd
000002c0: d46a 32bd 8814 7c3c ce70 c53b 4e1f f2ba
000002d0: f6f0 c7b9 7bd4 aa3c d701 3dbd fabe b1bd
000002e0: ec9e 913c 51bc cbbc 2d2e 843d afe8 7b3d
000002f0: fc76 f93c abf7 e83b e122 ccbc 79e0 81bc
00000300: b050 b93d b0de ae3d 153b 8bbb 7275 a6bd
00000310: 7f49 e7bc ab5d 6ebd f429 a53d 5610 493d
00000320: 6c0b b53d 636b 983d 6b98 ed3c d9df 88bd
00000330: d3e5 063d 9638 a03d 81eb 613d bf0e c6bb
00000340: ab2b ad3c 9992 b7bc 04c2 583c ebd8 03bb
00000350: 7ad0 a63b 6918 dbbc 2ae3 d6bb 6411 7e3d
00000360: 7e02 773c e341 d7bc 9c70 eb3c ab19 db3c
00000370: 83d9 b63c ef03 aabc dd93 d7bb 7383 53bd
00000380: b1d0 5ebd f17a 28bd d7a1 a23b 4f88 c93b
00000390: e4b9 23bd f108 9e3c 9eaf 62bc a10f 973c
000003a0: da1d 03bc debf aebd 509f 213c 4e13 b0bd
000003b0: 7a50 873c 778a ee3c 7f95 03bd 8fd6 70bd
000003c0: 2262 923d 52a1 813d ab28 32bd 4c96 afbe
000003d0: ca6e 373c 0ae8 a83d 70a2 eebc c565 2abd
000003e0: 02d8 0abd c230 b33b 6ad1 a63d 6f8b 9a3c
000003f0: 1ded cb3c 3ba4 e3bc eeda 0ebd a634 84bd
-0.018590486 -0.035336107 0.037223842 0.035681266 0.060236808 -0.05296645 0.009251382 0.024199123
0.011323255 -0.07151234 0.07047474 0.0142249465 -0.047695193 0.015602268 -0.01802027 -0.08029063
-0.004594166 0.0013977161 0.021658754 -0.021947363 0.019458195 0.029446715 0.0040244674 0.078680396
0.07042254 0.05560955 -0.0005898487 -0.07273149 -0.027816085 -0.024996946 0.032520246 0.016225874
-0.03072839 -1.4207062 -0.008909175 2.3519838 -0.089718044 -0.015910389 0.07439149 0.04289504
0.024200616 -0.016924888 0.018594658 -0.07178254 -0.030304613 0.013009489 0.020663721 -0.051308926
0.011965077 -0.005991706 0.009585831 -0.08174819 0.07486871 -0.0025758527 -0.0034228556 -0.049429324
0.05613714 -0.05124132 0.044578124 -0.0108884275 2.2799628 0.04375359 -0.024273237 0.0826838
0.005483519 -0.04416405 0.02575284 -0.022940425 0.032612797 0.032121625 -0.056120295 0.031820368
0.027361577 0.086243585 0.022133315 0.028442344 -0.055329766 0.006703199 -0.004457722 -0.01489432
1.786968 0.031297684 -0.01102704 0.0050731637 -0.0071869893 0.0048757684 0.0015385018 -0.0514766
-0.07749452 0.021926837 -0.06373694 0.06805517 -0.08763759 0.01728462 -0.027434817 -0.017283294
-0.023045259 0.047791395 -0.03505634 -0.012790736 0.03375173 -0.06853798 0.024684938 0.004239568
0.026742136 0.025405293 0.02639292 -0.049761776 -0.010519356 0.07281849 -0.032401238 0.030765831
0.0075441417 0.026609322 0.07752998 -0.012517875 0.046391133 -0.054013465 0.05945689 -0.03371664
-0.022686647 -0.07132281 -0.083955154 2.516378 -0.013573175 -0.022668341 0.014352398 -0.054195683
-0.005910963 -0.006338864 0.04104725 0.013828604 0.015673166 0.082752466 0.02618553 0.030908754
2.0808005 -0.03434888 -0.00856491 -0.016927078 -0.027748683 -0.020969843 -0.05576052 -0.057288174
-0.09001991 -0.022136586 0.014508624 0.05346374 -0.057793107 -0.085488915 -0.07852076 0.029256562
0.07109182 -0.05340806 -0.06210633 -0.005243784 0.022686722 -0.08745079 -0.027055567 0.033427145
-0.05790456 -0.039370008 0.01137523 -0.026809422 -0.039115608 0.047229566 -0.053475875 0.025433505
-0.028396217 -0.034121815 0.07351703 0.078583 0.0707101 0.007572383 0.0045629614 -0.08665499
-0.04355891 0.015385754 0.0060254103 -0.0018472464 -0.00038135768 0.020853272 -0.046144333 -0.08679004
0.017775975 -0.02487007 0.0645412 0.0615012 0.030452244 0.0071096024 -0.024918975 -0.015854107
0.09048593 0.08538568 -0.0042489865 -0.0812787 -0.028233288 -0.058194797 0.080646425 0.049087845
0.08840069 0.074423574 0.029003343 -0.066833206 0.03293402 0.07823293 0.055156235 -0.0060442383
0.021138987 -0.02240877 0.013229851 -0.0020118307 0.0050907703 -0.026745038 -0.006557842 0.062028304
0.015076278 -0.026276534 0.02874022 0.026745638 0.022320515 -0.020753829 -0.006578906 -0.05163903
-0.054398242 -0.04113287 0.0049631405 0.0061502825 -0.0399722 0.019291373 -0.013835816 0.01844007
-0.008002723 -0.085326895 0.009864643 -0.08597432 0.016517866 0.02911876 -0.032124992 -0.05879837
0.071476236 0.063295975 -0.043495815 -0.34294355 0.011195848 0.08247383 -0.02913019 -0.04160096
-0.033897407 0.005468459 0.08145411 0.018865315 0.024893338 -0.027788272 -0.034876756 -0.064553544

bias f4 [2]
00000000: 913d b13c 708e fb3c
0.021635802 0.030707568
