NODE/submission_models/drifter_4_tanh_1day.pth (torch, 81679 bytes, 4 tensors)

weight f4 [256, 4]
-0.00374341 0.2682218 -0.41152257 -0.3679695 -0.19257718 0.13407868 -0.00990659 0.39644474
-0.044372022 0.13230628 -0.15110654 -0.098282695 -0.47768912 -0.33109295 -0.2115017 0.007552155
0.1976676 0.3000114 -0.33897054 -0.21773142 0.18160856 0.41519397 -0.10290009 0.37415588
-0.08059168 0.05290705 0.4527381 -0.46383518 -0.31476897 -0.12658262 -0.19489998 0.4320004
-0.32408983 -0.23016644 -0.34932023 -0.4682805 -0.29187024 0.42979902 0.22310919 0.24233627
0.026295781 -0.25634176 0.08459234 -0.46684736 -0.36128312 -0.257765 0.31546897 0.29316062
-0.22174752 -0.018041193 0.31978035 0.49706656 0.19844109 0.06754643 0.33524317 -0.29440117
0.093172014 -0.38765275 -0.34654307 -0.25829178 0.22623652 0.2010802 -0.29617625 0.15105355
0.274486 -0.06310868 0.019090772 0.115852356 0.3101883 0.48009706 -0.38531178 -0.18323487
0.19650495 0.4142747 0.43510365 0.44117838 0.09950727 -0.43479133 0.04599625 -0.31280267
-0.46597707 0.44424623 0.38017988 -0.49876398 0.09358603 -0.084230006 -0.082280576 -0.22887844
0.19227809 -0.29615176 0.18329567 0.25285405 0.3579358 0.18695557 -0.49486762 -0.32434845
0.24965751 0.104650676 -0.390042 -0.28790975 0.47037464 0.33690894 -0.21801257 -0.12584239
-0.47629905 -0.008987069 -0.37652946 -0.38567835 -0.027549803 0.07507253 -0.20476514 0.2966888
-0.30426955 0.45368505 0.34264994 -0.42164147 -0.12444216 0.022561312 0.07295054 0.118587136
0.19621414 0.029950082 -0.24396437 0.2365945 -0.47962445 -0.29635334 -0.12516493 -0.24355668
-0.17491668 -0.40981084 -0.106357574 0.10687822 -0.3277737 -0.030653449 0.35105202 -0.05865731
0.013896108 -0.04313445 0.101190686 0.31791973 0.4736231 0.31752795 0.47470614 -0.036292538
-0.44916075 -0.23703861 0.3404526 -0.003241241 -0.24852318 -0.38315588 -0.46792603 -0.4220041
-0.101418376 0.274203 0.27032053 -0.48221594 0.31189102 -0.39125472 -0.10570514 -0.20273632
-0.096307635 -0.09817135 -0.44867498 -0.43171895 -0.07823974 0.0064660907 -0.22713745 0.1883496
-0.4500292 -0.03374362 0.43970972 -0.203946 0.45150155 0.18107688 -0.45123047 0.31634867
-0.057697237 -0.22320342 0.39982665 -0.4040476 0.053652465 -0.10468435 0.35705632 0.13957226
0.24025267 0.17657948 -0.12023735 -0.105152726 -0.4120407 0.27092206 0.39698905 0.34211242
-0.35268915 0.022299945 -0.35246706 -0.2752421 -0.29135275 0.17087251 -0.2979566 -0.010908604
0.021034062 0.32231152 -0.37796003 -0.34325612 -0.29033077 0.3499667 -0.1797325 0.42174435
0.18080378 0.06331301 -0.003722012 -0.09884077 0.06273317 -0.11417234 -0.003513217 0.06379652
-0.39110255 -0.2620657 0.40374637 -0.40577334 -0.035903096 0.49461937 0.18061852 0.01415652
-0.43330497 0.24768895 -0.35614038 -0.14193213 -0.16775817 -0.07404369 0.0054691434 0.41240376
0.062419415 0.4478464 0.30585623 -0.31610698 0.22425205 -0.35344803 -0.21191257 0.14706135
0.165096 0.37511402 -0.16127525 -0.0016324129 0.25741178 -0.48354608 0.3614903 -0.4134612
0.0068912506 -0.08500838 -0.26333648 0.06608552 0.41345936 -0.14615977 -0.29684705 -0.18491942
00000000: 0054 75bb 5e54 893e 16b3 d2be 8066 bcbe
00000010: f432 45be ec4b 093e 404f 22bc cefa ca3e
00000020: 70bf 35bd 4c7b 073e acbb 1abe 7048 c9bd
00000030: ab93 f4be 0485 a9be e793 58be 1178 f73b
00000040: 6069 4a3e 189b 993e 8c8d adbe fcf4 5ebe
00000050: 98f7 393e 4e94 d43e 48bd d2bd 5c91 bf3e
00000060: 400d a5bd 10b5 583d 4acd e73e ce7b edbe
00000070: 6629 a1be e09e 01be dc93 47be 282f dd3e
00000080: 1aef a5be c0b0 6bbe 1ada b2be 76c2 efbe
00000090: 0470 95be 9e0e dc3e bc76 643e 0027 783e
000000a0: 406a d73c 3a3f 83be c03e ad3d 9e06 efbe
000000b0: 1afa b8be c6f9 83be 2685 a13e 2619 963e
000000c0: c811 63be 20cb 93bc 40ba a33e 827f fe3e
000000d0: 2434 4b3e c855 8a3d fea4 ab3e c0bb 96be
000000e0: f8d0 be3d 6c7a c6be 186e b1be d23e 84be
000000f0: 8caa 673e f8e7 4d3e 6aa4 97be c8ad 1a3e
00000100: 6e89 8c3e 203f 81bd 4064 9c3c 0044 ed3d
00000110: 00d1 9e3e 48cf f53e 9647 c5be eca1 3bbe
00000120: 9838 493e d01b d43e e8c5 de3e 22e2 e13e
00000130: 78ca cb3d f89c debe 9066 3c3d ac27 a0be
00000140: 8c94 eebe 3e74 e33e f0a6 c23e fe5d ffbe
00000150: 08aa bf3d c880 acbd b882 a8bd 1c5f 6abe
00000160: 8ce4 443e 34a1 97be dcb1 3b3e 1676 813e
00000170: 5c43 b73e 4871 3f3e 4a5f fdbe 0011 a6be
00000180: 38a6 7f3e 1853 d63d 96b3 c7be e868 93be
00000190: f2d4 f03e 547f ac3e b03e 5fbe d4dc 00be
000001a0: 78dd f3be 803e 13bc 78c8 c0be a277 c5be
000001b0: 20b0 e1bc a0bf 993d f4ad 51be 98e7 973e
000001c0: 38c9 9bbe 6849 e83e d06f af3e 64e1 d7be
000001d0: 88db febd 80d2 b83c 1867 953d d0dd f23d
000001e0: 5cec 483e e059 f53c ccd1 79be d445 723e
000001f0: 5691 f5be a0bb 97be 3c2b 00be ec66 79be
00000200: 5c1d 33be bad2 d1be 00d2 d9bd f8e2 da3d
00000210: f4d1 a7be f11c fbbc 17bd b33e a642 70bd
00000220: 80ac 633c c0ad 30bd 103d cf3d 60c6 a23e
00000230: ba7e f23e 0693 a23e af0c f33e 7ca7 14bd
00000240: 66f8 e5be 40ba 72be ce4f ae3e 006b 54bb
00000250: dc7c 7ebe 022d c4be 0094 efbe ec10 d8be
00000260: 70b4 cfbd 5664 8c3e 7467 8a3e 02e5 f6be
00000270: 2eb0 9f3e 8a52 c8be f07b d8bd 1c9a 4fbe
00000280: f03c c5bd 100e c9bd bab8 e5be 440a ddbe
00000290: 283c a0bd 80e1 d33b b896 68be b8de 403e
000002a0: 3a6a e6be c036 0abd a221 e13e 38d7 50be
000002b0: 362b e73e 386c 393e ae07 e7be 74f8 a13e
000002c0: f053 6cbd 708f 64be 14b6 cc3e 54df cebe
000002d0: b0c2 5b3d c064 d6bd 16d0 b63e 08ec 0e3e
000002e0: cc04 763e 40d1 343e 003f f6bd 505a d7bd
000002f0: 00f7 d2be 4cb6 8a3e 2642 cb3e 5c29 af3e
00000300: ac93 b4be 60ae b63c 9076 b4be 88ec 8cbe
00000310: 302c 95be 34f9 2e3e c48d 98be 00ba 32bc
00000320: a04f ac3c 0406 a53e fa83 c1be 44bf afbe
00000330: 3ca6 94be d62e b33e cc0b 38be e0ee d73e
00000340: a024 393e 40aa 813d 00ed 73bb 086d cabd
00000350: 407a 803d 30d3 e9bd 003e 66bb c0a7 823d
00000360: 983e c8be 7a2d 86be d8b7 ce3e 86c1 cfbe
00000370: 200f 13bd c03e fd3e 10f4 383e c0f0 673c
00000380: 26da ddbe 2ca2 7d3e 0858 b6be a856 11be
00000390: ccc8 2bbe 38a4 97bd 8036 b33b 9626 d33e
000003a0: 80ab 7f3d 204c e53e 3099 9c3e c6d8 a1be
000003b0: 54a2 653e 24f7 b4be 9cff 58be 4097 163e
000003c0: ed0e 293e f20e c03e 5725 25be b0f6 d5ba
000003d0: 7acb 833e 5a93 f7be 4215 b93e 30b1 d3be
000003e0: 00d0 e13b e018 aebd 0ad4 86be d857 873d
000003f0: f2b0 d33e e8aa 15be 56fc 97be 845b 3dbe

bias f4 [256]
-0.035032988 -0.47224933 -0.28829253 0.20246042 -0.16958785 0.34511453 0.39526993 0.07273495
-0.03953737 -0.15871358 -0.02528292 0.09101045 -0.38192552 -0.119497836 -0.41590047 0.30687743
-0.31841815 0.4567719 -0.1288904 -0.28643763 0.24022657 0.07453954 0.346228 0.20873487
-0.48166972 0.3162452 -0.09415692 -0.22098553 0.31752694 0.36466515 -0.43946534 -0.045211673
0.41060328 0.18960173 0.42123467 -0.17134935 -0.2758212 0.42995483 0.20841146 0.47999126
-0.2088483 -0.32103342 -0.058606446 -0.47078997 0.19598758 0.3687942 0.120028436 -0.04940343
0.24790317 -0.31737566 0.48912156 -0.49717182 -0.4789726 -0.11815083 0.40842223 0.050062895
0.19202286 -0.36650342 0.18234289 -0.055871725 0.2004113 0.35312128 0.21734011 -0.042532086
-0.030799568 -0.3135901 -0.18085104 0.32491904 -0.20049828 0.31051987 -0.19826597 -0.116449416
0.010641098 -0.45883274 -0.004992485 -0.050397873 -0.04491818 -0.0999521 0.39418864 0.36899358
-0.33888602 0.23226339 -0.3921913 -0.42566067 0.15284097 0.0073482394 -0.23325318 -0.48225188
-0.19356805 0.16699976 -0.46280074 -0.48573273 0.06343627 -0.36020207 -0.43804014 -0.1926431
-0.080500424 -0.45435262 -0.33386385 0.032783926 -0.47148585 -0.070277214 -0.32285136 -0.34661865
0.1965155 -0.38484484 -0.3789171 0.28514075 0.09348315 0.45535642 -0.13364774 -0.24150753
-0.04627323 0.0025296807 0.38132215 -0.49803996 -0.035600364 0.22117609 -0.2753415 -0.2540704
0.24163389 -0.4790926 0.11847788 -0.36447397 0.24853092 -0.42752022 0.30740237 -0.4733163
-0.42028338 0.007309071 0.3939942 -0.4281978 -0.22302985 0.43914127 -0.083848715 0.2071423
-0.4809992 -0.15724045 -0.25391608 0.4215306 0.20751995 -0.36483783 0.080613494 -0.005746722
-0.20543492 -0.28553832 -0.1659193 0.39411324 -0.35842615 -0.35617167 -0.15425956 0.008698165
0.13610595 0.015004039 -0.12036282 -0.3031751 -0.089716315 -0.20127666 0.4039644 -0.48670477
-0.3189295 -0.40679508 -0.09137839 0.3896367 0.43826962 -0.43527764 -0.021663427 0.29348308
0.22039872 0.40955192 -0.013869107 -0.33594638 0.33076525 -0.17145729 0.25889307 -0.12321824
0.21254706 0.449713 0.46492773 -0.45503253 -0.33074015 -0.2067334 -0.31885052 0.47975004
-0.044159412 -0.33167028 -0.22249472 -0.2761823 0.20399469 -0.43612558 -0.46620154 -0.49288058
0.21526206 0.24722731 -0.31053954 0.123989284 0.36909235 0.07265067 -0.105790794 0.03694117
-0.05361384 0.25174958 -0.33950567 0.25355124 0.28181177 -0.30293733 0.4082818 0.49109238
-0.19711435 -0.1400472 0.24917775 -0.39171022 0.19772899 0.11665237 0.31516486 -0.3949915
-0.4153924 0.22456455 0.18010539 -0.4653831 -0.27882975 -0.45748925 -0.35821146 -0.22559983
0.41376925 -0.09952545 0.2871756 0.47484046 0.22786611 -0.4476052 0.25161135 0.19071728
0.38753277 -0.4932171 0.307508 0.4092707 -0.46518236 0.05231315 0.42683655 -0.36365408
0.16405964 0.22093868 0.13104504 0.5504541 0.4093898 0.42897737 -0.06232339 0.4193563
-0.46595633 -0.26981467 -0.10694057 -0.1485284 0.46184736 0.23583263 0.3219065 0.3401047
00000000: c07e 0fbd aaca f1be 149b 93be c951 4f3e
00000010: 70a8 2dbe dab2 b03e d260 ca3e 10f6 943d
00000020: f0f1 21bd d085 22be 201e cfbc b063 ba3d
00000030: be8b c3be 48bb f4bd e8f0 d4be 0a1f 9d3e
00000040: b407 a3be 02de e93e d8fb 03be f4a7 92be
00000050: f4fd 753e 30a8 983d cc44 b13e 98be 553e
00000060: 6a9d f6be e4ea a13e 58d5 c0bd 084a 62be
00000070: e492 a23e 64b5 ba3e 9a01 e1be e02f 39bd
00000080: 983a d23e f526 423e 12ac d73e 3476 2fbe
00000090: 7038 8dbe 0a23 dc3e d069 553e 6ac1 f53e
000000a0: 54dc 55be 7e5e a4be 500d 70bd 620b f1be
000000b0: f8b0 483e 98d2 bc3e 78d1 f53d 405b 4abd
000000c0: 54da 7d3e 107f a2be 246e fa3e 4e8d febe
000000d0: e63b f5be 10f9 f1bd b81c d13e c00e 4d3d
000000e0: a4a1 443e 56a6 bbbe 18b8 3a3e c0d9 64bd
000000f0: 9f38 4d3e 50cc b43e 688e 5e3e 2036 2ebd
00000100: 604f fcbc e28e a0be 0431 39be ca5b a63e
00000110: 6c4f 4dbe 76fc 9e3e 3c06 4bbe 087d eebd
00000120: 0058 2e3c 20ec eabe 0098 a3bb 006e 4ebd
00000130: 20fc 37bd b0b3 ccbd 18d3 c93e baec bc3e
00000140: 7882 adbe 74d6 6d3e 4ccd c8be 32f0 d9be
00000150: 5882 1c3e 80c9 f03b ecd9 6ebe b8e9 f6be
00000160: b436 46be fc01 2b3e 38f4 ecbe f6b1 f8be
00000170: e0ea 813d 686c b8be cc46 e0be 3c44 45be
00000180: 68dd a4bd e8a0 e8be 34f0 aabe 7048 063d
00000190: 9866 f1be 80ed 8fbd c64c a5be 0078 b1be
000001a0: 5c3b 493e 620a c5be 6c01 c2be f8fd 913e
000001b0: 1874 bf3d 7a24 e93e f4da 08be c04d 77be
000001c0: 0089 3dbd 00c9 253b a83c c33e 18ff febe
000001d0: b0d1 11bd fc7b 623e 90f9 8cbe 8415 82be
000001e0: e06e 773e a04b f5be 88a4 f23d 559c babe
000001f0: e47e 7e3e eee3 dabe d863 9d3e 8456 f2be
00000200: 622f d7be ee80 ef3b 9cb9 c93e be3c dbbe
00000210: f061 64be 20d7 e03e e0b8 abbd 1c1d 543e
00000220: 8745 f6be a403 21be 4a01 82be dcd2 d73e
00000230: 1c80 543e 06cc babe b018 a53d 004f bcbb
00000240: 885d 52be 1432 92be c0e6 29be 36c9 c93e
00000250: a283 b7be 225c b6be 38f6 1dbe c082 0e3c
00000260: 5c5f 0b3e 80d3 753c c880 f6bd c439 9bbe
00000270: 30bd b7bd 781b 4ebe 6cd4 ce3e 5e31 f9be
00000280: ba4a a3be 7247 d0be 9824 bbbd 767e c73e
00000290: e064 e03e b6dc debe 8077 b1bc 6a43 963e
000002a0: 34b0 613e cab0 d13e 403b 63bc 2a01 acbe
000002b0: 105a a93e 8092 2fbe a28d 843e d859 fcbd
000002c0: f0a5 593e c840 e63e 020b ee3e 06fa e8be
000002d0: c656 a9be ecb1 53be 6040 a3be cca1 f53e
000002e0: 80e0 34bd b0d0 a9be a8d5 63be c467 8dbe
000002f0: fce3 503e da4b dfbe f8b1 eebe d85a fcbe
00000300: a86d 5c3e 2829 7d3e 0aff 9ebe 18ee fd3d
00000310: acf9 bc3e e0c9 943d d8a8 d8bd a04f 173d
00000320: 309a 5bbd 52e5 803e b0d3 adbe 78d1 813e
00000330: a249 903e 9a1a 9bbe 500a d13e 7670 fb3e
00000340: 58d8 49be 8868 0fbe 7428 7f3e 3e8e c8be
00000350: 7879 4a3e 70e7 ee3d 4a5d a13e 533c cabe
00000360: 50ae d4be 40f4 653e 8c6d 383e b246 eebe
00000370: c6c2 8ebe 083c eabe 7e67 b7be a403 67be
00000380: 90d9 d33e 00d4 cbbd ae08 933e 4a1e f33e
00000390: bc55 693e 822c e5be 34d3 803e 644b 433e
000003a0: b26a c63e f486 fcbe b071 9d3e ee8b d13e
000003b0: 622c eebe 5046 563d 528a da3e de30 babe
000003c0: 40ff 273e c03d 623e ac30 063e 8fea 0c3f
000003d0: 8a9b d13e eca2 db3e d046 7fbd deb5 d63e
000003e0: d491 eebe 2625 8abe a803 dbbd d417 18be
000003f0: 4277 ec3e 1c7e 713e eed0 a43e 3422 ae3e

weight f4 [2, 256]
-0.034272887 -0.019653728 0.021541446 0.02854885 0.044554375 -0.037284035 -0.006430996 0.039881498
-0.004359105 -0.05582992 0.054792322 0.029907348 -0.032012805 -8.00838e-05 -0.033702664 -0.06460835
0.011088196 -0.014284635 0.037341133 -0.03762974 0.0037758297 0.013764381 0.019706797 0.06299803
0.054740116 0.03992714 -0.016272213 -0.057049066 -0.043498464 -0.00931461 0.04820268 0.000543516
-0.015046053 -0.028258473 0.0067732004 0.027209539 -0.07403491 -0.0315928 0.05870907 0.027212683
0.008518269 -0.0012425187 0.0029122836 -0.056100145 -0.045987032 0.028691875 0.004981359 -0.035626568
-0.0037172826 -0.021674063 -0.0060965554 -0.06606596 0.05918631 0.01310651 -0.019105192 -0.033746947
0.040454723 -0.03555895 0.028895754 0.0047939294 -0.026923032 0.028071243 -0.00859089 0.067001574
-0.010198845 -0.02848168 0.041435204 -0.03862281 0.016930427 0.047804058 -0.040437877 0.0475028
0.043043956 0.07056134 0.0064509544 0.044124745 -0.03964735 -0.008979164 0.011224635 0.00078804005
0.046846617 0.04698012 -0.026709454 0.02075552 0.008495383 0.020558108 0.017220873 -0.035794243
-0.061812088 0.037609212 -0.04805456 0.052372783 -0.071955405 0.0016022616 -0.011752464 -0.0016009344
-0.007362901 0.032109015 -0.019373946 0.002891604 0.049434185 -0.05285559 0.009002598 -0.011442788
0.042424515 0.041087657 0.010710565 -0.034079388 -0.026201768 0.05713606 -0.01671888 0.04644826
0.023226535 0.0422917 0.06184756 -0.028200254 0.030708786 -0.03833106 0.04377441 -0.018034276
-0.007004279 -0.055640385 -0.068272956 0.1277149 0.0021091725 -0.006985972 0.03003479 -0.038513288
0.009771401 -0.021970402 0.025364896 -0.001853744 0.031355582 0.06707022 0.041867897 0.015226409
0.049273636 -0.05003131 -0.024247283 -0.0012447091 -0.012066333 -0.036652222 -0.04007809 -0.041605726
-0.0743378 -0.006454225 0.030191002 0.03778133 -0.042110644 -0.06980667 -0.06283841 0.01357422
0.055409417 -0.037725653 -0.046423897 -0.02092613 0.007005327 -0.071768545 -0.042737946 0.049109578
-0.04222209 -0.023687633 -0.0043071317 -0.0424918 -0.023433225 0.0315472 -0.03779347 0.00975116
-0.012713855 -0.049804218 0.05783461 0.06290066 0.05502768 -0.008109997 0.020245302 -0.07097282
-0.027876567 -0.00029659938 -0.009656953 0.013835106 -0.016063716 0.005170909 -0.030461986 -0.07110787
0.0020936115 -0.04055243 0.048858844 0.04581877 0.046134666 -0.00857277 -0.0092366375 -0.00017175767
0.07480382 0.06970344 -0.01993132 -0.06559649 -0.04391568 -0.04251232 0.06496417 0.03340546
0.07271849 0.058741137 0.0133209955 -0.0511508 0.048616454 0.06255054 0.03947383 -0.021726578
0.036821373 -0.0067264023 0.02891225 0.013670525 0.020773126 -0.042427413 -0.022240225 1.618398
-0.000606078 -0.0419589 0.04442262 0.011063296 0.03800291 -0.036436215 0.009103462 -0.035956655
-0.03871584 -0.025450503 -0.010719221 0.021832634 -0.024289845 0.03497377 0.0018465328 0.0027576995
-0.023685126 -0.06964464 -0.0058177295 -0.07029209 0.0008355005 0.013436416 -0.016442642 -0.04311589
0.055793814 0.047613576 -0.027813468 1.9274907 0.026878264 0.0667916 -0.044812575 -0.0259186
-0.018215053 -0.0102139 0.0657719 0.0031829409 0.040575698 -0.012105918 -0.019194366 -0.04887119
00000000: ba61 0cbd db00 a1bc b077 b03c 47df e93c
00000010: a67e 363d 25b7 18bd 1bbb d2bb c85a 233d
00000020: d3d6 8ebb eaad 64bd ea6d 603d 4100 f53c
00000030: dc1f 03bd aaf2 a7b8 ce0b 0abd 6251 84bd
00000040: 44ab 353c 1a0a 6abc 04f3 183d a421 1abd
00000050: e973 773b 0084 613c 2670 a13c 1c05 813d
00000060: 2c37 603d a48a 233d 4e4d 85bc 48ac 69bd
00000070: 722b 32bd 4e9c 18bc 2c70 453d be7a 0e3a
00000080: b883 76bc 507e e7bc b9f1 dd3b 8ae6 de3c
00000090: 9d9f 97bd 7467 01bd ec78 703d 22ed de3c
000000a0: 3690 0b3c 02dc a2ba 03dc 3e3b 44c9 65bd
000000b0: e65c 3cbd 390b eb3c ab3a a33b 2aed 11bd
000000c0: a79d 73bb ce8d b1bc 9dc5 c7bb 974d 87bd
000000d0: 586d 723d b0bc 563c 7e82 9cbc 3d3a 0abd
000000e0: dab3 253d 43a6 11bd cab6 ec3c 6516 9d3b
000000f0: b18d dcbc aaf5 e53c cec0 0cbc 1f38 893d
00000100: 0e19 27bc 6a52 e9bc f6b7 293d f432 1ebd
00000110: aeb1 8a3c 30ce 433d 30a2 25bd 4c92 423d
00000120: dc4e 303d 7782 903d 8762 d33b 26bc 343d
00000130: 4265 22bd 581d 13bc 88e7 373c 7994 4e3a
00000140: 3de2 3f3d 3a6e 403d c9cd dabc 7b07 aa3c
00000150: 3830 0b3c 7a69 a83c ca12 8d3c fc9c 12bd
00000160: ac2e 7dbd 1e0c 1a3d dcd4 44bd d884 563d
00000170: 5b5d 93bd fa02 d23a 688d 40bc 72d6 d1ba
00000180: 7d44 f1bb be84 033d 1cb6 9ebc 1181 3d3b
00000190: 807b 4a3d 1a7f 58bd a27f 133c 887a 3bbc
000001a0: 54c5 2d3d 884b 283d 5e7b 2f3c d496 0bbd
000001b0: 17a5 d6bc 8007 6a3d 08f6 88bc 8840 3e3d
000001c0: 9345 be3c 103a 2d3d de53 7d3d 3804 e7bc
000001d0: fe90 fb3c 0801 1dbd cc4c 333d 9ebc 93bc
000001e0: 2784 e5bb 2ce7 63bd b1d2 8bbd b2c7 023e
000001f0: 0b3a 0a3b 95ea e4bb 850b f63c 1cc0 1dbd
00000200: 3a18 203c 46fb b3bc 0bca cf3c 54f9 f2ba
00000210: b66e 003d 1d5c 893d ac7d 2b3d 3078 793c
00000220: 27d3 493d a2ed 4cbd 3da2 c6bc 8225 a3ba
00000230: deb1 45bc a420 16bd ec28 24bd c46a 2abd
00000240: 6b3e 98bd f77d d3bb 1f53 f73c 99c0 1a3d
00000250: 367c 2cbd cdf6 8ebd 6db1 80bd 6866 5e3c
00000260: fcf4 623d 3786 1abd fc26 3ebd 466d abbc
00000270: f18c e53b 63fb 92bd fc0d 2fbd 2027 493d
00000280: 12f1 2cbd 910c c2bc d722 8dbb e20b 2ebd
00000290: 09f7 bfbc a337 013d 53cd 1abd 54c3 1f3c
000002a0: c64d 50bc 82ff 4bbd fce3 6c3d 10d2 803d
000002b0: b464 613d cbdf 04bc 7ad9 a53c 335a 91bd
000002c0: 665d e4bc e580 9bb9 3238 1ebc a4ac 623c
000002d0: 0e98 83bc bb70 a93b 6a8b f9bc 01a1 91bd
000002e0: f934 093b 4e1a 26bd 3620 483d 76ac 3b3d
000002f0: b4f7 3c3d ce74 0cbc 4455 17bc d919 34b9
00000300: bf32 993d adc0 8e3d 0247 a3bc 7457 86bd
00000310: eee0 33bd 6621 2ebd ef0b 853d 2ad4 083d
00000320: 6fed 943d 8c9a 703d 4e40 5a3c 8083 51bd
00000330: 0c22 473d 7f1a 803d 50af 213d f0fb b1bc
00000340: 02d2 163d 2769 dcbb 62d9 ec3c 56fa 5f3c
00000350: 672c aa3c 5ec8 2dbd 2231 b6bc aa27 cf3f
00000360: 35e1 1eba 18dd 2bbd 7ef4 353d d442 353c
00000370: f0a8 1b3d 243e 15bd b026 153c 4947 13bd
00000380: 8094 1ebd 937d d0bc ac9f 2fbc 5ada b23c
00000390: 7ffb c6bc a840 0f3d 5c07 f23a 85ba 343b
000003a0: 4f07 c2bc d9a1 8ebd a7a2 bebb 4df5 8fbd
000003b0: 7d05 5b3a 6a24 5c3c b8b2 86bc 4a9a 30bd
000003c0: 0e88 643d 7406 433d 12d9 e3bc 04b8 f63f
000003d0: ce2f dc3c 09ca 883d 648d 37bd 3e53 d4bc
000003e0: bc37 95bc 3458 27bc 6bb3 863d e398 503b
000003f0: b432 263d e657 46bc 813d 9dbc 282d 48bd

bias f4 [2]
0.037317935 0.028481293
00000000: b1da 183d 9a51 e93c
