NODE/submission_models/drifter_29_tanh_1day.pth (torch, 81679 bytes, 4 tensors)

weight f4 [256, 4]
0	0xbb755400	-0.00374341
1	0x3e89545e	0.2682218
2	0xbed2b316	-0.41152257
3	0xbebc6680	-0.3679695
4	0xbe4532f4	-0.19257718
5	0x3e094bec	0.13407868
6	0xbc224f40	-0.00990659
7	0x3ecaface	0.39644474
8	0xbd35bf70	-0.044372022
9	0x3e077b4c	0.13230628
10	0xbe1abbac	-0.15110654
11	0xbdc94870	-0.098282695
12	0xbef4a15c	-0.47779357
13	0xbea92be5	-0.330413
14	0xbe5bc099	-0.21460189
15	0x3bacb1ce	0.0052702194
16	0x3e4a6960	0.1976676
17	0x3e999b18	0.3000114
18	0xbead8d8c	-0.33897054
19	0xbe5ef4fc	-0.21773142
20	0x3e39f798	0.18160856
21	0x3ed4944e	0.41519397
22	0xbdd2bd48	-0.10290009
23	0x3ebf915c	0.37415588
24	0xbda50d40	-0.08059168
25	0x3d58b510	0.05290705
26	0x3ee7cd4a	0.4527381
27	0xbeed7bce	-0.46383518
28	0xbea12966	-0.31476897
29	0xbe019ee0	-0.12658262
30	0xbe4793dc	-0.19489998
31	0x3edd2f28	0.4320004
32	0xbea5ef1a	-0.32408983
33	0xbe6bb0c0	-0.23016644
34	0xbeb2da1a	-0.34932023
35	0xbeefc276	-0.4682805
36	0xbe957004	-0.29187024
37	0x3edc0e9e	0.42979902
38	0x3e6476bc	0.22310919
39	0x3e782700	0.24233627
40	0x3cd76a40	0.026295781
41	0xbe833f3a	-0.25634176
42	0x3dad3ec0	0.08459234
43	0xbeef069e	-0.46684736
44	0xbeb8fa1a	-0.36128312
45	0xbe83f9c6	-0.257765
46	0x3ea18526	0.31546897
47	0x3e961926	0.29316062
48	0xbe6311c8	-0.22174752
49	0xbc93cb20	-0.018041193
50	0x3ea3ba40	0.31978035
51	0x3efe7f82	0.49706656
52	0x3e4b3424	0.19844109
53	0x3d8a55c8	0.06754643
54	0x3eaba4fe	0.33524317
55	0xbe96bbc0	-0.29440117
56	0x3dbed0f8	0.093172014
57	0xbec67a6c	-0.38765275
58	0xbeb16e18	-0.34654307
59	0xbe843ed2	-0.25829178
60	0x3e67aa8c	0.22623652
61	0x3e4de7f8	0.2010802
62	0xbe97a46a	-0.29617625
63	0x3e1aadc8	0.15105355
64	0x3e8c896e	0.274486
65	0xbd813f20	-0.06310868
66	0x3c9c6440	0.019090772
67	0x3ded4400	0.115852356
68	0x3e9ed100	0.3101883
69	0x3ef5cf48	0.48009706
70	0xbec54796	-0.38531178
71	0xbe3ba1ec	-0.18323487
72	0x3e493898	0.19650495
73	0x3ed41bd0	0.4142747
74	0x3edec5e8	0.43510365
75	0x3ee1e222	0.44117838
76	0x3dcbca78	0.09950727
77	0xbede9cf8	-0.43479133
78	0x3d3c6690	0.04599625
79	0xbea027ac	-0.31280267
80	0xbeee948c	-0.46597707
81	0x3ee3743e	0.44424623
82	0x3ec2a6f0	0.38017988
83	0xbeff5dfe	-0.49876398
84	0x3dbfaa08	0.09358603
85	0xbdac80c8	-0.084230006
86	0xbda882b8	-0.082280576
87	0xbe6a5f1c	-0.22887844
88	0x3e44e48c	0.19227809
89	0xbe97a134	-0.29615176
90	0x3e3bb1dc	0.18329567
91	0x3e817616	0.25285405
92	0x3eb7435c	0.3579358
93	0x3e3f7148	0.18695557
94	0xbefd5f4a	-0.49486762
95	0xbea61100	-0.32434845
96	0x3e7fa638	0.24965751
97	0x3dd65318	0.104650676
98	0xbec7b396	-0.390042
99	0xbe9368e8	-0.28790975
100	0x3ef0d4f2	0.47037464
101	0x3eac7f54	0.33690894
102	0xbe5f3eb0	-0.21801257
103	0xbe00dcd4	-0.12584239
104	0xbef3dd78	-0.47629905
105	0xbc133e80	-0.008987069
106	0xbec0c878	-0.37652946
107	0xbec577a2	-0.38567835
108	0xbce1b020	-0.027549803
109	0x3d99bfa0	0.07507253
110	0xbe51adf4	-0.20476514
111	0x3e97e798	0.2966888
112	0xbe9bc938	-0.30426955
113	0x3ee84968	0.45368505
114	0x3eaf6fd0	0.34264994
115	0xbed7e164	-0.42164147
116	0xbdfedb88	-0.12444216
117	0x3cb8d280	0.022561312
118	0x3d956718	0.07295054
119	0x3df2ddd0	0.118587136
120	0x3e48ec5c	0.19621414
121	0x3cf559e0	0.029950082
122	0xbe79d1cc	-0.24396437
123	0x3e7245d4	0.2365945
124	0xbef59156	-0.47962445
125	0xbe97bba0	-0.29635334
126	0xbe002b3c	-0.12516493
127	0xbe7966ec	-0.24355668
128	0xbe331d5c	-0.17491668
129	0xbed1d2ba	-0.40981084
130	0xbdd9d200	-0.106357574
131	0x3ddae2f8	0.10687822
132	0x3e89677b	0.26836762
133	0xbf9e237e	-1.2354581
134	0x3f6db5eb	0.9285571
135	0xbdf7c08f	-0.120972745
136	0x3c63ac80	0.013896108
137	0xbd30adc0	-0.04313445
138	0x3dcf3d10	0.101190686
139	0x3ea2c660	0.31791973
140	0x3ef27eba	0.4736231
141	0x3ea29306	0.31752795
142	0x3ef322ff	0.47487637
143	0xbd0ecb12	-0.03486163
144	0xbee5f866	-0.44916075
145	0xbe72ba40	-0.23703861
146	0x3eae4fce	0.3404526
147	0xbb546b00	-0.003241241
148	0xbe7e7cdc	-0.24852318
149	0xbec42d02	-0.38315588
150	0xbeef9400	-0.46792603
151	0xbed810ec	-0.4220041
152	0xbdcfb470	-0.101418376
153	0x3e8c6456	0.274203
154	0x3e8a6774	0.27032053
155	0xbef6e502	-0.48221594
156	0x3e9fb02e	0.31189102
157	0xbec8528a	-0.39125472
158	0xbdd87bf0	-0.10570514
159	0xbe4f9a1c	-0.20273632
160	0xbdc53cf0	-0.096307635
161	0xbdc90e10	-0.09817135
162	0xbee5b8ba	-0.44867498
163	0xbedd0a44	-0.43171895
164	0xbda03c28	-0.07823974
165	0x3bd3e180	0.0064660907
166	0xbe6896b8	-0.22713745
167	0x3e40deb8	0.1883496
168	0xbee66a3a	-0.4500292
169	0xbd0a36c0	-0.03374362
170	0x3ee121a2	0.43970972
171	0xbe50d738	-0.203946
172	0x3ee72b36	0.45150155
173	0x3e396c38	0.18107688
174	0xbee707ae	-0.45123047
175	0x3ea1f874	0.31634867
176	0xbd6c53f0	-0.057697237
177	0xbe648f70	-0.22320342
178	0x3eccb614	0.39982665
179	0xbecedf54	-0.4040476
180	0x3d5bc2b0	0.053652465
181	0xbdd664c0	-0.10468435
182	0x3eb6d016	0.35705632
183	0x3e0eec08	0.13957226
184	0x3e7604cc	0.24025267
185	0x3e34d140	0.17657948
186	0xbdf63f00	-0.12023735
187	0xbdd75a50	-0.105152726
188	0xbed2f700	-0.4120407
189	0x3e8ab64c	0.27092206
190	0x3ecb4226	0.39698905
191	0x3eaf295c	0.34211242
192	0xbeb493ac	-0.35268915
193	0x3cb6ae60	0.022299945
194	0xbeb47690	-0.35246706
195	0xbe8cec88	-0.2752421
196	0xbe952c30	-0.29135275
197	0x3e2ef934	0.17087251
198	0xbe988dc4	-0.2979566
199	0xbc32ba00	-0.010908604
200	0x3cac4fa0	0.021034062
201	0x3ea50604	0.32231152
202	0xbec183fa	-0.37796003
203	0xbeafbf44	-0.34325612
204	0xbe94a63c	-0.29033077
205	0x3eb32ed6	0.3499667
206	0xbe380bcc	-0.1797325
207	0x3ed7eee0	0.42174435
208	0x3e3924a0	0.18080378
209	0x3d81aa40	0.06331301
210	0xbb73ed00	-0.003722012
211	0xbdca6d08	-0.09884077
212	0x3d807a40	0.06273317
213	0xbde9d330	-0.11417234
214	0xbb663e00	-0.003513217
215	0x3d82a7c0	0.06379652
216	0xbec83e98	-0.39110255
217	0xbe862d7a	-0.2620657
218	0x3eceb7d8	0.40374637
219	0xbecfc186	-0.40577334
220	0xbd130f20	-0.035903096
221	0x3efd3ec0	0.49461937
222	0x3e38f410	0.18061852
223	0x3c67f0c0	0.01415652
224	0xbeddda26	-0.43330497
225	0x3e7da22c	0.24768895
226	0xbeb65808	-0.35614038
227	0xbe1156a8	-0.14193213
228	0xbe2bc8cc	-0.16775817
229	0xbd97a438	-0.07404369
230	0x3bb33680	0.0054691434
231	0x3ed32696	0.41240376
232	0x3d7fab80	0.062419415
233	0x3ee54c20	0.4478464
234	0x3e9c9930	0.30585623
235	0xbea1d8c6	-0.31610698
236	0x3e65a254	0.22425205
237	0xbeb4f724	-0.35344803
238	0xbe58ff9c	-0.21191257
239	0x3e169740	0.14706135
240	0x3e28fbdd	0.16502328
241	0x3ec00636	0.3750474
242	0xbe255ee9	-0.16149487
243	0xbad65979	-0.0016353569
244	0x3e83cb7a	0.25741178
245	0xbef7935a	-0.48354608
246	0x3eb91542	0.3614903
247	0xbed3b130	-0.4134612
248	0x3be1d000	0.0068912506
249	0xbdae18e0	-0.08500838
250	0xbe86d40a	-0.26333648
251	0x3d8757d8	0.06608552
252	0x3ed3b0f2	0.41345936
253	0xbe15aae8	-0.14615977
254	0xbe97fc56	-0.29684705
255	0xbe3d5b84	-0.18491942

bias f4 [256]
0	0xbd0f7ec0	-0.035032988
1	0xbef1caaa	-0.47224933
2	0xbe939b14	-0.28829253
3	0x3e4ee4c8	0.2020446
4	0xbe2da870	-0.16958785
5	0x3eb0b2da	0.34511453
6	0x3eca60d2	0.39526993
7	0x3d94f610	0.07273495
8	0xbd21f1f0	-0.03953737
9	0xbe2285d0	-0.15871358
10	0xbccf1e20	-0.02528292
11	0x3dba63b0	0.09101045
12	0xbec38bbe	-0.38192552
13	0xbdf4bb48	-0.119497836
14	0xbed4f0e8	-0.41590047
15	0x3e9d1f0a	0.30687743
16	0xbea307b4	-0.31841815
17	0x3ee9de02	0.4567719
18	0xbe03fbd8	-0.1288904
19	0xbe92a7f4	-0.28643763
20	0x3e75fdf4	0.24022657
21	0x3d98a830	0.07453954
22	0x3eb144cc	0.346228
23	0x3e55be98	0.20873487
24	0xbef69d6a	-0.48166972
25	0x3ea1eae4	0.3162452
26	0xbdc0d558	-0.09415692
27	0xbe624a08	-0.22098553
28	0x3ea292e4	0.31752694
29	0x3ebab564	0.36466515
30	0xbee1019a	-0.43946534
31	0xbd392fe0	-0.045211673
32	0x3ed23a98	0.41060328
33	0x3cf09221	0.029366555
34	0x3ed7ac12	0.42123467
35	0xbe2f7634	-0.17134935
36	0xbe8d3870	-0.2758212
37	0x3edc230a	0.42995483
38	0x3e5569d0	0.20841146
39	0x3ef5c16a	0.47999126
40	0xbe55dc54	-0.2088483
41	0xbea45e7e	-0.32103342
42	0xbd700d50	-0.058606446
43	0xbef10b62	-0.47078997
44	0x3e48b0f8	0.19598758
45	0x3ebcd298	0.3687942
46	0x3df5d178	0.120028436
47	0xbd4a5b40	-0.04940343
48	0x3e7dda54	0.24790317
49	0xbea27f10	-0.31737566
50	0x3efa6e24	0.48912156
51	0xbefe8d4e	-0.49717182
52	0xbef53be6	-0.4789726
53	0xbdf1f910	-0.11815083
54	0x3ed11cb8	0.40842223
55	0x3d4d0ec0	0.050062895
56	0x3e44a1a4	0.19202286
57	0xbebba656	-0.36650342
58	0x3e3ab818	0.18234289
59	0xbd64d9c0	-0.055871725
60	0x3e4d386b	0.20041053
61	0x3eb4cc50	0.35312128
62	0x3e5e8e68	0.21734011
63	0xbd2e3620	-0.042532086
64	0xbcfc4f60	-0.030799568
65	0xbea08ee2	-0.3135901
66	0xbe393104	-0.18085104
67	0x3ea65bca	0.32491904
68	0xbe4d4f6c	-0.20049828
69	0x3e9efc76	0.31051987
70	0xbe4b063c	-0.19826597
71	0xbdee7d08	-0.116449416
72	0x3c2e5800	0.010641098
73	0xbeeaec20	-0.45883274
74	0xbba39800	-0.004992485
75	0xbd4e6e00	-0.050397873
76	0xbd37fc20	-0.04491818
77	0xbdccb3b0	-0.0999521
78	0x3ec9d318	0.39418864
79	0x3ebcecba	0.36899358
80	0xbead8e81	-0.33897784
81	0x3e6dd674	0.23226339
82	0xbec8cd4c	-0.3921913
83	0xbed9f032	-0.42566067
84	0x3e1c8258	0.15284097
85	0x3bf0c980	0.0073482394
86	0xbe6ed9ec	-0.23325318
87	0xbef6e9b8	-0.48225188
88	0xbe4636b4	-0.19356805
89	0x3e2b01fc	0.16699976
90	0xbeecf438	-0.46280074
91	0xbef8b1f6	-0.48573273
92	0x3d81eae0	0.06343627
93	0xbeb86c68	-0.36020207
94	0xbee046cc	-0.43804014
95	0xbe45443c	-0.1926431
96	0xbda4dd68	-0.080500424
97	0xbee8a0e8	-0.45435262
98	0xbeaaf034	-0.33386385
99	0x3d064870	0.032783926
100	0xbef16698	-0.47148585
101	0xbd8fed80	-0.070277214
102	0xbea54cc6	-0.32285136
103	0xbeb17800	-0.34661865
104	0x3e493b5c	0.1965155
105	0xbec50a62	-0.38484484
106	0xbec2016c	-0.3789171
107	0x3e91fdf8	0.28514075
108	0x3dbf7418	0.09348315
109	0x3ee9247a	0.45535642
110	0xbe08daf4	-0.13364774
111	0xbe774dc0	-0.24150753
112	0xbd3d8900	-0.04627323
113	0x3b25c900	0.0025296807
114	0x3ec33ca8	0.38132215
115	0xbefeff18	-0.49803996
116	0xbd11d1b0	-0.035600364
117	0x3e627bfc	0.22117609
118	0xbe8cf990	-0.2753415
119	0xbe821584	-0.2540704
120	0x3e776ee0	0.24163389
121	0xbef54ba0	-0.4790926
122	0x3df2a488	0.11847788
123	0xbf0b0373	-0.5430214
124	0x3e7e7ee4	0.24853092
125	0xbedae3ee	-0.42752022
126	0x3e9d63d8	0.30740237
127	0xbef25684	-0.4733163
128	0xbed72f62	-0.42028338
129	0xbe1ef0b7	-0.15521513
130	0x3ec9b99c	0.3939942
131	0xbedb3cbe	-0.4281978
132	0xbe6461f0	-0.22302985
133	0x3ee0d720	0.43914127
134	0xbdabb8e0	-0.083848715
135	0x3e541d1c	0.2071423
136	0xbeaf270b	-0.34209475
137	0xbe2103a4	-0.15724045
138	0xbe82014a	-0.25391608
139	0x3ed7d2dc	0.4215306
140	0x3e54801c	0.20751995
141	0xbebacc06	-0.36483783
142	0x3da518b0	0.080613494
143	0xbbbc4f00	-0.005746722
144	0xbe525d88	-0.20543492
145	0xbe923214	-0.28553832
146	0xbe29e6c0	-0.1659193
147	0x3ec9c936	0.39411324
148	0xbeb783a2	-0.35842615
149	0xbeb65c22	-0.35617167
150	0xbe1df638	-0.15425956
151	0x3c0e82c0	0.008698165
152	0x3e0b5f5c	0.13610595
153	0x3c75d380	0.015004039
154	0xbdf680c8	-0.12036282
155	0xbe9b39c4	-0.3031751
156	0xbdb9e5fd	-0.0907707
157	0xbe4e1b78	-0.20127666
158	0x3eced46c	0.4039644
159	0xbef9315e	-0.48670477
160	0xbea34aba	-0.3189295
161	0xbed04772	-0.40679508
162	0xbdbb2498	-0.09137839
163	0x3ec77e76	0.3896367
164	0x3ee064e0	0.43826962
165	0xbededcb6	-0.43527764
166	0xbcb17780	-0.021663427
167	0x3e96436a	0.29348308
168	0x3e61b034	0.22039872
169	0x3ed1b0ca	0.40955192
170	0xbc633b40	-0.013869107
171	0xbeac012a	-0.33594638
172	0x3ea95a10	0.33076525
173	0xbe2f9280	-0.17145729
174	0x3e848da2	0.25889307
175	0xbdfc59d8	-0.12321824
176	0x3e59a5f0	0.21254706
177	0x3ee640c8	0.449713
178	0x3eee0b02	0.46492773
179	0xbee8fa06	-0.45503253
180	0xbea956c6	-0.33074015
181	0xbe53b1ec	-0.2067334
182	0xbea34060	-0.31885052
183	0x3ef5a1cc	0.47975004
184	0xbd34e080	-0.044159412
185	0xbea9d0b0	-0.33167028
186	0xbe63d5a8	-0.22249472
187	0xbe8d67c4	-0.2761823
188	0x3e50e3fc	0.20399469
189	0xbedf4bda	-0.43612558
190	0xbeeeb1f8	-0.46620154
191	0xbefc5ad8	-0.49288058
192	0x3e5c6da8	0.21526206
193	0x3e7d2928	0.24722731
194	0xbe9eff0a	-0.31053954
195	0x3dfdee18	0.123989284
196	0x3ebcf9ac	0.36909235
197	0x3d94c9e0	0.07265067
198	0xbdd8a8d8	-0.105790794
199	0x3d174fa0	0.03694117
200	0xbd5b9a30	-0.05361384
201	0x3e80e552	0.25174958
202	0xbeadd3b0	-0.33950567
203	0x3e81d178	0.25355124
204	0x3e9049a2	0.28181177
205	0xbe9b1a9a	-0.30293733
206	0x3ed10a50	0.4082818
207	0x3efb7076	0.49109238
208	0xbe49d858	-0.19711435
209	0xbe0f6888	-0.1400472
210	0x3e7f2874	0.24917775
211	0xbec88e3e	-0.39171022
212	0x3e4a7978	0.19772899
213	0x3deee770	0.11665237
214	0x3ea15d4a	0.31516486
215	0xbeb877a6	-0.36028785
216	0xbed4ae50	-0.4153924
217	0x3e65f440	0.22456455
218	0x3e386d8c	0.18010539
219	0xbeee46b2	-0.4653831
220	0xbe8ec2c6	-0.27882975
221	0xbeea3c08	-0.45748925
222	0xbeb7677e	-0.35821146
223	0xbe6703a4	-0.22559983
224	0x3ed3d990	0.41376925
225	0xbdcbd400	-0.09952545
226	0x3e9308ae	0.2871756
227	0x3ef31e4a	0.47484046
228	0x3e6955bc	0.22786611
229	0xbee52c82	-0.4476052
230	0x3e80d334	0.25161135
231	0x3e434b64	0.19071728
232	0x3ec66ab2	0.38753277
233	0xbefc86f4	-0.4932171
234	0x3e9d71b0	0.307508
235	0x3ed18bee	0.4092707
236	0xbeee2c62	-0.46518236
237	0x3d564650	0.05231315
238	0x3eda8a52	0.42683655
239	0xbeba30de	-0.36365408
240	0x3e27ff40	0.16405964
241	0x3e623dc0	0.22093868
242	0x3e0630ac	0.13104504
243	0x3eff205c	0.49829376
244	0x3ed19b8a	0.4093898
245	0x3edba2ec	0.42897737
246	0xbd7f46d0	-0.06232339
247	0x3ed6b5de	0.4193563
248	0xbeee91d4	-0.46595633
249	0xbe8a2526	-0.26981467
250	0xbddb03a8	-0.10694057
251	0xbe1817d4	-0.1485284
252	0x3eec7742	0.46184736
253	0x3e717e1c	0.23583263
254	0x3ea4d0ee	0.3219065
255	0x3eae2234	0.3401047

weight f4 [2, 256]
0	0xbd3c1ab4	-0.045923904
1	0xbc031d7a	-0.008002633
2	0x3c220b24	0.009890351
3	0x3c8aa0bd	0.01692235
4	0x3d06c5ac	0.03290336
5	0xbcd1fc3a	-0.025632966
6	0xbc9420e5	-0.018082092
7	0x3d5313c2	0.051532514
8	0xbc8327d2	-0.016010199
9	0xbd34f4f0	-0.044178903
10	0x3d30b4f0	0.043141305
11	0x3d2a3924	0.0415584
12	0xbca6cd9e	-0.020361718
13	0xbc403438	-0.0117312
14	0xbd39c4c8	-0.04535368
15	0xbd58e9a0	-0.052957177
16	0x3cba47ca	0.02273931
17	0xbcd47736	-0.02593575
18	0x3d48abfe	0.04899215
19	0xbd49da9e	-0.049280755
20	0xbc010735	-0.007875253
21	0x3b0a7f60	0.002113305
22	0x3d007129	0.031357918
23	0x3d525138	0.051346987
24	0x3d307e32	0.0430891
25	0x3ce7a332	0.02827606
26	0xbce4bf76	-0.027923327
27	0xbd39f34e	-0.04539805
28	0xbd61e46c	-0.05514948
29	0x3b191f9e	0.0023364793
30	0x3d752926	0.059853695
31	0xbc35fc9e	-0.011107592
32	0xbb5e7ea2	-0.003394999
33	0xc0045f52	-2.068318
34	0x3c96ee8c	0.018424295
35	0x3d1f2d4e	0.038861565
36	0xbd7f85d3	-0.062383484
37	0xbd31206e	-0.043243818
38	0x3d40bff2	0.047058053
39	0x3c7ef5f0	0.015561566
40	0xbb4d4fe8	-0.0031328145
41	0x3c2a88b6	0.010408571
42	0xbc0f2d36	-0.0087388065
43	0xbd36104a	-0.04444913
44	0xbd6c15e0	-0.05763805
45	0x3d253ea0	0.040342927
46	0xbbda8dc2	-0.006669731
47	0xbcc4683e	-0.023975488
48	0xbc7bcba6	-0.015368378
49	0xbd087fec	-0.03332512
50	0xbc916380	-0.01774764
51	0xbd5ee1f8	-0.05441472
52	0x3d42b45e	0.047535293
53	0x3ccad07e	0.02475762
54	0xbcfbf4a6	-0.030756306
55	0xbcb50262	-0.022095863
56	0x3cebf595	0.028803626
57	0xbcc3da72	-0.023907874
58	0x3c8d44a2	0.01724464
59	0x3c86b7b9	0.016445028
60	0xbd1dca09	-0.038522754
61	0x3c868382	0.01642013
62	0x3b488d8d	0.003060195
63	0x3d62b702	0.05535031
64	0xbcb2feb2	-0.021849964
65	0xbc89e042	-0.016830567
66	0x3d5970f0	0.05308622
67	0xbd4debee	-0.05027383
68	0x3bacfe52	0.005279341
69	0x3d73872a	0.059455074
70	0xbcebd241	-0.02878678
71	0x3d724b46	0.059153818
72	0x3d6007d6	0.054694973
73	0x3d714ba5	0.05891003
74	0xbbaa65e5	-0.005200135
75	0x3d647520	0.05577576
76	0xbce55871	-0.027996274
77	0xbca900d8	-0.020630285
78	0x3cbb65ee	0.022875752
79	0x3c4bcd86	0.012439137
80	0x3d104243	0.035219442
81	0x3d702734	0.058631137
82	0xbd1d1fe6	-0.0383605
83	0x3d04bcce	0.03240662
84	0x3ca50a34	0.020146467
85	0x3d03edd0	0.032209218
86	0x3cec84f2	0.028871987
87	0xbcc5c7de	-0.024143156
88	0xbd4d75b2	-0.05016107
89	0x3d49c518	0.04926023
90	0xbd151be2	-0.036403544
91	0x3d26cbde	0.040721767
92	0xbd77015c	-0.06030403
93	0xbc24a3da	-0.010048831
94	0xb8d49cf1	-0.000101381804
95	0x3c24a96a	0.010050157
96	0x3b8c83f3	0.0042881905
97	0x3ca79762	0.020457927
98	0xbbfd1008	-0.0077228583
99	0x3c6e4486	0.014542704
100	0x3d7a347a	0.0610852
101	0xbd28c620	-0.04120457
102	0xbb2d9229	-0.0026484823
103	0xbcbd2f6e	-0.023093905
104	0x3d5d7e4e	0.05407553
105	0x3d580482	0.052738674
106	0xba768cf6	-0.000940516
107	0xbcb7bb9a	-0.022428323
108	0xbd1b0b8e	-0.037852816
109	0x3d3a4e86	0.045485042
110	0xbba60fc4	-0.0050677974
111	0x3d6df982	0.058099277
112	0x3d0edbc9	0.034877572
113	0x3d5cf30a	0.053942718
114	0x3d4d9ae4	0.050196543
115	0xbd233b24	-0.039851323
116	0x3c9c1ed6	0.019057672
117	0xbcda9004	-0.02668
118	0x3d0393d2	0.032123394
119	0xbbd129fa	-0.006383178
120	0x3b984444	0.00464681
121	0xbd342e32	-0.043989368
122	0xbd67ec20	-0.05662167
123	0xbfe605b2	-1.7970488
124	0x3c6172c0	0.013760269
125	0x3b98ddd4	0.004665116
126	0x3d2abec6	0.041685842
127	0xbcdc0e14	-0.026862182
128	0x3caf7e44	0.021422513
129	0xbfff382e	-1.993902
130	0x3c60afbe	0.013713775
131	0xbc5d4368	-0.01350484
132	0x3d3027b0	0.0430066
133	0x3d62ff02	0.055418976
134	0x3d5b36a6	0.053518914
135	0x3b6a5090	0.0035753585
136	0x3ffedd7d	1.9911343
137	0xbd7ca69c	-0.06168233
138	0xbd130a1e	-0.03589832
139	0x3c2a7f86	0.0104063805
140	0xb9d9b5c8	-0.00041524903
141	0xbd45d99e	-0.04830324
142	0xbce8dfc9	-0.028427022
143	0xbcf5638d	-0.029954696
144	0xbd8061b5	-0.06268636
145	0x3baa4a75	0.0051968643
146	0x3d2b6294	0.04184206
147	0x3cd60f1e	0.026130255
148	0xbcf98675	-0.030459622
149	0xbd6e344f	-0.058155354
150	0xbd51a9dc	-0.05118738
151	0x3afc11ee	0.0019231418
152	0x3d333c02	0.0437584
153	0xbcd59a5a	-0.026074577
154	0xbd0e6e02	-0.03477288
155	0xbd056fb5	-0.032577235
156	0x3fccc552	1.5997717
157	0xbd763d78	-0.060117215
158	0xbd5ec6f6	-0.054388963
159	0x3d78e01a	0.060760595
160	0xbcfa702c	-0.030571066
161	0xbc4534c4	-0.012036506
162	0xbc82bad2	-0.015958223
163	0xbd5dc4dc	-0.054142818
164	0xbc4109be	-0.011782108
165	0x3ca2fd1a	0.019896079
166	0xbcd62892	-0.026142392
167	0xbaf9070f	-0.0018999296
168	0xba8b4cf7	-0.0010627796
169	0xbd7bb87c	-0.061455235
170	0x3d3d2b02	0.046183594
171	0x3d51eb1e	0.051249616
172	0x3d31abba	0.04337666
173	0xbca1e1ff	-0.019761084
174	0x3d02a5d0	0.031896412
175	0xbd72fb03	-0.059321415
176	0xbc84eb3e	-0.016225453
177	0xbc43c058	-0.011947714
178	0xbcae8e40	-0.021308064
179	0x3cd0c87a	0.02548622
180	0xbce30a36	-0.02771483
181	0xbbd457b2	-0.0064801807
182	0xbc9a1942	-0.018810872
183	0xbd7388a1	-0.05945647
184	0xbc1c96f0	-0.009557471
185	0xbd55d348	-0.052203447
186	0x3d18673c	0.037207827
187	0x3d0bf37c	0.03416775
188	0x3d6cb0ae	0.057785682
189	0xbca5ac8c	-0.020223878
190	0x3b1e3bb8	0.0024144482
191	0x3c3c13ec	0.011479359
192	0x3d81560a	0.06315239
193	0x3d6dc7fc	0.058052048
194	0xbd015c95	-0.031582434
195	0xbd5cf5ae	-0.053945236
196	0xbd6399e8	-0.0555667
197	0xbcfcd0db	-0.030861309
198	0x3d5a5eb6	0.05331298
199	0x3cb23642	0.021754388
200	0x3d7a2193	0.061067175
201	0x3d40e192	0.04709012
202	0x3adae110	0.0016699154
203	0xbd21ca86	-0.039499782
204	0x3d76db06	0.06026747
205	0x3d507c04	0.05089952
206	0x3ce3ec83	0.027822739
207	0xbd08b701	-0.03337765
208	0x3d468afc	0.04847239
209	0x3ba15f45	0.004924687
210	0x3d2625b4	0.0405633
211	0x3ccf6f52	0.025321636
212	0x3d04cf43	0.032424223
213	0xbd5d8158	-0.05407843
214	0xbd0ad189	-0.033891235
215	0x4017a187	2.3692338
216	0xbc48d262	-0.01225719
217	0xbd5b9612	-0.053609915
218	0x3d65ad78	0.056073636
219	0xba1a15f8	-0.00058779074
220	0x3d4b61ea	0.049653925
221	0xbd44f71e	-0.04808723
222	0x3caa0580	0.020754576
223	0xbcc71c7e	-0.024305578
224	0xbcddb6da	-0.02706473
225	0xbc6216d6	-0.01379939
226	0xbcb741fe	-0.022370335
227	0x3d092632	0.03348369
228	0xbc4f12b4	-0.0126387365
229	0x3d3ef9a2	0.046624787
230	0x3c5d2528	0.013497628
231	0xbc11b594	-0.008893389
232	0xbd10bca2	-0.035336144
233	0xbd6d8a4e	-0.057993226
234	0xbc8f1ac5	-0.01746882
235	0xbd703152	-0.058640786
236	0xbc3133ec	-0.010815602
237	0x3aea01e6	0.0017853349
238	0xbb9d0280	-0.004791558
239	0xbd00e150	-0.031464875
240	0x3d34cf14	0.044142798
241	0x3d134d7a	0.03596256
242	0xbc8466ea	-0.016162354
243	0xbcd000b5	-0.025390962
244	0x3d1dd0ea	0.038529314
245	0x3d61dad6	0.05514034
246	0xbd67465e	-0.05646359
247	0xbc69c21e	-0.014267473
248	0xbbd7166d	-0.0065639527
249	0xbcb31e46	-0.021865021
250	0x3d5dad9a	0.054120637
251	0xbc0abdf0	-0.008468136
252	0x3d55ebae	0.052226715
253	0xb9ee76d9	-0.00045483446
254	0xbbf72d9b	-0.0075432784
255	0xbd18742e	-0.037220173

bias f4 [2]
0	0x3d489457	0.048969593
1	0x3d0495e6	0.032369517
