NODE/submission_models/drifter_1_tanh_1day.pth (torch, 81679 bytes, 4 tensors)

weight f4 [256, 4]
00000000: 0054 75bb 5e54 893e 16b3 d2be 8066 bcbe
00000010: f432 45be ec4b 093e 404f 22bc cefa ca3e
00000020: 70bf 35bd 4c7b 073e acbb 1abe 7048 c9bd
00000030: 08a9 0b40 93fd 66c0 9a7d 51bf f178 ae3d
00000040: 6069 4a3e 189b 993e 8c8d adbe fcf4 5ebe
00000050: 98f7 393e 4e94 d43e 48bd d2bd 5c91 bf3e
00000060: 400d a5bd 10b5 583d 4acd e73e ce7b edbe
00000070: 6629 a1be e09e 01be dc93 47be 282f dd3e
00000080: 1aef a5be c0b0 6bbe 1ada b2be 76c2 efbe
00000090: 0470 95be 9e0e dc3e bc76 643e 0027 783e
000000a0: 406a d73c 3a3f 83be c03e ad3d 9e06 efbe
000000b0: 1afa b8be c6f9 83be 2685 a13e 2619 963e
000000c0: c811 63be 20cb 93bc 40ba a33e 827f fe3e
000000d0: 2434 4b3e c855 8a3d fea4 ab3e c0bb 96be
000000e0: f8d0 be3d 6c7a c6be 186e b1be d23e 84be
000000f0: 8caa 673e f8e7 4d3e 6aa4 97be c8ad 1a3e
00000100: 6e89 8c3e 203f 81bd 4064 9c3c 0044 ed3d
00000110: 00d1 9e3e 48cf f53e 9647 c5be eca1 3bbe
00000120: 9838 493e d01b d43e e8c5 de3e 22e2 e13e
00000130: 78ca cb3d f89c debe 9066 3c3d ac27 a0be
00000140: 8c94 eebe 3e74 e33e f0a6 c23e fe5d ffbe
00000150: 08aa bf3d c880 acbd b882 a8bd 1c5f 6abe
00000160: 8ce4 443e 34a1 97be dcb1 3b3e 1676 813e
00000170: 5c43 b73e 4871 3f3e 4a5f fdbe 0011 a6be
00000180: 38a6 7f3e 1853 d63d 96b3 c7be e868 93be
00000190: f2d4 f03e 547f ac3e b03e 5fbe d4dc 00be
000001a0: 78dd f3be 803e 13bc 78c8 c0be a277 c5be
000001b0: 20b0 e1bc a0bf 993d f4ad 51be 98e7 973e
000001c0: 38c9 9bbe 6849 e83e d06f af3e 64e1 d7be
000001d0: 88db febd 80d2 b83c 1867 953d d0dd f23d
000001e0: 5cec 483e e059 f53c ccd1 79be d445 723e
000001f0: 5691 f5be a0bb 97be 3c2b 00be ec66 79be
00000200: 5c1d 33be bad2 d1be 00d2 d9bd f8e2 da3d
00000210: 6b40 a6be 16d7 36bd be1d c43e ecf6 d4bc
00000220: 80ac 633c c0ad 30bd 103d cf3d 60c6 a23e
00000230: c93b 363f 3fb1 38c0 167e b23f 1c70 17be
00000240: 66f8 e5be 40ba 72be ce4f ae3e 006b 54bb
00000250: dc7c 7ebe 022d c4be 0094 efbe ec10 d8be
00000260: 70b4 cfbd 5664 8c3e 7467 8a3e 02e5 f6be
00000270: 2eb0 9f3e 8a52 c8be f07b d8bd 1c9a 4fbe
00000280: f03c c5bd 100e c9bd bab8 e5be 440a ddbe
00000290: 283c a0bd 80e1 d33b b896 68be b8de 403e
000002a0: 3a6a e6be c036 0abd a221 e13e 38d7 50be
000002b0: 362b e73e 386c 393e ae07 e7be 74f8 a13e
000002c0: f053 6cbd 708f 64be 14b6 cc3e 54df cebe
000002d0: b0c2 5b3d c064 d6bd 16d0 b63e 08ec 0e3e
000002e0: cc04 763e 40d1 343e 003f f6bd 505a d7bd
000002f0: 00f7 d2be 4cb6 8a3e 2642 cb3e 5c29 af3e
00000300: ac93 b4be 60ae b63c 9076 b4be 88ec 8cbe
00000310: 302c 95be 34f9 2e3e c48d 98be 00ba 32bc
00000320: a04f ac3c 0406 a53e fa83 c1be 44bf afbe
00000330: 3ca6 94be d62e b33e cc0b 38be e0ee d73e
00000340: a024 393e 40aa 813d 00ed 73bb 086d cabd
00000350: 407a 803d 30d3 e9bd 003e 66bb c0a7 823d
00000360: 983e c8be 7a2d 86be d8b7 ce3e 86c1 cfbe
00000370: 200f 13bd c03e fd3e 10f4 383e c0f0 673c
00000380: 26da ddbe 2ca2 7d3e 0858 b6be a856 11be
00000390: ccc8 2bbe 38a4 97bd 8036 b33b 9626 d33e
000003a0: 80ab 7f3d 204c e53e 3099 9c3e c6d8 a1be
000003b0: 54a2 653e 24f7 b4be 9cff 58be 4097 163e
000003c0: bcf5 283e 4f04 c03e 6e99 26be 3f5b 28bc
000003d0: 7acb 833e 5a93 f7be 4215 b93e 30b1 d3be
000003e0: 00d0 e13b e018 aebd 0ad4 86be d857 873d
000003f0: f2b0 d33e e8aa 15be 56fc 97be 845b 3dbe
-0.00374341 0.2682218 -0.41152257 -0.3679695 -0.19257718 0.13407868 -0.00990659 0.39644474
-0.044372022 0.13230628 -0.15110654 -0.098282695 2.1821918 -3.609227 -0.8183228 0.085191615
0.1976676 0.3000114 -0.33897054 -0.21773142 0.18160856 0.41519397 -0.10290009 0.37415588
-0.08059168 0.05290705 0.4527381 -0.46383518 -0.31476897 -0.12658262 -0.19489998 0.4320004
-0.32408983 -0.23016644 -0.34932023 -0.4682805 -0.29187024 0.42979902 0.22310919 0.24233627
0.026295781 -0.25634176 0.08459234 -0.46684736 -0.36128312 -0.257765 0.31546897 0.29316062
-0.22174752 -0.018041193 0.31978035 0.49706656 0.19844109 0.06754643 0.33524317 -0.29440117
0.093172014 -0.38765275 -0.34654307 -0.25829178 0.22623652 0.2010802 -0.29617625 0.15105355
0.274486 -0.06310868 0.019090772 0.115852356 0.3101883 0.48009706 -0.38531178 -0.18323487
0.19650495 0.4142747 0.43510365 0.44117838 0.09950727 -0.43479133 0.04599625 -0.31280267
-0.46597707 0.44424623 0.38017988 -0.49876398 0.09358603 -0.084230006 -0.082280576 -0.22887844
0.19227809 -0.29615176 0.18329567 0.25285405 0.3579358 0.18695557 -0.49486762 -0.32434845
0.24965751 0.104650676 -0.390042 -0.28790975 0.47037464 0.33690894 -0.21801257 -0.12584239
-0.47629905 -0.008987069 -0.37652946 -0.38567835 -0.027549803 0.07507253 -0.20476514 0.2966888
-0.30426955 0.45368505 0.34264994 -0.42164147 -0.12444216 0.022561312 0.07295054 0.118587136
0.19621414 0.029950082 -0.24396437 0.2365945 -0.47962445 -0.29635334 -0.12516493 -0.24355668
-0.17491668 -0.40981084 -0.106357574 0.10687822 -0.32471022 -0.044638716 0.3830394 -0.025996648
0.013896108 -0.04313445 0.101190686 0.31791973 0.71184975 -2.8858182 1.3944728 -0.1478886
-0.44916075 -0.23703861 0.3404526 -0.003241241 -0.24852318 -0.38315588 -0.46792603 -0.4220041
-0.101418376 0.274203 0.27032053 -0.48221594 0.31189102 -0.39125472 -0.10570514 -0.20273632
-0.096307635 -0.09817135 -0.44867498 -0.43171895 -0.07823974 0.0064660907 -0.22713745 0.1883496
-0.4500292 -0.03374362 0.43970972 -0.203946 0.45150155 0.18107688 -0.45123047 0.31634867
-0.057697237 -0.22320342 0.39982665 -0.4040476 0.053652465 -0.10468435 0.35705632 0.13957226
0.24025267 0.17657948 -0.12023735 -0.105152726 -0.4120407 0.27092206 0.39698905 0.34211242
-0.35268915 0.022299945 -0.35246706 -0.2752421 -0.29135275 0.17087251 -0.2979566 -0.010908604
0.021034062 0.32231152 -0.37796003 -0.34325612 -0.29033077 0.3499667 -0.1797325 0.42174435
0.18080378 0.06331301 -0.003722012 -0.09884077 0.06273317 -0.11417234 -0.003513217 0.06379652
-0.39110255 -0.2620657 0.40374637 -0.40577334 -0.035903096 0.49461937 0.18061852 0.01415652
-0.43330497 0.24768895 -0.35614038 -0.14193213 -0.16775817 -0.07404369 0.0054691434 0.41240376
0.062419415 0.4478464 0.30585623 -0.31610698 0.22425205 -0.35344803 -0.21191257 0.14706135
0.1649999 0.37503287 -0.16269466 -0.010275661 0.25741178 -0.48354608 0.3614903 -0.4134612
0.0068912506 -0.08500838 -0.26333648 0.06608552 0.41345936 -0.14615977 -0.29684705 -0.18491942

bias f4 [256]
00000000: c07e 0fbd aaca f1be 149b 93be 3f5c bb3e
00000010: 70a8 2dbe dab2 b03e d260 ca3e 10f6 943d
00000020: f0f1 21bd d085 22be 201e cfbc b063 ba3d
00000030: be8b c3be 48bb f4bd e8f0 d4be 0a1f 9d3e
00000040: b407 a3be 02de e93e d8fb 03be f4a7 92be
00000050: f4fd 753e 30a8 983d cc44 b13e 98be 553e
00000060: 6a9d f6be e4ea a13e 58d5 c0bd 084a 62be
00000070: e492 a23e 64b5 ba3e 9a01 e1be e02f 39bd
00000080: 983a d23e 0fc7 5a3e 12ac d73e e8e8 18be
00000090: 7038 8dbe 0a23 dc3e d069 553e 6ac1 f53e
000000a0: 54dc 55be 7e5e a4be 500d 70bd 620b f1be
000000b0: f8b0 483e 98d2 bc3e 78d1 f53d 405b 4abd
000000c0: 54da 7d3e 107f a2be 246e fa3e 4e8d febe
000000d0: e63b f5be 10f9 f1bd b81c d13e c00e 4d3d
000000e0: a4a1 443e 56a6 bbbe 18b8 3a3e c0d9 64bd
000000f0: 9d25 4d3e 50cc b43e 688e 5e3e 2036 2ebd
00000100: 604f fcbc e28e a0be 0431 39be ca5b a63e
00000110: 6c4f 4dbe 76fc 9e3e 3c06 4bbe 087d eebd
00000120: 0058 2e3c 20ec eabe 0098 a3bb 006e 4ebd
00000130: 20fc 37bd b0b3 ccbd 18d3 c93e baec bc3e
00000140: 1af6 8dbe 74d6 6d3e 4ccd c8be 32f0 d9be
00000150: 5882 1c3e 80c9 f03b ecd9 6ebe b8e9 f6be
00000160: b436 46be fc01 2b3e 38f4 ecbe f6b1 f8be
00000170: e0ea 813d 686c b8be cc46 e0be 3c44 45be
00000180: 68dd a4bd e8a0 e8be 34f0 aabe 7048 063d
00000190: 9866 f1be 80ed 8fbd c64c a5be 0078 b1be
000001a0: 5c3b 493e 620a c5be 6c01 c2be f8fd 913e
000001b0: 1874 bf3d 7a24 e93e f4da 08be c04d 77be
000001c0: 0089 3dbd 00c9 253b a83c c33e 18ff febe
000001d0: b0d1 11bd fc7b 623e 90f9 8cbe 8415 82be
000001e0: e06e 773e a04b f5be 88a4 f23d b9ab c8be
000001f0: e47e 7e3e eee3 dabe d863 9d3e 8456 f2be
00000200: 622f d7be ec53 1cbe 9cb9 c93e be3c dbbe
00000210: f061 64be 20d7 e03e e0b8 abbd 1c1d 543e
00000220: ba7f dabe a403 21be 4a01 82be dcd2 d73e
00000230: 1c80 543e 06cc babe b018 a53d 004f bcbb
00000240: 885d 52be 1432 92be c0e6 29be 36c9 c93e
00000250: a283 b7be 225c b6be 38f6 1dbe c082 0e3c
00000260: 5c5f 0b3e 80d3 753c c880 f6bd c439 9bbe
00000270: 30bd b7bd 781b 4ebe 6cd4 ce3e 5e31 f9be
00000280: ba4a a3be 7247 d0be 9824 bbbd 767e c73e
00000290: e064 e03e b6dc debe 8077 b1bc 6a43 963e
000002a0: 34b0 613e cab0 d13e 403b 63bc 2a01 acbe
000002b0: 105a a93e 8092 2fbe a28d 843e d859 fcbd
000002c0: f0a5 593e c840 e63e 020b ee3e 06fa e8be
000002d0: c656 a9be ecb1 53be 6040 a3be cca1 f53e
000002e0: 80e0 34bd b0d0 a9be a8d5 63be c467 8dbe
000002f0: fce3 503e da4b dfbe f8b1 eebe d85a fcbe
00000300: a86d 5c3e 2829 7d3e 0aff 9ebe 18ee fd3d
00000310: acf9 bc3e e0c9 943d d8a8 d8bd a04f 173d
00000320: 309a 5bbd 52e5 803e b0d3 adbe 78d1 813e
00000330: a249 903e 9a1a 9bbe 500a d13e 7670 fb3e
00000340: 58d8 49be 8868 0fbe 7428 7f3e 3e8e c8be
00000350: 7879 4a3e 70e7 ee3d 4a5d a13e 58ae b0be
00000360: 50ae d4be 40f4 653e 8c6d 383e b246 eebe
00000370: c6c2 8ebe 083c eabe 7e67 b7be a403 67be
00000380: 90d9 d33e 00d4 cbbd ae08 933e 4a1e f33e
00000390: bc55 693e 822c e5be 34d3 803e 644b 433e
000003a0: b26a c63e f486 fcbe b071 9d3e ee8b d13e
000003b0: 622c eebe 5046 563d 528a da3e de30 babe
000003c0: 40ff 273e c03d 623e ac30 063e 579e fe3e
000003d0: 8a9b d13e eca2 db3e d046 7fbd deb5 d63e
000003e0: d491 eebe 2625 8abe a803 dbbd d417 18be
000003f0: 4277 ec3e 1c7e 713e eed0 a43e 3422 ae3e
-0.035032988 -0.47224933 -0.28829253 0.36593816 -0.16958785 0.34511453 0.39526993 0.07273495
-0.03953737 -0.15871358 -0.02528292 0.09101045 -0.38192552 -0.119497836 -0.41590047 0.30687743
-0.31841815 0.4567719 -0.1288904 -0.28643763 0.24022657 0.07453954 0.346228 0.20873487
-0.48166972 0.3162452 -0.09415692 -0.22098553 0.31752694 0.36466515 -0.43946534 -0.045211673
0.41060328 0.21364997 0.42123467 -0.14932597 -0.2758212 0.42995483 0.20841146 0.47999126
-0.2088483 -0.32103342 -0.058606446 -0.47078997 0.19598758 0.3687942 0.120028436 -0.04940343
0.24790317 -0.31737566 0.48912156 -0.49717182 -0.4789726 -0.11815083 0.40842223 0.050062895
0.19202286 -0.36650342 0.18234289 -0.055871725 0.2003388 0.35312128 0.21734011 -0.042532086
-0.030799568 -0.3135901 -0.18085104 0.32491904 -0.20049828 0.31051987 -0.19826597 -0.116449416
0.010641098 -0.45883274 -0.004992485 -0.050397873 -0.04491818 -0.0999521 0.39418864 0.36899358
-0.27726823 0.23226339 -0.3921913 -0.42566067 0.15284097 0.0073482394 -0.23325318 -0.48225188
-0.19356805 0.16699976 -0.46280074 -0.48573273 0.06343627 -0.36020207 -0.43804014 -0.1926431
-0.080500424 -0.45435262 -0.33386385 0.032783926 -0.47148585 -0.070277214 -0.32285136 -0.34661865
0.1965155 -0.38484484 -0.3789171 0.28514075 0.09348315 0.45535642 -0.13364774 -0.24150753
-0.04627323 0.0025296807 0.38132215 -0.49803996 -0.035600364 0.22117609 -0.2753415 -0.2540704
0.24163389 -0.4790926 0.11847788 -0.39193514 0.24853092 -0.42752022 0.30740237 -0.4733163
-0.42028338 -0.15266389 0.3939942 -0.4281978 -0.22302985 0.43914127 -0.083848715 0.2071423
-0.42675573 -0.15724045 -0.25391608 0.4215306 0.20751995 -0.36483783 0.080613494 -0.005746722
-0.20543492 -0.28553832 -0.1659193 0.39411324 -0.35842615 -0.35617167 -0.15425956 0.008698165
0.13610595 0.015004039 -0.12036282 -0.3031751 -0.089716315 -0.20127666 0.4039644 -0.48670477
-0.3189295 -0.40679508 -0.09137839 0.3896367 0.43826962 -0.43527764 -0.021663427 0.29348308
0.22039872 0.40955192 -0.013869107 -0.33594638 0.33076525 -0.17145729 0.25889307 -0.12321824
0.21254706 0.449713 0.46492773 -0.45503253 -0.33074015 -0.2067334 -0.31885052 0.47975004
-0.044159412 -0.33167028 -0.22249472 -0.2761823 0.20399469 -0.43612558 -0.46620154 -0.49288058
0.21526206 0.24722731 -0.31053954 0.123989284 0.36909235 0.07265067 -0.105790794 0.03694117
-0.05361384 0.25174958 -0.33950567 0.25355124 0.28181177 -0.30293733 0.4082818 0.49109238
-0.19711435 -0.1400472 0.24917775 -0.39171022 0.19772899 0.11665237 0.31516486 -0.34508014
-0.4153924 0.22456455 0.18010539 -0.4653831 -0.27882975 -0.45748925 -0.35821146 -0.22559983
0.41376925 -0.09952545 0.2871756 0.47484046 0.22786611 -0.4476052 0.25161135 0.19071728
0.38753277 -0.4932171 0.307508 0.4092707 -0.46518236 0.05231315 0.42683655 -0.36365408
0.16405964 0.22093868 0.13104504 0.4973018 0.4093898 0.42897737 -0.06232339 0.4193563
-0.46595633 -0.26981467 -0.10694057 -0.1485284 0.46184736 0.23583263 0.3219065 0.3401047

weight f4 [2, 256]
00000000: 4549 d3bc db7a e6bc b3f1 f53c 62fc 09c0
00000010: aa3b 593d 2274 3bbd 695a 063b c39d 003d
00000020: 6511 873b 6fb5 83bd 7e95 813d 2786 af3c
00000030: d4dc 25bd 41a4 093c 6d9d cebc f6af 95bd
00000040: 1cdc 2a3b d52b bebb fa6b ec3c 33c9 eebc
00000050: 31d1 483c 0b3c b63c 17ec 373c c263 923d
00000060: 207a 813d 9a47 463d d34c ffbb b134 86bd
00000070: 6e6e 0fbd 48c8 91bc 28b3 223d d2db 133c
00000080: e7bb c0bc d40a 09bd 4fda dfba 4f6b 09c0
00000090: 1afe a8bd b954 bdbc 1e9b 893d 8233 123d
000000a0: 3a42 8b3c b44f 1fbc 36ab 3a3c 1b43 84bd
000000b0: e29f 19bd 2191 a53c 8991 5c3c 24aa 34bd
000000c0: 5d19 9c3b 6827 58bc 7645 1c3b 22ac 98bd
000000d0: 5495 8a3d db90 973b c710 2ebc 38f7 2cbd
000000e0: d270 483d 3e63 34bd 5618 193d a1a3 71bb
000000f0: 391c 97bc c6b7 153d 86da 8bbc a796 9a3d
00000100: b826 e1ba 2666 17bd f2fa 063d caeb f6bc
00000110: b72b d03c 2c11 213d 285f 48bd 48d5 1f3d
00000120: d891 0d3d fae0 a13d 79a5 743c 22ff 113d
00000130: 3822 45bd cd92 02ba 3bcd 333b c315 fcbb
00000140: 84be 823f 36b1 1d3d ab53 95bc c01a 493c
00000150: e413 7037 c9de 453c 5f31 0f3c f459 35bd
00000160: fff5 8fbd 199e ee3c e091 67bd dc41 793d
00000170: d4bb a4bd 8f34 253c bfc0 a5bc ff2e 25bc
00000180: 39cb 81bc b641 263d 1f30 e4bc a927 b7bb
00000190: 7cbe 273d 1e3c 7bbd ef39 8f3c 3119 42bb
000001a0: 5008 0b3d 848e 053d be37 9d3c d453 2ebd
000001b0: fb2a 91bc 4f62 863d 0f70 cebc 8483 1b3d
000001c0: df96 713c 0c7d 0a3d 9808 903d 278a a1bc
000001d0: 7285 203d 00be 3fbd d009 563d 9f36 d9bc
000001e0: 49b6 7dbc 1052 83bd 3631 9dbd e81e 363d
000001f0: 41cb d0bb 8169 7dbc 6b91 b03c 127d 40bd
00000200: 5d20 a93a 136a b2bf 08a2 0a3d f929 d93b
00000210: 3d63 bb3c a7ba 9a3d a8c0 083d 2336 c23c
00000220: 50f2 913f 9e30 2abd 1d28 81bc e458 1fbc
00000230: fb52 a8bc 3ac7 e6bc e8e5 46bd c627 4dbd
00000240: e79c a9bd 31b3 74bc 07d9 b13c 947d 3d3d
00000250: 3a39 4fbd 5355 a0bd 1410 92bd 3fad b43c
00000260: fcd8 823d 3243 3dbd 00e4 60bd 64e6 4bbc
00000270: 4eb5 7d3c e459 a4bd f850 0cbd 1c6a 263d
00000280: 16ae 4fbd 3dc3 03bd 60c5 883b de4e 0bbd
00000290: 7fb8 02bd 92f4 233d 4e8a 3dbd be5b 953c
000002a0: f3a0 adbc 7e42 29bd 96d0 873d b530 923d
000002b0: de10 823d 918c c239 99be 403c aeb8 a2bd
000002c0: a4eb 14bd 1e18 063c 1920 9aba d370 af3b
000002d0: cb77 f8bb 91ac 5f3c a782 1fbd 7aff a2bd
000002e0: 7141 2d3c 4a5d 03bd 3add 6a3d 7a69 5e3d
000002f0: b03a 1a3d 004f c0b8 c324 91bc 8fc4 0dbc
00000300: 3c91 aa3d 331f a03d cf99 3bbc fdb5 97bd
00000310: ea23 11bd 6ade 50bd 816a 963d 2891 2b3d
00000320: ea4b a63d eeab 893d 339a b23c 8440 74bd
00000330: 0865 243d 2879 913d 446c 443d b803 59bc
00000340: f629 e83c c928 79bc 495f a73c 2d0c aa3b
00000350: 9964 493c 5a0b 0bbd 066e 61bc 2233 983f
00000360: 1806 013c 1420 09bd 7a37 133d 6a1b a03c
00000370: d6d7 f13c 3702 e5bc 2128 233a 4404 36bd
00000380: 7851 41bd cefb 0abd c3ad 12bb 91c0 5a3c
00000390: c03a 06bd 2107 d93c 7966 d9bb db22 383c
000003a0: 541a 79bc 6200 a0bd 318b 2e3b cf53 a1bd
000003b0: 7da4 183c 3f8c b33c bf2c ccbc 4e57 53bd
000003c0: 81a2 833d 78c3 653d 7aa9 14bd aeba 3abd
000003d0: b3b5 963c 9128 9a3d 60d0 14bd a1e6 0cbd
000003e0: bbb1 dabc 0020 e3ba f311 983d 751a 3f3c
000003f0: b075 033d ffa5 a8bc 83b7 e2bc 2cea 6abd
-0.025791774 -0.028134754 0.030022478 -2.1560292 0.053035416 -0.04576505 0.0020500666 0.031400453
0.0041219466 -0.0643109 0.063273415 0.021426274 -0.0404938 0.008400978 -0.02522155 -0.073089525
0.0026071137 -0.005803565 0.028860081 -0.029148674 0.012256906 0.022245428 0.011225722 0.071479335
0.063221216 0.04840813 -0.0077911406 -0.06553019 -0.035017423 -0.017795697 0.039721638 0.009024577
-0.023527099 -0.033457592 -0.0017078611 -2.1471746 -0.08251591 -0.023111688 0.067190394 0.035693653
0.016999353 -0.009723593 0.011393359 -0.06458112 -0.03750599 0.020210804 0.013462433 -0.04410757
0.0047637657 -0.013192989 0.0023845113 -0.07454707 0.06766763 0.0046254224 -0.010624117 -0.042227954
0.04893572 -0.044039957 0.037376724 -0.0036871212 -0.018446075 0.036552213 -0.017071974 0.07548266
-0.0017177677 -0.03696265 0.032954164 -0.03014173 0.02541147 0.039323017 -0.048918873 0.03902176
0.034562916 0.07904239 0.01493203 0.035643704 -0.048128337 -0.00049809815 0.002743556 -0.007693024
1.0214391 0.03849908 -0.018228373 0.012274444 1.4309746e-05 0.012077042 0.008739798 -0.04427524
-0.07029342 0.029128121 -0.0565356 0.060853824 -0.08043638 0.010083332 -0.02023351 -0.0100820055
-0.015843974 0.04059001 -0.027854977 -0.0055894447 0.040953144 -0.06133663 0.01748368 -0.0029617066
0.033943474 0.032606617 0.019191619 -0.042560413 -0.01772069 0.065617196 -0.025199918 0.03796722
0.014745443 0.03381066 0.07032889 -0.019719196 0.039189763 -0.046812057 0.05225545 -0.026515303
-0.015485355 -0.064121366 -0.07675402 0.04446307 -0.006371886 -0.015467049 0.021553716 -0.046994276
0.0012903322 -1.3938621 0.03384593 0.006627318 0.022874469 0.07555132 0.033386856 0.023707455
1.1402073 -0.04155027 -0.015766198 -0.009725783 -0.02054738 -0.02817117 -0.0485591 -0.05008676
-0.0828188 -0.014935301 0.021709932 0.04626234 -0.050591685 -0.07828774 -0.07131973 0.022055266
0.06389043 -0.04620666 -0.054904938 -0.012445066 0.015485121 -0.08024958 -0.034256905 0.040628538
-0.05070313 -0.032168616 0.0041739196 -0.03401076 -0.03191423 0.040028162 -0.046274476 0.018232223
-0.02119491 -0.041323178 0.066315815 0.071381964 0.063508734 0.00037107294 0.011764192 -0.07945381
-0.036357537 0.008184461 -0.0011758833 0.005354026 -0.00758264 0.013651983 -0.03894296 -0.079588845
0.0105746845 -0.03207139 0.057339884 0.05429981 0.037653625 -9.169988e-05 -0.017717725 -0.00865282
0.083284825 0.07818451 -0.011450245 -0.074077584 -0.03543464 -0.05099336 0.07344533 0.04188648
0.08119948 0.06722246 0.021802044 -0.05963184 0.040135413 0.07103187 0.047954813 -0.0132455155
0.028340321 -0.015207478 0.020431178 0.0051894397 0.012292051 -0.033946373 -0.013759142 1.1890604
0.007874988 -0.033477858 0.03594158 0.019544322 0.029521864 -0.027955158 0.0006223936 -0.04443766
-0.047196835 -0.033931546 -0.0022381402 0.0133515755 -0.032770872 0.026492657 -0.00663453 0.011238779
-0.015204031 -0.07812573 0.0026633258 -0.07877313 0.009316561 0.02191746 -0.02492368 -0.051596932
0.064274795 0.056094617 -0.036294438 -0.045588188 0.018397188 0.07527269 -0.036331534 -0.034399632
-0.026696077 -0.0017328262 0.074252985 0.011664023 0.032094657 -0.020586966 -0.027675396 -0.05735223

bias f4 [2]
00000000: 5c3c ec3c 5101 223d
0.028837375 0.039552037
