NODE/submission_models/drifter_6_tanh_1day.pth (torch, 81679 bytes, 4 tensors)

weight f4 [256, 4]
000000 00 54 75 bb 5e 54 89 3e 16 b3 d2 be 80 66 bc be
       -0.00374341 0.2682218 -0.41152257 -0.3679695
000010 f4 32 45 be ec 4b 09 3e 40 4f 22 bc ce fa ca 3e
       -0.19257718 0.13407868 -0.00990659 0.39644474
000020 70 bf 35 bd 4c 7b 07 3e ac bb 1a be 70 48 c9 bd
       -0.044372022 0.13230628 -0.15110654 -0.098282695
000030 fe ff f2 be 29 3b a9 be a1 75 5e be 3c 98 e8 3b
       -0.47460932 -0.33052948 -0.2172456 0.007098226
000040 60 69 4a 3e 18 9b 99 3e 8c 8d ad be fc f4 5e be
       0.1976676 0.3000114 -0.33897054 -0.21773142
000050 98 f7 39 3e 4e 94 d4 3e 48 bd d2 bd 5c 91 bf 3e
       0.18160856 0.41519397 -0.10290009 0.37415588
000060 40 0d a5 bd 10 b5 58 3d 4a cd e7 3e ce 7b ed be
       -0.08059168 0.05290705 0.4527381 -0.46383518
000070 66 29 a1 be e0 9e 01 be dc 93 47 be 28 2f dd 3e
       -0.31476897 -0.12658262 -0.19489998 0.4320004
000080 1a ef a5 be c0 b0 6b be 1a da b2 be 76 c2 ef be
       -0.32408983 -0.23016644 -0.34932023 -0.4682805
000090 04 70 95 be 9e 0e dc 3e bc 76 64 3e 00 27 78 3e
       -0.29187024 0.42979902 0.22310919 0.24233627
0000a0 40 6a d7 3c 3a 3f 83 be c0 3e ad 3d 9e 06 ef be
       0.026295781 -0.25634176 0.08459234 -0.46684736
0000b0 1a fa b8 be c6 f9 83 be 26 85 a1 3e 26 19 96 3e
       -0.36128312 -0.257765 0.31546897 0.29316062
0000c0 c8 11 63 be 20 cb 93 bc 40 ba a3 3e 82 7f fe 3e
       -0.22174752 -0.018041193 0.31978035 0.49706656
0000d0 24 34 4b 3e c8 55 8a 3d fe a4 ab 3e c0 bb 96 be
       0.19844109 0.06754643 0.33524317 -0.29440117
0000e0 f8 d0 be 3d 6c 7a c6 be 18 6e b1 be d2 3e 84 be
       0.093172014 -0.38765275 -0.34654307 -0.25829178
0000f0 8c aa 67 3e f8 e7 4d 3e 6a a4 97 be c8 ad 1a 3e
       0.22623652 0.2010802 -0.29617625 0.15105355
000100 6e 89 8c 3e 20 3f 81 bd 40 64 9c 3c 00 44 ed 3d
       0.274486 -0.06310868 0.019090772 0.115852356
000110 00 d1 9e 3e 48 cf f5 3e 96 47 c5 be ec a1 3b be
       0.3101883 0.48009706 -0.38531178 -0.18323487
000120 98 38 49 3e d0 1b d4 3e e8 c5 de 3e 22 e2 e1 3e
       0.19650495 0.4142747 0.43510365 0.44117838
000130 78 ca cb 3d f8 9c de be 90 66 3c 3d ac 27 a0 be
       0.09950727 -0.43479133 0.04599625 -0.31280267
000140 8c 94 ee be 3e 74 e3 3e f0 a6 c2 3e fe 5d ff be
       -0.46597707 0.44424623 0.38017988 -0.49876398
000150 08 aa bf 3d c8 80 ac bd b8 82 a8 bd 1c 5f 6a be
       0.09358603 -0.084230006 -0.082280576 -0.22887844
000160 8c e4 44 3e 34 a1 97 be dc b1 3b 3e 16 76 81 3e
       0.19227809 -0.29615176 0.18329567 0.25285405
000170 5c 43 b7 3e 48 71 3f 3e 4a 5f fd be 00 11 a6 be
       0.3579358 0.18695557 -0.49486762 -0.32434845
000180 38 a6 7f 3e 18 53 d6 3d 96 b3 c7 be e8 68 93 be
       0.24965751 0.104650676 -0.390042 -0.28790975
000190 f2 d4 f0 3e 54 7f ac 3e b0 3e 5f be d4 dc 00 be
       0.47037464 0.33690894 -0.21801257 -0.12584239
0001a0 78 dd f3 be 80 3e 13 bc 78 c8 c0 be a2 77 c5 be
       -0.47629905 -0.008987069 -0.37652946 -0.38567835
0001b0 20 b0 e1 bc a0 bf 99 3d f4 ad 51 be 98 e7 97 3e
       -0.027549803 0.07507253 -0.20476514 0.2966888
0001c0 38 c9 9b be 68 49 e8 3e d0 6f af 3e 64 e1 d7 be
       -0.30426955 0.45368505 0.34264994 -0.42164147
0001d0 88 db fe bd 80 d2 b8 3c 18 67 95 3d d0 dd f2 3d
       -0.12444216 0.022561312 0.07295054 0.118587136
0001e0 5c ec 48 3e e0 59 f5 3c cc d1 79 be d4 45 72 3e
       0.19621414 0.029950082 -0.24396437 0.2365945
0001f0 56 91 f5 be a0 bb 97 be 3c 2b 00 be ec 66 79 be
       -0.47962445 -0.29635334 -0.12516493 -0.24355668
000200 5c 1d 33 be ba d2 d1 be 00 d2 d9 bd f8 e2 da 3d
       -0.17491668 -0.40981084 -0.106357574 0.10687822
000210 16 10 60 c0 a5 7d ac bf 38 ad 35 3f 65 15 8b bd
       -3.5009818 -1.3475844 0.70967436 -0.0679119
000220 80 ac 63 3c c0 ad 30 bd 10 3d cf 3d 60 c6 a2 3e
       0.013896108 -0.04313445 0.101190686 0.31791973
000230 c3 83 f2 3e 0d 98 a2 3e 60 04 f4 3e d9 ef c0 bc
       0.4736615 0.3175663 0.47659588 -0.023551868
000240 66 f8 e5 be 40 ba 72 be ce 4f ae 3e 00 6b 54 bb
       -0.44916075 -0.23703861 0.3404526 -0.003241241
000250 dc 7c 7e be 02 2d c4 be 00 94 ef be ec 10 d8 be
       -0.24852318 -0.38315588 -0.46792603 -0.4220041
000260 70 b4 cf bd 56 64 8c 3e 74 67 8a 3e 02 e5 f6 be
       -0.101418376 0.274203 0.27032053 -0.48221594
000270 2e b0 9f 3e 8a 52 c8 be f0 7b d8 bd 1c 9a 4f be
       0.31189102 -0.39125472 -0.10570514 -0.20273632
000280 f0 3c c5 bd 10 0e c9 bd ba b8 e5 be 44 0a dd be
       -0.096307635 -0.09817135 -0.44867498 -0.43171895
000290 28 3c a0 bd 80 e1 d3 3b b8 96 68 be b8 de 40 3e
       -0.07823974 0.0064660907 -0.22713745 0.1883496
0002a0 3a 6a e6 be c0 36 0a bd a2 21 e1 3e 38 d7 50 be
       -0.4500292 -0.03374362 0.43970972 -0.203946
0002b0 36 2b e7 3e 38 6c 39 3e ae 07 e7 be 74 f8 a1 3e
       0.45150155 0.18107688 -0.45123047 0.31634867
0002c0 f0 53 6c bd 70 8f 64 be 14 b6 cc 3e 54 df ce be
       -0.057697237 -0.22320342 0.39982665 -0.4040476
0002d0 b0 c2 5b 3d c0 64 d6 bd 16 d0 b6 3e 08 ec 0e 3e
       0.053652465 -0.10468435 0.35705632 0.13957226
0002e0 cc 04 76 3e 40 d1 34 3e 00 3f f6 bd 50 5a d7 bd
       0.24025267 0.17657948 -0.12023735 -0.105152726
0002f0 00 f7 d2 be 4c b6 8a 3e 26 42 cb 3e 5c 29 af 3e
       -0.4120407 0.27092206 0.39698905 0.34211242
000300 ac 93 b4 be 60 ae b6 3c 90 76 b4 be 88 ec 8c be
       -0.35268915 0.022299945 -0.35246706 -0.2752421
000310 30 2c 95 be 34 f9 2e 3e c4 8d 98 be 00 ba 32 bc
       -0.29135275 0.17087251 -0.2979566 -0.010908604
000320 a0 4f ac 3c 04 06 a5 3e fa 83 c1 be 44 bf af be
       0.021034062 0.32231152 -0.37796003 -0.34325612
000330 3c a6 94 be d6 2e b3 3e cc 0b 38 be e0 ee d7 3e
       -0.29033077 0.3499667 -0.1797325 0.42174435
000340 a0 24 39 3e 40 aa 81 3d 00 ed 73 bb 08 6d ca bd
       0.18080378 0.06331301 -0.003722012 -0.09884077
000350 40 7a 80 3d 30 d3 e9 bd 00 3e 66 bb c0 a7 82 3d
       0.06273317 -0.11417234 -0.003513217 0.06379652
000360 98 3e c8 be 7a 2d 86 be d8 b7 ce 3e 86 c1 cf be
       -0.39110255 -0.2620657 0.40374637 -0.40577334
000370 20 0f 13 bd c0 3e fd 3e 10 f4 38 3e c0 f0 67 3c
       -0.035903096 0.49461937 0.18061852 0.01415652
000380 26 da dd be 2c a2 7d 3e 08 58 b6 be a8 56 11 be
       -0.43330497 0.24768895 -0.35614038 -0.14193213
000390 cc c8 2b be 38 a4 97 bd 80 36 b3 3b 96 26 d3 3e
       -0.16775817 -0.07404369 0.0054691434 0.41240376
0003a0 80 ab 7f 3d 20 4c e5 3e 30 99 9c 3e c6 d8 a1 be
       0.062419415 0.4478464 0.30585623 -0.31610698
0003b0 54 a2 65 3e 24 f7 b4 be 9c ff 58 be 40 97 16 3e
       0.22425205 -0.35344803 -0.21191257 0.14706135
0003c0 2d fe 28 3e b2 0e c0 3e ec 28 26 be 97 07 5c bb
       0.1650321 0.37511212 -0.16226548 -0.003357386
0003d0 7a cb 83 3e 5a 93 f7 be 42 15 b9 3e 30 b1 d3 be
       0.25741178 -0.48354608 0.3614903 -0.4134612
0003e0 00 d0 e1 3b e0 18 ae bd 0a d4 86 be d8 57 87 3d
       0.0068912506 -0.08500838 -0.26333648 0.06608552
0003f0 f2 b0 d3 3e e8 aa 15 be 56 fc 97 be 84 5b 3d be
       0.41345936 -0.14615977 -0.29684705 -0.18491942

bias f4 [256]
000000 c0 7e 0f bd aa ca f1 be 14 9b 93 be 77 22 49 3e
       -0.035032988 -0.47224933 -0.28829253 0.19642054
000010 70 a8 2d be da b2 b0 3e d2 60 ca 3e 10 f6 94 3d
       -0.16958785 0.34511453 0.39526993 0.07273495
000020 f0 f1 21 bd d0 85 22 be 20 1e cf bc b0 63 ba 3d
       -0.03953737 -0.15871358 -0.02528292 0.09101045
000030 be 8b c3 be 48 bb f4 bd e8 f0 d4 be 0a 1f 9d 3e
       -0.38192552 -0.119497836 -0.41590047 0.30687743
000040 b4 07 a3 be 02 de e9 3e d8 fb 03 be f4 a7 92 be
       -0.31841815 0.4567719 -0.1288904 -0.28643763
000050 f4 fd 75 3e 30 a8 98 3d cc 44 b1 3e 98 be 55 3e
       0.24022657 0.07453954 0.346228 0.20873487
000060 6a 9d f6 be e4 ea a1 3e 58 d5 c0 bd 08 4a 62 be
       -0.48166972 0.3162452 -0.09415692 -0.22098553
000070 e4 92 a2 3e 64 b5 ba 3e 9a 01 e1 be e0 2f 39 bd
       0.31752694 0.36466515 -0.43946534 -0.045211673
000080 98 3a d2 3e b2 39 ce 3d 12 ac d7 3e 38 65 2f be
       0.41060328 0.10069598 0.42123467 -0.17128456
000090 70 38 8d be 0a 23 dc 3e d0 69 55 3e 6a c1 f5 3e
       -0.2758212 0.42995483 0.20841146 0.47999126
0000a0 54 dc 55 be 7e 5e a4 be 50 0d 70 bd 62 0b f1 be
       -0.2088483 -0.32103342 -0.058606446 -0.47078997
0000b0 f8 b0 48 3e 98 d2 bc 3e 78 d1 f5 3d 40 5b 4a bd
       0.19598758 0.3687942 0.120028436 -0.04940343
0000c0 54 da 7d 3e 10 7f a2 be 24 6e fa 3e 4e 8d fe be
       0.24790317 -0.31737566 0.48912156 -0.49717182
0000d0 e6 3b f5 be 10 f9 f1 bd b8 1c d1 3e c0 0e 4d 3d
       -0.4789726 -0.11815083 0.40842223 0.050062895
0000e0 a4 a1 44 3e 56 a6 bb be 18 b8 3a 3e c0 d9 64 bd
       0.19202286 -0.36650342 0.18234289 -0.055871725
0000f0 db 2c 4d 3e 50 cc b4 3e 68 8e 5e 3e 20 36 2e bd
       0.20036642 0.35312128 0.21734011 -0.042532086
000100 60 4f fc bc e2 8e a0 be 04 31 39 be ca 5b a6 3e
       -0.030799568 -0.3135901 -0.18085104 0.32491904
000110 6c 4f 4d be 76 fc 9e 3e 3c 06 4b be 08 7d ee bd
       -0.20049828 0.31051987 -0.19826597 -0.116449416
000120 00 58 2e 3c 20 ec ea be 00 98 a3 bb 00 6e 4e bd
       0.010641098 -0.45883274 -0.004992485 -0.050397873
000130 20 fc 37 bd b0 b3 cc bd 18 d3 c9 3e ba ec bc 3e
       -0.04491818 -0.0999521 0.39418864 0.36899358
000140 92 59 b2 be 74 d6 6d 3e 4c cd c8 be 32 f0 d9 be
       -0.34833962 0.23226339 -0.3921913 -0.42566067
000150 58 82 1c 3e 80 c9 f0 3b ec d9 6e be b8 e9 f6 be
       0.15284097 0.0073482394 -0.23325318 -0.48225188
000160 b4 36 46 be fc 01 2b 3e 38 f4 ec be f6 b1 f8 be
       -0.19356805 0.16699976 -0.46280074 -0.48573273
000170 e0 ea 81 3d 68 6c b8 be cc 46 e0 be 3c 44 45 be
       0.06343627 -0.36020207 -0.43804014 -0.1926431
000180 68 dd a4 bd e8 a0 e8 be 34 f0 aa be 70 48 06 3d
       -0.080500424 -0.45435262 -0.33386385 0.032783926
000190 98 66 f1 be 80 ed 8f bd c6 4c a5 be 00 78 b1 be
       -0.47148585 -0.070277214 -0.32285136 -0.34661865
0001a0 5c 3b 49 3e 62 0a c5 be 6c 01 c2 be f8 fd 91 3e
       0.1965155 -0.38484484 -0.3789171 0.28514075
0001b0 18 74 bf 3d 7a 24 e9 3e f4 da 08 be c0 4d 77 be
       0.09348315 0.45535642 -0.13364774 -0.24150753
0001c0 00 89 3d bd 00 c9 25 3b a8 3c c3 3e 18 ff fe be
       -0.04627323 0.0025296807 0.38132215 -0.49803996
0001d0 b0 d1 11 bd fc 7b 62 3e 90 f9 8c be 84 15 82 be
       -0.035600364 0.22117609 -0.2753415 -0.2540704
0001e0 e0 6e 77 3e a0 4b f5 be 88 a4 f2 3d d5 63 ca be
       0.24163389 -0.4790926 0.11847788 -0.3952929
0001f0 e4 7e 7e 3e ee e3 da be d8 63 9d 3e 84 56 f2 be
       0.24853092 -0.42752022 0.30740237 -0.4733163
000200 62 2f d7 be 82 89 f1 3b 9c b9 c9 3e be 3c db be
       -0.42028338 0.0073711285 0.3939942 -0.4281978
000210 f0 61 64 be 20 d7 e0 3e e0 b8 ab bd 1c 1d 54 3e
       -0.22302985 0.43914127 -0.083848715 0.2071423
000220 46 d8 be be a4 03 21 be 4a 01 82 be dc d2 d7 3e
       -0.3727438 -0.15724045 -0.25391608 0.4215306
000230 1c 80 54 3e 06 cc ba be b0 18 a5 3d 00 4f bc bb
       0.20751995 -0.36483783 0.080613494 -0.005746722
000240 88 5d 52 be 14 32 92 be c0 e6 29 be 36 c9 c9 3e
       -0.20543492 -0.28553832 -0.1659193 0.39411324
000250 a2 83 b7 be 22 5c b6 be 38 f6 1d be c0 82 0e 3c
       -0.35842615 -0.35617167 -0.15425956 0.008698165
000260 5c 5f 0b 3e 80 d3 75 3c c8 80 f6 bd c4 39 9b be
       0.13610595 0.015004039 -0.12036282 -0.3031751
000270 30 bd b7 bd 78 1b 4e be 6c d4 ce 3e 5e 31 f9 be
       -0.089716315 -0.20127666 0.4039644 -0.48670477
000280 ba 4a a3 be 72 47 d0 be 98 24 bb bd 76 7e c7 3e
       -0.3189295 -0.40679508 -0.09137839 0.3896367
000290 e0 64 e0 3e b6 dc de be 80 77 b1 bc 6a 43 96 3e
       0.43826962 -0.43527764 -0.021663427 0.29348308
0002a0 34 b0 61 3e ca b0 d1 3e 40 3b 63 bc 2a 01 ac be
       0.22039872 0.40955192 -0.013869107 -0.33594638
0002b0 10 5a a9 3e 80 92 2f be a2 8d 84 3e d8 59 fc bd
       0.33076525 -0.17145729 0.25889307 -0.12321824
0002c0 f0 a5 59 3e c8 40 e6 3e 02 0b ee 3e 06 fa e8 be
       0.21254706 0.449713 0.46492773 -0.45503253
0002d0 c6 56 a9 be ec b1 53 be 60 40 a3 be cc a1 f5 3e
       -0.33074015 -0.2067334 -0.31885052 0.47975004
0002e0 80 e0 34 bd b0 d0 a9 be a8 d5 63 be c4 67 8d be
       -0.044159412 -0.33167028 -0.22249472 -0.2761823
0002f0 fc e3 50 3e da 4b df be f8 b1 ee be d8 5a fc be
       0.20399469 -0.43612558 -0.46620154 -0.49288058
000300 a8 6d 5c 3e 28 29 7d 3e 0a ff 9e be 18 ee fd 3d
       0.21526206 0.24722731 -0.31053954 0.123989284
000310 ac f9 bc 3e e0 c9 94 3d d8 a8 d8 bd a0 4f 17 3d
       0.36909235 0.07265067 -0.105790794 0.03694117
000320 30 9a 5b bd 52 e5 80 3e b0 d3 ad be 78 d1 81 3e
       -0.05361384 0.25174958 -0.33950567 0.25355124
000330 a2 49 90 3e 9a 1a 9b be 50 0a d1 3e 76 70 fb 3e
       0.28181177 -0.30293733 0.4082818 0.49109238
000340 58 d8 49 be 88 68 0f be 74 28 7f 3e 3e 8e c8 be
       -0.19711435 -0.1400472 0.24917775 -0.39171022
000350 78 79 4a 3e 70 e7 ee 3d 4a 5d a1 3e 04 5d de be
       0.19772899 0.11665237 0.31516486 -0.4343034
000360 50 ae d4 be 40 f4 65 3e 8c 6d 38 3e b2 46 ee be
       -0.4153924 0.22456455 0.18010539 -0.4653831
000370 c6 c2 8e be 08 3c ea be 7e 67 b7 be a4 03 67 be
       -0.27882975 -0.45748925 -0.35821146 -0.22559983
000380 90 d9 d3 3e 00 d4 cb bd ae 08 93 3e 4a 1e f3 3e
       0.41376925 -0.09952545 0.2871756 0.47484046
000390 bc 55 69 3e 82 2c e5 be 34 d3 80 3e 64 4b 43 3e
       0.22786611 -0.4476052 0.25161135 0.19071728
0003a0 b2 6a c6 3e f4 86 fc be b0 71 9d 3e ee 8b d1 3e
       0.38753277 -0.4932171 0.307508 0.4092707
0003b0 62 2c ee be 50 46 56 3d 52 8a da 3e de 30 ba be
       -0.46518236 0.05231315 0.42683655 -0.36365408
0003c0 40 ff 27 3e c0 3d 62 3e ac 30 06 3e b5 89 fe 3e
       0.16405964 0.22093868 0.13104504 0.49714437
0003d0 8a 9b d1 3e ec a2 db 3e d0 46 7f bd de b5 d6 3e
       0.4093898 0.42897737 -0.06232339 0.4193563
0003e0 d4 91 ee be 26 25 8a be a8 03 db bd d4 17 18 be
       -0.46595633 -0.26981467 -0.10694057 -0.1485284
0003f0 42 77 ec 3e 1c 7e 71 3e ee d0 a4 3e 34 22 ae 3e
       0.46184736 0.23583263 0.3219065 0.3401047

weight f4 [2, 256]
000000 10 0c 28 bd 9a 58 53 bc 48 46 72 3c 08 fa 94 3c
       -0.04102713 -0.012899542 0.014787264 0.01818563
000010 50 d4 1a 3d e9 19 fa bc 9e 06 58 bc 1e 05 3f 3d
       0.037800133 -0.030529933 -0.013185171 0.04663574
000020 86 14 36 bc 94 03 49 bd 94 c3 44 3d 80 2a 16 3d
       -0.011113292 -0.049075678 0.04803808 0.036661625
000030 51 eb ce bc 04 f2 df bb 24 b6 25 bd 44 f8 6c bd
       -0.025258692 -0.0068342704 -0.040456906 -0.057853952
000040 17 2a 92 3c 83 59 ac bc 5a 9d 34 3d fa cb 35 bd
       0.017842336 -0.021038776 0.044095375 -0.04438398
000050 5d 30 43 bb ea b5 e5 3b 9b c4 d8 3c dc 5f 66 3d
       -0.0029783465 0.0070102112 0.026460936 0.056243762
000060 d6 8c 44 3d 40 e0 07 3d c3 a1 bc bc f2 01 4e bd
       0.047985874 0.033172846 -0.023026353 -0.050294824
000070 c8 d5 4d bd 03 cd 27 bb 82 1a 61 3d f4 82 cb bb
       -0.050252706 -0.0025604374 0.05495692 -0.006210679
000080 b6 da 07 bc dc e5 e3 bf ee a1 5d 3c 10 30 0b 3d
       -0.008291891 -1.7804523 0.013527377 0.033981383
000090 56 ca 89 bd ca 11 1d bd 96 ce 54 3d ad 98 a7 3c
       -0.06728046 -0.038347043 0.05195483 0.020458544
0000a0 38 39 e7 3a 36 9b b4 3b 33 c8 7b bb ee 1e 4a bd
       0.0017640954 0.0055116666 -0.0038418889 -0.049345903
0000b0 3c 07 58 bd fc 2f 11 3d 20 5e e8 ba f1 85 ec bc
       -0.052741274 0.035446152 -0.0017728247 -0.028872462
0000c0 86 90 2b bc 35 e2 e8 bc de 8b 52 bc 9c f0 72 bd
       -0.010471469 -0.028428176 -0.01285073 -0.059311494
0000d0 02 c3 56 3d cb b2 a2 3c f3 d6 d3 bc 15 20 dd bc
       0.052432068 0.019860646 -0.025859332 -0.026992837
0000e0 78 09 0a 3d 25 f8 eb bc 55 62 b5 3c 4e 34 3d 3c
       0.033700436 -0.028804848 0.022141615 0.011548115
0000f0 8b e6 09 bd 35 a1 ae 3c 0f be f0 ba a6 c5 76 3d
       -0.03366713 0.021317104 -0.0018367189 0.060247086
000100 ff e0 8a bc f5 fd b1 bc 4c 62 45 3d 4a dd 39 bd
       -0.01695299 -0.021727541 0.048189446 -0.045377053
000110 50 ba 26 3c 86 78 5f 3d ce f7 09 bd a2 3c 5e 3d
       0.010176256 0.0545583 -0.03368359 0.054257043
000120 32 f9 4b 3d 38 ad 82 3d 24 f9 9e b9 7c 66 50 3d
       0.049798198 0.06380695 -0.00030321733 0.050878987
000130 de ba 06 bd 27 e3 80 bc 3b 48 93 3c ca 24 f7 3b
       -0.032893054 -0.015733315 0.017978778 0.0075422274
000140 0b 33 0c 3d 90 18 5c 3d 42 11 09 bd ef 5b e1 3c
       0.034228366 0.053734362 -0.033463724 0.027509658
000150 32 d9 79 3c ef bd df 3c 3f 67 c4 3c 91 e5 ed bc
       0.015249537 0.027312247 0.023975013 -0.02904013
000160 56 84 61 bd 74 b6 35 3d 86 2a 29 bd 82 da 3a 3d
       -0.055057846 0.044363454 -0.04130032 0.04561854
000170 12 88 85 bd 76 d1 a8 bb ba c8 a3 bb 96 dc a8 3b
       -0.06520094 -0.005151923 -0.0049982937 0.005153249
000180 c4 92 1f ba 15 b5 cf 3c 22 c3 4e bc 66 09 1e 3c
       -0.00060872384 0.025354901 -0.0126197655 0.009645795
000190 d6 25 66 3d c4 d4 3c bd 69 5a 13 3b bb 11 95 bc
       0.056188427 -0.046101347 0.0022484309 -0.018196931
0001a0 aa 6f 49 3d de f5 43 3d 8a a4 81 3b 4d d9 df bc
       0.049178757 0.0478419 0.003956382 -0.027325297
0001b0 ea fc 06 bd 2a 5d 4e 3d 00 43 23 bc de ea 59 3d
       -0.03295604 0.050381817 -0.0099647045 0.053202502
0001c0 e3 99 f5 3c 66 e4 48 3d 88 a9 61 3d 80 2c 0f bd
       0.029980605 0.049045943 0.05509332 -0.034954548
0001d0 89 3c c4 3c cf 56 01 bd 76 a2 17 3d 22 d0 38 bc
       0.023954647 -0.031576928 0.03702017 -0.0112800915
0001e0 7e 20 83 b9 d6 3c 48 bd c4 fa 7b bd 9f 40 e1 3f
       -0.00025010476 -0.048886143 -0.061518446 1.7597846
0001f0 9e 37 11 3c 11 0f 73 b9 22 b0 16 3d da 15 02 bd
       0.008863358 -0.00023179899 0.036789067 -0.03175912
000200 93 60 87 3c 58 9f eb bc 95 75 98 3c 48 08 0d bc
       0.016525542 -0.028762504 0.018610755 -0.008607931
000210 0c 19 1c 3d a6 0d 77 3d 02 28 47 3d 34 cf 0a 3c
       0.038109824 0.06031575 0.04862214 0.008472253
000220 50 c5 c6 3f f8 97 68 bd f1 f6 fd bc d6 88 b4 3b
       1.5528965 -0.056785554 -0.03100154 0.005509476
000230 aa 11 ae bb fa ca 31 bd 8e 7e 08 bd 6c c0 0e bd
       -0.0053121643 -0.043406464 -0.033323817 -0.034851477
000240 24 69 8a bd 24 42 9d 39 f0 53 17 3d cd 2c fe 3c
       -0.06758335 0.00029994652 0.036945283 0.031027222
000250 e0 d1 10 bd 86 21 81 bd 80 b8 65 bd ba 7a df 3b
       -0.035356402 -0.06305222 -0.056084156 0.00682005
000260 a6 4a 47 3d 09 b8 fd bc a6 7c 22 bd b9 c1 e2 bc
       0.048655175 -0.030971544 -0.039669655 -0.027680265
000270 7e 2a 83 39 22 26 85 bd 52 b8 4a bd 76 d1 64 3d
       0.00025017926 -0.06501414 -0.049492188 0.05586382
000280 bc 46 11 bd 19 b8 8a bc 86 3a 35 bc 38 b6 49 bd
       -0.03546785 -0.016933488 -0.011061316 -0.049246043
000290 91 a2 88 bc cd 1a cb 3c 41 46 fe bc ed 68 44 3b
       -0.01667908 0.024793053 -0.031039359 0.0029969767
0002a0 8a 49 c3 bb d8 a9 67 bd a6 39 51 3d c2 f9 65 3d
       -0.0059596943 -0.05655846 0.05108037 0.05614639
0002b0 5e ba 45 3d a8 88 73 bc ef 2d dd 3c ec 84 83 bd
       0.048273437 -0.014864124 0.026999442 -0.06421837
0002c0 f1 08 ad bc 5a 0a e7 bb 8d 70 86 bc c7 aa a8 3c
       -0.021122428 -0.0070507945 -0.01641109 0.020589245
0002d0 83 ec ba bc e8 85 cf ba f5 36 c2 bc b8 cb 83 bd
       -0.022817856 -0.0015832754 -0.023707846 -0.06435341
0002e0 a6 b7 98 bb a4 c4 41 bd e0 75 2c 3d 20 02 20 3d
       -0.0046605645 -0.04730667 0.0421046 0.039064527
0002f0 0a a2 58 3d c2 1d 7b bc e3 b0 22 bb 82 b1 d7 3b
       0.052888907 -0.015326919 -0.002482467 0.00658244
000300 78 5d 8b 3d 66 eb 80 3d 77 9b da bc 52 04 71 bd
       0.06804937 0.06294899 -0.02668546 -0.05884201
000310 44 8b 4f bd 10 77 12 bd 5a 6d 6e 3d f5 53 da 3c
       -0.050669923 -0.035758078 0.058209755 0.026651362
000320 28 18 87 3d 36 f0 54 3d 8a 2e d7 3b 2a d9 35 bd
       0.06596404 0.051986896 0.006566827 -0.044396557
000330 62 cc 62 3d a8 8a 64 3d ea 04 06 3d 5d 50 e9 bc
       0.055370696 0.055796295 0.03271953 -0.028480703
000340 58 7c 32 3d 46 f8 e8 37 10 17 12 3d 9f 51 a7 3c
       0.043575615 2.7772167e-05 0.035666525 0.020424662
000350 db 80 e1 3c b4 72 49 bd 79 85 ed bc 3c ba 30 3d
       0.027527263 -0.049181655 -0.028994309 0.043146357
000360 72 2e f1 bb 6e 87 47 bd d4 9e 51 3d 7a 33 8d 3b
       -0.007360273 -0.04871314 0.05117686 0.004309115
000370 46 53 37 3d 7a e8 30 bd cf e7 81 3c 31 3a ef bc
       0.04475715 -0.043190457 0.015857605 -0.029202553
000380 49 ea 02 bd 21 29 99 bc 4b 24 8f bc c1 2e ea 3c
       -0.031961713 -0.01869637 -0.01747336 0.028586747
000390 09 a7 8f bc fe ea 2a 3d 08 ea 0c 3c e6 f4 82 bb
       -0.017535703 0.041728012 0.008600719 -0.0039964793
0003a0 ef 5b f9 bc 96 cc 80 bd 6e fa 4d bc 0c 20 82 bd
       -0.030439345 -0.06289022 -0.012571914 -0.06353769
0003b0 96 f1 c1 bb ba f6 da 3b 60 bc 1e bc f4 ef 14 bd
       -0.005918692 0.006682244 -0.009688467 -0.03636165
0003c0 b8 dd 48 3d 1e 5c 27 3d 9d 84 ac bc 06 a3 f8 bc
       0.049039572 0.040859334 -0.021059329 -0.030351173
0003d0 46 c2 09 3d 7a e9 75 3d ba 37 53 bd c9 fe 9c bc
       0.03363254 0.060037114 -0.051566817 -0.01916446
0003e0 5a c6 3b bc 93 00 8b bc 3e bc 71 3d 59 0b 6a bb
       -0.011460865 -0.016968047 0.059017412 -0.003571233
0003f0 0a dd 41 3d ba 5d af bb ea d1 4b bc d2 82 2c bd
       0.04732994 -0.0053517492 -0.012440184 -0.042116947

bias f4 [2]
000000 8a 85 34 3d 99 84 d3 3c
       0.044072665 0.025820063
