NODE/submission_models/drifter_18_tanh_1day.pth (torch, 81679 bytes, 4 tensors)

weight f4 [256, 4]
00000000: 0054 75bb 5e54 893e 16b3 d2be 8066 bcbe
00000010: f432 45be ec4b 093e 404f 22bc cefa ca3e
00000020: 70bf 35bd 4c7b 073e acbb 1abe 7048 c9bd
00000030: 0076 f7be 2e25 a6be 4520 61be 109a 863b
00000040: 6069 4a3e 189b 993e 8c8d adbe fcf4 5ebe
00000050: 98f7 393e 4e94 d43e 48bd d2bd 5c91 bf3e
00000060: 400d a5bd 10b5 583d 4acd e73e ce7b edbe
00000070: 6629 a1be e09e 01be dc93 47be 282f dd3e
00000080: 1aef a5be c0b0 6bbe 1ada b2be 76c2 efbe
00000090: 0470 95be 9e0e dc3e bc76 643e 0027 783e
000000a0: 406a d73c 3a3f 83be c03e ad3d 9e06 efbe
000000b0: 1afa b8be c6f9 83be 2685 a13e 2619 963e
000000c0: c811 63be 20cb 93bc 40ba a33e 827f fe3e
000000d0: 2434 4b3e c855 8a3d fea4 ab3e c0bb 96be
000000e0: f8d0 be3d 6c7a c6be 186e b1be d23e 84be
000000f0: 8caa 673e f8e7 4d3e 6aa4 97be c8ad 1a3e
00000100: 6e89 8c3e 203f 81bd 4064 9c3c 0044 ed3d
00000110: 00d1 9e3e 48cf f53e 9647 c5be eca1 3bbe
00000120: 9838 493e d01b d43e e8c5 de3e 22e2 e13e
00000130: 78ca cb3d f89c debe 9066 3c3d ac27 a0be
00000140: 8c94 eebe 3e74 e33e f0a6 c23e fe5d ffbe
00000150: 08aa bf3d c880 acbd b882 a8bd 1c5f 6abe
00000160: 8ce4 443e 34a1 97be dcb1 3b3e 1676 813e
00000170: 5c43 b73e 4871 3f3e 4a5f fdbe 0011 a6be
00000180: 38a6 7f3e 1853 d63d 96b3 c7be e868 93be
00000190: f2d4 f03e 547f ac3e b03e 5fbe d4dc 00be
000001a0: 78dd f3be 803e 13bc 78c8 c0be a277 c5be
000001b0: 20b0 e1bc a0bf 993d f4ad 51be 98e7 973e
000001c0: 38c9 9bbe 6849 e83e d06f af3e 64e1 d7be
000001d0: 88db febd 80d2 b83c 1867 953d d0dd f23d
000001e0: 5cec 483e e059 f53c ccd1 79be d445 723e
000001f0: 5691 f5be a0bb 97be 3c2b 00be ec66 79be
00000200: 5c1d 33be bad2 d1be 00d2 d9bd f8e2 da3d
00000210: aabc cbbc 7270 81c0 964f 7e3f 544d cfbd
00000220: 80ac 633c c0ad 30bd 103d cf3d 60c6 a23e
00000230: 3165 59bd 6f5d 7a3f c5f0 1c3f ecad 6dbd
00000240: 66f8 e5be 40ba 72be ce4f ae3e 6a8c 4cbb
00000250: dc7c 7ebe 022d c4be 0094 efbe ec10 d8be
00000260: 70b4 cfbd 5664 8c3e 7467 8a3e 02e5 f6be
00000270: 2eb0 9f3e 8a52 c8be f07b d8bd 1c9a 4fbe
00000280: f03c c5bd 100e c9bd bab8 e5be 440a ddbe
00000290: 283c a0bd 80e1 d33b b896 68be b8de 403e
000002a0: 3a6a e6be c036 0abd a221 e13e 38d7 50be
000002b0: 362b e73e 386c 393e ae07 e7be 74f8 a13e
000002c0: f053 6cbd 708f 64be 14b6 cc3e 54df cebe
000002d0: b0c2 5b3d c064 d6bd 16d0 b63e 08ec 0e3e
000002e0: cc04 763e 40d1 343e 003f f6bd 505a d7bd
000002f0: 00f7 d2be 4cb6 8a3e 2642 cb3e 5c29 af3e
00000300: ac93 b4be 60ae b63c 9076 b4be 88ec 8cbe
00000310: 302c 95be 34f9 2e3e c48d 98be 00ba 32bc
00000320: a04f ac3c 0406 a53e fa83 c1be 44bf afbe
00000330: 3ca6 94be d62e b33e cc0b 38be e0ee d73e
00000340: a024 393e 40aa 813d 00ed 73bb 086d cabd
00000350: 407a 803d 30d3 e9bd 003e 66bb c0a7 823d
00000360: 983e c8be 7a2d 86be d8b7 ce3e 86c1 cfbe
00000370: 200f 13bd c03e fd3e 10f4 383e c0f0 673c
00000380: 26da ddbe 2ca2 7d3e 0858 b6be a856 11be
00000390: ccc8 2bbe 38a4 97bd 8036 b33b 9626 d33e
000003a0: 80ab 7f3d 204c e53e 3099 9c3e c6d8 a1be
000003b0: 54a2 653e 24f7 b4be 9cff 58be 4097 163e
000003c0: a7b9 42c0 b820 463f abe0 bbbf 20cd 143e
000003d0: 7acb 833e 5a93 f7be 4215 b93e 30b1 d3be
000003e0: 00d0 e13b e018 aebd 0ad4 86be d857 873d
000003f0: f2b0 d33e e8aa 15be 56fc 97be 845b 3dbe
-0.00374341 0.2682218 -0.41152257 -0.3679695 -0.19257718 0.13407868 -0.00990659 0.39644474
-0.044372022 0.13230628 -0.15110654 -0.098282695 -0.48332214 -0.3245024 -0.21984966 0.004107721
0.1976676 0.3000114 -0.33897054 -0.21773142 0.18160856 0.41519397 -0.10290009 0.37415588
-0.08059168 0.05290705 0.4527381 -0.46383518 -0.31476897 -0.12658262 -0.19489998 0.4320004
-0.32408983 -0.23016644 -0.34932023 -0.4682805 -0.29187024 0.42979902 0.22310919 0.24233627
0.026295781 -0.25634176 0.08459234 -0.46684736 -0.36128312 -0.257765 0.31546897 0.29316062
-0.22174752 -0.018041193 0.31978035 0.49706656 0.19844109 0.06754643 0.33524317 -0.29440117
0.093172014 -0.38765275 -0.34654307 -0.25829178 0.22623652 0.2010802 -0.29617625 0.15105355
0.274486 -0.06310868 0.019090772 0.115852356 0.3101883 0.48009706 -0.38531178 -0.18323487
0.19650495 0.4142747 0.43510365 0.44117838 0.09950727 -0.43479133 0.04599625 -0.31280267
-0.46597707 0.44424623 0.38017988 -0.49876398 0.09358603 -0.084230006 -0.082280576 -0.22887844
0.19227809 -0.29615176 0.18329567 0.25285405 0.3579358 0.18695557 -0.49486762 -0.32434845
0.24965751 0.104650676 -0.390042 -0.28790975 0.47037464 0.33690894 -0.21801257 -0.12584239
-0.47629905 -0.008987069 -0.37652946 -0.38567835 -0.027549803 0.07507253 -0.20476514 0.2966888
-0.30426955 0.45368505 0.34264994 -0.42164147 -0.12444216 0.022561312 0.07295054 0.118587136
0.19621414 0.029950082 -0.24396437 0.2365945 -0.47962445 -0.29635334 -0.12516493 -0.24355668
-0.17491668 -0.40981084 -0.106357574 0.10687822 -0.024870235 -4.044976 0.9934019 -0.10122171
0.013896108 -0.04313445 0.101190686 0.31791973 -0.05307502 0.9779882 0.61304885 -0.058027193
-0.44916075 -0.23703861 0.3404526 -0.0031211623 -0.24852318 -0.38315588 -0.46792603 -0.4220041
-0.101418376 0.274203 0.27032053 -0.48221594 0.31189102 -0.39125472 -0.10570514 -0.20273632
-0.096307635 -0.09817135 -0.44867498 -0.43171895 -0.07823974 0.0064660907 -0.22713745 0.1883496
-0.4500292 -0.03374362 0.43970972 -0.203946 0.45150155 0.18107688 -0.45123047 0.31634867
-0.057697237 -0.22320342 0.39982665 -0.4040476 0.053652465 -0.10468435 0.35705632 0.13957226
0.24025267 0.17657948 -0.12023735 -0.105152726 -0.4120407 0.27092206 0.39698905 0.34211242
-0.35268915 0.022299945 -0.35246706 -0.2752421 -0.29135275 0.17087251 -0.2979566 -0.010908604
0.021034062 0.32231152 -0.37796003 -0.34325612 -0.29033077 0.3499667 -0.1797325 0.42174435
0.18080378 0.06331301 -0.003722012 -0.09884077 0.06273317 -0.11417234 -0.003513217 0.06379652
-0.39110255 -0.2620657 0.40374637 -0.40577334 -0.035903096 0.49461937 0.18061852 0.01415652
-0.43330497 0.24768895 -0.35614038 -0.14193213 -0.16775817 -0.07404369 0.0054691434 0.41240376
0.062419415 0.4478464 0.30585623 -0.31610698 0.22425205 -0.35344803 -0.21191257 0.14706135
-3.0425813 0.77393675 -1.4677938 0.14531374 0.25741178 -0.48354608 0.3614903 -0.4134612
0.0068912506 -0.08500838 -0.26333648 0.06608552 0.41345936 -0.14615977 -0.29684705 -0.18491942

bias f4 [256]
00000000: c07e 0fbd aaca f1be 149b 93be 8f52 453e
00000010: 70a8 2dbe dab2 b03e d260 ca3e 10f6 943d
00000020: f0f1 21bd d085 22be 201e cfbc b063 ba3d
00000030: be8b c3be 48bb f4bd e8f0 d4be 0a1f 9d3e
00000040: b407 a3be 02de e93e d8fb 03be f4a7 92be
00000050: f4fd 753e 30a8 983d cc44 b13e 98be 553e
00000060: 6a9d f6be e4ea a13e 58d5 c0bd 084a 62be
00000070: e492 a23e 64b5 ba3e 9a01 e1be e02f 39bd
00000080: 983a d23e 4c17 063e 12ac d73e d56d 38be
00000090: 7038 8dbe 0a23 dc3e d069 553e 6ac1 f53e
000000a0: 54dc 55be 7e5e a4be 500d 70bd 620b f1be
000000b0: f8b0 483e 98d2 bc3e 78d1 f53d 405b 4abd
000000c0: 54da 7d3e 107f a2be 246e fa3e 4e8d febe
000000d0: e63b f5be 10f9 f1bd b81c d13e c00e 4d3d
000000e0: a4a1 443e 56a6 bbbe 18b8 3a3e c0d9 64bd
000000f0: 2a05 433e 50cc b43e 688e 5e3e 2036 2ebd
00000100: 604f fcbc e28e a0be 0431 39be ca5b a63e
00000110: 6c4f 4dbe 76fc 9e3e 3c06 4bbe 087d eebd
00000120: 0058 2e3c 20ec eabe 0098 a3bb 006e 4ebd
00000130: 20fc 37bd b0b3 ccbd 18d3 c93e baec bc3e
00000140: 32cf b1be 74d6 6d3e 4ccd c8be 32f0 d9be
00000150: 5882 1c3e 80c9 f03b ecd9 6ebe b8e9 f6be
00000160: b436 46be fc01 2b3e 38f4 ecbe f6b1 f8be
00000170: e0ea 813d 686c b8be cc46 e0be 3c44 45be
00000180: 68dd a4bd e8a0 e8be 34f0 aabe 7048 063d
00000190: 9866 f1be 80ed 8fbd c64c a5be 0078 b1be
000001a0: 5c3b 493e 620a c5be 6c01 c2be f8fd 913e
000001b0: 1874 bf3d 7a24 e93e f4da 08be c04d 77be
000001c0: 0089 3dbd 00c9 253b a83c c33e 18ff febe
000001d0: b0d1 11bd fc7b 623e 90f9 8cbe 8415 82be
000001e0: e06e 773e a04b f5be 88a4 f23d 8a3a c6be
000001f0: e47e 7e3e eee3 dabe d863 9d3e 8456 f2be
00000200: 622f d7be 724e 693c 9cb9 c93e be3c dbbe
00000210: f061 64be 20d7 e03e e0b8 abbd 1c1d 543e
00000220: fb61 f2be a403 21be 4a01 82be dcd2 d73e
00000230: 1c80 543e 06cc babe b018 a53d 004f bcbb
00000240: 885d 52be 1432 92be c0e6 29be 36c9 c93e
00000250: a283 b7be 225c b6be 38f6 1dbe c082 0e3c
00000260: 5c5f 0b3e 80d3 753c c880 f6bd c439 9bbe
00000270: 30bd b7bd 781b 4ebe 6cd4 ce3e 5e31 f9be
00000280: ba4a a3be 7247 d0be 9824 bbbd 767e c73e
00000290: e064 e03e b6dc debe 8077 b1bc 6a43 963e
000002a0: 34b0 613e cab0 d13e 403b 63bc 2a01 acbe
000002b0: 105a a93e 8092 2fbe a28d 843e d859 fcbd
000002c0: f0a5 593e c840 e63e 020b ee3e 06fa e8be
000002d0: c656 a9be ecb1 53be 6040 a3be cca1 f53e
000002e0: 80e0 34bd b0d0 a9be a8d5 63be c467 8dbe
000002f0: fce3 503e da4b dfbe f8b1 eebe d85a fcbe
00000300: a86d 5c3e 2829 7d3e 0aff 9ebe 18ee fd3d
00000310: acf9 bc3e e0c9 943d d8a8 d8bd a04f 173d
00000320: 309a 5bbd 52e5 803e b0d3 adbe 78d1 813e
00000330: a249 903e 9a1a 9bbe 500a d13e 7670 fb3e
00000340: 58d8 49be 8868 0fbe 7428 7f3e 3e8e c8be
00000350: 7879 4a3e 70e7 ee3d 4a5d a13e 045d debe
00000360: 50ae d4be 40f4 653e 8c6d 383e b246 eebe
00000370: c6c2 8ebe 083c eabe 7e67 b7be a403 67be
00000380: 90d9 d33e 00d4 cbbd ae08 933e 4a1e f33e
00000390: bc55 693e 822c e5be 34d3 803e 644b 433e
000003a0: b26a c63e f486 fcbe b071 9d3e ee8b d13e
000003b0: 622c eebe 5046 563d 528a da3e de30 babe
000003c0: 40ff 273e c03d 623e ac30 063e 8d8d fe3e
000003d0: 8a9b d13e eca2 db3e d046 7fbd deb5 d63e
000003e0: d491 eebe 2625 8abe a803 dbbd d417 18be
000003f0: 4277 ec3e 1c7e 713e eed0 a43e 3422 ae3e
-0.035032988 -0.47224933 -0.28829253 0.19269775 -0.16958785 0.34511453 0.39526993 0.07273495
-0.03953737 -0.15871358 -0.02528292 0.09101045 -0.38192552 -0.119497836 -0.41590047 0.30687743
-0.31841815 0.4567719 -0.1288904 -0.28643763 0.24022657 0.07453954 0.346228 0.20873487
-0.48166972 0.3162452 -0.09415692 -0.22098553 0.31752694 0.36466515 -0.43946534 -0.045211673
0.41060328 0.13094825 0.42123467 -0.18010648 -0.2758212 0.42995483 0.20841146 0.47999126
-0.2088483 -0.32103342 -0.058606446 -0.47078997 0.19598758 0.3687942 0.120028436 -0.04940343
0.24790317 -0.31737566 0.48912156 -0.49717182 -0.4789726 -0.11815083 0.40842223 0.050062895
0.19202286 -0.36650342 0.18234289 -0.055871725 0.19044939 0.35312128 0.21734011 -0.042532086
-0.030799568 -0.3135901 -0.18085104 0.32491904 -0.20049828 0.31051987 -0.19826597 -0.116449416
0.010641098 -0.45883274 -0.004992485 -0.050397873 -0.04491818 -0.0999521 0.39418864 0.36899358
-0.3472839 0.23226339 -0.3921913 -0.42566067 0.15284097 0.0073482394 -0.23325318 -0.48225188
-0.19356805 0.16699976 -0.46280074 -0.48573273 0.06343627 -0.36020207 -0.43804014 -0.1926431
-0.080500424 -0.45435262 -0.33386385 0.032783926 -0.47148585 -0.070277214 -0.32285136 -0.34661865
0.1965155 -0.38484484 -0.3789171 0.28514075 0.09348315 0.45535642 -0.13364774 -0.24150753
-0.04627323 0.0025296807 0.38132215 -0.49803996 -0.035600364 0.22117609 -0.2753415 -0.2540704
0.24163389 -0.4790926 0.11847788 -0.38716537 0.24853092 -0.42752022 0.30740237 -0.4733163
-0.42028338 0.014239894 0.3939942 -0.4281978 -0.22302985 0.43914127 -0.083848715 0.2071423
-0.47340378 -0.15724045 -0.25391608 0.4215306 0.20751995 -0.36483783 0.080613494 -0.005746722
-0.20543492 -0.28553832 -0.1659193 0.39411324 -0.35842615 -0.35617167 -0.15425956 0.008698165
0.13610595 0.015004039 -0.12036282 -0.3031751 -0.089716315 -0.20127666 0.4039644 -0.48670477
-0.3189295 -0.40679508 -0.09137839 0.3896367 0.43826962 -0.43527764 -0.021663427 0.29348308
0.22039872 0.40955192 -0.013869107 -0.33594638 0.33076525 -0.17145729 0.25889307 -0.12321824
0.21254706 0.449713 0.46492773 -0.45503253 -0.33074015 -0.2067334 -0.31885052 0.47975004
-0.044159412 -0.33167028 -0.22249472 -0.2761823 0.20399469 -0.43612558 -0.46620154 -0.49288058
0.21526206 0.24722731 -0.31053954 0.123989284 0.36909235 0.07265067 -0.105790794 0.03694117
-0.05361384 0.25174958 -0.33950567 0.25355124 0.28181177 -0.30293733 0.4082818 0.49109238
-0.19711435 -0.1400472 0.24917775 -0.39171022 0.19772899 0.11665237 0.31516486 -0.4343034
-0.4153924 0.22456455 0.18010539 -0.4653831 -0.27882975 -0.45748925 -0.35821146 -0.22559983
0.41376925 -0.09952545 0.2871756 0.47484046 0.22786611 -0.4476052 0.25161135 0.19071728
0.38753277 -0.4932171 0.307508 0.4092707 -0.46518236 0.05231315 0.42683655 -0.36365408
0.16405964 0.22093868 0.13104504 0.4971737 0.4093898 0.42897737 -0.06232339 0.4193563
-0.46595633 -0.26981467 -0.10694057 -0.1485284 0.46184736 0.23583263 0.3219065 0.3401047

weight f4 [2, 256]
00000000: 5ebd cabc b206 efbc 8a7d fe3c 1da5 203d
00000010: d381 5d3d 4bba 3fbd 5eb9 4a3b 4faf f83c
00000020: d840 a93b 7ed8 85bd 80b8 833d 52fa a63c
00000030: ff22 2abd f0bb 1a3c 8711 c6bc c0d2 97bd
00000040: 77fa cc3a 62fc 9bbb e9df e33c 243d e6bc
00000050: dee8 593c dbc7 be3c 86d4 263c 8c86 943d
00000060: 229d 833d c38d 4a3d 681d ddbb ac57 88bd
00000070: 4528 0bbd 1f54 9abc ff6c 1e3d 80f3 243c
00000080: be47 c9bc db48 0ac0 2a4c 34bb ac27 b33e
00000090: e620 abbd e4c8 b4bc 02be 8b3d 9879 163d
000000a0: 12ce 933c 6467 30bc e0c2 4b3c 2866 86bd
000000b0: b959 15bd 4a05 9d3c 3ca9 6d3c 50f0 38bd
000000c0: ce48 be3b c80f 47bc 4ca4 603b ecce 9abd
000000d0: 34b8 8c3d eac2 6a3b 26f9 1cbc 613d 31bd
000000e0: fbb6 4c3d 6aa9 38bd 7a5e 1d3d 4801 9bbb
000000f0: 6c19 4abf e3fd 193d 5d66 94bc 70b9 9c3d
00000100: 47d2 30ba 46ac 1bbd c9b4 023d c25f eebc
00000110: 8cb7 d83c 03cb 1c3d 51a5 4cbd 1f8f 1b3d
00000120: af4b 093d c403 a43d 9ede 823c f9b8 0d3d
00000130: 6168 49bd 7ae8 0e3a b1dc de3a 9a22 0fbc
00000140: c048 6d3d 0d6b 193d d6c7 8cbc 3203 383c
00000150: 81dd 86ba 30c7 343c 4f33 fc3b 20a0 39bd
00000160: ca18 92bd 1612 e63c 09d8 6bbd 0588 7d3d
00000170: 9ede a6bd 3e4c 363c a44c aebc ae46 36bc
00000180: 1757 8abc e187 2a3d f6bb ecbc 0a57 d9bb
00000190: 5378 233d 4782 7fbd c7c5 973c 9774 fbba
000001a0: 27c2 063d 5b48 013d a5c3 a53c fd99 32bd
000001b0: 289f 88bc 4685 883d e6fb d6bc 5b3d 173d
000001c0: 2e7f 603c e336 063d 622b 923d 52fe 98bc
000001d0: 9bcb 243d 2904 44bd f94f 5a3d 76c2 e1bc
000001e0: fc66 87bc 2475 85bd fe53 9fbd ed43 3a3d
000001f0: a2fa f2bb 9940 87bc 9605 a83c 3bc3 44bd
00000200: 1889 8139 3553 a13f 14e8 0e3d 5459 fb3b
00000210: 68d7 b23c 70dd 9c3d 7f7a 043d fac1 ca3c
00000220: 6f28 2a40 75ea 25bd 8b38 71bc 9470 30bc
00000230: e0de b0bc 2d3b debc 112c 4bbd ef6d 51bd
00000240: b0bf abbd 79e5 82bc 324d a93c bdc3 413d
00000250: 637f 53bd 1c78 a2bd de32 94bd 0e39 bd3c
00000260: 0afc 843d 5b89 41bd 292a 65bd c8ce 3abc
00000270: 2567 873c ae7c a6bd cf0a 08bd f323 223d
00000280: 3ff4 53bd 4c09 08bd d4f4 aa3b b508 07bd
00000290: 8cfe 06bd bd3a 283d 77d0 41bd 9de7 9d3c
000002a0: ce2c b6bc 55fc 24bd 86f3 893d 7e53 943d
000002b0: e633 843d 1761 b93a 32a7 2f3c 78db a4bd
000002c0: be31 19bd cf2f 173c f610 0bb9 6441 8d3b
000002d0: 6648 d6bb 42c4 703c d1c8 23bd 4422 a5bd
000002e0: 2059 3e3c 462e febc 6323 6f3d a3af 623d
000002f0: 87f4 153d 8371 793a 96b0 99bc 3cdc 1ebc
00000300: 06b4 ac3d fc41 a23d 4282 2abc c6d8 99bd
00000310: c1dd 0cbd 9324 55bd 4a8d 983d 51d7 2f3d
00000320: b46e a83d d0ce 8b3d 0726 bb3c ad86 78bd
00000330: df1e 203d f29b 933d 6db2 483d 18ec 47bc
00000340: e69d df3c 3e20 85bc 72d3 9e3c c8dc 873b
00000350: 0a4d 383c 31c5 06bd 5256 50bc b768 733d
00000360: c41d 123c ebd9 04bd 51f1 0e3d 61a7 a83c
00000370: b44b e93c 3176 dcbc 26a7 dcb9 6f4a 3abd
00000380: a197 45bd da41 0fbd e79d 9cba e8a8 493c
00000390: c680 0abd 277b d03c d495 fbbb 803a 493c
000003a0: a402 68bc 2a23 a2bd 0aea 723b 9876 a3bd
000003b0: 34bc 293c 1118 bc3c 96b8 d4bc 779d 57bd
000003c0: 90c5 853d a109 6a3d 93ef 18bd 3601 3fbd
000003d0: de29 8e3c 5a4b 9c3d 378a 10bd af2c 11bd
000003e0: 923d e3bc b7c4 34ba bc34 9a3d 1832 503c
000003f0: 0f5f fe3c e531 b1bc 5a43 ebbc 5530 6fbd
-0.0247485 -0.029177997 0.031065721 0.039219964 0.05407889 -0.046808522 0.0030933241 0.030357031
0.0051652007 -0.06535433 0.06431675 0.020383034 -0.04153728 0.009444222 -0.02417828 -0.07413244
0.0015638609 -0.004760311 0.02781673 -0.028105326 0.013300149 0.023288658 0.0101825055 0.07252225
0.06426455 0.0494516 -0.0067478903 -0.06657347 -0.03397395 -0.01883894 0.038678166 0.010067821
-0.024570342 -2.1606967 -0.0027511218 0.34991205 -0.08355884 -0.022068448 0.068233505 0.036737055
0.018042598 -0.010766838 0.012436599 -0.065624535 -0.03646252 0.019167561 0.014505681 -0.045151055
0.005807019 -0.012149759 0.0034277616 -0.075589985 0.068710715 0.0035821744 -0.009580886 -0.043271426
0.04997919 -0.04508344 0.038420178 -0.0047303773 -0.7894504 0.03759564 -0.018115217 0.07652557
-0.0006745201 -0.03800609 0.03191069 -0.029098395 0.02645471 0.038279545 -0.049962346 0.037978288
0.033519443 0.08008531 0.015975293 0.03460023 -0.04917181 0.0005451512 0.0017003027 -0.008736277
0.057930708 0.037455607 -0.017185133 0.011231231 -0.0010289402 0.011033818 0.007696546 -0.045318723
-0.071336344 0.028084796 -0.057579074 0.061897296 -0.081479296 0.011126576 -0.02127678 -0.01112525
-0.01688723 0.04163349 -0.02889822 -0.0066326903 0.039909672 -0.0623801 0.018526925 -0.0019184527
0.0329 0.031563144 0.020234892 -0.043603886 -0.016677454 0.06666045 -0.026243161 0.036923748
0.013702197 0.032767188 0.07137181 -0.018675957 0.040233236 -0.04785553 0.053298924 -0.027558547
-0.016528599 -0.065164834 -0.07779692 0.045474935 -0.0074151317 -0.016510295 0.020510476 -0.04803775
0.0002470694 1.2603518 0.034889296 0.007670561 0.02183123 0.07659423 0.032343384 0.024750698
2.6587179 -0.0405068 -0.014722954 -0.010769028 -0.02159065 -0.027127827 -0.049602572 -0.05113023
-0.08386171 -0.015978562 0.020666692 0.04730581 -0.051635157 -0.07933065 -0.07236265 0.023098495
0.06493385 -0.047250133 -0.05594841 -0.01140184 0.016528675 -0.081292495 -0.033213433 0.039585065
-0.051746603 -0.03321199 0.005217174 -0.032967288 -0.0329576 0.041071642 -0.04731795 0.01927548
-0.022238161 -0.040279705 0.067359015 0.07242487 0.06455211 0.0014143315 0.010721015 -0.08049673
-0.037400953 0.009227707 -0.00013262391 0.0043107737 -0.0065393923 0.014695229 -0.039986435 -0.08063176
0.011617929 -0.031027924 0.058383357 0.05534328 0.036610153 0.0009515511 -0.01876096 -0.009696063
0.08432774 0.07922742 -0.010407032 -0.075120494 -0.03439117 -0.052036833 0.07448824 0.04292995
0.0822424 0.06826556 0.022845281 -0.06067531 0.03909194 0.072074786 0.048998285 -0.012202285
0.027296972 -0.016250726 0.019387934 0.004146192 0.011248836 -0.0329029 -0.012715893 0.059426036
0.0089182295 -0.032434385 0.034898106 0.020587625 0.02847848 -0.026911827 -0.00042086205 -0.04548114
-0.048240308 -0.03497491 -0.0011948914 0.012308337 -0.033814214 0.025449349 -0.007677773 0.012282014
-0.014160786 -0.07916863 0.0037065768 -0.07981604 0.0103598125 0.022960695 -0.025966924 -0.052640405
0.06531823 0.05713809 -0.03733785 -0.046632014 0.017353948 0.0763156 -0.035288062 -0.035443004
-0.02773932 -0.0006895768 0.075295895 0.012707256 0.031051187 -0.021630237 -0.02871864 -0.058395702

bias f4 [2]
00000000: 26b0 e33c 500f 323d
0.027793955 0.043471634
