NODE/submission_models/drifter_85_tanh_1day.pth (torch, 81679 bytes, 4 tensors)

weight f4 [256, 4]
000000 00 54 75 bb 5e 54 89 3e 16 b3 d2 be 80 66 bc be
       -0.00374341 0.2682218 -0.41152257 -0.3679695
000010 f4 32 45 be ec 4b 09 3e 40 4f 22 bc ce fa ca 3e
       -0.19257718 0.13407868 -0.00990659 0.39644474
000020 70 bf 35 bd 4c 7b 07 3e ac bb 1a be 70 48 c9 bd
       -0.044372022 0.13230628 -0.15110654 -0.098282695
000030 f7 39 f6 be cb 57 a5 be 11 cc 5f be 22 ee b3 3b
       -0.480911 -0.32293543 -0.21855189 0.005491034
000040 60 69 4a 3e 18 9b 99 3e 8c 8d ad be fc f4 5e be
       0.1976676 0.3000114 -0.33897054 -0.21773142
000050 98 f7 39 3e 4e 94 d4 3e 48 bd d2 bd 5c 91 bf 3e
       0.18160856 0.41519397 -0.10290009 0.37415588
000060 40 0d a5 bd 10 b5 58 3d 4a cd e7 3e ce 7b ed be
       -0.08059168 0.05290705 0.4527381 -0.46383518
000070 66 29 a1 be e0 9e 01 be dc 93 47 be 28 2f dd 3e
       -0.31476897 -0.12658262 -0.19489998 0.4320004
000080 1a ef a5 be c0 b0 6b be 1a da b2 be 76 c2 ef be
       -0.32408983 -0.23016644 -0.34932023 -0.4682805
000090 04 70 95 be 9e 0e dc 3e bc 76 64 3e 00 27 78 3e
       -0.29187024 0.42979902 0.22310919 0.24233627
0000a0 40 6a d7 3c 3a 3f 83 be c0 3e ad 3d 9e 06 ef be
       0.026295781 -0.25634176 0.08459234 -0.46684736
0000b0 1a fa b8 be c6 f9 83 be 26 85 a1 3e 26 19 96 3e
       -0.36128312 -0.257765 0.31546897 0.29316062
0000c0 c8 11 63 be 20 cb 93 bc 40 ba a3 3e 82 7f fe 3e
       -0.22174752 -0.018041193 0.31978035 0.49706656
0000d0 24 34 4b 3e c8 55 8a 3d fe a4 ab 3e c0 bb 96 be
       0.19844109 0.06754643 0.33524317 -0.29440117
0000e0 f8 d0 be 3d 6c 7a c6 be 18 6e b1 be d2 3e 84 be
       0.093172014 -0.38765275 -0.34654307 -0.25829178
0000f0 8c aa 67 3e f8 e7 4d 3e 6a a4 97 be c8 ad 1a 3e
       0.22623652 0.2010802 -0.29617625 0.15105355
000100 6e 89 8c 3e 20 3f 81 bd 40 64 9c 3c 00 44 ed 3d
       0.274486 -0.06310868 0.019090772 0.115852356
000110 00 d1 9e 3e 48 cf f5 3e 96 47 c5 be ec a1 3b be
       0.3101883 0.48009706 -0.38531178 -0.18323487
000120 98 38 49 3e d0 1b d4 3e e8 c5 de 3e 22 e2 e1 3e
       0.19650495 0.4142747 0.43510365 0.44117838
000130 78 ca cb 3d f8 9c de be 90 66 3c 3d ac 27 a0 be
       0.09950727 -0.43479133 0.04599625 -0.31280267
000140 8c 94 ee be 3e 74 e3 3e f0 a6 c2 3e fe 5d ff be
       -0.46597707 0.44424623 0.38017988 -0.49876398
000150 08 aa bf 3d c8 80 ac bd b8 82 a8 bd 1c 5f 6a be
       0.09358603 -0.084230006 -0.082280576 -0.22887844
000160 8c e4 44 3e 34 a1 97 be dc b1 3b 3e 16 76 81 3e
       0.19227809 -0.29615176 0.18329567 0.25285405
000170 5c 43 b7 3e 48 71 3f 3e 4a 5f fd be 00 11 a6 be
       0.3579358 0.18695557 -0.49486762 -0.32434845
000180 38 a6 7f 3e 18 53 d6 3d 96 b3 c7 be e8 68 93 be
       0.24965751 0.104650676 -0.390042 -0.28790975
000190 f2 d4 f0 3e 54 7f ac 3e b0 3e 5f be d4 dc 00 be
       0.47037464 0.33690894 -0.21801257 -0.12584239
0001a0 78 dd f3 be 80 3e 13 bc 78 c8 c0 be a2 77 c5 be
       -0.47629905 -0.008987069 -0.37652946 -0.38567835
0001b0 20 b0 e1 bc a0 bf 99 3d f4 ad 51 be 98 e7 97 3e
       -0.027549803 0.07507253 -0.20476514 0.2966888
0001c0 38 c9 9b be 68 49 e8 3e d0 6f af 3e 64 e1 d7 be
       -0.30426955 0.45368505 0.34264994 -0.42164147
0001d0 88 db fe bd 80 d2 b8 3c 18 67 95 3d d0 dd f2 3d
       -0.12444216 0.022561312 0.07295054 0.118587136
0001e0 5c ec 48 3e e0 59 f5 3c cc d1 79 be d4 45 72 3e
       0.19621414 0.029950082 -0.24396437 0.2365945
0001f0 56 91 f5 be a0 bb 97 be 3c 2b 00 be ec 66 79 be
       -0.47962445 -0.29635334 -0.12516493 -0.24355668
000200 5c 1d 33 be ba d2 d1 be 00 d2 d9 bd f8 e2 da 3d
       -0.17491668 -0.40981084 -0.106357574 0.10687822
000210 f9 e4 a7 bf 3c 43 1c c0 8e b1 2f 3f 27 2c 88 bd
       -1.3116752 -2.4416037 0.686303 -0.066490464
000220 80 ac 63 3c c0 ad 30 bd 10 3d cf 3d 60 c6 a2 3e
       0.013896108 -0.04313445 0.101190686 0.31791973
000230 bb bc 0a c0 54 a4 63 40 be d5 2a 3f e4 78 87 bd
       -2.1677692 3.5569048 0.66732395 -0.06614855
000240 66 f8 e5 be 40 ba 72 be cf 4f ae 3e b6 6d 50 bb
       -0.44916075 -0.23703861 0.34045264 -0.0031803674
000250 dc 7c 7e be 02 2d c4 be 00 94 ef be ec 10 d8 be
       -0.24852318 -0.38315588 -0.46792603 -0.4220041
000260 70 b4 cf bd 56 64 8c 3e 74 67 8a 3e 02 e5 f6 be
       -0.101418376 0.274203 0.27032053 -0.48221594
000270 2e b0 9f 3e 8a 52 c8 be f0 7b d8 bd 1c 9a 4f be
       0.31189102 -0.39125472 -0.10570514 -0.20273632
000280 f0 3c c5 bd 10 0e c9 bd ba b8 e5 be 44 0a dd be
       -0.096307635 -0.09817135 -0.44867498 -0.43171895
000290 28 3c a0 bd 80 e1 d3 3b b8 96 68 be b8 de 40 3e
       -0.07823974 0.0064660907 -0.22713745 0.1883496
0002a0 3a 6a e6 be c0 36 0a bd a2 21 e1 3e 38 d7 50 be
       -0.4500292 -0.03374362 0.43970972 -0.203946
0002b0 36 2b e7 3e 38 6c 39 3e ae 07 e7 be 74 f8 a1 3e
       0.45150155 0.18107688 -0.45123047 0.31634867
0002c0 f0 53 6c bd 70 8f 64 be 14 b6 cc 3e 54 df ce be
       -0.057697237 -0.22320342 0.39982665 -0.4040476
0002d0 b0 c2 5b 3d c0 64 d6 bd 16 d0 b6 3e 08 ec 0e 3e
       0.053652465 -0.10468435 0.35705632 0.13957226
0002e0 cc 04 76 3e 40 d1 34 3e 00 3f f6 bd 50 5a d7 bd
       0.24025267 0.17657948 -0.12023735 -0.105152726
0002f0 00 f7 d2 be 4c b6 8a 3e 26 42 cb 3e 5c 29 af 3e
       -0.4120407 0.27092206 0.39698905 0.34211242
000300 ac 93 b4 be 60 ae b6 3c 90 76 b4 be 88 ec 8c be
       -0.35268915 0.022299945 -0.35246706 -0.2752421
000310 30 2c 95 be 34 f9 2e 3e c4 8d 98 be 00 ba 32 bc
       -0.29135275 0.17087251 -0.2979566 -0.010908604
000320 a0 4f ac 3c 04 06 a5 3e fa 83 c1 be 44 bf af be
       0.021034062 0.32231152 -0.37796003 -0.34325612
000330 3c a6 94 be d6 2e b3 3e cc 0b 38 be e0 ee d7 3e
       -0.29033077 0.3499667 -0.1797325 0.42174435
000340 a0 24 39 3e 40 aa 81 3d 00 ed 73 bb 08 6d ca bd
       0.18080378 0.06331301 -0.003722012 -0.09884077
000350 40 7a 80 3d 30 d3 e9 bd 00 3e 66 bb c0 a7 82 3d
       0.06273317 -0.11417234 -0.003513217 0.06379652
000360 98 3e c8 be 7a 2d 86 be d8 b7 ce 3e 86 c1 cf be
       -0.39110255 -0.2620657 0.40374637 -0.40577334
000370 20 0f 13 bd c0 3e fd 3e 10 f4 38 3e c0 f0 67 3c
       -0.035903096 0.49461937 0.18061852 0.01415652
000380 26 da dd be 2c a2 7d 3e 08 58 b6 be a8 56 11 be
       -0.43330497 0.24768895 -0.35614038 -0.14193213
000390 cc c8 2b be 38 a4 97 bd 80 36 b3 3b 96 26 d3 3e
       -0.16775817 -0.07404369 0.0054691434 0.41240376
0003a0 80 ab 7f 3d 20 4c e5 3e 30 99 9c 3e c6 d8 a1 be
       0.062419415 0.4478464 0.30585623 -0.31610698
0003b0 54 a2 65 3e 24 f7 b4 be 9c ff 58 be 40 97 16 3e
       0.22425205 -0.35344803 -0.21191257 0.14706135
0003c0 01 0f 29 3e 73 0d c0 3e 8a b4 25 be 48 23 f0 bb
       0.1650963 0.3751026 -0.16182151 -0.0073284246
0003d0 7a cb 83 3e 5a 93 f7 be 42 15 b9 3e 30 b1 d3 be
       0.25741178 -0.48354608 0.3614903 -0.4134612
0003e0 00 d0 e1 3b e0 18 ae bd 0a d4 86 be d8 57 87 3d
       0.0068912506 -0.08500838 -0.26333648 0.06608552
0003f0 f2 b0 d3 3e e8 aa 15 be 56 fc 97 be 84 5b 3d be
       0.41345936 -0.14615977 -0.29684705 -0.18491942

bias f4 [256]
000000 c0 7e 0f bd aa ca f1 be 14 9b 93 be 5e 18 48 3e
       -0.035032988 -0.47224933 -0.28829253 0.19540545
000010 70 a8 2d be da b2 b0 3e d2 60 ca 3e 10 f6 94 3d
       -0.16958785 0.34511453 0.39526993 0.07273495
000020 f0 f1 21 bd d0 85 22 be 20 1e cf bc b0 63 ba 3d
       -0.03953737 -0.15871358 -0.02528292 0.09101045
000030 be 8b c3 be 48 bb f4 bd e8 f0 d4 be 0a 1f 9d 3e
       -0.38192552 -0.119497836 -0.41590047 0.30687743
000040 b4 07 a3 be 02 de e9 3e d8 fb 03 be f4 a7 92 be
       -0.31841815 0.4567719 -0.1288904 -0.28643763
000050 f4 fd 75 3e 30 a8 98 3d cc 44 b1 3e 98 be 55 3e
       0.24022657 0.07453954 0.346228 0.20873487
000060 6a 9d f6 be e4 ea a1 3e 58 d5 c0 bd 08 4a 62 be
       -0.48166972 0.3162452 -0.09415692 -0.22098553
000070 e4 92 a2 3e 64 b5 ba 3e 9a 01 e1 be e0 2f 39 bd
       0.31752694 0.36466515 -0.43946534 -0.045211673
000080 98 3a d2 3e 1d e6 90 3e 12 ac d7 3e a3 f6 2b be
       0.41060328 0.28300563 0.42123467 -0.16793303
000090 70 38 8d be 0a 23 dc 3e d0 69 55 3e 6a c1 f5 3e
       -0.2758212 0.42995483 0.20841146 0.47999126
0000a0 54 dc 55 be 7e 5e a4 be 50 0d 70 bd 62 0b f1 be
       -0.2088483 -0.32103342 -0.058606446 -0.47078997
0000b0 f8 b0 48 3e 98 d2 bc 3e 78 d1 f5 3d 40 5b 4a bd
       0.19598758 0.3687942 0.120028436 -0.04940343
0000c0 54 da 7d 3e 10 7f a2 be 24 6e fa 3e 4e 8d fe be
       0.24790317 -0.31737566 0.48912156 -0.49717182
0000d0 e6 3b f5 be 10 f9 f1 bd b8 1c d1 3e c0 0e 4d 3d
       -0.4789726 -0.11815083 0.40842223 0.050062895
0000e0 a4 a1 44 3e 56 a6 bb be 18 b8 3a 3e c0 d9 64 bd
       0.19202286 -0.36650342 0.18234289 -0.055871725
0000f0 73 31 4d 3e 50 cc b4 3e 68 8e 5e 3e 20 36 2e bd
       0.20038395 0.35312128 0.21734011 -0.042532086
000100 60 4f fc bc e2 8e a0 be 04 31 39 be ca 5b a6 3e
       -0.030799568 -0.3135901 -0.18085104 0.32491904
000110 6c 4f 4d be 76 fc 9e 3e 3c 06 4b be 08 7d ee bd
       -0.20049828 0.31051987 -0.19826597 -0.116449416
000120 00 58 2e 3c 20 ec ea be 00 98 a3 bb 00 6e 4e bd
       0.010641098 -0.45883274 -0.004992485 -0.050397873
000130 20 fc 37 bd b0 b3 cc bd 18 d3 c9 3e ba ec bc 3e
       -0.04491818 -0.0999521 0.39418864 0.36899358
000140 55 c2 e6 be 74 d6 6d 3e 4c cd c8 be 32 f0 d9 be
       -0.4507014 0.23226339 -0.3921913 -0.42566067
000150 58 82 1c 3e 80 c9 f0 3b ec d9 6e be b8 e9 f6 be
       0.15284097 0.0073482394 -0.23325318 -0.48225188
000160 b4 36 46 be fc 01 2b 3e 38 f4 ec be f6 b1 f8 be
       -0.19356805 0.16699976 -0.46280074 -0.48573273
000170 e0 ea 81 3d 68 6c b8 be cc 46 e0 be 3c 44 45 be
       0.06343627 -0.36020207 -0.43804014 -0.1926431
000180 68 dd a4 bd e8 a0 e8 be 34 f0 aa be 70 48 06 3d
       -0.080500424 -0.45435262 -0.33386385 0.032783926
000190 98 66 f1 be 80 ed 8f bd c6 4c a5 be 00 78 b1 be
       -0.47148585 -0.070277214 -0.32285136 -0.34661865
0001a0 5c 3b 49 3e 62 0a c5 be 6c 01 c2 be f8 fd 91 3e
       0.1965155 -0.38484484 -0.3789171 0.28514075
0001b0 18 74 bf 3d 7a 24 e9 3e f4 da 08 be c0 4d 77 be
       0.09348315 0.45535642 -0.13364774 -0.24150753
0001c0 00 89 3d bd 00 c9 25 3b a8 3c c3 3e 18 ff fe be
       -0.04627323 0.0025296807 0.38132215 -0.49803996
0001d0 b0 d1 11 bd fc 7b 62 3e 90 f9 8c be 84 15 82 be
       -0.035600364 0.22117609 -0.2753415 -0.2540704
0001e0 e0 6e 77 3e a0 4b f5 be 88 a4 f2 3d b6 33 c6 be
       0.24163389 -0.4790926 0.11847788 -0.38711327
0001f0 e4 7e 7e 3e ee e3 da be d8 63 9d 3e 84 56 f2 be
       0.24853092 -0.42752022 0.30740237 -0.4733163
000200 62 2f d7 be ed 63 f1 3b 9c b9 c9 3e be 3c db be
       -0.42028338 0.0073666484 0.3939942 -0.4281978
000210 f0 61 64 be 20 d7 e0 3e e0 b8 ab bd 1c 1d 54 3e
       -0.22302985 0.43914127 -0.083848715 0.2071423
000220 6f 72 06 bf a4 03 21 be 4a 01 82 be dc d2 d7 3e
       -0.5251836 -0.15724045 -0.25391608 0.4215306
000230 1c 80 54 3e 06 cc ba be b0 18 a5 3d 00 4f bc bb
       0.20751995 -0.36483783 0.080613494 -0.005746722
000240 88 5d 52 be 14 32 92 be c0 e6 29 be 36 c9 c9 3e
       -0.20543492 -0.28553832 -0.1659193 0.39411324
000250 a2 83 b7 be 22 5c b6 be 38 f6 1d be c0 82 0e 3c
       -0.35842615 -0.35617167 -0.15425956 0.008698165
000260 5c 5f 0b 3e 80 d3 75 3c c8 80 f6 bd c4 39 9b be
       0.13610595 0.015004039 -0.12036282 -0.3031751
000270 30 bd b7 bd 78 1b 4e be 6c d4 ce 3e 5e 31 f9 be
       -0.089716315 -0.20127666 0.4039644 -0.48670477
000280 ba 4a a3 be 72 47 d0 be 98 24 bb bd 76 7e c7 3e
       -0.3189295 -0.40679508 -0.09137839 0.3896367
000290 e0 64 e0 3e b6 dc de be 80 77 b1 bc 6a 43 96 3e
       0.43826962 -0.43527764 -0.021663427 0.29348308
0002a0 34 b0 61 3e ca b0 d1 3e 40 3b 63 bc 2a 01 ac be
       0.22039872 0.40955192 -0.013869107 -0.33594638
0002b0 10 5a a9 3e 80 92 2f be a2 8d 84 3e d8 59 fc bd
       0.33076525 -0.17145729 0.25889307 -0.12321824
0002c0 f0 a5 59 3e c8 40 e6 3e 02 0b ee 3e 06 fa e8 be
       0.21254706 0.449713 0.46492773 -0.45503253
0002d0 c6 56 a9 be ec b1 53 be 60 40 a3 be cc a1 f5 3e
       -0.33074015 -0.2067334 -0.31885052 0.47975004
0002e0 80 e0 34 bd b0 d0 a9 be a8 d5 63 be c4 67 8d be
       -0.044159412 -0.33167028 -0.22249472 -0.2761823
0002f0 fc e3 50 3e da 4b df be f8 b1 ee be d8 5a fc be
       0.20399469 -0.43612558 -0.46620154 -0.49288058
000300 a8 6d 5c 3e 28 29 7d 3e 0a ff 9e be 18 ee fd 3d
       0.21526206 0.24722731 -0.31053954 0.123989284
000310 ac f9 bc 3e e0 c9 94 3d d8 a8 d8 bd a0 4f 17 3d
       0.36909235 0.07265067 -0.105790794 0.03694117
000320 30 9a 5b bd 52 e5 80 3e b0 d3 ad be 78 d1 81 3e
       -0.05361384 0.25174958 -0.33950567 0.25355124
000330 a2 49 90 3e 9a 1a 9b be 50 0a d1 3e 76 70 fb 3e
       0.28181177 -0.30293733 0.4082818 0.49109238
000340 58 d8 49 be 88 68 0f be 74 28 7f 3e 3e 8e c8 be
       -0.19711435 -0.1400472 0.24917775 -0.39171022
000350 78 79 4a 3e 70 e7 ee 3d 4a 5d a1 3e 04 5d de be
       0.19772899 0.11665237 0.31516486 -0.4343034
000360 50 ae d4 be 40 f4 65 3e 8c 6d 38 3e b2 46 ee be
       -0.4153924 0.22456455 0.18010539 -0.4653831
000370 c6 c2 8e be 08 3c ea be 7e 67 b7 be a4 03 67 be
       -0.27882975 -0.45748925 -0.35821146 -0.22559983
000380 90 d9 d3 3e 00 d4 cb bd ae 08 93 3e 4a 1e f3 3e
       0.41376925 -0.09952545 0.2871756 0.47484046
000390 bc 55 69 3e 82 2c e5 be 34 d3 80 3e 64 4b 43 3e
       0.22786611 -0.4476052 0.25161135 0.19071728
0003a0 b2 6a c6 3e f4 86 fc be b0 71 9d 3e ee 8b d1 3e
       0.38753277 -0.4932171 0.307508 0.4092707
0003b0 62 2c ee be 50 46 56 3d 52 8a da 3e de 30 ba be
       -0.46518236 0.05231315 0.42683655 -0.36365408
0003c0 40 ff 27 3e c0 3d 62 3e ac 30 06 3e 6a 7c f1 3e
       0.16405964 0.22093868 0.13104504 0.47165233
0003d0 8a 9b d1 3e ec a2 db 3e d0 46 7f bd de b5 d6 3e
       0.4093898 0.42897737 -0.06232339 0.4193563
0003e0 d4 91 ee be 26 25 8a be a8 03 db bd d4 17 18 be
       -0.46595633 -0.26981467 -0.10694057 -0.1485284
0003f0 42 77 ec 3e 1c 7e 71 3e ee d0 a4 3e 34 22 ae 3e
       0.46184736 0.23583263 0.3219065 0.3401047

weight f4 [2, 256]
000000 cf c1 3a bd 25 81 08 bc d5 6e 27 3c 63 66 3c 3c
       -0.045594987 -0.008331572 0.0102192955 0.01149902
000010 91 1e 08 3d 35 ae d4 bc e9 6e 91 bc dd ba 51 3d
       0.033232275 -0.025961975 -0.017753081 0.051203597
000020 f0 75 80 bc d5 4d 36 bd d5 0d 32 3d 3f e0 28 3d
       -0.015681237 -0.04450782 0.043470223 0.041229483
000030 9d 7f a9 bc 7b d0 3a bc e3 6b 38 bd 85 42 5a bd
       -0.020690734 -0.011402245 -0.045024764 -0.053286094
000040 cb 95 b7 3c 37 c5 d1 bc 19 53 47 3d b9 81 48 bd
       0.022410294 -0.025606735 0.048663232 -0.04895184
000050 dd 46 f7 bb 62 0e 20 3b 4f 30 fe 3c 1d aa 53 3d
       -0.0075462894 0.0024422635 0.031028895 0.051675905
000060 17 d7 31 3d 19 55 ea 3c 77 0d e2 bc 33 4c 3b bd
       0.043418016 0.02860503 -0.027594311 -0.045726966
000070 87 8b 60 bd 74 90 03 3b 41 d0 73 3d e7 98 30 bc
       -0.054820564 0.0020075114 0.05952478 -0.010778642
000080 3e 0d 74 bb 07 ef d7 bf 91 3c 94 3c 9c 14 b7 3f
       -0.0037239338 -1.686982 0.018095287 1.4303164
000090 75 6f 80 bd 89 c7 2f bd d7 18 42 3d f9 2c 82 3c
       -0.06271259 -0.0429149 0.04738697 0.015890585
0000a0 e2 c0 37 bb 0d 25 25 3c 81 c9 09 bc 2f 69 37 bd
       -0.002803855 0.010079634 -0.008409859 -0.044778045
0000b0 fb bc 6a bd bb e5 23 3d 2b c6 cf bb 3d 1a c7 bc
       -0.057309132 0.04001401 -0.006340762 -0.024304504
0000c0 fb 67 76 bc 0b 27 07 bd 89 b1 8e bc dd 3a 60 bd
       -0.015039439 -0.03299622 -0.01741864 -0.054743636
0000d0 43 0d 44 3d 7f 1e c8 3c a7 42 f9 bc 61 b4 b7 bc
       0.04786421 0.024428604 -0.03042729 -0.022424879
0000e0 8d a7 ee 3c 71 8c c6 bc a1 f6 8f 3c c6 05 84 3c
       0.029132629 -0.02423689 0.017573657 0.016116034
0000f0 3f a4 1c bd 81 35 89 3c 82 fe 32 3b e7 0f 64 3d
       -0.038242575 0.016749145 0.0027312343 0.05567923
000100 b3 4c b0 bc 41 92 8c bc 0b 18 58 3d 09 93 4c bd
       -0.021520948 -0.017159583 0.052757304 -0.04994491
000110 e5 c5 b7 3b 45 2e 72 3d 39 84 ee bc 61 f2 70 3d
       0.0056083077 0.059126157 -0.029115783 0.0588249
000120 f1 ae 5e 3d ab a4 72 3d 43 9e 9f bb 3b 1c 63 3d
       0.054366056 0.05923907 -0.004871161 0.055446845
000130 55 0a e8 bc db 4e a6 bc ef b3 b8 3c d3 69 46 3c
       -0.02832524 -0.020301273 0.022546737 0.012110191
000140 76 50 d1 3f 4f ce 6e 3d 01 c7 1b bd e3 63 03 3d
       1.635268 0.05830222 -0.03803158 0.03207768
000150 45 58 a2 3c df 94 02 3d f3 d2 e9 3c dd 79 c8 bc
       0.01981748 0.031880256 0.028542971 -0.024472171
000160 97 ce 4e bd 33 6c 48 3d c7 74 16 bd c3 24 28 3d
       -0.05048999 0.04893131 -0.03673246 0.041050684
000170 5d 5a 78 bd 27 40 1f bc 86 a0 e1 b9 b7 45 1f 3c
       -0.060633052 -0.009719885 -0.00043034944 0.009721211
000180 63 bc 81 3b 61 49 aa 3c ad eb 03 bc db e0 68 3c
       0.003959225 0.020786943 -0.008051795 0.014213766
000190 95 db 78 3d 05 1f 2a bd 1a 03 18 bb 6f 7d ba bc
       0.060756285 -0.04153349 -0.0023195208 -0.02276489
0001a0 69 25 5c 3d 9d ab 56 3d 3e 50 20 ba 99 6d ba bc
       0.053746615 0.052409757 -0.00061154726 -0.022757338
0001b0 a9 b2 19 bd 6b a7 3b 3d 49 d7 b0 bb 9d a0 6c 3d
       -0.0375239 0.04581396 -0.0053967577 0.05777036
0001c0 db 82 0d 3d 25 9a 5b 3d c9 f3 4e 3d 3f e2 21 bd
       0.03454862 0.0536138 0.05052546 -0.039522406
0001d0 d5 d0 9e 3c f7 41 dd bc b7 ec 04 3d 7f f1 db bb
       0.019386688 -0.027008994 0.03245231 -0.006712138
0001e0 af 7c 8d 3b 17 87 35 bd 05 45 69 bd ca b0 c9 3c
       0.004317842 -0.044318285 -0.056950588 0.024620432
0001f0 13 0f 5c 3c 3f 16 8e 3b e1 65 29 3d 13 c0 de bc
       0.013431328 0.004336148 0.041356925 -0.027191197
000200 47 cc ac 3c eb 85 08 bd 7b 13 66 3c bb df 57 bc
       0.0210935 -0.03333084 0.01404273 -0.0131759
000210 cb ce 2e 3d e7 57 64 3d c1 dd 59 3d 3a df 7f 3b
       0.042677682 0.055747893 0.053189997 0.0039042966
000220 37 ff d7 3f b7 4d 7b bd 3b b1 11 bd dd 1b 25 3c
       1.687476 -0.06135341 -0.03556941 0.010077444
000230 b4 17 43 ba b9 80 44 bd b7 91 eb bc 77 15 f8 bc
       -0.00074421917 -0.047974322 -0.028756006 -0.030283673
000240 49 0e 81 bd d3 82 9f 3b af 09 2a 3d 1b c1 d8 3c
       -0.06301553 0.0048678904 0.04151314 0.026459267
000250 62 38 fc bc 3b 8d 6f bd c1 02 53 bd fc 97 13 3b
       -0.030788604 -0.058484297 -0.0515163 0.002252101
000260 e7 94 34 3d 57 4c d8 bc e7 c6 0f bd c7 16 04 bd
       0.044087317 -0.02640359 -0.035101797 -0.032248285
000270 0f 7c 8d bb 83 96 77 bd 11 6e 5d bd 35 87 77 3d
       -0.0043177675 -0.060446274 -0.054060046 0.060431678
000280 0b 22 fd bc 8f 98 4a bc f1 08 80 bc f7 6b 5c bd
       -0.030900022 -0.012365474 -0.015629264 -0.0538139
000290 81 6d 46 bc 19 af a5 3c 8f da d8 bc b3 e8 cd ba
       -0.012111069 0.020225095 -0.026471404 -0.0015709609
0002a0 47 6b b6 ba 97 5f 7a bd e7 83 3e 3d 03 44 53 3d
       -0.0013917469 -0.061126318 0.04651251 0.051578533
0002b0 9f 04 33 3d 05 30 9f bc dd 4c 01 3d 17 54 74 bd
       0.04370558 -0.019432077 0.031567443 -0.059650507
0002c0 3d 9d 87 bc 9d 5c 3e bc 43 dc ab bc 7b 16 ce 3c
       -0.01655447 -0.01161876 -0.020979052 0.025157204
0002d0 37 58 e0 bc 19 90 c9 bb 41 cb 9c bc a5 e1 74 bd
       -0.027385814 -0.006151211 -0.019139888 -0.059785504
0002e0 41 33 17 bc 63 7a 54 bd 21 c0 19 3d 61 4c 0d 3d
       -0.0092285285 -0.05187453 0.037536744 0.03449667
0002f0 c9 57 6b 3d 93 fa a2 bc 92 ac 08 3b 31 b0 36 3c
       0.057456765 -0.019894874 0.0020854813 0.011150406
000300 9f 02 82 3d fd 20 6f 3d 9a 03 00 bd 93 4e 5e bd
       0.06348156 0.05838107 -0.031253435 -0.054274153
000310 03 41 62 bd b4 82 ff bc 9b b7 5b 3d 41 e8 b4 3c
       -0.05523778 -0.031190254 0.053641897 0.022083404
000320 8f 7a 7b 3d 77 3a 42 3d ab ff 02 3b 6b 23 23 bd
       0.061396178 0.047419038 0.0019988816 -0.0398287
000330 21 82 75 3d e9 d4 51 3d 69 9e e6 3c 1d 5e 07 bd
       0.059938554 0.051228438 0.028151708 -0.033048738
000340 17 32 45 3d ad 97 96 3b cf cc 24 3d 53 bd cc 3c
       0.048143473 0.004595718 0.040234383 0.02499262
000350 59 76 03 3d 73 28 5c bd a7 78 09 bd 1d 05 1e 3d
       0.032095287 -0.053749513 -0.03356233 0.038579095
000360 a1 6e 43 bc 2d 3d 5a bd 93 54 64 3d 0c b1 87 b9
       -0.011928231 -0.053280998 0.05574472 -0.00025881117
000370 05 09 4a 3d 39 9e 43 bd 83 53 a7 3c 7d ce c9 bc
       0.049325008 -0.047758315 0.020425564 -0.024634594
000380 ed 68 e0 bc 93 7a 67 bc ff 8f b4 bc 4b cd 07 3d
       -0.027393783 -0.014128345 -0.022041319 0.033154767
000390 73 76 54 bc bd a0 3d 3d 7b c1 57 3c dd 51 0c bc
       -0.012967694 0.04629587 0.013168688 -0.00856444
0003a0 bf 63 0f bd 55 e3 6e bd cd 68 8c bc 49 8a 71 bd
       -0.035007235 -0.05832227 -0.017139817 -0.05896977
0003b0 39 d0 2b bc 06 90 0a 3b 01 ca a7 bb 35 3a 02 bd
       -0.010486656 0.0021142974 -0.0051205163 -0.03179379
0003c0 f9 27 36 3d 5f a6 14 3d e9 18 87 bc 2e 97 9d 3e
       0.044471715 0.036291476 -0.01649137 0.30779403
0003d0 05 78 1c 3d bb 33 63 3d 79 ed 65 bd ed 25 6f bc
       0.038200397 0.055469256 -0.056134675 -0.014596445
0003e0 e7 dd e1 bb 47 6c b0 bc 7f 06 5f 3d 4d 5a 05 bc
       -0.006892908 -0.021536006 0.054449555 -0.008139205
0003f0 c9 92 54 3d 3e 78 4d ba 75 fa 00 bc 13 cd 19 bd
       0.051897798 -0.0007838047 -0.007872214 -0.03754909

bias f4 [2]
000000 33 3b 47 3d 40 b2 81 3c
       0.04864044 0.015832067
