NODE/submission_models/drifter_34_tanh_1day.pth (torch, 81679 bytes, 4 tensors)

weight f4 [256, 4]
000000 00 54 75 bb 5e 54 89 3e 16 b3 d2 be 80 66 bc be
       -0.00374341 0.2682218 -0.41152257 -0.3679695
000010 f4 32 45 be ec 4b 09 3e 40 4f 22 bc ce fa ca 3e
       -0.19257718 0.13407868 -0.00990659 0.39644474
000020 70 bf 35 bd 4c 7b 07 3e ac bb 1a be 70 48 c9 bd
       -0.044372022 0.13230628 -0.15110654 -0.098282695
000030 c8 4f 31 c0 0d 22 ba bf bf 47 ee be 1e 06 81 3d
       -2.7704945 -1.4541641 -0.46539113 0.06299995
000040 60 69 4a 3e 18 9b 99 3e 8c 8d ad be fc f4 5e be
       0.1976676 0.3000114 -0.33897054 -0.21773142
000050 98 f7 39 3e 4e 94 d4 3e 48 bd d2 bd 5c 91 bf 3e
       0.18160856 0.41519397 -0.10290009 0.37415588
000060 40 0d a5 bd 10 b5 58 3d 4a cd e7 3e ce 7b ed be
       -0.08059168 0.05290705 0.4527381 -0.46383518
000070 66 29 a1 be e0 9e 01 be dc 93 47 be 28 2f dd 3e
       -0.31476897 -0.12658262 -0.19489998 0.4320004
000080 1a ef a5 be c0 b0 6b be 1a da b2 be 76 c2 ef be
       -0.32408983 -0.23016644 -0.34932023 -0.4682805
000090 04 70 95 be 9e 0e dc 3e bc 76 64 3e 00 27 78 3e
       -0.29187024 0.42979902 0.22310919 0.24233627
0000a0 40 6a d7 3c 3a 3f 83 be c0 3e ad 3d 9e 06 ef be
       0.026295781 -0.25634176 0.08459234 -0.46684736
0000b0 1a fa b8 be c6 f9 83 be 26 85 a1 3e 26 19 96 3e
       -0.36128312 -0.257765 0.31546897 0.29316062
0000c0 c8 11 63 be 20 cb 93 bc 40 ba a3 3e 82 7f fe 3e
       -0.22174752 -0.018041193 0.31978035 0.49706656
0000d0 24 34 4b 3e c8 55 8a 3d fe a4 ab 3e c0 bb 96 be
       0.19844109 0.06754643 0.33524317 -0.29440117
0000e0 f8 d0 be 3d 6c 7a c6 be 18 6e b1 be d2 3e 84 be
       0.093172014 -0.38765275 -0.34654307 -0.25829178
0000f0 8c aa 67 3e f8 e7 4d 3e 6a a4 97 be c8 ad 1a 3e
       0.22623652 0.2010802 -0.29617625 0.15105355
000100 6e 89 8c 3e 20 3f 81 bd 40 64 9c 3c 00 44 ed 3d
       0.274486 -0.06310868 0.019090772 0.115852356
000110 00 d1 9e 3e 48 cf f5 3e 96 47 c5 be ec a1 3b be
       0.3101883 0.48009706 -0.38531178 -0.18323487
000120 98 38 49 3e d0 1b d4 3e e8 c5 de 3e 22 e2 e1 3e
       0.19650495 0.4142747 0.43510365 0.44117838
000130 78 ca cb 3d f8 9c de be 90 66 3c 3d ac 27 a0 be
       0.09950727 -0.43479133 0.04599625 -0.31280267
000140 8c 94 ee be 3e 74 e3 3e f0 a6 c2 3e fe 5d ff be
       -0.46597707 0.44424623 0.38017988 -0.49876398
000150 08 aa bf 3d c8 80 ac bd b8 82 a8 bd 1c 5f 6a be
       0.09358603 -0.084230006 -0.082280576 -0.22887844
000160 8c e4 44 3e 34 a1 97 be dc b1 3b 3e 16 76 81 3e
       0.19227809 -0.29615176 0.18329567 0.25285405
000170 5c 43 b7 3e 48 71 3f 3e 4a 5f fd be 00 11 a6 be
       0.3579358 0.18695557 -0.49486762 -0.32434845
000180 38 a6 7f 3e 18 53 d6 3d 96 b3 c7 be e8 68 93 be
       0.24965751 0.104650676 -0.390042 -0.28790975
000190 f2 d4 f0 3e 54 7f ac 3e b0 3e 5f be d4 dc 00 be
       0.47037464 0.33690894 -0.21801257 -0.12584239
0001a0 78 dd f3 be 80 3e 13 bc 78 c8 c0 be a2 77 c5 be
       -0.47629905 -0.008987069 -0.37652946 -0.38567835
0001b0 20 b0 e1 bc a0 bf 99 3d f4 ad 51 be 98 e7 97 3e
       -0.027549803 0.07507253 -0.20476514 0.2966888
0001c0 38 c9 9b be 68 49 e8 3e d0 6f af 3e 64 e1 d7 be
       -0.30426955 0.45368505 0.34264994 -0.42164147
0001d0 88 db fe bd 80 d2 b8 3c 18 67 95 3d d0 dd f2 3d
       -0.12444216 0.022561312 0.07295054 0.118587136
0001e0 5c ec 48 3e e0 59 f5 3c cc d1 79 be d4 45 72 3e
       0.19621414 0.029950082 -0.24396437 0.2365945
0001f0 56 91 f5 be a0 bb 97 be 3c 2b 00 be ec 66 79 be
       -0.47962445 -0.29635334 -0.12516493 -0.24355668
000200 5c 1d 33 be ba d2 d1 be 00 d2 d9 bd f8 e2 da 3d
       -0.17491668 -0.40981084 -0.106357574 0.10687822
000210 4c 59 d0 3f 44 dc 8b bf 91 81 48 3f a0 8a d9 bd
       1.6277251 -1.0926595 0.783227 -0.10622144
000220 80 ac 63 3c c0 ad 30 bd 10 3d cf 3d 60 c6 a2 3e
       0.013896108 -0.04313445 0.101190686 0.31791973
000230 ba 7e f2 3e 06 93 a2 3e c4 0c f3 3e 60 1d 14 bd
       0.4736231 0.31752795 0.47470677 -0.036160827
000240 66 f8 e5 be 40 ba 72 be ce 4f ae 3e 00 6b 54 bb
       -0.44916075 -0.23703861 0.3404526 -0.003241241
000250 dc 7c 7e be 02 2d c4 be 00 94 ef be ec 10 d8 be
       -0.24852318 -0.38315588 -0.46792603 -0.4220041
000260 70 b4 cf bd 56 64 8c 3e 74 67 8a 3e 02 e5 f6 be
       -0.101418376 0.274203 0.27032053 -0.48221594
000270 2e b0 9f 3e 8a 52 c8 be f0 7b d8 bd 1c 9a 4f be
       0.31189102 -0.39125472 -0.10570514 -0.20273632
000280 f0 3c c5 bd 10 0e c9 bd ba b8 e5 be 44 0a dd be
       -0.096307635 -0.09817135 -0.44867498 -0.43171895
000290 28 3c a0 bd 80 e1 d3 3b b8 96 68 be b8 de 40 3e
       -0.07823974 0.0064660907 -0.22713745 0.1883496
0002a0 3a 6a e6 be c0 36 0a bd a2 21 e1 3e 38 d7 50 be
       -0.4500292 -0.03374362 0.43970972 -0.203946
0002b0 36 2b e7 3e 38 6c 39 3e ae 07 e7 be 74 f8 a1 3e
       0.45150155 0.18107688 -0.45123047 0.31634867
0002c0 f0 53 6c bd 70 8f 64 be 14 b6 cc 3e 54 df ce be
       -0.057697237 -0.22320342 0.39982665 -0.4040476
0002d0 b0 c2 5b 3d c0 64 d6 bd 16 d0 b6 3e 08 ec 0e 3e
       0.053652465 -0.10468435 0.35705632 0.13957226
0002e0 cc 04 76 3e 40 d1 34 3e 00 3f f6 bd 50 5a d7 bd
       0.24025267 0.17657948 -0.12023735 -0.105152726
0002f0 00 f7 d2 be 4c b6 8a 3e 26 42 cb 3e 5c 29 af 3e
       -0.4120407 0.27092206 0.39698905 0.34211242
000300 ac 93 b4 be 60 ae b6 3c 90 76 b4 be 88 ec 8c be
       -0.35268915 0.022299945 -0.35246706 -0.2752421
000310 30 2c 95 be 34 f9 2e 3e c4 8d 98 be 00 ba 32 bc
       -0.29135275 0.17087251 -0.2979566 -0.010908604
000320 a0 4f ac 3c 04 06 a5 3e fa 83 c1 be 44 bf af be
       0.021034062 0.32231152 -0.37796003 -0.34325612
000330 3c a6 94 be d6 2e b3 3e cc 0b 38 be e0 ee d7 3e
       -0.29033077 0.3499667 -0.1797325 0.42174435
000340 a0 24 39 3e 40 aa 81 3d 00 ed 73 bb 08 6d ca bd
       0.18080378 0.06331301 -0.003722012 -0.09884077
000350 40 7a 80 3d 30 d3 e9 bd 00 3e 66 bb c0 a7 82 3d
       0.06273317 -0.11417234 -0.003513217 0.06379652
000360 98 3e c8 be 7a 2d 86 be d8 b7 ce 3e 86 c1 cf be
       -0.39110255 -0.2620657 0.40374637 -0.40577334
000370 20 0f 13 bd c0 3e fd 3e 10 f4 38 3e c0 f0 67 3c
       -0.035903096 0.49461937 0.18061852 0.01415652
000380 26 da dd be 2c a2 7d 3e 08 58 b6 be a8 56 11 be
       -0.43330497 0.24768895 -0.35614038 -0.14193213
000390 cc c8 2b be 38 a4 97 bd 80 36 b3 3b 96 26 d3 3e
       -0.16775817 -0.07404369 0.0054691434 0.41240376
0003a0 80 ab 7f 3d 20 4c e5 3e 30 99 9c 3e c6 d8 a1 be
       0.062419415 0.4478464 0.30585623 -0.31610698
0003b0 54 a2 65 3e 24 f7 b4 be 9c ff 58 be 40 97 16 3e
       0.22425205 -0.35344803 -0.21191257 0.14706135
0003c0 c3 f6 29 3e 19 11 c0 3e 13 d7 15 be 0d f2 11 3d
       0.16598038 0.37513044 -0.14632826 0.03563123
0003d0 7a cb 83 3e 5a 93 f7 be 42 15 b9 3e 30 b1 d3 be
       0.25741178 -0.48354608 0.3614903 -0.4134612
0003e0 00 d0 e1 3b e0 18 ae bd 0a d4 86 be d8 57 87 3d
       0.0068912506 -0.08500838 -0.26333648 0.06608552
0003f0 f2 b0 d3 3e e8 aa 15 be 56 fc 97 be 84 5b 3d be
       0.41345936 -0.14615977 -0.29684705 -0.18491942

bias f4 [256]
000000 c0 7e 0f bd aa ca f1 be 14 9b 93 be 53 db 2e 3e
       -0.035032988 -0.47224933 -0.28829253 0.17075853
000010 70 a8 2d be da b2 b0 3e d2 60 ca 3e 10 f6 94 3d
       -0.16958785 0.34511453 0.39526993 0.07273495
000020 f0 f1 21 bd d0 85 22 be 20 1e cf bc b0 63 ba 3d
       -0.03953737 -0.15871358 -0.02528292 0.09101045
000030 be 8b c3 be 48 bb f4 bd e8 f0 d4 be 0a 1f 9d 3e
       -0.38192552 -0.119497836 -0.41590047 0.30687743
000040 b4 07 a3 be 02 de e9 3e d8 fb 03 be f4 a7 92 be
       -0.31841815 0.4567719 -0.1288904 -0.28643763
000050 f4 fd 75 3e 30 a8 98 3d cc 44 b1 3e 98 be 55 3e
       0.24022657 0.07453954 0.346228 0.20873487
000060 6a 9d f6 be e4 ea a1 3e 58 d5 c0 bd 08 4a 62 be
       -0.48166972 0.3162452 -0.09415692 -0.22098553
000070 e4 92 a2 3e 64 b5 ba 3e 9a 01 e1 be e0 2f 39 bd
       0.31752694 0.36466515 -0.43946534 -0.045211673
000080 98 3a d2 3e e3 ed 6f 3e 12 ac d7 3e 34 76 2f be
       0.41060328 0.2343059 0.42123467 -0.17134935
000090 70 38 8d be 0a 23 dc 3e d0 69 55 3e 6a c1 f5 3e
       -0.2758212 0.42995483 0.20841146 0.47999126
0000a0 54 dc 55 be 7e 5e a4 be 50 0d 70 bd 62 0b f1 be
       -0.2088483 -0.32103342 -0.058606446 -0.47078997
0000b0 f8 b0 48 3e 98 d2 bc 3e 78 d1 f5 3d 40 5b 4a bd
       0.19598758 0.3687942 0.120028436 -0.04940343
0000c0 54 da 7d 3e 10 7f a2 be 24 6e fa 3e 4e 8d fe be
       0.24790317 -0.31737566 0.48912156 -0.49717182
0000d0 e6 3b f5 be 10 f9 f1 bd b8 1c d1 3e c0 0e 4d 3d
       -0.4789726 -0.11815083 0.40842223 0.050062895
0000e0 a4 a1 44 3e 56 a6 bb be 18 b8 3a 3e c0 d9 64 bd
       0.19202286 -0.36650342 0.18234289 -0.055871725
0000f0 d0 bb 4e 3e 50 cc b4 3e 68 8e 5e 3e 20 36 2e bd
       0.20188832 0.35312128 0.21734011 -0.042532086
000100 60 4f fc bc e2 8e a0 be 04 31 39 be ca 5b a6 3e
       -0.030799568 -0.3135901 -0.18085104 0.32491904
000110 6c 4f 4d be 76 fc 9e 3e 3c 06 4b be 08 7d ee bd
       -0.20049828 0.31051987 -0.19826597 -0.116449416
000120 00 58 2e 3c 20 ec ea be 00 98 a3 bb 00 6e 4e bd
       0.010641098 -0.45883274 -0.004992485 -0.050397873
000130 20 fc 37 bd b0 b3 cc bd 18 d3 c9 3e ba ec bc 3e
       -0.04491818 -0.0999521 0.39418864 0.36899358
000140 cc 83 ad be 74 d6 6d 3e 4c cd c8 be 32 f0 d9 be
       -0.33889616 0.23226339 -0.3921913 -0.42566067
000150 58 82 1c 3e 80 c9 f0 3b ec d9 6e be b8 e9 f6 be
       0.15284097 0.0073482394 -0.23325318 -0.48225188
000160 b4 36 46 be fc 01 2b 3e 38 f4 ec be f6 b1 f8 be
       -0.19356805 0.16699976 -0.46280074 -0.48573273
000170 e0 ea 81 3d 68 6c b8 be cc 46 e0 be 3c 44 45 be
       0.06343627 -0.36020207 -0.43804014 -0.1926431
000180 68 dd a4 bd e8 a0 e8 be 34 f0 aa be 70 48 06 3d
       -0.080500424 -0.45435262 -0.33386385 0.032783926
000190 98 66 f1 be 80 ed 8f bd c6 4c a5 be 00 78 b1 be
       -0.47148585 -0.070277214 -0.32285136 -0.34661865
0001a0 5c 3b 49 3e 62 0a c5 be 6c 01 c2 be f8 fd 91 3e
       0.1965155 -0.38484484 -0.3789171 0.28514075
0001b0 18 74 bf 3d 7a 24 e9 3e f4 da 08 be c0 4d 77 be
       0.09348315 0.45535642 -0.13364774 -0.24150753
0001c0 00 89 3d bd 00 c9 25 3b a8 3c c3 3e 18 ff fe be
       -0.04627323 0.0025296807 0.38132215 -0.49803996
0001d0 b0 d1 11 bd fc 7b 62 3e 90 f9 8c be 84 15 82 be
       -0.035600364 0.22117609 -0.2753415 -0.2540704
0001e0 e0 6e 77 3e a0 4b f5 be 88 a4 f2 3d 23 ae aa be
       0.24163389 -0.4790926 0.11847788 -0.3333598
0001f0 e4 7e 7e 3e ee e3 da be d8 63 9d 3e 84 56 f2 be
       0.24853092 -0.42752022 0.30740237 -0.4733163
000200 62 2f d7 be d8 35 f1 3c 9c b9 c9 3e be 3c db be
       -0.42028338 0.02944462 0.3939942 -0.4281978
000210 f0 61 64 be 20 d7 e0 3e e0 b8 ab bd 1c 1d 54 3e
       -0.22302985 0.43914127 -0.083848715 0.2071423
000220 84 45 f6 be a4 03 21 be 4a 01 82 be dc d2 d7 3e
       -0.4809991 -0.15724045 -0.25391608 0.4215306
000230 1c 80 54 3e 06 cc ba be b0 18 a5 3d 00 4f bc bb
       0.20751995 -0.36483783 0.080613494 -0.005746722
000240 88 5d 52 be 14 32 92 be c0 e6 29 be 36 c9 c9 3e
       -0.20543492 -0.28553832 -0.1659193 0.39411324
000250 a2 83 b7 be 22 5c b6 be 38 f6 1d be c0 82 0e 3c
       -0.35842615 -0.35617167 -0.15425956 0.008698165
000260 5c 5f 0b 3e 80 d3 75 3c c8 80 f6 bd c4 39 9b be
       0.13610595 0.015004039 -0.12036282 -0.3031751
000270 30 bd b7 bd 78 1b 4e be 6c d4 ce 3e 5e 31 f9 be
       -0.089716315 -0.20127666 0.4039644 -0.48670477
000280 ba 4a a3 be 72 47 d0 be 98 24 bb bd 76 7e c7 3e
       -0.3189295 -0.40679508 -0.09137839 0.3896367
000290 e0 64 e0 3e b6 dc de be 80 77 b1 bc 6a 43 96 3e
       0.43826962 -0.43527764 -0.021663427 0.29348308
0002a0 34 b0 61 3e ca b0 d1 3e 40 3b 63 bc 2a 01 ac be
       0.22039872 0.40955192 -0.013869107 -0.33594638
0002b0 10 5a a9 3e 80 92 2f be a2 8d 84 3e d8 59 fc bd
       0.33076525 -0.17145729 0.25889307 -0.12321824
0002c0 f0 a5 59 3e c8 40 e6 3e 02 0b ee 3e 06 fa e8 be
       0.21254706 0.449713 0.46492773 -0.45503253
0002d0 c6 56 a9 be ec b1 53 be 60 40 a3 be cc a1 f5 3e
       -0.33074015 -0.2067334 -0.31885052 0.47975004
0002e0 80 e0 34 bd b0 d0 a9 be a8 d5 63 be c4 67 8d be
       -0.044159412 -0.33167028 -0.22249472 -0.2761823
0002f0 fc e3 50 3e da 4b df be f8 b1 ee be d8 5a fc be
       0.20399469 -0.43612558 -0.46620154 -0.49288058
000300 a8 6d 5c 3e 28 29 7d 3e 0a ff 9e be 18 ee fd 3d
       0.21526206 0.24722731 -0.31053954 0.123989284
000310 ac f9 bc 3e e0 c9 94 3d d8 a8 d8 bd a0 4f 17 3d
       0.36909235 0.07265067 -0.105790794 0.03694117
000320 30 9a 5b bd 52 e5 80 3e b0 d3 ad be 78 d1 81 3e
       -0.05361384 0.25174958 -0.33950567 0.25355124
000330 a2 49 90 3e 9a 1a 9b be 50 0a d1 3e 76 70 fb 3e
       0.28181177 -0.30293733 0.4082818 0.49109238
000340 58 d8 49 be 88 68 0f be 74 28 7f 3e 3e 8e c8 be
       -0.19711435 -0.1400472 0.24917775 -0.39171022
000350 78 79 4a 3e 70 e7 ee 3d 4a 5d a1 3e 7e 7b cb be
       0.19772899 0.11665237 0.31516486 -0.39742655
000360 50 ae d4 be 40 f4 65 3e 8c 6d 38 3e b2 46 ee be
       -0.4153924 0.22456455 0.18010539 -0.4653831
000370 c6 c2 8e be 08 3c ea be 7e 67 b7 be a4 03 67 be
       -0.27882975 -0.45748925 -0.35821146 -0.22559983
000380 90 d9 d3 3e 00 d4 cb bd ae 08 93 3e 4a 1e f3 3e
       0.41376925 -0.09952545 0.2871756 0.47484046
000390 bc 55 69 3e 82 2c e5 be 34 d3 80 3e 64 4b 43 3e
       0.22786611 -0.4476052 0.25161135 0.19071728
0003a0 b2 6a c6 3e f4 86 fc be b0 71 9d 3e ee 8b d1 3e
       0.38753277 -0.4932171 0.307508 0.4092707
0003b0 62 2c ee be 50 46 56 3d 52 8a da 3e de 30 ba be
       -0.46518236 0.05231315 0.42683655 -0.36365408
0003c0 40 ff 27 3e c0 3d 62 3e ac 30 06 3e 97 b7 ff 3e
       0.16405964 0.22093868 0.13104504 0.49944755
0003d0 8a 9b d1 3e ec a2 db 3e d0 46 7f bd de b5 d6 3e
       0.4093898 0.42897737 -0.06232339 0.4193563
0003e0 d4 91 ee be 26 25 8a be a8 03 db bd d4 17 18 be
       -0.46595633 -0.26981467 -0.10694057 -0.1485284
0003f0 42 77 ec 3e 1c 7e 71 3e ee d0 a4 3e 34 22 ae 3e
       0.46184736 0.23583263 0.3219065 0.3401047

weight f4 [2, 256]
000000 b9 52 41 bd 94 7b dc bb 7e 2b 0d 3c c1 17 e8 bf
       -0.04719803 -0.006728599 0.008616326 -1.8132249
000010 a7 8d 01 3d 7a 8c c7 bc b7 90 9e bc c7 4b 58 3d
       0.03162923 -0.024358977 -0.019356115 0.052806642
000020 b0 97 8d bc eb bc 2f bd eb 7c 2b 3d 29 71 2f 3d
       -0.017284244 -0.042904776 0.041867178 0.042832527
000030 e4 5d 9c bc d4 13 55 bc cd fc 3e bd 9b b1 53 bd
       -0.01908774 -0.013005216 -0.04662781 -0.05168305
000040 84 b7 c4 3c f0 e6 de bc 03 e4 4d 3d a3 12 4f bd
       0.024013288 -0.027209729 0.050266277 -0.050554883
000050 e2 e6 15 bc ff 01 5c 3a 05 a9 05 3d 33 19 4d 3d
       -0.009149285 0.00083926314 0.032631893 0.05007286
000060 2d 46 2b 3d 47 33 dd 3c 30 2f ef bc 49 bb 34 bd
       0.04181497 0.02700199 -0.029197305 -0.04412392
000070 71 1c 67 bd 60 9e 6c 3b 2b 61 7a 3d 48 dc 4a bc
       -0.05642361 0.003610514 0.061127823 -0.012381621
000080 58 ff 0a bb 0f 2a b0 bf 64 5e a1 3c d5 63 24 3d
       -0.0021209326 -1.3762835 0.01969833 0.04013427
000090 05 4e 7a bd 73 58 36 bd ed 87 3b 3d 94 16 6a 3c
       -0.06110956 -0.044517945 0.045783926 0.01428761
0000a0 5a 67 90 bb 6e 68 3f 3c ee 0c 24 bc 45 d8 30 bd
       -0.0044068517 0.011682613 -0.010012848 -0.043175
0000b0 e5 4d 71 bd a5 76 2a 3d 86 26 02 bc 84 f8 b9 bc
       -0.058912177 0.041617054 -0.007943755 -0.02270151
0000c0 ad 55 88 bc db b7 0d bd 52 d3 9b bc f3 a9 59 bd
       -0.016642416 -0.034599166 -0.019021664 -0.05314059
0000d0 59 7c 3d 3d 38 40 d5 3c 2d 32 03 bd a8 92 aa bc
       0.046261165 0.026031598 -0.032030273 -0.020821884
0000e0 b4 85 e1 3c b8 6a b9 bc e9 d4 82 3c 88 27 91 3c
       0.027529575 -0.022633895 0.015970664 0.017719045
0000f0 e9 a5 1b bd 9f 27 78 3c 28 06 8e 3b fd 7e 5d 3d
       -0.03800002 0.015146165 0.00433423 0.054076184
000100 6c 6e bd bc 1b e1 7e bc f5 a8 5e 3d f3 23 53 bd
       -0.023123942 -0.015556599 0.05436035 -0.051547956
000110 fd 3e 83 3b 2f bf 78 3d 60 62 e1 bc 4b 83 77 3d
       0.0040053115 0.060729202 -0.02751273 0.060427945
000120 db 3f 65 3d b1 13 6c 3d 36 25 d4 bb 25 ad 69 3d
       0.0559691 0.057635967 -0.0064741625 0.05704989
000130 89 e8 da bc 94 70 b3 bc a8 d5 c5 3c 2a ad 60 3c
       -0.02672221 -0.021904267 0.02414973 0.0137131605
000140 7f 0b 0b 3d 39 5f 75 3d eb 57 22 bd b4 f4 09 3d
       0.03394651 0.059905265 -0.039634626 0.033680633
000150 00 7a af 3c b4 25 09 3d ac f4 f6 3c 24 58 bb bc
       0.021420479 0.033483222 0.030145966 -0.022869177
000160 ad 3d 48 bd 1d fd 4e 3d dd e3 0f bd d9 93 21 3d
       -0.048886944 0.050534356 -0.035129417 0.03944764
000170 6f c9 71 bd 94 83 39 bc b0 b3 99 3a 22 89 39 3c
       -0.059029993 -0.011322875 0.0011726525 0.011324199
000180 54 43 b6 3b a8 27 9d 3c 9c 50 d3 bb 1c 92 81 3c
       0.0055622254 0.019183949 -0.0064488184 0.01581674
000190 7d 6c 7f 3d 1b 8e 23 bd 88 88 80 bb 28 9f c7 bc
       0.06235932 -0.039930444 -0.003922526 -0.024367884
0001a0 53 b6 62 3d 87 3c 5d 3d cc 21 11 bb e0 4b ad bc
       0.05534966 0.0540128 -0.0022145389 -0.021154344
0001b0 93 43 20 bd 81 16 35 3d b2 a0 78 bb 87 31 73 3d
       -0.039126944 0.044210915 -0.0037937579 0.059373405
0001c0 bd 13 14 3d 0f 2b 62 3d df 62 48 3d 29 73 28 bd
       0.036151636 0.055216845 0.048922416 -0.04112545
0001d0 1c af 91 3c 36 20 d0 bc 9a b7 fc 3c ac 6a a7 bb
       0.017783694 -0.025405984 0.030849267 -0.005109152
0001e0 a0 03 c2 3b 2d f6 2e bd 1b b4 62 bd 00 07 58 3f
       0.0059208423 -0.04271524 -0.055347543 0.8438568
0001f0 6a 52 76 3c 32 9d c2 3b cb f6 2f 3d 5b 9e d1 bc
       0.0150342975 0.0059391493 0.04295997 -0.025588205
000200 00 ee b9 3c 25 67 0a c0 4c d0 4b 3c 12 23 72 bc
       0.022696495 -2.1625454 0.012439799 -0.014778869
000210 b5 5f 35 3d fd c6 5d 3d ab 6e 60 3d 2e d1 16 3b
       0.044280726 0.05414485 0.05479304 0.0023012864
000220 32 e1 14 3d 50 ef 80 bd 23 42 18 bd 3e 5f 3f 3c
       0.036347575 -0.06295645 -0.037172448 0.011680422
000230 c2 1f 61 3a a3 11 4b bd d9 6f de bc 91 f3 ea bc
       0.0008587801 -0.049577367 -0.027152942 -0.028680595
000240 ae 8b 7b bd c8 09 d4 3b 99 9a 30 3d 60 9f cb 3c
       -0.061412506 0.0064708926 0.043116186 0.02485627
000250 7f 16 ef bc 61 fc 68 bd d7 71 4c bd 7b 28 2a 3a
       -0.029185532 -0.056881312 -0.049913254 0.00064910174
000260 fd 03 2e 3d 9c 2a cb bc fd 35 09 bd 9a a7 0a bd
       0.042484272 -0.024800591 -0.033498753 -0.033851244
000270 81 0c c2 bb 89 05 71 bd fb fe 63 bd 1f 18 7e 3d
       -0.0059219007 -0.05884317 -0.05566309 0.062034722
000280 32 00 f0 bc 6a 55 30 bc ae 2a 8d bc e1 fc 62 bd
       -0.029296968 -0.010762552 -0.017232265 -0.055416945
000290 4c 2a 2c bc 60 8d 98 3c d4 b8 cb bc 3a 02 50 bb
       -0.010508131 0.0186221 -0.024868406 -0.0031739608
0002a0 ab 84 5d 39 3d 78 80 bd fd f2 37 3d 19 b3 4c 3d
       0.00021125625 -0.06272934 0.044909466 0.04997549
0002b0 b5 73 2c 3d cb 51 ac bc b3 dd 07 3d 0d c3 6d bd
       0.042102534 -0.021035096 0.033170413 -0.058047343
0002c0 10 f7 74 bc ee 9f 58 bc fc fd b8 bc 34 38 db 3c
       -0.014951482 -0.013221724 -0.022582047 0.026760198
0002d0 f0 79 ed bc fd 16 fe bb 88 a9 8f bc ad 50 6e bd
       -0.028988808 -0.0077542053 -0.017536893 -0.058182407
0002e0 aa 76 31 bc 4d 0b 5b bd 37 2f 13 3d 77 bb 06 3d
       -0.010831514 -0.053477574 0.0359337 0.032893624
0002f0 b3 e8 71 3d 4c 1c b0 bc 86 ba 71 3b 8a f3 50 3c
       0.05905981 -0.021497868 0.0036884858 0.012753377
000300 57 74 7d 3d 13 90 68 3d 73 94 06 bd a9 bd 57 bd
       0.06187853 0.056778025 -0.032856416 -0.05267111
000310 ed d1 68 bd cd 60 f2 bc b1 26 55 3d 88 c6 a7 3c
       -0.056840826 -0.029587174 0.052038852 0.02048041
000320 a6 e9 74 3d 8d a9 3b 3d b9 8d cf 39 81 92 1c bd
       0.059793137 0.045815993 0.00039587708 -0.038225655
000330 0b 13 7c 3d ff 43 4b 3d a4 7c d9 3c f1 ee 0d bd
       0.0615416 0.049625393 0.026548691 -0.0346517
000340 01 c3 4b 3d 9a 1e cb 3b b9 5d 2b 3d 0c df d9 3c
       0.049746517 0.0061987163 0.041837428 0.026595615
000350 2a 07 0a 3d 5d b9 62 bd 79 09 10 bd 55 20 1f 40
       0.03369824 -0.055352557 -0.035165284 2.4863484
000360 fc b1 5d bc 17 ce 60 bd 7d e5 6a 3d dc 07 f4 ba
       -0.013531204 -0.054884043 0.057347763 -0.0018618065
000370 ef 99 50 3d 23 2f 4a bd 3c 75 b4 3c c4 ac bc bc
       0.050928053 -0.04936136 0.022028558 -0.0230316
000380 25 47 d3 bc 6c 37 4d bc b8 b1 c1 bc 21 5e 0e 3d
       -0.02579076 -0.012525421 -0.023644313 0.034757737
000390 3c 33 3a bc a7 31 44 3d d2 04 72 3c 4a 95 26 bc
       -0.011364754 0.047898915 0.014771657 -0.010167429
0003a0 9f f4 15 bd 73 52 68 bd 9e 8a 99 bc 69 f9 6a bd
       -0.036610242 -0.056719255 -0.018742856 -0.057366762
0003b0 a0 13 46 bc 57 08 06 3a 2c 86 66 bb 93 52 f7 bc
       -0.01208964 0.0005112937 -0.0035175188 -0.030190742
0003c0 0f 97 2f 3d 75 15 0e 3d 6f ee 73 bc 9c 71 c5 bc
       0.04286867 0.03468843 -0.01488839 -0.024102025
0003d0 ef 08 23 3d d1 a2 5c 3d 63 7e 6c bd ac e2 54 bc
       0.03980344 0.05386621 -0.05773772 -0.012993496
0003e0 1a 57 ad bb 00 8e bd bc 95 75 58 3d b0 9d 1f bc
       -0.0052899243 -0.023139 0.05284651 -0.0097421855
0003f0 b3 23 5b 3d 3a bf 56 3a 28 6e cd bb 29 3c 13 bd
       0.053500842 0.0008191947 -0.006269235 -0.035946045

bias f4 [2]
000000 f0 cb 4d 3d fa 32 3c 3d
       0.050243318 0.045947053
