NODE/submission_models/drifter_56_tanh_1day.pth (torch, 81679 bytes, 4 tensors)

weight f4 [256, 4]
0	0xbb755400	-0.00374341
1	0x3e89545e	0.2682218
2	0xbed2b316	-0.41152257
3	0xbebc6680	-0.3679695
4	0xbe4532f4	-0.19257718
5	0x3e094bec	0.13407868
6	0xbc224f40	-0.00990659
7	0x3ecaface	0.39644474
8	0xbd35bf70	-0.044372022
9	0x3e077b4c	0.13230628
10	0xbe1abbac	-0.15110654
11	0xbdc94870	-0.098282695
12	0xbef2a023	-0.473878
13	0xbea76e57	-0.3270137
14	0xbe612c80	-0.21989632
15	0x3b196157	0.0023403966
16	0x3e4a6960	0.1976676
17	0x3e999b18	0.3000114
18	0xbead8d8c	-0.33897054
19	0xbe5ef4fc	-0.21773142
20	0x3e39f798	0.18160856
21	0x3ed4944e	0.41519397
22	0xbdd2bd48	-0.10290009
23	0x3ebf915c	0.37415588
24	0xbda50d40	-0.08059168
25	0x3d58b510	0.05290705
26	0x3ee7cd4a	0.4527381
27	0xbeed7bce	-0.46383518
28	0xbea12966	-0.31476897
29	0xbe019ee0	-0.12658262
30	0xbe4793dc	-0.19489998
31	0x3edd2f28	0.4320004
32	0xbea5ef1a	-0.32408983
33	0xbe6bb0c0	-0.23016644
34	0xbeb2da1a	-0.34932023
35	0xbeefc276	-0.4682805
36	0xbe957004	-0.29187024
37	0x3edc0e9e	0.42979902
38	0x3e6476bc	0.22310919
39	0x3e782700	0.24233627
40	0x3cd76a40	0.026295781
41	0xbe833f3a	-0.25634176
42	0x3dad3ec0	0.08459234
43	0xbeef069e	-0.46684736
44	0xbeb8fa1a	-0.36128312
45	0xbe83f9c6	-0.257765
46	0x3ea18526	0.31546897
47	0x3e961926	0.29316062
48	0xbe6311c8	-0.22174752
49	0xbc93cb20	-0.018041193
50	0x3ea3ba40	0.31978035
51	0x3efe7f82	0.49706656
52	0x3e4b3424	0.19844109
53	0x3d8a55c8	0.06754643
54	0x3eaba4fe	0.33524317
55	0xbe96bbc0	-0.29440117
56	0x3dbed0f8	0.093172014
57	0xbec67a6c	-0.38765275
58	0xbeb16e18	-0.34654307
59	0xbe843ed2	-0.25829178
60	0x3e67aa8c	0.22623652
61	0x3e4de7f8	0.2010802
62	0xbe97a46a	-0.29617625
63	0x3e1aadc8	0.15105355
64	0x3e8c896e	0.274486
65	0xbd813f20	-0.06310868
66	0x3c9c6440	0.019090772
67	0x3ded4400	0.115852356
68	0x3e9ed100	0.3101883
69	0x3ef5cf48	0.48009706
70	0xbec54796	-0.38531178
71	0xbe3ba1ec	-0.18323487
72	0x3e493898	0.19650495
73	0x3ed41bd0	0.4142747
74	0x3edec5e8	0.43510365
75	0x3ee1e222	0.44117838
76	0x3dcbca78	0.09950727
77	0xbede9cf8	-0.43479133
78	0x3d3c6690	0.04599625
79	0xbea027ac	-0.31280267
80	0xbeee948c	-0.46597707
81	0x3ee3743e	0.44424623
82	0x3ec2a6f0	0.38017988
83	0xbeff5dfe	-0.49876398
84	0x3dbfaa08	0.09358603
85	0xbdac80c8	-0.084230006
86	0xbda882b8	-0.082280576
87	0xbe6a5f1c	-0.22887844
88	0x3e44e48c	0.19227809
89	0xbe97a134	-0.29615176
90	0x3e3bb1dc	0.18329567
91	0x3e817616	0.25285405
92	0x3eb7435c	0.3579358
93	0x3e3f7148	0.18695557
94	0xbefd5f4a	-0.49486762
95	0xbea61100	-0.32434845
96	0x3e7fa638	0.24965751
97	0x3dd65318	0.104650676
98	0xbec7b396	-0.390042
99	0xbe9368e8	-0.28790975
100	0x3ef0d4f2	0.47037464
101	0x3eac7f54	0.33690894
102	0xbe5f3eb0	-0.21801257
103	0xbe00dcd4	-0.12584239
104	0xbef3dd78	-0.47629905
105	0xbc133e80	-0.008987069
106	0xbec0c878	-0.37652946
107	0xbec577a2	-0.38567835
108	0xbce1b020	-0.027549803
109	0x3d99bfa0	0.07507253
110	0xbe51adf4	-0.20476514
111	0x3e97e798	0.2966888
112	0xbe9bc938	-0.30426955
113	0x3ee84968	0.45368505
114	0x3eaf6fd0	0.34264994
115	0xbed7e164	-0.42164147
116	0xbdfedb88	-0.12444216
117	0x3cb8d280	0.022561312
118	0x3d956718	0.07295054
119	0x3df2ddd0	0.118587136
120	0x3e48ec5c	0.19621414
121	0x3cf559e0	0.029950082
122	0xbe79d1cc	-0.24396437
123	0x3e7245d4	0.2365945
124	0xbef59156	-0.47962445
125	0xbe97bba0	-0.29635334
126	0xbe002b3c	-0.12516493
127	0xbe7966ec	-0.24355668
128	0xbe331d5c	-0.17491668
129	0xbed1d2ba	-0.40981084
130	0xbdd9d200	-0.106357574
131	0x3ddae2f8	0.10687822
132	0xbea68b35	-0.32528082
133	0xbcd6ad8a	-0.026205797
134	0x3eb28100	0.34864044
135	0xbd8946ff	-0.067029946
136	0x3c63ac80	0.013896108
137	0xbd30adc0	-0.04313445
138	0x3dcf3d10	0.101190686
139	0x3ea2c660	0.31791973
140	0xbecc2953	-0.39875278
141	0x402cc93b	2.6997821
142	0x3fd99851	1.6999608
143	0xbe47d24a	-0.19513813
144	0xbee5f866	-0.44916075
145	0xbe72ba40	-0.23703861
146	0x3eae4fce	0.3404526
147	0xbb546b00	-0.003241241
148	0xbe7e7cdc	-0.24852318
149	0xbec42d02	-0.38315588
150	0xbeef9400	-0.46792603
151	0xbed810ec	-0.4220041
152	0xbdcfb470	-0.101418376
153	0x3e8c6456	0.274203
154	0x3e8a6774	0.27032053
155	0xbef6e502	-0.48221594
156	0x3e9fb02e	0.31189102
157	0xbec8528a	-0.39125472
158	0xbdd87bf0	-0.10570514
159	0xbe4f9a1c	-0.20273632
160	0xbdc53cf0	-0.096307635
161	0xbdc90e10	-0.09817135
162	0xbee5b8ba	-0.44867498
163	0xbedd0a44	-0.43171895
164	0xbda03c28	-0.07823974
165	0x3bd3e180	0.0064660907
166	0xbe6896b8	-0.22713745
167	0x3e40deb8	0.1883496
168	0xbee66a3a	-0.4500292
169	0xbd0a36c0	-0.03374362
170	0x3ee121a2	0.43970972
171	0xbe50d738	-0.203946
172	0x3ee72b36	0.45150155
173	0x3e396c38	0.18107688
174	0xbee707ae	-0.45123047
175	0x3ea1f874	0.31634867
176	0xbd6c53f0	-0.057697237
177	0xbe648f70	-0.22320342
178	0x3eccb614	0.39982665
179	0xbecedf54	-0.4040476
180	0x3d5bc2b0	0.053652465
181	0xbdd664c0	-0.10468435
182	0x3eb6d016	0.35705632
183	0x3e0eec08	0.13957226
184	0x3e7604cc	0.24025267
185	0x3e34d140	0.17657948
186	0xbdf63f00	-0.12023735
187	0xbdd75a50	-0.105152726
188	0xbed2f700	-0.4120407
189	0x3e8ab64c	0.27092206
190	0x3ecb4226	0.39698905
191	0x3eaf295c	0.34211242
192	0xbeb493ac	-0.35268915
193	0x3cb6ae60	0.022299945
194	0xbeb47690	-0.35246706
195	0xbe8cec88	-0.2752421
196	0xbe952c30	-0.29135275
197	0x3e2ef934	0.17087251
198	0xbe988dc4	-0.2979566
199	0xbc32ba00	-0.010908604
200	0x3cac4fa0	0.021034062
201	0x3ea50604	0.32231152
202	0xbec183fa	-0.37796003
203	0xbeafbf44	-0.34325612
204	0xbe94a63c	-0.29033077
205	0x3eb32ed6	0.3499667
206	0xbe380bcc	-0.1797325
207	0x3ed7eee0	0.42174435
208	0x3e3924a0	0.18080378
209	0x3d81aa40	0.06331301
210	0xbb73ed00	-0.003722012
211	0xbdca6d08	-0.09884077
212	0x3d807a40	0.06273317
213	0xbde9d330	-0.11417234
214	0xbb663e00	-0.003513217
215	0x3d82a7c0	0.06379652
216	0xbec83e98	-0.39110255
217	0xbe862d7a	-0.2620657
218	0x3eceb7d8	0.40374637
219	0xbecfc186	-0.40577334
220	0xbd130f20	-0.035903096
221	0x3efd3ec0	0.49461937
222	0x3e38f410	0.18061852
223	0x3c67f0c0	0.01415652
224	0xbeddda26	-0.43330497
225	0x3e7da22c	0.24768895
226	0xbeb65808	-0.35614038
227	0xbe1156a8	-0.14193213
228	0xbe2bc8cc	-0.16775817
229	0xbd97a438	-0.07404369
230	0x3bb33680	0.0054691434
231	0x3ed32696	0.41240376
232	0x3d7fab80	0.062419415
233	0x3ee54c20	0.4478464
234	0x3e9c9930	0.30585623
235	0xbea1d8c6	-0.31610698
236	0x3e65a254	0.22425205
237	0xbeb4f724	-0.35344803
238	0xbe58ff9c	-0.21191257
239	0x3e169740	0.14706135
240	0x3e29039e	0.16505286
241	0x3ec00de6	0.37510604
242	0xbe26067e	-0.16213414
243	0xbc0d007c	-0.0086060725
244	0x3e83cb7a	0.25741178
245	0xbef7935a	-0.48354608
246	0x3eb91542	0.3614903
247	0xbed3b130	-0.4134612
248	0x3be1d000	0.0068912506
249	0xbdae18e0	-0.08500838
250	0xbe86d40a	-0.26333648
251	0x3d8757d8	0.06608552
252	0x3ed3b0f2	0.41345936
253	0xbe15aae8	-0.14615977
254	0xbe97fc56	-0.29684705
255	0xbe3d5b84	-0.18491942

bias f4 [256]
0	0xbd0f7ec0	-0.035032988
1	0xbef1caaa	-0.47224933
2	0xbe939b14	-0.28829253
3	0x3e4b886b	0.19876258
4	0xbe2da870	-0.16958785
5	0x3eb0b2da	0.34511453
6	0x3eca60d2	0.39526993
7	0x3d94f610	0.07273495
8	0xbd21f1f0	-0.03953737
9	0xbe2285d0	-0.15871358
10	0xbccf1e20	-0.02528292
11	0x3dba63b0	0.09101045
12	0xbec38bbe	-0.38192552
13	0xbdf4bb48	-0.119497836
14	0xbed4f0e8	-0.41590047
15	0x3e9d1f0a	0.30687743
16	0xbea307b4	-0.31841815
17	0x3ee9de02	0.4567719
18	0xbe03fbd8	-0.1288904
19	0xbe92a7f4	-0.28643763
20	0x3e75fdf4	0.24022657
21	0x3d98a830	0.07453954
22	0x3eb144cc	0.346228
23	0x3e55be98	0.20873487
24	0xbef69d6a	-0.48166972
25	0x3ea1eae4	0.3162452
26	0xbdc0d558	-0.09415692
27	0xbe624a08	-0.22098553
28	0x3ea292e4	0.31752694
29	0x3ebab564	0.36466515
30	0xbee1019a	-0.43946534
31	0xbd392fe0	-0.045211673
32	0x3ed23a98	0.41060328
33	0x3e457a50	0.1928494
34	0x3ed7ac12	0.42123467
35	0xbebc9970	-0.36835814
36	0xbe8d3870	-0.2758212
37	0x3edc230a	0.42995483
38	0x3e5569d0	0.20841146
39	0x3ef5c16a	0.47999126
40	0xbe55dc54	-0.2088483
41	0xbea45e7e	-0.32103342
42	0xbd700d50	-0.058606446
43	0xbef10b62	-0.47078997
44	0x3e48b0f8	0.19598758
45	0x3ebcd298	0.3687942
46	0x3df5d178	0.120028436
47	0xbd4a5b40	-0.04940343
48	0x3e7dda54	0.24790317
49	0xbea27f10	-0.31737566
50	0x3efa6e24	0.48912156
51	0xbefe8d4e	-0.49717182
52	0xbef53be6	-0.4789726
53	0xbdf1f910	-0.11815083
54	0x3ed11cb8	0.40842223
55	0x3d4d0ec0	0.050062895
56	0x3e44a1a4	0.19202286
57	0xbebba656	-0.36650342
58	0x3e3ab818	0.18234289
59	0xbd64d9c0	-0.055871725
60	0x3e4d304f	0.2003796
61	0x3eb4cc50	0.35312128
62	0x3e5e8e68	0.21734011
63	0xbd2e3620	-0.042532086
64	0xbcfc4f60	-0.030799568
65	0xbea08ee2	-0.3135901
66	0xbe393104	-0.18085104
67	0x3ea65bca	0.32491904
68	0xbe4d4f6c	-0.20049828
69	0x3e9efc76	0.31051987
70	0xbe4b063c	-0.19826597
71	0xbdee7d08	-0.116449416
72	0x3c2e5800	0.010641098
73	0xbeeaec20	-0.45883274
74	0xbba39800	-0.004992485
75	0xbd4e6e00	-0.050397873
76	0xbd37fc20	-0.04491818
77	0xbdccb3b0	-0.0999521
78	0x3ec9d318	0.39418864
79	0x3ebcecba	0.36899358
80	0xbeb6e0d9	-0.3571842
81	0x3e6dd674	0.23226339
82	0xbec8cd4c	-0.3921913
83	0xbed9f032	-0.42566067
84	0x3e1c8258	0.15284097
85	0x3bf0c980	0.0073482394
86	0xbe6ed9ec	-0.23325318
87	0xbef6e9b8	-0.48225188
88	0xbe4636b4	-0.19356805
89	0x3e2b01fc	0.16699976
90	0xbeecf438	-0.46280074
91	0xbef8b1f6	-0.48573273
92	0x3d81eae0	0.06343627
93	0xbeb86c68	-0.36020207
94	0xbee046cc	-0.43804014
95	0xbe45443c	-0.1926431
96	0xbda4dd68	-0.080500424
97	0xbee8a0e8	-0.45435262
98	0xbeaaf034	-0.33386385
99	0x3d064870	0.032783926
100	0xbef16698	-0.47148585
101	0xbd8fed80	-0.070277214
102	0xbea54cc6	-0.32285136
103	0xbeb17800	-0.34661865
104	0x3e493b5c	0.1965155
105	0xbec50a62	-0.38484484
106	0xbec2016c	-0.3789171
107	0x3e91fdf8	0.28514075
108	0x3dbf7418	0.09348315
109	0x3ee9247a	0.45535642
110	0xbe08daf4	-0.13364774
111	0xbe774dc0	-0.24150753
112	0xbd3d8900	-0.04627323
113	0x3b25c900	0.0025296807
114	0x3ec33ca8	0.38132215
115	0xbefeff18	-0.49803996
116	0xbd11d1b0	-0.035600364
117	0x3e627bfc	0.22117609
118	0xbe8cf990	-0.2753415
119	0xbe821584	-0.2540704
120	0x3e776ee0	0.24163389
121	0xbef54ba0	-0.4790926
122	0x3df2a488	0.11847788
123	0xbec6e3c2	-0.3884564
124	0x3e7e7ee4	0.24853092
125	0xbedae3ee	-0.42752022
126	0x3e9d63d8	0.30740237
127	0xbef25684	-0.4733163
128	0xbed72f62	-0.42028338
129	0x3bf00246	0.0073244898
130	0x3ec9b99c	0.3939942
131	0xbedb3cbe	-0.4281978
132	0xbe6461f0	-0.22302985
133	0x3ee0d720	0.43914127
134	0xbdabb8e0	-0.083848715
135	0x3e541d1c	0.2071423
136	0xbef64884	-0.481022
137	0xbe2103a4	-0.15724045
138	0xbe82014a	-0.25391608
139	0x3ed7d2dc	0.4215306
140	0x3e54801c	0.20751995
141	0xbebacc06	-0.36483783
142	0x3da518b0	0.080613494
143	0xbbbc4f00	-0.005746722
144	0xbe525d88	-0.20543492
145	0xbe923214	-0.28553832
146	0xbe29e6c0	-0.1659193
147	0x3ec9c936	0.39411324
148	0xbeb783a2	-0.35842615
149	0xbeb65c22	-0.35617167
150	0xbe1df638	-0.15425956
151	0x3c0e82c0	0.008698165
152	0x3e0b5f5c	0.13610595
153	0x3c75d380	0.015004039
154	0xbdf680c8	-0.12036282
155	0xbe9b39c4	-0.3031751
156	0xbdb7bd30	-0.089716315
157	0xbe4e1b78	-0.20127666
158	0x3eced46c	0.4039644
159	0xbef9315e	-0.48670477
160	0xbea34aba	-0.3189295
161	0xbed04772	-0.40679508
162	0xbdbb2498	-0.09137839
163	0x3ec77e76	0.3896367
164	0x3ee064e0	0.43826962
165	0xbededcb6	-0.43527764
166	0xbcb17780	-0.021663427
167	0x3e96436a	0.29348308
168	0x3e61b034	0.22039872
169	0x3ed1b0ca	0.40955192
170	0xbc633b40	-0.013869107
171	0xbeac012a	-0.33594638
172	0x3ea95a10	0.33076525
173	0xbe2f9280	-0.17145729
174	0x3e848da2	0.25889307
175	0xbdfc59d8	-0.12321824
176	0x3e59a5f0	0.21254706
177	0x3ee640c8	0.449713
178	0x3eee0b02	0.46492773
179	0xbee8fa06	-0.45503253
180	0xbea956c6	-0.33074015
181	0xbe53b1ec	-0.2067334
182	0xbea34060	-0.31885052
183	0x3ef5a1cc	0.47975004
184	0xbd34e080	-0.044159412
185	0xbea9d0b0	-0.33167028
186	0xbe63d5a8	-0.22249472
187	0xbe8d67c4	-0.2761823
188	0x3e50e3fc	0.20399469
189	0xbedf4bda	-0.43612558
190	0xbeeeb1f8	-0.46620154
191	0xbefc5ad8	-0.49288058
192	0x3e5c6da8	0.21526206
193	0x3e7d2928	0.24722731
194	0xbe9eff0a	-0.31053954
195	0x3dfdee18	0.123989284
196	0x3ebcf9ac	0.36909235
197	0x3d94c9e0	0.07265067
198	0xbdd8a8d8	-0.105790794
199	0x3d174fa0	0.03694117
200	0xbd5b9a30	-0.05361384
201	0x3e80e552	0.25174958
202	0xbeadd3b0	-0.33950567
203	0x3e81d178	0.25355124
204	0x3e9049a2	0.28181177
205	0xbe9b1a9a	-0.30293733
206	0x3ed10a50	0.4082818
207	0x3efb7076	0.49109238
208	0xbe49d858	-0.19711435
209	0xbe0f6888	-0.1400472
210	0x3e7f2874	0.24917775
211	0xbec88e3e	-0.39171022
212	0x3e4a7978	0.19772899
213	0x3deee770	0.11665237
214	0x3ea15d4a	0.31516486
215	0xbeef0be7	-0.46688768
216	0xbed4ae50	-0.4153924
217	0x3e65f440	0.22456455
218	0x3e386d8c	0.18010539
219	0xbeee46b2	-0.4653831
220	0xbe8ec2c6	-0.27882975
221	0xbeea3c08	-0.45748925
222	0xbeb7677e	-0.35821146
223	0xbe6703a4	-0.22559983
224	0x3ed3d990	0.41376925
225	0xbdcbd400	-0.09952545
226	0x3e9308ae	0.2871756
227	0x3ef31e4a	0.47484046
228	0x3e6955bc	0.22786611
229	0xbee52c82	-0.4476052
230	0x3e80d334	0.25161135
231	0x3e434b64	0.19071728
232	0x3ec66ab2	0.38753277
233	0xbefc86f4	-0.4932171
234	0x3e9d71b0	0.307508
235	0x3ed18bee	0.4092707
236	0xbeee2c62	-0.46518236
237	0x3d564650	0.05231315
238	0x3eda8a52	0.42683655
239	0xbeba30de	-0.36365408
240	0x3e27ff40	0.16405964
241	0x3e623dc0	0.22093868
242	0x3e0630ac	0.13104504
243	0x3f05e588	0.5230336
244	0x3ed19b8a	0.4093898
245	0x3edba2ec	0.42897737
246	0xbd7f46d0	-0.06232339
247	0x3ed6b5de	0.4193563
248	0xbeee91d4	-0.46595633
249	0xbe8a2526	-0.26981467
250	0xbddb03a8	-0.10694057
251	0xbe1817d4	-0.1485284
252	0x3eec7742	0.46184736
253	0x3e717e1c	0.23583263
254	0x3ea4d0ee	0.3219065
255	0x3eae2234	0.3401047

weight f4 [2, 256]
0	0xbd396543	-0.045262586
1	0xbc0df39f	-0.008664041
2	0x3c2ce14f	0.010551765
3	0x3c660f07	0.014041669
4	0x3d097b1d	0.033564676
5	0xbcd76786	-0.026294481
6	0xbc8eb5b5	-0.017420629
7	0x3d505e51	0.050871197
8	0xbc7b797f	-0.015348791
9	0xbd37aa61	-0.04484022
10	0x3d336a61	0.043802623
11	0x3d2783b3	0.040897083
12	0xbcac38ee	-0.02102324
13	0xbc355e01	-0.011069776
14	0xbd370f57	-0.044692364
15	0xbd5b9f11	-0.053618494
16	0x3cb4dc7a	0.022077788
17	0xbccf0be6	-0.025274228
18	0x3d45f68d	0.048330832
19	0xbd47252d	-0.048619438
20	0xbbec61fe	-0.00721383
21	0x3b35d837	0.0027747282
22	0x3cfb76fe	0.030696388
23	0x3d5506a9	0.052008305
24	0x3d3333a3	0.043750416
25	0x3ced0e5e	0.028937515
26	0xbcdf5426	-0.027261805
27	0xbd3ca8bf	-0.046059366
28	0xbd5f2efb	-0.054488163
29	0x3adb8d07	0.0016750403
30	0x3d7273b5	0.059192378
31	0xbc2b2671	-0.010446177
32	0xbb84eb82	-0.004056395
33	0xbd345e9a	-0.04403553
34	0x3c918354	0.017762817
35	0x4057ea20	3.3736649
36	0xbd811dbe	-0.06304501
37	0xbd2e6afd	-0.0425825
38	0x3d437563	0.04771937
39	0x3c84e64a	0.016223092
40	0xbb21f6eb	-0.0024713825
41	0x3c1fb28d	0.00974716
42	0xbc0456f7	-0.008077375
43	0xbd38c5bb	-0.045110445
44	0xbd69606f	-0.056976732
45	0x3d22892f	0.03968161
46	0xbbc4e144	-0.006008299
47	0xbcc9d38e	-0.02463701
48	0xbc70f581	-0.01470697
49	0xbd05ca51	-0.032663647
50	0xbc8bf85b	-0.017086199
51	0xbd619769	-0.055076037
52	0x3d4569cf	0.04819661
53	0x3cc5652e	0.024096098
54	0xbcf68956	-0.030094784
55	0xbcba6db2	-0.022757385
56	0x3cf160b8	0.029465064
57	0xbcc945c2	-0.024569396
58	0x3c92aff2	0.017906163
59	0x3c814ca4	0.015783615
60	0xbd1b493f	-0.03791165
61	0x3c8beed2	0.017081652
62	0x3b1d348b	0.0023987617
63	0x3d656c73	0.05601163
64	0xbcad9362	-0.021188442
65	0xbc8f4b92	-0.01749209
66	0x3d56bb7f	0.052424904
67	0xbd4b367d	-0.04961251
68	0x3bc2aaba	0.0059407623
69	0x3d70d1b9	0.058793757
70	0xbcf13d64	-0.029448219
71	0x3d6f95d5	0.0584925
72	0x3d5d5265	0.054033656
73	0x3d74011b	0.059571367
74	0xbb94b964	-0.004538702
75	0x3d61bfaf	0.055114444
76	0xbceac3b2	-0.028657768
77	0xbca3958a	-0.019968767
78	0x3cb5fa9e	0.02221423
79	0x3c40f759	0.011777722
80	0x401f2782	2.4867864
81	0x3d6d71c3	0.05796982
82	0xbd1a6a75	-0.03769918
83	0x3d020727	0.031745102
84	0x3c9f9ef6	0.019484978
85	0x3d013822	0.031547673
86	0x3ce719a2	0.028210465
87	0xbccb332e	-0.024804678
88	0xbd502b23	-0.05082239
89	0x3d470fa7	0.04859891
90	0xbd17d153	-0.03706486
91	0x3d29814f	0.041383084
92	0xbd79b6dc	-0.060965404
93	0xbc19cdad	-0.009387416
94	0xba47f7d5	-0.00076281774
95	0x3c19d33d	0.009388742
96	0x3b6daecf	0.0036267524
97	0x3cad02b2	0.02111945
98	0xbc095e27	-0.008384264
99	0x3c636e61	0.013881297
100	0x3d777f09	0.060423885
101	0xbd2b7b91	-0.04186589
102	0xbb023928	-0.0019870494
103	0xbcb7c41e	-0.022432383
104	0x3d5ac8dd	0.053414214
105	0x3d554f11	0.052077357
106	0xb9925175	-0.0002790798
107	0xbcbd26ea	-0.023089845
108	0xbd18561d	-0.0371915
109	0x3d3d03f7	0.04614636
110	0xbbbbbc1c	-0.0057292115
111	0x3d6b4411	0.05743796
112	0x3d0c2653	0.034216236
113	0x3d5a3d99	0.0532814
114	0x3d505055	0.05085786
115	0xbd2085b3	-0.039190006
116	0x3ca18a26	0.019719195
117	0xbcdffb42	-0.027341489
118	0x3d064943	0.03278471
119	0xbbe6d630	-0.007044576
120	0x3b8297bc	0.0039853733
121	0xbd36e3a3	-0.044650685
122	0xbd6aa191	-0.057282988
123	0x3ccb32d7	0.024804516
124	0x3c569c99	0.013098859
125	0x3b83314e	0.0040036803
126	0x3d280955	0.041024525
127	0xbce17966	-0.027523708
128	0x3caa12f6	0.020760994
129	0xbd072886	-0.03299763
130	0x3c6b8649	0.014375278
131	0xbc526d41	-0.012843431
132	0x3d2d723f	0.04234528
133	0x3d65b473	0.056080293
134	0x3d588135	0.052857596
135	0x3b8ad472	0.0042367512
136	0x3d1cddfd	0.038297642
137	0xbd79f12b	-0.06102101
138	0xbd1054ad	-0.035237003
139	0x3c1fa95d	0.009744969
140	0xba8d1fb5	-0.0010766896
141	0xbd43242d	-0.04764192
142	0xbcee4ae6	-0.029088449
143	0xbcface66	-0.030615997
144	0xbd81bc8b	-0.0633479
145	0x3b949df4	0.004535431
146	0x3d28ad23	0.04118074
147	0x3cdb7a6a	0.02679177
148	0xbcfef151	-0.031120928
149	0xbd70e9cb	-0.058816712
150	0xbd545f4d	-0.0518487
151	0x3b2961d1	0.0025845657
152	0x3d35f173	0.044419717
153	0xbcdb05a6	-0.026736092
154	0xbd112373	-0.035434198
155	0xbd02ba0b	-0.031915706
156	0xbb82971c	-0.003985299
157	0xbd78f2ec	-0.060778543
158	0xbd5c1185	-0.053727645
159	0x3d762aa9	0.060099278
160	0xbcffdb0d	-0.031232381
161	0xbc500b17	-0.0126979565
162	0xbc7a9f7f	-0.015296816
163	0xbd5b0f6b	-0.0534815
164	0xbc4be007	-0.012443549
165	0x3ca8686a	0.020557601
166	0xbcdb93de	-0.026803907
167	0xbaa254cd	-0.0012384892
168	0xbae1ff25	-0.0017242177
169	0xbd79030b	-0.060793918
170	0x3d3fe073	0.04684491
171	0x3d54a08f	0.051910933
172	0x3d34612b	0.04403798
173	0xbc9c76be	-0.01909959
174	0x3cffe052	0.031234894
175	0xbd75b083	-0.059982788
176	0xbc8a568e	-0.016886976
177	0xbc38ea21	-0.011286289
178	0xbca922f2	-0.020646546
179	0x3ccb5d2a	0.024824698
180	0xbcdd9ee6	-0.027053308
181	0xbbbeab38	-0.0058187507
182	0xbc9f8492	-0.019472394
183	0xbd763e21	-0.060117844
184	0xbc11c0bf	-0.008896052
185	0xbd531dd7	-0.05154213
186	0x3d1b1cad	0.037869144
187	0x3d0ea8ed	0.03482907
188	0x3d69fb3d	0.057124365
189	0xbca04142	-0.019562367
190	0x3ae5c547	0.0017530107
191	0x3c313db9	0.0108179385
192	0x3d82b0e0	0.063813925
193	0x3d707d8b	0.058713477
194	0xbcfd4dda	-0.030920912
195	0xbd5fab1f	-0.054606553
196	0xbd60e477	-0.05490538
197	0xbd011ddd	-0.03152262
198	0x3d5d1427	0.053974297
199	0x3cb7a192	0.02241591
200	0x3d7cd70f	0.061728533
201	0x3d439703	0.047751438
202	0x3b18c977	0.0023313442
203	0xbd247ff7	-0.0401611
204	0x3d742595	0.059606154
205	0x3d533175	0.051560838
206	0x3ce957ca	0.028484244
207	0xbd060169	-0.03271619
208	0x3d43d58b	0.047811072
209	0x3b8bb2c2	0.004263253
210	0x3d237043	0.039901983
211	0x3cca0402	0.024660114
212	0x3d02199e	0.03176271
213	0xbd5acbe7	-0.053417113
214	0xbd081c06	-0.03322985
215	0x400b1e04	2.173707
216	0xbc3dfc29	-0.011595764
217	0xbd58e0a1	-0.052948598
218	0x3d62f807	0.05541232
219	0x389a7551	7.365144e-05
220	0x3d48ac79	0.048992608
221	0xbd4241ad	-0.047425915
222	0x3ca49a32	0.020093057
223	0xbccc87ce	-0.0249671
224	0xbce32232	-0.027726267
225	0xbc6ced6b	-0.014460902
226	0xbcb1d6ae	-0.021708813
227	0x3d06709b	0.032822233
228	0xbc59e915	-0.0133002
229	0x3d3c4431	0.04596347
230	0x3c524f01	0.012836219
231	0xbc06df55	-0.008231957
232	0xbd0e0731	-0.034674827
233	0xbd703fe9	-0.0586547
234	0xbc89afaa	-0.016807396
235	0xbd72e6c5	-0.05930211
236	0xbc265dbb	-0.010154183
237	0x3b2059d1	0.0024467597
238	0xbbb2aee4	-0.0054529775
239	0xbd0396c1	-0.032126192
240	0x3d378485	0.044804115
241	0x3d1602eb	0.036623877
242	0xbc89d23a	-0.016823877
243	0xbf3db84b	-0.74109334
244	0x3d1b1b79	0.037867997
245	0x3d649047	0.055801656
246	0xbd6490ed	-0.055802274
247	0xbc7498d5	-0.014929016
248	0xbbecc2ae	-0.007225356
249	0xbcadb2f6	-0.0212035
250	0x3d60630b	0.054781955
251	0xbbffcf8e	-0.007806725
252	0x3d53363d	0.051565398
253	0xba924ff5	-0.0011162745
254	0xbc066cef	-0.008204683
255	0xbd1b299f	-0.03788149

bias f4 [2]
0	0x3d45de4e	0.04830771
1	0x3c7571e9	0.014980772
