NODE/submission_models/drifter_43_tanh_1day.pth (torch, 81679 bytes, 4 tensors)

weight f4 [256, 4]
000000 00 54 75 bb 5e 54 89 3e 16 b3 d2 be 80 66 bc be
       -0.00374341 0.2682218 -0.41152257 -0.3679695
000010 f4 32 45 be ec 4b 09 3e 40 4f 22 bc ce fa ca 3e
       -0.19257718 0.13407868 -0.00990659 0.39644474
000020 70 bf 35 bd 4c 7b 07 3e ac bb 1a be 70 48 c9 bd
       -0.044372022 0.13230628 -0.15110654 -0.098282695
000030 39 a2 f9 be a8 21 b0 be 75 cf 55 be 1d fa 8e 3c
       -0.4875658 -0.34400678 -0.2087992 0.017453248
000040 60 69 4a 3e 18 9b 99 3e 8c 8d ad be fc f4 5e be
       0.1976676 0.3000114 -0.33897054 -0.21773142
000050 98 f7 39 3e 4e 94 d4 3e 48 bd d2 bd 5c 91 bf 3e
       0.18160856 0.41519397 -0.10290009 0.37415588
000060 40 0d a5 bd 10 b5 58 3d 4a cd e7 3e ce 7b ed be
       -0.08059168 0.05290705 0.4527381 -0.46383518
000070 66 29 a1 be e0 9e 01 be dc 93 47 be 28 2f dd 3e
       -0.31476897 -0.12658262 -0.19489998 0.4320004
000080 1a ef a5 be c0 b0 6b be 1a da b2 be 76 c2 ef be
       -0.32408983 -0.23016644 -0.34932023 -0.4682805
000090 04 70 95 be 9e 0e dc 3e bc 76 64 3e 00 27 78 3e
       -0.29187024 0.42979902 0.22310919 0.24233627
0000a0 40 6a d7 3c 3a 3f 83 be c0 3e ad 3d 9e 06 ef be
       0.026295781 -0.25634176 0.08459234 -0.46684736
0000b0 1a fa b8 be c6 f9 83 be 26 85 a1 3e 26 19 96 3e
       -0.36128312 -0.257765 0.31546897 0.29316062
0000c0 c8 11 63 be 20 cb 93 bc 40 ba a3 3e 82 7f fe 3e
       -0.22174752 -0.018041193 0.31978035 0.49706656
0000d0 24 34 4b 3e c8 55 8a 3d fe a4 ab 3e c0 bb 96 be
       0.19844109 0.06754643 0.33524317 -0.29440117
0000e0 f8 d0 be 3d 6c 7a c6 be 18 6e b1 be d2 3e 84 be
       0.093172014 -0.38765275 -0.34654307 -0.25829178
0000f0 8c aa 67 3e f8 e7 4d 3e 6a a4 97 be c8 ad 1a 3e
       0.22623652 0.2010802 -0.29617625 0.15105355
000100 6e 89 8c 3e 20 3f 81 bd 40 64 9c 3c 00 44 ed 3d
       0.274486 -0.06310868 0.019090772 0.115852356
000110 00 d1 9e 3e 48 cf f5 3e 96 47 c5 be ec a1 3b be
       0.3101883 0.48009706 -0.38531178 -0.18323487
000120 98 38 49 3e d0 1b d4 3e e8 c5 de 3e 22 e2 e1 3e
       0.19650495 0.4142747 0.43510365 0.44117838
000130 78 ca cb 3d f8 9c de be 90 66 3c 3d ac 27 a0 be
       0.09950727 -0.43479133 0.04599625 -0.31280267
000140 8c 94 ee be 3e 74 e3 3e f0 a6 c2 3e fe 5d ff be
       -0.46597707 0.44424623 0.38017988 -0.49876398
000150 08 aa bf 3d c8 80 ac bd b8 82 a8 bd 1c 5f 6a be
       0.09358603 -0.084230006 -0.082280576 -0.22887844
000160 8c e4 44 3e 34 a1 97 be dc b1 3b 3e 16 76 81 3e
       0.19227809 -0.29615176 0.18329567 0.25285405
000170 5c 43 b7 3e 48 71 3f 3e 4a 5f fd be 00 11 a6 be
       0.3579358 0.18695557 -0.49486762 -0.32434845
000180 38 a6 7f 3e 18 53 d6 3d 96 b3 c7 be e8 68 93 be
       0.24965751 0.104650676 -0.390042 -0.28790975
000190 f2 d4 f0 3e 54 7f ac 3e b0 3e 5f be d4 dc 00 be
       0.47037464 0.33690894 -0.21801257 -0.12584239
0001a0 78 dd f3 be 80 3e 13 bc 78 c8 c0 be a2 77 c5 be
       -0.47629905 -0.008987069 -0.37652946 -0.38567835
0001b0 20 b0 e1 bc a0 bf 99 3d f4 ad 51 be 98 e7 97 3e
       -0.027549803 0.07507253 -0.20476514 0.2966888
0001c0 38 c9 9b be 68 49 e8 3e d0 6f af 3e 64 e1 d7 be
       -0.30426955 0.45368505 0.34264994 -0.42164147
0001d0 88 db fe bd 80 d2 b8 3c 18 67 95 3d d0 dd f2 3d
       -0.12444216 0.022561312 0.07295054 0.118587136
0001e0 5c ec 48 3e e0 59 f5 3c cc d1 79 be d4 45 72 3e
       0.19621414 0.029950082 -0.24396437 0.2365945
0001f0 56 91 f5 be a0 bb 97 be 3c 2b 00 be ec 66 79 be
       -0.47962445 -0.29635334 -0.12516493 -0.24355668
000200 5c 1d 33 be ba d2 d1 be 00 d2 d9 bd f8 e2 da 3d
       -0.17491668 -0.40981084 -0.106357574 0.10687822
000210 2d 77 11 c0 b5 4c c6 3f 82 a1 97 3f d3 05 de bd
       -2.272899 1.5492159 1.1846163 -0.10840955
000220 80 ac 63 3c c0 ad 30 bd 10 3d cf 3d 60 c6 a2 3e
       0.013896108 -0.04313445 0.101190686 0.31791973
000230 b8 2b f5 3e 2b 6b a6 3e e7 90 e8 3e 46 8f 68 bd
       0.47884917 0.32503638 0.45423052 -0.05677726
000240 66 f8 e5 be 40 ba 72 be 85 4b ae 3e 3e 88 6d bb
       -0.44916075 -0.23703861 0.34041992 -0.0036244537
000250 dc 7c 7e be 02 2d c4 be 00 94 ef be ec 10 d8 be
       -0.24852318 -0.38315588 -0.46792603 -0.4220041
000260 70 b4 cf bd 56 64 8c 3e 74 67 8a 3e 02 e5 f6 be
       -0.101418376 0.274203 0.27032053 -0.48221594
000270 2e b0 9f 3e 8a 52 c8 be f0 7b d8 bd 1c 9a 4f be
       0.31189102 -0.39125472 -0.10570514 -0.20273632
000280 f0 3c c5 bd 10 0e c9 bd ba b8 e5 be 44 0a dd be
       -0.096307635 -0.09817135 -0.44867498 -0.43171895
000290 28 3c a0 bd 80 e1 d3 3b b8 96 68 be b8 de 40 3e
       -0.07823974 0.0064660907 -0.22713745 0.1883496
0002a0 3a 6a e6 be c0 36 0a bd a2 21 e1 3e 38 d7 50 be
       -0.4500292 -0.03374362 0.43970972 -0.203946
0002b0 36 2b e7 3e 38 6c 39 3e ae 07 e7 be 74 f8 a1 3e
       0.45150155 0.18107688 -0.45123047 0.31634867
0002c0 f0 53 6c bd 70 8f 64 be 14 b6 cc 3e 54 df ce be
       -0.057697237 -0.22320342 0.39982665 -0.4040476
0002d0 b0 c2 5b 3d c0 64 d6 bd 16 d0 b6 3e 08 ec 0e 3e
       0.053652465 -0.10468435 0.35705632 0.13957226
0002e0 cc 04 76 3e 40 d1 34 3e 00 3f f6 bd 50 5a d7 bd
       0.24025267 0.17657948 -0.12023735 -0.105152726
0002f0 00 f7 d2 be 4c b6 8a 3e 26 42 cb 3e 5c 29 af 3e
       -0.4120407 0.27092206 0.39698905 0.34211242
000300 ac 93 b4 be 60 ae b6 3c 90 76 b4 be 88 ec 8c be
       -0.35268915 0.022299945 -0.35246706 -0.2752421
000310 30 2c 95 be 34 f9 2e 3e c4 8d 98 be 00 ba 32 bc
       -0.29135275 0.17087251 -0.2979566 -0.010908604
000320 a0 4f ac 3c 04 06 a5 3e fa 83 c1 be 44 bf af be
       0.021034062 0.32231152 -0.37796003 -0.34325612
000330 3c a6 94 be d6 2e b3 3e cc 0b 38 be e0 ee d7 3e
       -0.29033077 0.3499667 -0.1797325 0.42174435
000340 a0 24 39 3e 40 aa 81 3d 00 ed 73 bb 08 6d ca bd
       0.18080378 0.06331301 -0.003722012 -0.09884077
000350 40 7a 80 3d 30 d3 e9 bd 00 3e 66 bb c0 a7 82 3d
       0.06273317 -0.11417234 -0.003513217 0.06379652
000360 98 3e c8 be 7a 2d 86 be d8 b7 ce 3e 86 c1 cf be
       -0.39110255 -0.2620657 0.40374637 -0.40577334
000370 20 0f 13 bd c0 3e fd 3e 10 f4 38 3e c0 f0 67 3c
       -0.035903096 0.49461937 0.18061852 0.01415652
000380 26 da dd be 2c a2 7d 3e 08 58 b6 be a8 56 11 be
       -0.43330497 0.24768895 -0.35614038 -0.14193213
000390 cc c8 2b be 38 a4 97 bd 80 36 b3 3b 96 26 d3 3e
       -0.16775817 -0.07404369 0.0054691434 0.41240376
0003a0 80 ab 7f 3d 20 4c e5 3e 30 99 9c 3e c6 d8 a1 be
       0.062419415 0.4478464 0.30585623 -0.31610698
0003b0 54 a2 65 3e 24 f7 b4 be 9c ff 58 be 40 97 16 3e
       0.22425205 -0.35344803 -0.21191257 0.14706135
0003c0 aa 55 8f bf 39 d7 05 3f 69 5d 04 bf 64 4a 34 3d
       -1.1198018 0.5228153 -0.5170503 0.044016257
0003d0 7a cb 83 3e 5a 93 f7 be 42 15 b9 3e 30 b1 d3 be
       0.25741178 -0.48354608 0.3614903 -0.4134612
0003e0 00 d0 e1 3b e0 18 ae bd 0a d4 86 be d8 57 87 3d
       0.0068912506 -0.08500838 -0.26333648 0.06608552
0003f0 f2 b0 d3 3e e8 aa 15 be 56 fc 97 be 84 5b 3d be
       0.41345936 -0.14615977 -0.29684705 -0.18491942

bias f4 [256]
000000 c0 7e 0f bd aa ca f1 be 14 9b 93 be e2 ce 45 3e
       -0.035032988 -0.47224933 -0.28829253 0.19317201
000010 70 a8 2d be da b2 b0 3e d2 60 ca 3e 10 f6 94 3d
       -0.16958785 0.34511453 0.39526993 0.07273495
000020 f0 f1 21 bd d0 85 22 be 20 1e cf bc b0 63 ba 3d
       -0.03953737 -0.15871358 -0.02528292 0.09101045
000030 be 8b c3 be 48 bb f4 bd e8 f0 d4 be 0a 1f 9d 3e
       -0.38192552 -0.119497836 -0.41590047 0.30687743
000040 b4 07 a3 be 02 de e9 3e d8 fb 03 be f4 a7 92 be
       -0.31841815 0.4567719 -0.1288904 -0.28643763
000050 f4 fd 75 3e 30 a8 98 3d cc 44 b1 3e 98 be 55 3e
       0.24022657 0.07453954 0.346228 0.20873487
000060 6a 9d f6 be e4 ea a1 3e 58 d5 c0 bd 08 4a 62 be
       -0.48166972 0.3162452 -0.09415692 -0.22098553
000070 e4 92 a2 3e 64 b5 ba 3e 9a 01 e1 be e0 2f 39 bd
       0.31752694 0.36466515 -0.43946534 -0.045211673
000080 98 3a d2 3e 84 76 0f 3e 12 ac d7 3e 60 ad 40 be
       0.41060328 0.14010054 0.42123467 -0.18816137
000090 70 38 8d be 0a 23 dc 3e d0 69 55 3e 6a c1 f5 3e
       -0.2758212 0.42995483 0.20841146 0.47999126
0000a0 54 dc 55 be 7e 5e a4 be 50 0d 70 bd 62 0b f1 be
       -0.2088483 -0.32103342 -0.058606446 -0.47078997
0000b0 f8 b0 48 3e 98 d2 bc 3e 78 d1 f5 3d 40 5b 4a bd
       0.19598758 0.3687942 0.120028436 -0.04940343
0000c0 54 da 7d 3e 10 7f a2 be 24 6e fa 3e 4e 8d fe be
       0.24790317 -0.31737566 0.48912156 -0.49717182
0000d0 e6 3b f5 be 10 f9 f1 bd b8 1c d1 3e c0 0e 4d 3d
       -0.4789726 -0.11815083 0.40842223 0.050062895
0000e0 a4 a1 44 3e 56 a6 bb be 18 b8 3a 3e c0 d9 64 bd
       0.19202286 -0.36650342 0.18234289 -0.055871725
0000f0 35 84 51 3e 50 cc b4 3e 68 8e 5e 3e 20 36 2e bd
       0.20460589 0.35312128 0.21734011 -0.042532086
000100 60 4f fc bc e2 8e a0 be 04 31 39 be ca 5b a6 3e
       -0.030799568 -0.3135901 -0.18085104 0.32491904
000110 6c 4f 4d be 76 fc 9e 3e 3c 06 4b be 08 7d ee bd
       -0.20049828 0.31051987 -0.19826597 -0.116449416
000120 00 58 2e 3c 20 ec ea be 00 98 a3 bb 00 6e 4e bd
       0.010641098 -0.45883274 -0.004992485 -0.050397873
000130 20 fc 37 bd b0 b3 cc bd 18 d3 c9 3e ba ec bc 3e
       -0.04491818 -0.0999521 0.39418864 0.36899358
000140 5e 86 b4 be 74 d6 6d 3e 4c cd c8 be 32 f0 d9 be
       -0.35258764 0.23226339 -0.3921913 -0.42566067
000150 58 82 1c 3e 80 c9 f0 3b ec d9 6e be b8 e9 f6 be
       0.15284097 0.0073482394 -0.23325318 -0.48225188
000160 b4 36 46 be fc 01 2b 3e 38 f4 ec be f6 b1 f8 be
       -0.19356805 0.16699976 -0.46280074 -0.48573273
000170 e0 ea 81 3d 68 6c b8 be cc 46 e0 be 3c 44 45 be
       0.06343627 -0.36020207 -0.43804014 -0.1926431
000180 68 dd a4 bd e8 a0 e8 be 34 f0 aa be 70 48 06 3d
       -0.080500424 -0.45435262 -0.33386385 0.032783926
000190 98 66 f1 be 80 ed 8f bd c6 4c a5 be 00 78 b1 be
       -0.47148585 -0.070277214 -0.32285136 -0.34661865
0001a0 5c 3b 49 3e 62 0a c5 be 6c 01 c2 be f8 fd 91 3e
       0.1965155 -0.38484484 -0.3789171 0.28514075
0001b0 18 74 bf 3d 7a 24 e9 3e f4 da 08 be c0 4d 77 be
       0.09348315 0.45535642 -0.13364774 -0.24150753
0001c0 00 89 3d bd 00 c9 25 3b a8 3c c3 3e 18 ff fe be
       -0.04627323 0.0025296807 0.38132215 -0.49803996
0001d0 b0 d1 11 bd fc 7b 62 3e 90 f9 8c be 84 15 82 be
       -0.035600364 0.22117609 -0.2753415 -0.2540704
0001e0 e0 6e 77 3e a0 4b f5 be 88 a4 f2 3d 8c 32 c6 be
       0.24163389 -0.4790926 0.11847788 -0.3871044
0001f0 e4 7e 7e 3e ee e3 da be d8 63 9d 3e 84 56 f2 be
       0.24853092 -0.42752022 0.30740237 -0.4733163
000200 62 2f d7 be c4 9f f1 3b 9c b9 c9 3e be 3c db be
       -0.42028338 0.007373782 0.3939942 -0.4281978
000210 f0 61 64 be 20 d7 e0 3e e0 b8 ab bd 1c 1d 54 3e
       -0.22302985 0.43914127 -0.083848715 0.2071423
000220 ab 69 ef be a4 03 21 be 4a 01 82 be dc d2 d7 3e
       -0.46760306 -0.15724045 -0.25391608 0.4215306
000230 1c 80 54 3e 06 cc ba be b0 18 a5 3d 00 4f bc bb
       0.20751995 -0.36483783 0.080613494 -0.005746722
000240 88 5d 52 be 14 32 92 be c0 e6 29 be 36 c9 c9 3e
       -0.20543492 -0.28553832 -0.1659193 0.39411324
000250 a2 83 b7 be 22 5c b6 be 38 f6 1d be c0 82 0e 3c
       -0.35842615 -0.35617167 -0.15425956 0.008698165
000260 5c 5f 0b 3e 80 d3 75 3c c8 80 f6 bd c4 39 9b be
       0.13610595 0.015004039 -0.12036282 -0.3031751
000270 30 bd b7 bd 78 1b 4e be 6c d4 ce 3e 5e 31 f9 be
       -0.089716315 -0.20127666 0.4039644 -0.48670477
000280 ba 4a a3 be 72 47 d0 be 98 24 bb bd 76 7e c7 3e
       -0.3189295 -0.40679508 -0.09137839 0.3896367
000290 e0 64 e0 3e b6 dc de be 80 77 b1 bc 6a 43 96 3e
       0.43826962 -0.43527764 -0.021663427 0.29348308
0002a0 34 b0 61 3e ca b0 d1 3e 40 3b 63 bc 2a 01 ac be
       0.22039872 0.40955192 -0.013869107 -0.33594638
0002b0 10 5a a9 3e 80 92 2f be a2 8d 84 3e d8 59 fc bd
       0.33076525 -0.17145729 0.25889307 -0.12321824
0002c0 f0 a5 59 3e c8 40 e6 3e 02 0b ee 3e 06 fa e8 be
       0.21254706 0.449713 0.46492773 -0.45503253
0002d0 c6 56 a9 be ec b1 53 be 60 40 a3 be cc a1 f5 3e
       -0.33074015 -0.2067334 -0.31885052 0.47975004
0002e0 80 e0 34 bd b0 d0 a9 be a8 d5 63 be c4 67 8d be
       -0.044159412 -0.33167028 -0.22249472 -0.2761823
0002f0 fc e3 50 3e da 4b df be f8 b1 ee be d8 5a fc be
       0.20399469 -0.43612558 -0.46620154 -0.49288058
000300 a8 6d 5c 3e 28 29 7d 3e 0a ff 9e be 18 ee fd 3d
       0.21526206 0.24722731 -0.31053954 0.123989284
000310 ac f9 bc 3e e0 c9 94 3d d8 a8 d8 bd a0 4f 17 3d
       0.36909235 0.07265067 -0.105790794 0.03694117
000320 30 9a 5b bd 52 e5 80 3e b0 d3 ad be 78 d1 81 3e
       -0.05361384 0.25174958 -0.33950567 0.25355124
000330 a2 49 90 3e 9a 1a 9b be 50 0a d1 3e 76 70 fb 3e
       0.28181177 -0.30293733 0.4082818 0.49109238
000340 58 d8 49 be 88 68 0f be 74 28 7f 3e 3e 8e c8 be
       -0.19711435 -0.1400472 0.24917775 -0.39171022
000350 78 79 4a 3e 70 e7 ee 3d 4a 5d a1 3e 04 5d de be
       0.19772899 0.11665237 0.31516486 -0.4343034
000360 50 ae d4 be 40 f4 65 3e 8c 6d 38 3e b2 46 ee be
       -0.4153924 0.22456455 0.18010539 -0.4653831
000370 c6 c2 8e be 08 3c ea be 7e 67 b7 be a4 03 67 be
       -0.27882975 -0.45748925 -0.35821146 -0.22559983
000380 90 d9 d3 3e 00 d4 cb bd ae 08 93 3e 4a 1e f3 3e
       0.41376925 -0.09952545 0.2871756 0.47484046
000390 bc 55 69 3e 82 2c e5 be 34 d3 80 3e 64 4b 43 3e
       0.22786611 -0.4476052 0.25161135 0.19071728
0003a0 b2 6a c6 3e f4 86 fc be b0 71 9d 3e ee 8b d1 3e
       0.38753277 -0.4932171 0.307508 0.4092707
0003b0 62 2c ee be 50 46 56 3d 52 8a da 3e de 30 ba be
       -0.46518236 0.05231315 0.42683655 -0.36365408
0003c0 40 ff 27 3e c0 3d 62 3e ac 30 06 3e 1a 8a fe 3e
       0.16405964 0.22093868 0.13104504 0.49714738
0003d0 8a 9b d1 3e ec a2 db 3e d0 46 7f bd de b5 d6 3e
       0.4093898 0.42897737 -0.06232339 0.4193563
0003e0 d4 91 ee be 26 25 8a be a8 03 db bd d4 17 18 be
       -0.46595633 -0.26981467 -0.10694057 -0.1485284
0003f0 42 77 ec 3e 1c 7e 71 3e ee d0 a4 3e 34 22 ae 3e
       0.46184736 0.23583263 0.3219065 0.3401047

weight f4 [2, 256]
000000 c8 09 fd bc 64 ba bc bc 3a 31 cc 3c ae 1d 1c 3c
       -0.030888453 -0.023038097 0.024925817 0.009528561
000010 86 5b 44 3d fc 93 26 bd fe a9 47 bb e8 7d 15 3d
       0.047938846 -0.040668473 -0.0030466313 0.036497027
000020 36 86 7f ba ca 8a 72 bd ca 4a 6e 3d a0 46 d9 3c
       -0.0009747477 -0.05921439 0.058176793 0.026522934
000030 ae fc 10 bd 42 8c 58 3b fa 5d f8 bc b6 3f 8b bd
       -0.035397224 0.0033042585 -0.030318249 -0.06799261
000040 69 70 fc 3b 0c 97 32 bc 24 16 0b 3d c4 44 0c bd
       0.00770383 -0.01090027 0.03395666 -0.034245268
000050 2b a0 ea 3b 8c 7b 8c 3c 96 b6 85 3c 86 f3 87 3d
       0.007160207 0.017148755 0.016322415 0.06638245
000060 0c 14 6e 3d 76 67 31 3d 7c 27 53 bc 28 89 77 bd
       0.058124587 0.04331156 -0.012887832 -0.060433537
000070 92 4e 24 bd 5e 0f 50 bc 4c 93 37 3d 4a b5 80 3b
       -0.040113993 -0.012698976 0.044818208 0.0039278613
000080 6a fb 96 bc 14 67 d7 bf 28 17 5e 3b 78 bb e2 3c
       -0.01843043 -1.6828332 0.0033888314 0.027677283
000090 bc 8d 9e bd 36 15 e7 bc cc 55 7e 3d b2 a6 fa 3c
       -0.077418774 -0.028208356 0.06209354 0.030597065
0000a0 46 03 43 3c 09 9d 97 bb 23 54 ce 3b 24 a6 73 bd
       0.011902636 -0.0046268743 0.006296651 -0.059484616
0000b0 06 80 2e bd 98 51 cf 3c 7c 10 09 3c 00 ca 1f bd
       -0.04260256 0.025307462 0.008365747 -0.039011
0000c0 85 8d ae b9 32 d4 95 bc 02 bf 31 bb e2 3b 8e bd
       -0.00033293306 -0.01828966 -0.0027121906 -0.069450155
0000d0 22 25 80 3d 9a 49 1f 3c ee c8 80 bc 14 17 18 bd
       0.062570825 0.009722138 -0.01572081 -0.037131384
0000e0 ae 90 33 3d 1a 83 1f bd 3a 38 04 3d 6b c1 b8 3a
       0.04383915 -0.038943388 0.032280184 0.0014095729
0000f0 de 34 1b bf a5 d7 00 3d de 33 44 bc 68 26 90 3d
       -0.60627544 0.031455655 -0.011975257 0.070385754
000100 07 4c df bb 0a 86 02 bd 16 db 1b 3d 14 56 10 bd
       -0.006814483 -0.03186611 0.038050734 -0.03523834
000110 42 6b a6 3c 50 f1 35 3d 04 7f 33 bd 6c b5 34 3d
       0.020314816 0.044419587 -0.043822303 0.04411833
000120 fc 71 22 3d bc 70 97 3d 68 24 21 3c 46 df 26 3d
       0.039659485 0.07394549 0.00983534 0.040740274
000130 14 42 30 bd b9 54 b7 bb 7a 74 00 3c e2 26 2a bb
       -0.043031767 -0.0055948165 0.00784027 -0.0025963117
000140 2b 76 04 3d 5a 91 32 3d 24 14 bf bc ea 4d 8e 3c
       0.032339256 0.04359565 -0.023325033 0.017371137
000150 6d 7a a7 3b ea af 8c 3c 80 b2 62 3c d0 79 20 bd
       0.00511103 0.017173726 0.013836503 -0.03917867
000160 ba 85 85 bd 3e 2f 0c 3d bc b1 52 bd b8 61 64 3d
       -0.06519647 0.03422474 -0.051439032 0.055757254
000170 96 4b 9a bd d1 66 a3 3b 7e 00 78 bc b1 5b a3 bb
       -0.07533948 0.004986622 -0.015136836 -0.0049852957
000180 62 15 30 bc 90 61 11 3d a8 6f ba bc 75 2b 01 ba
       -0.010747286 0.035493433 -0.02275832 -0.0004927435
000190 a0 9e 3c 3d fa 5b 66 bd b8 f2 4a 3c 7a 07 04 bc
       0.046049714 -0.05624006 0.01238697 -0.008058423
0001a0 74 e8 1f 3d a8 6e 1a 3d 76 ee 66 3c b0 73 19 bd
       0.039040044 0.037703186 0.014094939 -0.037463844
0001b0 74 eb ba bc 60 e4 77 3d 9a af a4 bc a8 63 30 3d
       -0.02281735 0.06052053 -0.020103265 0.04306379
0001c0 e2 8b a2 3c 30 5d 1f 3d 50 98 85 3d a0 4a cb bc
       0.019842092 0.03890723 0.06523192 -0.024815857
0001d0 4e a5 0b 3d da dd 2a bd ac 29 41 3d 28 76 af bc
       0.034093194 -0.04171548 0.047158882 -0.021418646
0001e0 3e 35 2a bc 0c c4 71 bd f6 c0 92 bd 00 1d 21 3d
       -0.0103886705 -0.059024855 -0.07165711 0.039334297
0001f0 03 24 a7 ba 76 e8 29 bc e2 51 da 3c ec 9c 2b bd
       -0.0012751821 -0.010370364 0.026650373 -0.0418977
000200 5b 4a d1 3b ac 92 98 bc 9a 83 eb 3c bd 9e c8 3a
       0.0063870377 -0.018624626 0.028749276 0.0015306097
000210 ba 23 e5 3c 68 4a 90 3d cc a0 1d 3d a6 75 98 3c
       0.027971137 0.07045442 0.038483426 0.018610787
000220 12 d5 c4 3f c2 10 3f bd 94 e8 aa bc 67 af 97 bb
       1.5377524 -0.04664684 -0.020862855 -0.004629064
000230 f6 24 7d bc c4 43 08 bd c4 05 32 bd a2 47 38 bd
       -0.015450707 -0.03326775 -0.04346253 -0.04499019
000240 a8 2c 9f bd 20 32 21 bc 7e 99 db 3c 6e 9d 28 3d
       -0.077721894 -0.009838611 0.02680659 0.04116576
000250 16 59 3a bd 14 e5 95 bd ce 9f 87 bd be ec 8a 3c
       -0.045495115 -0.07319084 -0.06622277 0.01695859
000260 dc d1 70 3d 0c 63 28 bd dc 03 4c bd b6 b3 8f bc
       0.058793887 -0.041110083 -0.049808368 -0.017541748
000270 8e 35 2a 3c a6 e9 99 bd 1c 31 21 bd 40 4a 3b 3d
       0.010388745 -0.07515268 -0.039353475 0.045725107
000280 f2 cd 3a bd 1e c6 dd bc 5a e6 71 ba 02 2f 20 bd
       -0.04560656 -0.027072009 -0.00092277455 -0.03910733
000290 96 b0 db bc 6e 14 0f 3d 28 aa 28 bd 66 36 57 3c
       -0.026817601 0.034931593 -0.0411779 0.013135528
0002a0 64 e0 83 bc a2 22 3e bd dc c0 7a 3d 74 c0 87 3d
       -0.016098209 -0.046419747 0.06121908 0.066285044
0002b0 94 41 6f 3d 7d d9 9a bb ea 1f 8a 3c 70 48 98 bd
       0.05841215 -0.0047256337 0.016860921 -0.07435691
0002c0 7b 0b 00 bd c0 5b 4a 3b 4f 8a cd bb 94 39 2b 3c
       -0.03126095 0.0030877441 -0.006272591 0.010450739
0002d0 fc bc 4f bc 82 2b 0c 3c 82 a2 0a bd 3c 8f 98 bd
       -0.012679335 0.008555295 -0.033846386 -0.07449195
0002e0 9b 80 b3 3b 6e 3d 18 bd 16 fd 55 3d 56 89 49 3d
       0.0054779775 -0.03716796 0.052243315 0.04920324
0002f0 d4 1a 2f 3d 9d 03 aa bb 58 c8 4e bc 66 0d 69 bb
       0.042750195 -0.005188419 -0.012621008 -0.0035560965
000300 fe 20 a0 3d f4 ae 95 3d 72 8d 87 bc be 45 8d bd
       0.07818793 0.0730876 -0.016546939 -0.06898068
000310 0e 04 26 bd 46 fe 3b bd 42 fa 8b 3d 04 b1 16 3d
       -0.04053121 -0.04589679 0.06834842 0.03678991
000320 ac db 9b 3d 6c 77 7e 3d b2 d9 88 3c 60 60 5f bd
       0.076102585 0.06212561 0.016705368 -0.05453527
000330 2c 45 39 3d e2 08 87 3d 20 8c 2f 3d 5a 42 96 bc
       0.045231983 0.06593491 0.042858243 -0.018342186
000340 22 f5 08 3d bc a7 25 bc c0 1f d1 3c 44 87 28 3c
       0.033436902 -0.010110792 0.025527835 0.010286156
000350 d6 72 8e 3c 7e eb 1f bd 76 77 9a bc 58 41 5a 3d
       0.017388742 -0.039042942 -0.018855792 0.053284973
000360 a0 13 36 3b 38 00 1e bd 9e 17 28 3d ee b5 6c 3c
       0.0027782694 -0.038574427 0.041038148 0.014447672
000370 10 cc 0d 3d 44 61 07 bd 5b 67 bb 3b 20 24 21 bd
       0.034618437 -0.033051744 0.005719108 -0.039341092
000380 52 71 2c bd 26 37 ec bc 45 59 f0 bb be 20 97 3c
       -0.04210026 -0.02883489 -0.0073348605 0.01844823
000390 0e b5 e2 bc c8 63 01 3d bf 90 c9 ba 63 43 c9 3b
       -0.027674224 0.0315893 -0.0015378221 0.0061420663
0003a0 9e 4d a6 bc 22 90 95 bd 40 79 1f bb 90 e3 96 bd
       -0.020300683 -0.07302882 -0.0024333745 -0.07367623
0003b0 a9 46 8a 3b bc cb 89 3c 4a 6c a2 bc 2a 77 3e bd
       0.004219849 0.016820781 -0.019827027 -0.046500362
0003c0 ee 64 72 3d 54 e3 50 3d a2 92 ff bc db da 25 bd
       0.059178285 0.050998047 -0.03119785 -0.04049192
0003d0 2c 76 c0 3c 52 b8 8f 3d 84 b0 29 bd ce 0c f0 bc
       0.023493849 0.07017578 -0.041428104 -0.02930298
0003e0 44 f1 b0 bc 59 ca df bb b4 a1 8d 3d 93 32 d7 3b
       -0.02159942 -0.0068295416 0.06915608 0.006567308
0003f0 d4 55 18 3d fe ca 7d bc 0c f7 b8 bc 08 0a 56 bd
       0.037191227 -0.015490292 -0.022578739 -0.05225566

bias f4 [2]
000000 44 fe 0a 3d ff 9b ed 3c
       0.033933893 0.029005049
