NODE/submission_models/drifter_80_tanh_1day.pth (torch, 81679 bytes, 4 tensors)

weight f4 [256, 4]
-0.00374341 0.2682218 -0.41152257 -0.3679695 -0.19257718 0.13407868 -0.00990659 0.39644474
-0.044372022 0.13230628 -0.15110654 -0.098282695 -0.47766468 -0.33112323 -0.20883441 0.010419875
0.1976676 0.3000114 -0.33897054 -0.21773142 0.18160856 0.41519397 -0.10290009 0.37415588
-0.08059168 0.05290705 0.4527381 -0.46383518 -0.31476897 -0.12658262 -0.19489998 0.4320004
-0.32408983 -0.23016644 -0.34932023 -0.4682805 -0.29187024 0.42979902 0.22310919 0.24233627
0.026295781 -0.25634176 0.08459234 -0.46684736 -0.36128312 -0.257765 0.31546897 0.29316062
-0.22174752 -0.018041193 0.31978035 0.49706656 0.19844109 0.06754643 0.33524317 -0.29440117
0.093172014 -0.38765275 -0.34654307 -0.25829178 0.22623652 0.2010802 -0.29617625 0.15105355
0.274486 -0.06310868 0.019090772 0.115852356 0.3101883 0.48009706 -0.38531178 -0.18323487
0.19650495 0.4142747 0.43510365 0.44117838 0.09950727 -0.43479133 0.04599625 -0.31280267
-0.46597707 0.44424623 0.38017988 -0.49876398 0.09358603 -0.084230006 -0.082280576 -0.22887844
0.19227809 -0.29615176 0.18329567 0.25285405 0.3579358 0.18695557 -0.49486762 -0.32434845
0.24965751 0.104650676 -0.390042 -0.28790975 0.47037464 0.33690894 -0.21801257 -0.12584239
-0.47629905 -0.008987069 -0.37652946 -0.38567835 -0.027549803 0.07507253 -0.20476514 0.2966888
-0.30426955 0.45368505 0.34264994 -0.42164147 -0.12444216 0.022561312 0.07295054 0.118587136
0.19621414 0.029950082 -0.24396437 0.2365945 -0.47962445 -0.29635334 -0.12516493 -0.24355668
-0.17491668 -0.40981084 -0.106357574 0.10687822 -0.32511425 -0.02636982 0.3449558 -0.06643425
0.013896108 -0.04313445 0.101190686 0.31791973 0.4736231 0.31752795 0.47470677 -0.036160827
-0.44916075 -0.23703861 0.3404526 -0.003241241 -0.24852318 -0.38315588 -0.46792603 -0.4220041
-0.101418376 0.274203 0.27032053 -0.48221594 0.31189102 -0.39125472 -0.10570514 -0.20273632
-0.096307635 -0.09817135 -0.44867498 -0.43171895 -0.07823974 0.0064660907 -0.22713745 0.1883496
-0.4500292 -0.03374362 0.43970972 -0.203946 0.45150155 0.18107688 -0.45123047 0.31634867
-0.057697237 -0.22320342 0.39982665 -0.4040476 0.053652465 -0.10468435 0.35705632 0.13957226
0.24025267 0.17657948 -0.12023735 -0.105152726 -0.4120407 0.27092206 0.39698905 0.34211242
-0.35268915 0.022299945 -0.35246706 -0.2752421 -0.29135275 0.17087251 -0.2979566 -0.010908604
0.021034062 0.32231152 -0.37796003 -0.34325612 -0.29033077 0.3499667 -0.1797325 0.42174435
0.18080378 0.06331301 -0.003722012 -0.09884077 0.06273317 -0.11417234 -0.003513217 0.06379652
-0.39110255 -0.2620657 0.40374637 -0.40577334 -0.035903096 0.49461937 0.18061852 0.01415652
-0.43330497 0.24768895 -0.35614038 -0.14193213 -0.16775817 -0.07404369 0.0054691434 0.41240376
0.062419415 0.4478464 0.30585623 -0.31610698 0.22425205 -0.35344803 -0.21191257 0.14706135
0.16509604 0.37511402 -0.16110893 -0.00030333086 0.25741178 -0.48354608 0.3614903 -0.4134612
0.0068912506 -0.08500838 -0.26333648 0.06608552 0.41345936 -0.14615977 -0.29684705 -0.18491942
00000000: 0054 75bb 5e54 893e 16b3 d2be 8066 bcbe
00000010: f432 45be ec4b 093e 404f 22bc cefa ca3e
00000020: 70bf 35bd 4c7b 073e acbb 1abe 7048 c9bd
00000030: 7790 f4be fc88 a9be b0d8 55be 20b8 2a3c
00000040: 6069 4a3e 189b 993e 8c8d adbe fcf4 5ebe
00000050: 98f7 393e 4e94 d43e 48bd d2bd 5c91 bf3e
00000060: 400d a5bd 10b5 583d 4acd e73e ce7b edbe
00000070: 6629 a1be e09e 01be dc93 47be 282f dd3e
00000080: 1aef a5be c0b0 6bbe 1ada b2be 76c2 efbe
00000090: 0470 95be 9e0e dc3e bc76 643e 0027 783e
000000a0: 406a d73c 3a3f 83be c03e ad3d 9e06 efbe
000000b0: 1afa b8be c6f9 83be 2685 a13e 2619 963e
000000c0: c811 63be 20cb 93bc 40ba a33e 827f fe3e
000000d0: 2434 4b3e c855 8a3d fea4 ab3e c0bb 96be
000000e0: f8d0 be3d 6c7a c6be 186e b1be d23e 84be
000000f0: 8caa 673e f8e7 4d3e 6aa4 97be c8ad 1a3e
00000100: 6e89 8c3e 203f 81bd 4064 9c3c 0044 ed3d
00000110: 00d1 9e3e 48cf f53e 9647 c5be eca1 3bbe
00000120: 9838 493e d01b d43e e8c5 de3e 22e2 e13e
00000130: 78ca cb3d f89c debe 9066 3c3d ac27 a0be
00000140: 8c94 eebe 3e74 e33e f0a6 c23e fe5d ffbe
00000150: 08aa bf3d c880 acbd b882 a8bd 1c5f 6abe
00000160: 8ce4 443e 34a1 97be dcb1 3b3e 1676 813e
00000170: 5c43 b73e 4871 3f3e 4a5f fdbe 0011 a6be
00000180: 38a6 7f3e 1853 d63d 96b3 c7be e868 93be
00000190: f2d4 f03e 547f ac3e b03e 5fbe d4dc 00be
000001a0: 78dd f3be 803e 13bc 78c8 c0be a277 c5be
000001b0: 20b0 e1bc a0bf 993d f4ad 51be 98e7 973e
000001c0: 38c9 9bbe 6849 e83e d06f af3e 64e1 d7be
000001d0: 88db febd 80d2 b83c 1867 953d d0dd f23d
000001e0: 5cec 483e e059 f53c ccd1 79be d445 723e
000001f0: 5691 f5be a0bb 97be 3c2b 00be ec66 79be
00000200: 5c1d 33be bad2 d1be 00d2 d9bd f8e2 da3d
00000210: 6075 a6be 8505 d8bc 0c9e b03e ae0e 88bd
00000220: 80ac 633c c0ad 30bd 103d cf3d 60c6 a23e
00000230: ba7e f23e 0693 a23e c40c f33e 601d 14bd
00000240: 66f8 e5be 40ba 72be ce4f ae3e 006b 54bb
00000250: dc7c 7ebe 022d c4be 0094 efbe ec10 d8be
00000260: 70b4 cfbd 5664 8c3e 7467 8a3e 02e5 f6be
00000270: 2eb0 9f3e 8a52 c8be f07b d8bd 1c9a 4fbe
00000280: f03c c5bd 100e c9bd bab8 e5be 440a ddbe
00000290: 283c a0bd 80e1 d33b b896 68be b8de 403e
000002a0: 3a6a e6be c036 0abd a221 e13e 38d7 50be
000002b0: 362b e73e 386c 393e ae07 e7be 74f8 a13e
000002c0: f053 6cbd 708f 64be 14b6 cc3e 54df cebe
000002d0: b0c2 5b3d c064 d6bd 16d0 b63e 08ec 0e3e
000002e0: cc04 763e 40d1 343e 003f f6bd 505a d7bd
000002f0: 00f7 d2be 4cb6 8a3e 2642 cb3e 5c29 af3e
00000300: ac93 b4be 60ae b63c 9076 b4be 88ec 8cbe
00000310: 302c 95be 34f9 2e3e c48d 98be 00ba 32bc
00000320: a04f ac3c 0406 a53e fa83 c1be 44bf afbe
00000330: 3ca6 94be d62e b33e cc0b 38be e0ee d73e
00000340: a024 393e 40aa 813d 00ed 73bb 086d cabd
00000350: 407a 803d 30d3 e9bd 003e 66bb c0a7 823d
00000360: 983e c8be 7a2d 86be d8b7 ce3e 86c1 cfbe
00000370: 200f 13bd c03e fd3e 10f4 383e c0f0 673c
00000380: 26da ddbe 2ca2 7d3e 0858 b6be a856 11be
00000390: ccc8 2bbe 38a4 97bd 8036 b33b 9626 d33e
000003a0: 80ab 7f3d 204c e53e 3099 9c3e c6d8 a1be
000003b0: 54a2 653e 24f7 b4be 9cff 58be 4097 163e
000003c0: f00e 293e f20e c03e bdf9 24be 6108 9fb9
000003d0: 7acb 833e 5a93 f7be 4215 b93e 30b1 d3be
000003e0: 00d0 e13b e018 aebd 0ad4 86be d857 873d
000003f0: f2b0 d33e e8aa 15be 56fc 97be 845b 3dbe

bias f4 [256]
-0.035032988 -0.47224933 -0.28829253 0.20268601 -0.16958785 0.34511453 0.39526993 0.07273495
-0.03953737 -0.15871358 -0.02528292 0.09101045 -0.38192552 -0.119497836 -0.41590047 0.30687743
-0.31841815 0.4567719 -0.1288904 -0.28643763 0.24022657 0.07453954 0.346228 0.20873487
-0.48166972 0.3162452 -0.09415692 -0.22098553 0.31752694 0.36466515 -0.43946534 -0.045211673
0.41060328 0.19052576 0.42123467 -0.17134935 -0.2758212 0.42995483 0.20841146 0.47999126
-0.2088483 -0.32103342 -0.058606446 -0.47078997 0.19598758 0.3687942 0.120028436 -0.04940343
0.24790317 -0.31737566 0.48912156 -0.49717182 -0.4789726 -0.11815083 0.40842223 0.050062895
0.19202286 -0.36650342 0.18234289 -0.055871725 0.20041199 0.35312128 0.21734011 -0.042532086
-0.030799568 -0.3135901 -0.18085104 0.32491904 -0.20049828 0.31051987 -0.19826597 -0.116449416
0.010641098 -0.45883274 -0.004992485 -0.050397873 -0.04491818 -0.0999521 0.39418864 0.36899358
-0.3296612 0.23226339 -0.3921913 -0.42566067 0.15284097 0.0073482394 -0.23325318 -0.48225188
-0.19356805 0.16699976 -0.46280074 -0.48573273 0.06343627 -0.36020207 -0.43804014 -0.1926431
-0.080500424 -0.45435262 -0.33386385 0.032783926 -0.47148585 -0.070277214 -0.32285136 -0.34661865
0.1965155 -0.38484484 -0.3789171 0.28514075 0.09348315 0.45535642 -0.13364774 -0.24150753
-0.04627323 0.0025296807 0.38132215 -0.49803996 -0.035600364 0.22117609 -0.2753415 -0.2540704
0.24163389 -0.4790926 0.11847788 -0.39482275 0.24853092 -0.42752022 0.30740237 -0.4733163
-0.42028338 0.0073026093 0.3939942 -0.4281978 -0.22302985 0.43914127 -0.083848715 0.2071423
-0.4809991 -0.15724045 -0.25391608 0.4215306 0.20751995 -0.36483783 0.080613494 -0.005746722
-0.20543492 -0.28553832 -0.1659193 0.39411324 -0.35842615 -0.35617167 -0.15425956 0.008698165
0.13610595 0.015004039 -0.12036282 -0.3031751 -0.089716315 -0.20127666 0.4039644 -0.48670477
-0.3189295 -0.40679508 -0.09137839 0.3896367 0.43826962 -0.43527764 -0.021663427 0.29348308
0.22039872 0.40955192 -0.013869107 -0.33594638 0.33076525 -0.17145729 0.25889307 -0.12321824
0.21254706 0.449713 0.46492773 -0.45503253 -0.33074015 -0.2067334 -0.31885052 0.47975004
-0.044159412 -0.33167028 -0.22249472 -0.2761823 0.20399469 -0.43612558 -0.46620154 -0.49288058
0.21526206 0.24722731 -0.31053954 0.123989284 0.36909235 0.07265067 -0.105790794 0.03694117
-0.05361384 0.25174958 -0.33950567 0.25355124 0.28181177 -0.30293733 0.4082818 0.49109238
-0.19711435 -0.1400472 0.24917775 -0.39171022 0.19772899 0.11665237 0.31516486 -0.43430352
-0.4153924 0.22456455 0.18010539 -0.4653831 -0.27882975 -0.45748925 -0.35821146 -0.22559983
0.41376925 -0.09952545 0.2871756 0.47484046 0.22786611 -0.4476052 0.25161135 0.19071728
0.38753277 -0.4932171 0.307508 0.4092707 -0.46518236 0.05231315 0.42683655 -0.36365408
0.16405964 0.22093868 0.13104504 0.50282604 0.4093898 0.42897737 -0.06232339 0.4193563
-0.46595633 -0.26981467 -0.10694057 -0.1485284 0.46184736 0.23583263 0.3219065 0.3401047
00000000: c07e 0fbd aaca f1be 149b 93be ec8c 4f3e
00000010: 70a8 2dbe dab2 b03e d260 ca3e 10f6 943d
00000020: f0f1 21bd d085 22be 201e cfbc b063 ba3d
00000030: be8b c3be 48bb f4bd e8f0 d4be 0a1f 9d3e
00000040: b407 a3be 02de e93e d8fb 03be f4a7 92be
00000050: f4fd 753e 30a8 983d cc44 b13e 98be 553e
00000060: 6a9d f6be e4ea a13e 58d5 c0bd 084a 62be
00000070: e492 a23e 64b5 ba3e 9a01 e1be e02f 39bd
00000080: 983a d23e 2f19 433e 12ac d73e 3476 2fbe
00000090: 7038 8dbe 0a23 dc3e d069 553e 6ac1 f53e
000000a0: 54dc 55be 7e5e a4be 500d 70bd 620b f1be
000000b0: f8b0 483e 98d2 bc3e 78d1 f53d 405b 4abd
000000c0: 54da 7d3e 107f a2be 246e fa3e 4e8d febe
000000d0: e63b f5be 10f9 f1bd b81c d13e c00e 4d3d
000000e0: a4a1 443e 56a6 bbbe 18b8 3a3e c0d9 64bd
000000f0: cd38 4d3e 50cc b43e 688e 5e3e 2036 2ebd
00000100: 604f fcbc e28e a0be 0431 39be ca5b a63e
00000110: 6c4f 4dbe 76fc 9e3e 3c06 4bbe 087d eebd
00000120: 0058 2e3c 20ec eabe 0098 a3bb 006e 4ebd
00000130: 20fc 37bd b0b3 ccbd 18d3 c93e baec bc3e
00000140: 5ac9 a8be 74d6 6d3e 4ccd c8be 32f0 d9be
00000150: 5882 1c3e 80c9 f03b ecd9 6ebe b8e9 f6be
00000160: b436 46be fc01 2b3e 38f4 ecbe f6b1 f8be
00000170: e0ea 813d 686c b8be cc46 e0be 3c44 45be
00000180: 68dd a4bd e8a0 e8be 34f0 aabe 7048 063d
00000190: 9866 f1be 80ed 8fbd c64c a5be 0078 b1be
000001a0: 5c3b 493e 620a c5be 6c01 c2be f8fd 913e
000001b0: 1874 bf3d 7a24 e93e f4da 08be c04d 77be
000001c0: 0089 3dbd 00c9 253b a83c c33e 18ff febe
000001d0: b0d1 11bd fc7b 623e 90f9 8cbe 8415 82be
000001e0: e06e 773e a04b f5be 88a4 f23d 3526 cabe
000001f0: e47e 7e3e eee3 dabe d863 9d3e 8456 f2be
00000200: 622f d7be ba4a ef3b 9cb9 c93e be3c dbbe
00000210: f061 64be 20d7 e03e e0b8 abbd 1c1d 543e
00000220: 8445 f6be a403 21be 4a01 82be dcd2 d73e
00000230: 1c80 543e 06cc babe b018 a53d 004f bcbb
00000240: 885d 52be 1432 92be c0e6 29be 36c9 c93e
00000250: a283 b7be 225c b6be 38f6 1dbe c082 0e3c
00000260: 5c5f 0b3e 80d3 753c c880 f6bd c439 9bbe
00000270: 30bd b7bd 781b 4ebe 6cd4 ce3e 5e31 f9be
00000280: ba4a a3be 7247 d0be 9824 bbbd 767e c73e
00000290: e064 e03e b6dc debe 8077 b1bc 6a43 963e
000002a0: 34b0 613e cab0 d13e 403b 63bc 2a01 acbe
000002b0: 105a a93e 8092 2fbe a28d 843e d859 fcbd
000002c0: f0a5 593e c840 e63e 020b ee3e 06fa e8be
000002d0: c656 a9be ecb1 53be 6040 a3be cca1 f53e
000002e0: 80e0 34bd b0d0 a9be a8d5 63be c467 8dbe
000002f0: fce3 503e da4b dfbe f8b1 eebe d85a fcbe
00000300: a86d 5c3e 2829 7d3e 0aff 9ebe 18ee fd3d
00000310: acf9 bc3e e0c9 943d d8a8 d8bd a04f 173d
00000320: 309a 5bbd 52e5 803e b0d3 adbe 78d1 813e
00000330: a249 903e 9a1a 9bbe 500a d13e 7670 fb3e
00000340: 58d8 49be 8868 0fbe 7428 7f3e 3e8e c8be
00000350: 7879 4a3e 70e7 ee3d 4a5d a13e 085d debe
00000360: 50ae d4be 40f4 653e 8c6d 383e b246 eebe
00000370: c6c2 8ebe 083c eabe 7e67 b7be a403 67be
00000380: 90d9 d33e 00d4 cbbd ae08 933e 4a1e f33e
00000390: bc55 693e 822c e5be 34d3 803e 644b 433e
000003a0: b26a c63e f486 fcbe b071 9d3e ee8b d13e
000003b0: 622c eebe 5046 563d 528a da3e de30 babe
000003c0: 40ff 273e c03d 623e ac30 063e 35b9 003f
000003d0: 8a9b d13e eca2 db3e d046 7fbd deb5 d63e
000003e0: d491 eebe 2625 8abe a803 dbbd d417 18be
000003f0: 4277 ec3e 1c7e 713e eed0 a43e 3422 ae3e

weight f4 [2, 256]
-0.034550153 -0.019376442 0.0212642 0.028365202 0.04427711 -0.03700673 -0.0067082318 0.040158764
-0.004636366 -0.055552654 0.054515056 0.030184682 -0.03173558 -0.00035733634 -0.03397993 -0.064331025
0.011365445 -0.014561882 0.0376184 -0.037907004 0.0034985924 0.013487127 0.019984063 0.06272073
0.05446285 0.03964985 -0.01654948 -0.0567718 -0.04377573 -0.009037361 0.048479944 0.00026627368
-0.014768794 -0.034166835 0.007050466 0.027486395 -0.073757485 -0.031870067 0.058431804 0.026935417
0.008241015 -0.00096527213 0.0026350347 -0.05582288 -0.0462643 0.028969176 0.0047041094 -0.03534934
-0.003994554 -0.021951307 -0.006373806 -0.0657886 0.058909044 0.01338377 -0.019382458 -0.033469707
0.040177435 -0.03528171 0.028618488 0.005071191 -0.027204337 0.027793977 -0.008313632 0.066724196
-0.010476125 -0.028204415 0.04171247 -0.038900077 0.016653154 0.048081324 -0.04016058 0.047780067
0.043321222 0.070283964 0.0061737103 0.04440201 -0.039370053 -0.009256449 0.011501884 0.0010652856
1.7871606 0.047257386 -0.026986737 0.021032784 0.008772654 0.020835374 0.01749814 -0.035516992
-0.061534822 0.037886478 -0.047777295 0.052095518 -0.07167798 0.0013250072 -0.011475211 -0.001323681
-0.007085656 0.031831786 -0.019096669 0.0031688702 0.04971145 -0.052578323 0.008725353 -0.011720037
0.04270178 0.041364923 0.010433314 -0.033802167 -0.026479032 0.056858793 -0.016441593 0.046725526
0.023503765 0.042568967 0.061570294 -0.028477576 0.03043152 -0.03805376 0.043497145 -0.017757004
-0.006727036 -0.05536312 -0.06799562 0.020075805 0.002386427 -0.006708729 0.030312115 -0.038235977
0.010048684 -0.022287017 0.025087629 -0.0021310002 0.031632848 0.06679286 0.042145163 0.01494915
0.048993688 -0.050308578 -0.024524521 -0.00096746156 -0.011789089 -0.03692949 -0.039800823 -0.041328453
-0.07406038 -0.006176981 0.030468322 0.037504025 -0.04183338 -0.06952937 -0.062561125 0.013296967
0.05513215 -0.037448347 -0.04614663 -0.021203395 0.006726906 -0.07149117 -0.04301521 0.049386844
-0.041944824 -0.023410384 -0.0045843897 -0.042769067 -0.023155976 0.031269934 -0.03751616 0.009473905
-0.01243661 -0.050081484 0.057557344 0.06262338 0.054750413 -0.008387268 0.020522568 -0.070695356
-0.027599301 -0.00057385274 -0.009934237 0.014112359 -0.016340982 0.0048936605 -0.03018472 -0.07083042
0.0018163637 -0.040829696 0.048581578 0.045541503 0.04641193 -0.008850047 -0.0089593865 0.00010549172
0.0745264 0.06942612 -0.020208586 -0.06531906 -0.044192947 -0.042235054 0.06468679 0.033128247
0.07244107 0.05846387 0.013043741 -0.050873533 0.04889372 0.06227327 0.039196536 -0.022003837
0.03709864 -0.0064491583 0.029189553 0.013947768 0.02105039 -0.04270468 -0.022517458 0.04962736
-0.0008833246 -0.042236164 0.044699885 0.010786042 0.038280174 -0.03671348 0.009380743 -0.035679415
-0.03843855 -0.025173243 -0.01099648 0.022109881 -0.024012595 0.035251036 0.002123788 0.0024804482
-0.023962364 -0.069367334 -0.006094991 -0.07001473 0.0005582539 0.013159158 -0.016165365 -0.042838626
0.05551655 0.04733631 -0.027536202 2.0726023 0.02715556 0.06651421 -0.04508984 -0.025641333
-0.017937772 -0.010491183 0.06549446 0.002905692 0.040852964 -0.011828676 -0.018917095 -0.048593923
00000000: 7684 0dbd 58bb 9ebc 4232 ae3c 245e e83c
00000010: ea5b 353d 5e94 17bd bad0 dbbb 847d 243d
00000020: a8ec 97bb 2e8b 63bd 2e4b 5f3d de45 f73c
00000030: 2bfd 01bd df58 bbb9 8a2e 0bbd fcbf 83bd
00000040: 2236 3a3c f694 6ebc c015 1a3d 6044 1bbd
00000050: a448 653b 1cf9 5c3c 9eb5 a33c ba73 803d
00000060: 7014 5f3d e267 223d c692 87bc 8c89 68bd
00000070: 2e4e 33bd 7011 14bc e892 463d a69a 8b39
00000080: d0f8 71bc 86f2 0bbd 9807 e73b 262b e13c
00000090: 2a0e 97bd 308a 02bd 3056 6f3d aaa7 dc3c
000000a0: 5205 073c 510a 7dba 8cb0 2c3b 88a6 64bd
000000b0: a27f 3dbd c450 ed3c ee24 9a3b 78ca 10bd
000000c0: bfe4 82bb 3ad3 b3bc 5cdb d0bb 2cbc 86bd
000000d0: 9c4a 713d 9a47 5b3c f6c7 9ebc 8817 09bd
000000e0: 1891 243d 8e83 10bd 5271 ea3c 3c2c a63b
000000f0: a1db debc 32b0 e33c e635 08bc b2a6 883d
00000100: 0ea4 2bbc f20c e7bc b2da 2a3d b055 1fbd
00000110: 326c 883c ecf0 443d 6c7f 24bd 08b5 433d
00000120: 9871 313d 0af1 8f3d d64c ca3b e2de 353d
00000130: 7e42 21bd 5ca8 17bc 6672 3c3c 0ea1 8b3a
00000140: aec1 e43f f690 413d 4a13 ddbc f24c ac3c
00000150: 2ebb 0f3c f2ae aa3c 4258 8f3c 447a 11bd
00000160: f00b 7cbd da2e 1b3d 20b2 43bd 1c62 553d
00000170: e8cb 92bd ddab ad3a 8602 3cbc 5d7f adba
00000180: ca2e e8bb 0c62 023d 9e70 9cbc d2ac 4f3b
00000190: 3c9e 4b3d 5e5c 57bd c8f4 0e3c 6605 40bc
000001a0: 10e8 2e3d 446e 293d 7ef0 2a3c 2474 0abd
000001b0: 8eea d8bc c4e4 683d 85b0 86bc 4463 3f3d
000001c0: f88a c03c cc5c 2e3d 2231 7c3d ce49 e9bc
000001d0: 864b f93c 42de 1bbd 102a 323d 2377 91bc
000001e0: 786e dcbb 70c4 62bd 4a41 8bbd 0476 a43c
000001f0: 9a65 1c3b e6d4 dbbb 1d51 f83c 549d 1cbd
00000200: 3ca3 243c 4393 b6bc 9284 cd3c 40a8 0bbb
00000210: 7291 013d b2ca 883d 68a0 2c3d 48ed 743c
00000220: 9bad 483d 5e10 4ebd a6e7 c8bc 3f9d 7dba
00000230: 0627 41bc 6043 17bd 3006 23bd 0648 29bd
00000240: f8ac 97bd 4668 cabb b498 f93c d29d 193d
00000250: 7a59 2bbd 6a65 8ebd 0c20 80bd 86db 593c
00000260: 40d2 613d 7063 19bd 4004 3dbd beb2 adbc
00000270: 616d dc3b f669 92bd b830 30bd dc49 4a3d
00000280: 56ce 2bbd 22c7 bfbc a638 96bb 9e2e 2fbd
00000290: 9ab1 bdbc e714 003d 8caa 19bd 7038 1b3c
000002a0: ecc2 4bbc 3e22 4dbd 40c1 6b3d b040 803d
000002b0: f841 603d c06a 09bc f21e a83c bac8 90bd
000002c0: ee17 e2bc 9b6e 16ba 36c3 22bc 8637 673c
000002d0: 86dd 85bc 005b a03b f245 f7bc 8a0f 91bd
000002e0: 0d13 ee3a 0a3d 27bd 7afd 463d ba89 3a3d
000002f0: 701a 3e3d caff 10bc 64ca 12bc 703b dd38
00000300: 4ca1 983d 482f 8e3d 7a8c a5bc 00c6 85bd
00000310: aa03 35bd aafe 2cbd 827a 843d 7cb1 073d
00000320: fc5b 943d d077 6f3d 6ab5 553c c460 50bd
00000330: c844 483d 4212 7f3d 8c8c 203d 6441 b4bc
00000340: bef4 173d 7653 d3bb ee1e ef3c 2e85 643c
00000350: de71 ac3c 1aeb 2ebd 8876 b8bc 0f46 4b3d
00000360: e98e 67ba d4ff 2cbd 3a17 373d f0b7 303c
00000370: accb 1c3d e060 16bd b0b1 193c 9424 12bd
00000380: be71 1dbd 1e38 cebc 942a 34bc c81f b53c
00000390: 10b6 c4bc 6463 103d 402f 0b3b 048f 223b
000003a0: b84c c4bc 7610 8ebd 7eb8 c7bb e263 8fbd
000003b0: c957 123a 8299 573c 3a6d 84bc 8e77 2fbd
000003c0: 5265 633d b8e3 413d 9a93 e1bc 84a5 0440
000003d0: 5675 de3c 9a38 883d 20b0 38bd c60d d2bc
000003e0: 3cf2 92bc 36e3 2bbc f621 863d 6c6d 3e3b
000003f0: 7055 273d 10cd 41bc 06f8 9abc 6c0a 47bd

bias f4 [2]
0.037595484 0.014406092
00000000: b9fd 193d 8807 6c3c
