NODE/submission_models/drifter_63_tanh_1day.pth (torch, 81679 bytes, 4 tensors)

weight f4 [256, 4]
000000 00 54 75 bb 5e 54 89 3e 16 b3 d2 be 80 66 bc be
       -0.00374341 0.2682218 -0.41152257 -0.3679695
000010 f4 32 45 be ec 4b 09 3e 40 4f 22 bc ce fa ca 3e
       -0.19257718 0.13407868 -0.00990659 0.39644474
000020 70 bf 35 bd 4c 7b 07 3e ac bb 1a be 70 48 c9 bd
       -0.044372022 0.13230628 -0.15110654 -0.098282695
000030 1c 98 11 bf 80 06 8b be 1f cc 85 be 79 cc e0 3c
       -0.56872725 -0.27153397 -0.26132295 0.02744125
000040 60 69 4a 3e 18 9b 99 3e 8c 8d ad be fc f4 5e be
       0.1976676 0.3000114 -0.33897054 -0.21773142
000050 98 f7 39 3e 4e 94 d4 3e 48 bd d2 bd 5c 91 bf 3e
       0.18160856 0.41519397 -0.10290009 0.37415588
000060 40 0d a5 bd 10 b5 58 3d 4a cd e7 3e ce 7b ed be
       -0.08059168 0.05290705 0.4527381 -0.46383518
000070 66 29 a1 be e0 9e 01 be dc 93 47 be 28 2f dd 3e
       -0.31476897 -0.12658262 -0.19489998 0.4320004
000080 1a ef a5 be c0 b0 6b be 1a da b2 be 76 c2 ef be
       -0.32408983 -0.23016644 -0.34932023 -0.4682805
000090 04 70 95 be 9e 0e dc 3e bc 76 64 3e 00 27 78 3e
       -0.29187024 0.42979902 0.22310919 0.24233627
0000a0 40 6a d7 3c 3a 3f 83 be c0 3e ad 3d 9e 06 ef be
       0.026295781 -0.25634176 0.08459234 -0.46684736
0000b0 1a fa b8 be c6 f9 83 be 26 85 a1 3e 26 19 96 3e
       -0.36128312 -0.257765 0.31546897 0.29316062
0000c0 c8 11 63 be 20 cb 93 bc 40 ba a3 3e 82 7f fe 3e
       -0.22174752 -0.018041193 0.31978035 0.49706656
0000d0 24 34 4b 3e c8 55 8a 3d fe a4 ab 3e c0 bb 96 be
       0.19844109 0.06754643 0.33524317 -0.29440117
0000e0 f8 d0 be 3d 6c 7a c6 be 18 6e b1 be d2 3e 84 be
       0.093172014 -0.38765275 -0.34654307 -0.25829178
0000f0 8c aa 67 3e f8 e7 4d 3e 6a a4 97 be c8 ad 1a 3e
       0.22623652 0.2010802 -0.29617625 0.15105355
000100 6e 89 8c 3e 20 3f 81 bd 40 64 9c 3c 00 44 ed 3d
       0.274486 -0.06310868 0.019090772 0.115852356
000110 00 d1 9e 3e 48 cf f5 3e 96 47 c5 be ec a1 3b be
       0.3101883 0.48009706 -0.38531178 -0.18323487
000120 98 38 49 3e d0 1b d4 3e e8 c5 de 3e 22 e2 e1 3e
       0.19650495 0.4142747 0.43510365 0.44117838
000130 78 ca cb 3d f8 9c de be 90 66 3c 3d ac 27 a0 be
       0.09950727 -0.43479133 0.04599625 -0.31280267
000140 8c 94 ee be 3e 74 e3 3e f0 a6 c2 3e fe 5d ff be
       -0.46597707 0.44424623 0.38017988 -0.49876398
000150 08 aa bf 3d c8 80 ac bd b8 82 a8 bd 1c 5f 6a be
       0.09358603 -0.084230006 -0.082280576 -0.22887844
000160 8c e4 44 3e 34 a1 97 be dc b1 3b 3e 16 76 81 3e
       0.19227809 -0.29615176 0.18329567 0.25285405
000170 5c 43 b7 3e 48 71 3f 3e 4a 5f fd be 00 11 a6 be
       0.3579358 0.18695557 -0.49486762 -0.32434845
000180 38 a6 7f 3e 18 53 d6 3d 96 b3 c7 be e8 68 93 be
       0.24965751 0.104650676 -0.390042 -0.28790975
000190 f2 d4 f0 3e 54 7f ac 3e b0 3e 5f be d4 dc 00 be
       0.47037464 0.33690894 -0.21801257 -0.12584239
0001a0 78 dd f3 be 80 3e 13 bc 78 c8 c0 be a2 77 c5 be
       -0.47629905 -0.008987069 -0.37652946 -0.38567835
0001b0 20 b0 e1 bc a0 bf 99 3d f4 ad 51 be 98 e7 97 3e
       -0.027549803 0.07507253 -0.20476514 0.2966888
0001c0 38 c9 9b be 68 49 e8 3e d0 6f af 3e 64 e1 d7 be
       -0.30426955 0.45368505 0.34264994 -0.42164147
0001d0 88 db fe bd 80 d2 b8 3c 18 67 95 3d d0 dd f2 3d
       -0.12444216 0.022561312 0.07295054 0.118587136
0001e0 5c ec 48 3e e0 59 f5 3c cc d1 79 be d4 45 72 3e
       0.19621414 0.029950082 -0.24396437 0.2365945
0001f0 56 91 f5 be a0 bb 97 be 3c 2b 00 be ec 66 79 be
       -0.47962445 -0.29635334 -0.12516493 -0.24355668
000200 5c 1d 33 be ba d2 d1 be 00 d2 d9 bd f8 e2 da 3d
       -0.17491668 -0.40981084 -0.106357574 0.10687822
000210 1c cb a6 be 9c 02 d4 bc cf a1 b6 3e 9c 49 6c bd
       -0.32576835 -0.02588015 0.35670325 -0.057687387
000220 80 ac 63 3c c0 ad 30 bd 10 3d cf 3d 60 c6 a2 3e
       0.013896108 -0.04313445 0.101190686 0.31791973
000230 77 f9 f4 3e 3d 6c 4d 40 a9 c5 d0 3e 67 70 32 bd
       0.47846577 3.2097313 0.40775803 -0.043564226
000240 66 f8 e5 be 40 ba 72 be ce 4f ae 3e 00 6b 54 bb
       -0.44916075 -0.23703861 0.3404526 -0.003241241
000250 dc 7c 7e be 02 2d c4 be 00 94 ef be ec 10 d8 be
       -0.24852318 -0.38315588 -0.46792603 -0.4220041
000260 70 b4 cf bd 56 64 8c 3e 74 67 8a 3e 02 e5 f6 be
       -0.101418376 0.274203 0.27032053 -0.48221594
000270 2e b0 9f 3e 8a 52 c8 be f0 7b d8 bd 1c 9a 4f be
       0.31189102 -0.39125472 -0.10570514 -0.20273632
000280 f0 3c c5 bd 10 0e c9 bd ba b8 e5 be 44 0a dd be
       -0.096307635 -0.09817135 -0.44867498 -0.43171895
000290 28 3c a0 bd 80 e1 d3 3b b8 96 68 be b8 de 40 3e
       -0.07823974 0.0064660907 -0.22713745 0.1883496
0002a0 3a 6a e6 be c0 36 0a bd a2 21 e1 3e 38 d7 50 be
       -0.4500292 -0.03374362 0.43970972 -0.203946
0002b0 36 2b e7 3e 38 6c 39 3e ae 07 e7 be 74 f8 a1 3e
       0.45150155 0.18107688 -0.45123047 0.31634867
0002c0 f0 53 6c bd 70 8f 64 be 14 b6 cc 3e 54 df ce be
       -0.057697237 -0.22320342 0.39982665 -0.4040476
0002d0 b0 c2 5b 3d c0 64 d6 bd 16 d0 b6 3e 08 ec 0e 3e
       0.053652465 -0.10468435 0.35705632 0.13957226
0002e0 cc 04 76 3e 40 d1 34 3e 00 3f f6 bd 50 5a d7 bd
       0.24025267 0.17657948 -0.12023735 -0.105152726
0002f0 00 f7 d2 be 4c b6 8a 3e 26 42 cb 3e 5c 29 af 3e
       -0.4120407 0.27092206 0.39698905 0.34211242
000300 ac 93 b4 be 60 ae b6 3c 90 76 b4 be 88 ec 8c be
       -0.35268915 0.022299945 -0.35246706 -0.2752421
000310 30 2c 95 be 34 f9 2e 3e c4 8d 98 be 00 ba 32 bc
       -0.29135275 0.17087251 -0.2979566 -0.010908604
000320 a0 4f ac 3c 04 06 a5 3e fa 83 c1 be 44 bf af be
       0.021034062 0.32231152 -0.37796003 -0.34325612
000330 3c a6 94 be d6 2e b3 3e cc 0b 38 be e0 ee d7 3e
       -0.29033077 0.3499667 -0.1797325 0.42174435
000340 a0 24 39 3e 40 aa 81 3d 00 ed 73 bb 08 6d ca bd
       0.18080378 0.06331301 -0.003722012 -0.09884077
000350 40 7a 80 3d 30 d3 e9 bd 00 3e 66 bb c0 a7 82 3d
       0.06273317 -0.11417234 -0.003513217 0.06379652
000360 98 3e c8 be 7a 2d 86 be d8 b7 ce 3e 86 c1 cf be
       -0.39110255 -0.2620657 0.40374637 -0.40577334
000370 20 0f 13 bd c0 3e fd 3e 10 f4 38 3e c0 f0 67 3c
       -0.035903096 0.49461937 0.18061852 0.01415652
000380 26 da dd be 2c a2 7d 3e 08 58 b6 be a8 56 11 be
       -0.43330497 0.24768895 -0.35614038 -0.14193213
000390 cc c8 2b be 38 a4 97 bd 80 36 b3 3b 96 26 d3 3e
       -0.16775817 -0.07404369 0.0054691434 0.41240376
0003a0 80 ab 7f 3d 20 4c e5 3e 30 99 9c 3e c6 d8 a1 be
       0.062419415 0.4478464 0.30585623 -0.31610698
0003b0 54 a2 65 3e 24 f7 b4 be 9c ff 58 be 40 97 16 3e
       0.22425205 -0.35344803 -0.21191257 0.14706135
0003c0 e4 08 29 3e c5 0e c0 3e eb a1 25 be 8e 92 ce bb
       0.16507298 0.37511268 -0.16175048 -0.006304092
0003d0 7a cb 83 3e 5a 93 f7 be 42 15 b9 3e 30 b1 d3 be
       0.25741178 -0.48354608 0.3614903 -0.4134612
0003e0 00 d0 e1 3b e0 18 ae bd 0a d4 86 be d8 57 87 3d
       0.0068912506 -0.08500838 -0.26333648 0.06608552
0003f0 f2 b0 d3 3e e8 aa 15 be 56 fc 97 be 84 5b 3d be
       0.41345936 -0.14615977 -0.29684705 -0.18491942

bias f4 [256]
000000 c0 7e 0f bd aa ca f1 be 14 9b 93 be 78 de 4e 3e
       -0.035032988 -0.47224933 -0.28829253 0.20202053
000010 70 a8 2d be da b2 b0 3e d2 60 ca 3e 10 f6 94 3d
       -0.16958785 0.34511453 0.39526993 0.07273495
000020 f0 f1 21 bd d0 85 22 be 20 1e cf bc b0 63 ba 3d
       -0.03953737 -0.15871358 -0.02528292 0.09101045
000030 be 8b c3 be 48 bb f4 bd e8 f0 d4 be 0a 1f 9d 3e
       -0.38192552 -0.119497836 -0.41590047 0.30687743
000040 b4 07 a3 be 02 de e9 3e d8 fb 03 be f4 a7 92 be
       -0.31841815 0.4567719 -0.1288904 -0.28643763
000050 f4 fd 75 3e 30 a8 98 3d cc 44 b1 3e 98 be 55 3e
       0.24022657 0.07453954 0.346228 0.20873487
000060 6a 9d f6 be e4 ea a1 3e 58 d5 c0 bd 08 4a 62 be
       -0.48166972 0.3162452 -0.09415692 -0.22098553
000070 e4 92 a2 3e 64 b5 ba 3e 9a 01 e1 be e0 2f 39 bd
       0.31752694 0.36466515 -0.43946534 -0.045211673
000080 98 3a d2 3e bc 3f 46 3e 12 ac d7 3e 11 d8 17 be
       0.41060328 0.1936025 0.42123467 -0.14828517
000090 70 38 8d be 0a 23 dc 3e d0 69 55 3e 6a c1 f5 3e
       -0.2758212 0.42995483 0.20841146 0.47999126
0000a0 54 dc 55 be 7e 5e a4 be 50 0d 70 bd 62 0b f1 be
       -0.2088483 -0.32103342 -0.058606446 -0.47078997
0000b0 f8 b0 48 3e 98 d2 bc 3e 78 d1 f5 3d 40 5b 4a bd
       0.19598758 0.3687942 0.120028436 -0.04940343
0000c0 54 da 7d 3e 10 7f a2 be 24 6e fa 3e 4e 8d fe be
       0.24790317 -0.31737566 0.48912156 -0.49717182
0000d0 e6 3b f5 be 10 f9 f1 bd b8 1c d1 3e c0 0e 4d 3d
       -0.4789726 -0.11815083 0.40842223 0.050062895
0000e0 a4 a1 44 3e 56 a6 bb be 18 b8 3a 3e c0 d9 64 bd
       0.19202286 -0.36650342 0.18234289 -0.055871725
0000f0 87 33 4d 3e 50 cc b4 3e 68 8e 5e 3e 20 36 2e bd
       0.20039187 0.35312128 0.21734011 -0.042532086
000100 60 4f fc bc e2 8e a0 be 04 31 39 be ca 5b a6 3e
       -0.030799568 -0.3135901 -0.18085104 0.32491904
000110 6c 4f 4d be 76 fc 9e 3e 3c 06 4b be 08 7d ee bd
       -0.20049828 0.31051987 -0.19826597 -0.116449416
000120 00 58 2e 3c 20 ec ea be 00 98 a3 bb 00 6e 4e bd
       0.010641098 -0.45883274 -0.004992485 -0.050397873
000130 20 fc 37 bd b0 b3 cc bd 18 d3 c9 3e ba ec bc 3e
       -0.04491818 -0.0999521 0.39418864 0.36899358
000140 77 34 a7 be 74 d6 6d 3e 4c cd c8 be 32 f0 d9 be
       -0.32657215 0.23226339 -0.3921913 -0.42566067
000150 58 82 1c 3e 80 c9 f0 3b ec d9 6e be b8 e9 f6 be
       0.15284097 0.0073482394 -0.23325318 -0.48225188
000160 b4 36 46 be fc 01 2b 3e 38 f4 ec be f6 b1 f8 be
       -0.19356805 0.16699976 -0.46280074 -0.48573273
000170 e0 ea 81 3d 68 6c b8 be cc 46 e0 be 3c 44 45 be
       0.06343627 -0.36020207 -0.43804014 -0.1926431
000180 68 dd a4 bd e8 a0 e8 be 34 f0 aa be 70 48 06 3d
       -0.080500424 -0.45435262 -0.33386385 0.032783926
000190 98 66 f1 be 80 ed 8f bd c6 4c a5 be 00 78 b1 be
       -0.47148585 -0.070277214 -0.32285136 -0.34661865
0001a0 5c 3b 49 3e 62 0a c5 be 6c 01 c2 be f8 fd 91 3e
       0.1965155 -0.38484484 -0.3789171 0.28514075
0001b0 18 74 bf 3d 7a 24 e9 3e f4 da 08 be c0 4d 77 be
       0.09348315 0.45535642 -0.13364774 -0.24150753
0001c0 00 89 3d bd 00 c9 25 3b a8 3c c3 3e 18 ff fe be
       -0.04627323 0.0025296807 0.38132215 -0.49803996
0001d0 b0 d1 11 bd fc 7b 62 3e 90 f9 8c be 84 15 82 be
       -0.035600364 0.22117609 -0.2753415 -0.2540704
0001e0 e0 6e 77 3e a0 4b f5 be 88 a4 f2 3d 39 36 c6 be
       0.24163389 -0.4790926 0.11847788 -0.38713244
0001f0 e4 7e 7e 3e ee e3 da be d8 63 9d 3e 84 56 f2 be
       0.24853092 -0.42752022 0.30740237 -0.4733163
000200 62 2f d7 be 7c 29 f1 3b 9c b9 c9 3e be 3c db be
       -0.42028338 0.0073596817 0.3939942 -0.4281978
000210 f0 61 64 be 20 d7 e0 3e e0 b8 ab bd 1c 1d 54 3e
       -0.22302985 0.43914127 -0.083848715 0.2071423
000220 b7 46 f6 be a4 03 21 be 4a 01 82 be dc d2 d7 3e
       -0.48100826 -0.15724045 -0.25391608 0.4215306
000230 1c 80 54 3e 06 cc ba be b0 18 a5 3d 00 4f bc bb
       0.20751995 -0.36483783 0.080613494 -0.005746722
000240 88 5d 52 be 14 32 92 be c0 e6 29 be 36 c9 c9 3e
       -0.20543492 -0.28553832 -0.1659193 0.39411324
000250 a2 83 b7 be 22 5c b6 be 38 f6 1d be c0 82 0e 3c
       -0.35842615 -0.35617167 -0.15425956 0.008698165
000260 5c 5f 0b 3e 80 d3 75 3c c8 80 f6 bd c4 39 9b be
       0.13610595 0.015004039 -0.12036282 -0.3031751
000270 30 bd b7 bd 78 1b 4e be 6c d4 ce 3e 5e 31 f9 be
       -0.089716315 -0.20127666 0.4039644 -0.48670477
000280 ba 4a a3 be 72 47 d0 be 98 24 bb bd 76 7e c7 3e
       -0.3189295 -0.40679508 -0.09137839 0.3896367
000290 e0 64 e0 3e b6 dc de be 80 77 b1 bc 6a 43 96 3e
       0.43826962 -0.43527764 -0.021663427 0.29348308
0002a0 34 b0 61 3e ca b0 d1 3e 40 3b 63 bc 2a 01 ac be
       0.22039872 0.40955192 -0.013869107 -0.33594638
0002b0 10 5a a9 3e 80 92 2f be a2 8d 84 3e d8 59 fc bd
       0.33076525 -0.17145729 0.25889307 -0.12321824
0002c0 f0 a5 59 3e c8 40 e6 3e 02 0b ee 3e 06 fa e8 be
       0.21254706 0.449713 0.46492773 -0.45503253
0002d0 c6 56 a9 be ec b1 53 be 60 40 a3 be cc a1 f5 3e
       -0.33074015 -0.2067334 -0.31885052 0.47975004
0002e0 80 e0 34 bd b0 d0 a9 be a8 d5 63 be c4 67 8d be
       -0.044159412 -0.33167028 -0.22249472 -0.2761823
0002f0 fc e3 50 3e da 4b df be f8 b1 ee be d8 5a fc be
       0.20399469 -0.43612558 -0.46620154 -0.49288058
000300 a8 6d 5c 3e 28 29 7d 3e 0a ff 9e be 18 ee fd 3d
       0.21526206 0.24722731 -0.31053954 0.123989284
000310 ac f9 bc 3e e0 c9 94 3d d8 a8 d8 bd a0 4f 17 3d
       0.36909235 0.07265067 -0.105790794 0.03694117
000320 30 9a 5b bd 52 e5 80 3e b0 d3 ad be 78 d1 81 3e
       -0.05361384 0.25174958 -0.33950567 0.25355124
000330 a2 49 90 3e 9a 1a 9b be 50 0a d1 3e 76 70 fb 3e
       0.28181177 -0.30293733 0.4082818 0.49109238
000340 58 d8 49 be 88 68 0f be 74 28 7f 3e 3e 8e c8 be
       -0.19711435 -0.1400472 0.24917775 -0.39171022
000350 78 79 4a 3e 70 e7 ee 3d 4a 5d a1 3e 04 5d de be
       0.19772899 0.11665237 0.31516486 -0.4343034
000360 50 ae d4 be 40 f4 65 3e 8c 6d 38 3e b2 46 ee be
       -0.4153924 0.22456455 0.18010539 -0.4653831
000370 c6 c2 8e be 08 3c ea be 7e 67 b7 be a4 03 67 be
       -0.27882975 -0.45748925 -0.35821146 -0.22559983
000380 90 d9 d3 3e 00 d4 cb bd ae 08 93 3e 4a 1e f3 3e
       0.41376925 -0.09952545 0.2871756 0.47484046
000390 bc 55 69 3e 82 2c e5 be 34 d3 80 3e 64 4b 43 3e
       0.22786611 -0.4476052 0.25161135 0.19071728
0003a0 b2 6a c6 3e f4 86 fc be b0 71 9d 3e ee 8b d1 3e
       0.38753277 -0.4932171 0.307508 0.4092707
0003b0 62 2c ee be 50 46 56 3d 52 8a da 3e de 30 ba be
       -0.46518236 0.05231315 0.42683655 -0.36365408
0003c0 40 ff 27 3e c0 3d 62 3e ac 30 06 3e 58 28 01 3f
       0.16405964 0.22093868 0.13104504 0.50452185
0003d0 8a 9b d1 3e ec a2 db 3e d0 46 7f bd de b5 d6 3e
       0.4093898 0.42897737 -0.06232339 0.4193563
0003e0 d4 91 ee be 26 25 8a be a8 03 db bd d4 17 18 be
       -0.46595633 -0.26981467 -0.10694057 -0.1485284
0003f0 42 77 ec 3e 1c 7e 71 3e ee d0 a4 3e 34 22 ae 3e
       0.46184736 0.23583263 0.3219065 0.3401047

weight f4 [2, 256]
000000 78 5b 3d bd 5b 34 fc bb e2 07 1d 3c aa fc 64 3e
       -0.04622981 -0.007696671 0.009584399 0.22362009
000010 e8 84 05 3d 92 7a cf bc 96 a2 96 bc 86 54 54 3d
       0.032597452 -0.025327 -0.018388074 0.05183842
000020 84 a9 85 bc 2c b4 33 bd 2c 74 2f 3d e8 79 2b 3d
       -0.016316183 -0.043872997 0.0428354 0.041864306
000030 fa 4b a4 bc 6e 37 45 bc 8c 05 3b bd dc a8 57 bd
       -0.02005576 -0.012037141 -0.045659587 -0.05265127
000040 6e c9 bc 3c da f8 d6 bc c2 ec 49 3d 62 1b 4b bd
       0.023045268 -0.026241709 0.049298055 -0.04958666
000050 88 0a 06 bc 39 e4 ec 3a e6 b1 01 3d 74 10 51 3d
       -0.008181222 0.0018073387 0.031663798 0.05104108
000060 6e 3d 2f 3d 82 21 e5 3c 1a 41 e7 bc 8a b2 38 bd
       0.042783193 0.02797008 -0.028229285 -0.045092143
000070 30 25 63 bd d1 2c 2d 3b ea 69 76 3d de ff 3a bc
       -0.055455387 0.0026424418 0.0601596 -0.011413543
000080 ed 70 4a bb 79 05 39 bd 3e 70 99 3c e3 c1 d1 3f
       -0.0030890063 -0.045171235 0.018730279 1.6387295
000090 2a 45 7e bd 32 61 32 bd 2e 7f 3f 3d be f2 79 3c
       -0.06207768 -0.043549724 0.046752147 0.015255628
0000a0 55 5d 61 bb fe 8b 2f 3c 76 30 14 bc 86 cf 34 bd
       -0.0034387906 0.010714529 -0.009044757 -0.044143222
0000b0 a4 56 6d bd 64 7f 26 3d 61 94 e4 bb 9a e6 c1 bc
       -0.057943955 0.040648833 -0.006975696 -0.02366953
0000c0 7e 67 80 bc b0 c0 09 bd 36 e5 93 bc 34 a1 5d bd
       -0.015674349 -0.033631027 -0.018053632 -0.054108813
0000d0 9a 73 41 3d 22 52 cd 3c 2f 76 fe bc be 80 b2 bc
       0.047229387 0.025063578 -0.031062214 -0.021789905
0000e0 f2 73 e9 3c ce 58 c1 bc 02 c3 8a 3c 70 39 89 3c
       0.02849767 -0.023601916 0.01693869 0.016751021
0000f0 c7 3b 1f bd e9 01 84 3c f1 9a 5c 3b 3e 76 61 3d
       -0.038875367 0.016114192 0.0033661688 0.055044405
000100 56 80 b5 bc ab 5e 87 bc b4 b1 5a 3d b2 2c 4f bd
       -0.022155922 -0.016524633 0.053392127 -0.050579734
000110 ad f7 a2 3b ee c7 74 3d 9e 50 e9 bc 0a 8c 73 3d
       0.004973373 0.05976098 -0.028480824 0.059459724
000120 9a 48 61 3d e6 0a 70 3d 91 6c b4 bb e4 b5 65 3d
       0.05500088 0.058604144 -0.005506106 0.056081668
000130 be d6 e2 bc 7e 82 ab bc 92 e7 bd 3c c6 d0 50 3c
       -0.027690288 -0.020936247 0.02318171 0.012745088
000140 25 15 0d 40 f8 67 71 3d aa 60 1e bd 8c fd 05 3d
       2.2044156 0.058937043 -0.038666405 0.032712504
000150 ea 8b a7 3c 8c 2e 05 3d 96 06 ef 3c 3a 46 c3 bc
       0.020452458 0.032515094 0.029177945 -0.023837198
000160 ee 34 4c bd dc 05 4b 3d 1e db 13 bd 1a 8b 25 3d
       -0.049855165 0.049566135 -0.03609764 0.04041586
000170 9a c0 75 bd 1e a7 29 bc a7 84 56 39 ae ac 29 3c
       -0.059998132 -0.010354785 0.00020458047 0.010356111
000180 97 8a 96 3b be 15 a5 3c 5f 09 f3 bb ee 47 73 3c
       0.004594158 0.020151969 -0.0074168886 0.014848692
000190 50 75 7b 3d 5c 85 27 bd 7d 9f 41 bb 12 b1 bf bc
       0.061391175 -0.040898666 -0.0029544525 -0.023399863
0001a0 12 bf 5e 3d 46 45 59 3d c7 60 a3 ba f6 39 b5 bc
       0.054381438 0.05304458 -0.0012464755 -0.022122364
0001b0 52 4c 1c bd c2 0d 39 3d 0d 09 9c bb 46 3a 6f 3d
       -0.038158722 0.045179136 -0.004761821 0.058405183
0001c0 88 1c 10 3d ce 33 5e 3d 20 5a 4c 3d e8 7b 24 bd
       0.03518346 0.054248624 0.049890637 -0.04015723
0001d0 32 9d 99 3c 4e 0e d8 bc fa 52 02 3d 3f 23 c7 bb
       0.018751714 -0.026374009 0.031817414 -0.0060771997
0001e0 f1 4a a2 3b 6e ed 32 bd 5c ab 66 bd e8 28 c4 3c
       0.0049527814 -0.04368346 -0.056315765 0.023945287
0001f0 06 76 66 3c 81 e4 a2 3b 8a ff 2b 3d 72 8c d9 bc
       0.014066225 0.0049710874 0.041991748 -0.026556227
000200 ea ff b1 3c 4f 2b 0b bd a2 ac 5b 3c ae 46 62 bc
       0.021728475 -0.03397685 0.013407858 -0.013810797
000210 74 68 31 3d 3e be 61 3d 6a 77 5c 3d bb 42 56 3b
       0.043312505 0.05511307 0.05382482 0.0032693583
000220 e6 3e 19 3d 86 e7 7d bd e2 4a 14 bd ce 82 2f 3c
       0.0374135 -0.061988376 -0.036204226 0.010712339
000230 18 32 e5 b8 62 1a 47 bd 1e 5e e6 bc da e1 f2 bc
       -0.000109289016 -0.048609145 -0.02812105 -0.02964871
000240 c6 82 7f bd 21 51 b4 3b 58 a3 2c 3d 76 8d d3 3c
       -0.062380575 0.0055028354 0.042147964 0.02582429
000250 c2 04 f7 bc 96 f3 6c bd 18 69 50 bd 75 f7 d3 3a
       -0.030153636 -0.05784949 -0.050881475 0.001617177
000260 3e fb 31 3d b2 18 d3 bc 3e 2d 0d bd 72 b0 06 bd
       0.043452494 -0.025768612 -0.034466974 -0.032883115
000270 51 4a a2 bb ba fc 74 bd ba 07 60 bd dc 20 7a 3d
       -0.004952707 -0.05981133 -0.05469487 0.061066493
000280 7c ee f7 bc aa 31 40 bc 84 3c 85 bc a0 05 5f bd
       -0.030265085 -0.011730591 -0.016264208 -0.054448724
000290 9a 06 3c bc 76 7b a0 3c ea a6 d3 bc b3 90 10 bb
       -0.011476183 0.01959012 -0.025836427 -0.0022058904
0002a0 41 65 46 ba 66 f9 7c bd 3e ea 3b 3d 5a aa 50 3d
       -0.00075681886 -0.061761282 0.045877688 0.05094371
0002b0 f6 6a 30 3d b2 63 a4 bc 8a e6 03 3d 4e ba 71 bd
       0.043070756 -0.02006707 0.03220228 -0.059015565
0002c0 9d 69 82 bc 8e c3 48 bc e6 0f b1 bc 1e 4a d3 3c
       -0.015919501 -0.012253655 -0.021614026 0.025792178
0002d0 da 8b e5 bc 4f 5e de bb 9e 97 97 bc e6 47 72 bd
       -0.028020788 -0.006786145 -0.018504914 -0.0591506
0002e0 36 9a 21 bc 0c 14 57 bd 78 26 17 3d b8 b2 0a 3d
       -0.009863427 -0.052509353 0.03690192 0.033861846
0002f0 72 f1 6d 3d 36 2e a8 bc ff 48 32 3b 26 17 41 3c
       0.05809159 -0.020529848 0.0027204154 0.011785304
000300 b5 b5 80 3d 56 87 6c 3d 4e 9d 02 bd ea b4 5b bd
       0.06284658 0.057746254 -0.0318883 -0.05363933
000310 ac da 64 bd 20 4f fa bc f2 1d 59 3d 9e b4 af 3c
       -0.055872604 -0.030555308 0.053007074 0.02144843
000320 c4 e0 78 3d ce a0 3f 3d bb c6 b2 3a c2 89 20 bd
       0.06076123 0.046784215 0.0013639549 -0.039193876
000330 ca 1b 78 3d 40 3b 4f 3d d6 6a e1 3c c4 f7 09 bd
       0.060573377 0.050593615 0.027516764 -0.033683553
000340 c0 cb 47 3d f1 65 ab 3b 78 66 27 3d f6 f0 d1 3c
       0.048778296 0.005230658 0.040869206 0.025627594
000350 02 10 06 3d 1c c2 5e bd 52 12 0c bd 8f 6c 1b 3d
       0.03273011 -0.054384336 -0.03419716 0.037945326
000360 96 d5 4d bc d6 d6 5c bd 3c ee 66 3d 15 4a 6a ba
       -0.01256313 -0.05391582 0.05637954 -0.00089374307
000370 ae a2 4c 3d e2 37 46 bd 26 87 ac 3c da 9a c4 bc
       0.04995983 -0.048393138 0.021060538 -0.02399962
000380 3e 35 db bc ba 13 5d bc a2 c3 b9 bc f6 66 0a 3d
       -0.026758786 -0.013493473 -0.022676293 0.033789597
000390 8a 0f 4a bc 66 3a 40 3d 6e 28 62 3c d6 b8 16 bc
       -0.012332806 0.046930693 0.0138035845 -0.009199342
0003a0 66 fd 11 bd b4 49 6c bd 7e 9c 91 bc 90 f0 6e bd
       -0.03564205 -0.057687476 -0.017774817 -0.058334887
0003b0 2e 37 36 bc 75 e7 c1 3a d3 fb 92 bb f2 40 ff bc
       -0.011121554 0.0014793711 -0.004485586 -0.031158898
0003c0 50 8e 33 3d b6 0c 12 3d 45 e5 81 bc 38 20 d9 3f
       0.04383689 0.035656653 -0.015856395 1.6962957
0003d0 ae 11 1f 3d 12 9a 60 3d 22 87 68 bd 08 bf 64 bc
       0.03883522 0.054834433 -0.056769498 -0.013961561
0003e0 af 0f cd bb ea 9f b5 bc d6 6c 5c 3d 3e c1 0f bc
       -0.006257973 -0.02217098 0.05381473 -0.0087741
0003f0 72 2c 57 3d 73 1b 1c b9 f7 26 ed bb 6a 33 17 bd
       0.05253262 -0.00014887545 -0.007237311 -0.036914267

bias f4 [2]
000000 f6 d4 49 3d 8a e1 16 3d
       0.04927536 0.036836185
