NODE/submission_models/drifter_36_tanh_1day.pth (torch, 81679 bytes, 4 tensors)

weight f4 [256, 4]
00000000: 0054 75bb 5e54 893e 16b3 d2be 8066 bcbe
00000010: f432 45be ec4b 093e 404f 22bc cefa ca3e
00000020: 70bf 35bd 4c7b 073e acbb 1abe 7048 c9bd
00000030: 3af2 71c0 8972 203e bd60 703d 369a 07bc
00000040: 6069 4a3e 189b 993e 8c8d adbe fcf4 5ebe
00000050: 98f7 393e 4e94 d43e 48bd d2bd 5c91 bf3e
00000060: 400d a5bd 10b5 583d 4acd e73e ce7b edbe
00000070: 6629 a1be e09e 01be dc93 47be 282f dd3e
00000080: 1aef a5be c0b0 6bbe 1ada b2be 76c2 efbe
00000090: 0470 95be 9e0e dc3e bc76 643e 0027 783e
000000a0: 406a d73c 3a3f 83be c03e ad3d 9e06 efbe
000000b0: 1afa b8be c6f9 83be 2685 a13e 2619 963e
000000c0: c811 63be 20cb 93bc 40ba a33e 827f fe3e
000000d0: 2434 4b3e c855 8a3d fea4 ab3e c0bb 96be
000000e0: f8d0 be3d 6c7a c6be 186e b1be d23e 84be
000000f0: 8caa 673e f8e7 4d3e 6aa4 97be c8ad 1a3e
00000100: 6e89 8c3e 203f 81bd 4064 9c3c 0044 ed3d
00000110: 00d1 9e3e 48cf f53e 9647 c5be eca1 3bbe
00000120: 9838 493e d01b d43e e8c5 de3e 22e2 e13e
00000130: 78ca cb3d f89c debe 9066 3c3d ac27 a0be
00000140: 8c94 eebe 3e74 e33e f0a6 c23e fe5d ffbe
00000150: 08aa bf3d c880 acbd b882 a8bd 1c5f 6abe
00000160: 8ce4 443e 34a1 97be dcb1 3b3e 1676 813e
00000170: 5c43 b73e 4871 3f3e 4a5f fdbe 0011 a6be
00000180: 38a6 7f3e 1853 d63d 96b3 c7be e868 93be
00000190: f2d4 f03e 547f ac3e b03e 5fbe d4dc 00be
000001a0: 78dd f3be 803e 13bc 78c8 c0be a277 c5be
000001b0: 20b0 e1bc a0bf 993d f4ad 51be 98e7 973e
000001c0: 38c9 9bbe 6849 e83e d06f af3e 64e1 d7be
000001d0: 88db febd 80d2 b83c 1867 953d d0dd f23d
000001e0: 5cec 483e e059 f53c ccd1 79be d445 723e
000001f0: 5691 f5be a0bb 97be 3c2b 00be ec66 79be
00000200: 5c1d 33be bad2 d1be 00d2 d9bd f8e2 da3d
00000210: 76c6 a6be 2934 d2bc b024 b73e 7f50 5dbd
00000220: 80ac 633c c0ad 30bd 103d cf3d 60c6 a23e
00000230: 90bd b4be 2449 e03d a07e 893f 86fb bbbd
00000240: 66f8 e5be 40ba 72be c74f ae3e 9f39 4cbb
00000250: dc7c 7ebe 022d c4be 0094 efbe ec10 d8be
00000260: 70b4 cfbd 5664 8c3e 7467 8a3e 02e5 f6be
00000270: 2eb0 9f3e 8a52 c8be f07b d8bd 1c9a 4fbe
00000280: f03c c5bd 100e c9bd bab8 e5be 440a ddbe
00000290: 283c a0bd 80e1 d33b b896 68be b8de 403e
000002a0: 3a6a e6be c036 0abd a221 e13e 38d7 50be
000002b0: 362b e73e 386c 393e ae07 e7be 74f8 a13e
000002c0: f053 6cbd 708f 64be 14b6 cc3e 54df cebe
000002d0: b0c2 5b3d c064 d6bd 16d0 b63e 08ec 0e3e
000002e0: cc04 763e 40d1 343e 003f f6bd 505a d7bd
000002f0: 00f7 d2be 4cb6 8a3e 2642 cb3e 5c29 af3e
00000300: ac93 b4be 60ae b63c 9076 b4be 88ec 8cbe
00000310: 302c 95be 34f9 2e3e c48d 98be 00ba 32bc
00000320: a04f ac3c 0406 a53e fa83 c1be 44bf afbe
00000330: 3ca6 94be d62e b33e cc0b 38be e0ee d73e
00000340: a024 393e 40aa 813d 00ed 73bb 086d cabd
00000350: 407a 803d 30d3 e9bd 003e 66bb c0a7 823d
00000360: 983e c8be 7a2d 86be d8b7 ce3e 86c1 cfbe
00000370: 200f 13bd c03e fd3e 10f4 383e c0f0 673c
00000380: 26da ddbe 2ca2 7d3e 0858 b6be a856 11be
00000390: ccc8 2bbe 38a4 97bd 8036 b33b 9626 d33e
000003a0: 80ab 7f3d 204c e53e 3099 9c3e c6d8 a1be
000003b0: 54a2 653e 24f7 b4be 9cff 58be 4097 163e
000003c0: aae4 1d3e 3bef be3e 3279 29be dc68 2abb
000003d0: 7acb 833e 5a93 f7be 4215 b93e 30b1 d3be
000003e0: 00d0 e13b e018 aebd 0ad4 86be d857 873d
000003f0: f2b0 d33e e8aa 15be 56fc 97be 845b 3dbe
-0.00374341 0.2682218 -0.41152257 -0.3679695 -0.19257718 0.13407868 -0.00990659 0.39644474
-0.044372022 0.13230628 -0.15110654 -0.098282695 -3.7804093 0.15668692 0.058686007 -0.008276513
0.1976676 0.3000114 -0.33897054 -0.21773142 0.18160856 0.41519397 -0.10290009 0.37415588
-0.08059168 0.05290705 0.4527381 -0.46383518 -0.31476897 -0.12658262 -0.19489998 0.4320004
-0.32408983 -0.23016644 -0.34932023 -0.4682805 -0.29187024 0.42979902 0.22310919 0.24233627
0.026295781 -0.25634176 0.08459234 -0.46684736 -0.36128312 -0.257765 0.31546897 0.29316062
-0.22174752 -0.018041193 0.31978035 0.49706656 0.19844109 0.06754643 0.33524317 -0.29440117
0.093172014 -0.38765275 -0.34654307 -0.25829178 0.22623652 0.2010802 -0.29617625 0.15105355
0.274486 -0.06310868 0.019090772 0.115852356 0.3101883 0.48009706 -0.38531178 -0.18323487
0.19650495 0.4142747 0.43510365 0.44117838 0.09950727 -0.43479133 0.04599625 -0.31280267
-0.46597707 0.44424623 0.38017988 -0.49876398 0.09358603 -0.084230006 -0.082280576 -0.22887844
0.19227809 -0.29615176 0.18329567 0.25285405 0.3579358 0.18695557 -0.49486762 -0.32434845
0.24965751 0.104650676 -0.390042 -0.28790975 0.47037464 0.33690894 -0.21801257 -0.12584239
-0.47629905 -0.008987069 -0.37652946 -0.38567835 -0.027549803 0.07507253 -0.20476514 0.2966888
-0.30426955 0.45368505 0.34264994 -0.42164147 -0.12444216 0.022561312 0.07295054 0.118587136
0.19621414 0.029950082 -0.24396437 0.2365945 -0.47962445 -0.29635334 -0.12516493 -0.24355668
-0.17491668 -0.40981084 -0.106357574 0.10687822 -0.3257329 -0.025659638 0.35770178 -0.054031845
0.013896108 -0.04313445 0.101190686 0.31791973 -0.35300875 0.109514505 1.0741768 -0.09178834
-0.44916075 -0.23703861 0.3404524 -0.0031162275 -0.24852318 -0.38315588 -0.46792603 -0.4220041
-0.101418376 0.274203 0.27032053 -0.48221594 0.31189102 -0.39125472 -0.10570514 -0.20273632
-0.096307635 -0.09817135 -0.44867498 -0.43171895 -0.07823974 0.0064660907 -0.22713745 0.1883496
-0.4500292 -0.03374362 0.43970972 -0.203946 0.45150155 0.18107688 -0.45123047 0.31634867
-0.057697237 -0.22320342 0.39982665 -0.4040476 0.053652465 -0.10468435 0.35705632 0.13957226
0.24025267 0.17657948 -0.12023735 -0.105152726 -0.4120407 0.27092206 0.39698905 0.34211242
-0.35268915 0.022299945 -0.35246706 -0.2752421 -0.29135275 0.17087251 -0.2979566 -0.010908604
0.021034062 0.32231152 -0.37796003 -0.34325612 -0.29033077 0.3499667 -0.1797325 0.42174435
0.18080378 0.06331301 -0.003722012 -0.09884077 0.06273317 -0.11417234 -0.003513217 0.06379652
-0.39110255 -0.2620657 0.40374637 -0.40577334 -0.035903096 0.49461937 0.18061852 0.01415652
-0.43330497 0.24768895 -0.35614038 -0.14193213 -0.16775817 -0.07404369 0.0054691434 0.41240376
0.062419415 0.4478464 0.30585623 -0.31610698 0.22425205 -0.35344803 -0.21191257 0.14706135
0.1541926 0.37291893 -0.16550139 -0.0026002442 0.25741178 -0.48354608 0.3614903 -0.4134612
0.0068912506 -0.08500838 -0.26333648 0.06608552 0.41345936 -0.14615977 -0.29684705 -0.18491942

bias f4 [256]
00000000: c07e 0fbd aaca f1be 149b 93be 4b67 883e
00000010: 70a8 2dbe dab2 b03e d260 ca3e 10f6 943d
00000020: f0f1 21bd d085 22be 201e cfbc b063 ba3d
00000030: be8b c3be 48bb f4bd e8f0 d4be 0a1f 9d3e
00000040: b407 a3be 02de e93e d8fb 03be f4a7 92be
00000050: f4fd 753e 30a8 983d cc44 b13e 98be 553e
00000060: 6a9d f6be e4ea a13e 58d5 c0bd 084a 62be
00000070: e492 a23e 64b5 ba3e 9a01 e1be e02f 39bd
00000080: 983a d23e 8449 463e 12ac d73e 42c9 9cbe
00000090: 7038 8dbe 0a23 dc3e d069 553e 6ac1 f53e
000000a0: 54dc 55be 7e5e a4be 500d 70bd 620b f1be
000000b0: f8b0 483e 98d2 bc3e 78d1 f53d 405b 4abd
000000c0: 54da 7d3e 107f a2be 246e fa3e 4e8d febe
000000d0: e63b f5be 10f9 f1bd b81c d13e c00e 4d3d
000000e0: a4a1 443e 56a6 bbbe 18b8 3a3e c0d9 64bd
000000f0: c2fc 453e 50cc b43e 688e 5e3e 2036 2ebd
00000100: 604f fcbc e28e a0be 0431 39be ca5b a63e
00000110: 6c4f 4dbe 76fc 9e3e 3c06 4bbe 087d eebd
00000120: 0058 2e3c 20ec eabe 0098 a3bb 006e 4ebd
00000130: 20fc 37bd b0b3 ccbd 18d3 c93e baec bc3e
00000140: df26 b8be 74d6 6d3e 4ccd c8be 32f0 d9be
00000150: 5882 1c3e 80c9 f03b ecd9 6ebe b8e9 f6be
00000160: b436 46be fc01 2b3e 38f4 ecbe f6b1 f8be
00000170: e0ea 813d 686c b8be cc46 e0be 3c44 45be
00000180: 68dd a4bd e8a0 e8be 34f0 aabe 7048 063d
00000190: 9866 f1be 80ed 8fbd c64c a5be 0078 b1be
000001a0: 5c3b 493e 620a c5be 6c01 c2be f8fd 913e
000001b0: 1874 bf3d 7a24 e93e f4da 08be c04d 77be
000001c0: 0089 3dbd 00c9 253b a83c c33e 18ff febe
000001d0: b0d1 11bd fc7b 623e 90f9 8cbe 8415 82be
000001e0: e06e 773e a04b f5be 88a4 f23d 3131 c6be
000001f0: e47e 7e3e eee3 dabe d863 9d3e 8456 f2be
00000200: 622f d7be f46c f13b 9cb9 c93e be3c dbbe
00000210: f061 64be 20d7 e03e e0b8 abbd 1c1d 543e
00000220: 24a1 eebe a403 21be 4a01 82be dcd2 d73e
00000230: 1c80 543e 06cc babe b018 a53d 004f bcbb
00000240: 885d 52be 1432 92be c0e6 29be 36c9 c93e
00000250: a283 b7be 225c b6be 38f6 1dbe c082 0e3c
00000260: 5c5f 0b3e 80d3 753c c880 f6bd c439 9bbe
00000270: 30bd b7bd 781b 4ebe 6cd4 ce3e 5e31 f9be
00000280: ba4a a3be 7247 d0be 9824 bbbd 767e c73e
00000290: e064 e03e b6dc debe 8077 b1bc 6a43 963e
000002a0: 34b0 613e cab0 d13e 403b 63bc 2a01 acbe
000002b0: 105a a93e 8092 2fbe a28d 843e d859 fcbd
000002c0: f0a5 593e c840 e63e 020b ee3e 06fa e8be
000002d0: c656 a9be ecb1 53be 6040 a3be cca1 f53e
000002e0: 80e0 34bd b0d0 a9be a8d5 63be c467 8dbe
000002f0: fce3 503e da4b dfbe f8b1 eebe d85a fcbe
00000300: a86d 5c3e 2829 7d3e 0aff 9ebe 18ee fd3d
00000310: acf9 bc3e e0c9 943d d8a8 d8bd a04f 173d
00000320: 309a 5bbd 52e5 803e b0d3 adbe 78d1 813e
00000330: a249 903e 9a1a 9bbe 500a d13e 7670 fb3e
00000340: 58d8 49be 8868 0fbe 7428 7f3e 3e8e c8be
00000350: 7879 4a3e 70e7 ee3d 4a5d a13e 045d debe
00000360: 50ae d4be 40f4 653e 8c6d 383e b246 eebe
00000370: c6c2 8ebe 083c eabe 7e67 b7be a403 67be
00000380: 90d9 d33e 00d4 cbbd ae08 933e 4a1e f33e
00000390: bc55 693e 822c e5be 34d3 803e 644b 433e
000003a0: b26a c63e f486 fcbe b071 9d3e ee8b d13e
000003b0: 622c eebe 5046 563d 528a da3e de30 babe
000003c0: 40ff 273e c03d 623e ac30 063e 7809 033f
000003d0: 8a9b d13e eca2 db3e d046 7fbd deb5 d63e
000003e0: d491 eebe 2625 8abe a803 dbbd d417 18be
000003f0: 4277 ec3e 1c7e 713e eed0 a43e 3422 ae3e
-0.035032988 -0.47224933 -0.28829253 0.26641306 -0.16958785 0.34511453 0.39526993 0.07273495
-0.03953737 -0.15871358 -0.02528292 0.09101045 -0.38192552 -0.119497836 -0.41590047 0.30687743
-0.31841815 0.4567719 -0.1288904 -0.28643763 0.24022657 0.07453954 0.346228 0.20873487
-0.48166972 0.3162452 -0.09415692 -0.22098553 0.31752694 0.36466515 -0.43946534 -0.045211673
0.41060328 0.19363981 0.42123467 -0.30622298 -0.2758212 0.42995483 0.20841146 0.47999126
-0.2088483 -0.32103342 -0.058606446 -0.47078997 0.19598758 0.3687942 0.120028436 -0.04940343
0.24790317 -0.31737566 0.48912156 -0.49717182 -0.4789726 -0.11815083 0.40842223 0.050062895
0.19202286 -0.36650342 0.18234289 -0.055871725 0.193347 0.35312128 0.21734011 -0.042532086
-0.030799568 -0.3135901 -0.18085104 0.32491904 -0.20049828 0.31051987 -0.19826597 -0.116449416
0.010641098 -0.45883274 -0.004992485 -0.050397873 -0.04491818 -0.0999521 0.39418864 0.36899358
-0.35967156 0.23226339 -0.3921913 -0.42566067 0.15284097 0.0073482394 -0.23325318 -0.48225188
-0.19356805 0.16699976 -0.46280074 -0.48573273 0.06343627 -0.36020207 -0.43804014 -0.1926431
-0.080500424 -0.45435262 -0.33386385 0.032783926 -0.47148585 -0.070277214 -0.32285136 -0.34661865
0.1965155 -0.38484484 -0.3789171 0.28514075 0.09348315 0.45535642 -0.13364774 -0.24150753
-0.04627323 0.0025296807 0.38132215 -0.49803996 -0.035600364 0.22117609 -0.2753415 -0.2540704
0.24163389 -0.4790926 0.11847788 -0.38709405 0.24853092 -0.42752022 0.30740237 -0.4733163
-0.42028338 0.0073677246 0.3939942 -0.4281978 -0.22302985 0.43914127 -0.083848715 0.2071423
-0.46607316 -0.15724045 -0.25391608 0.4215306 0.20751995 -0.36483783 0.080613494 -0.005746722
-0.20543492 -0.28553832 -0.1659193 0.39411324 -0.35842615 -0.35617167 -0.15425956 0.008698165
0.13610595 0.015004039 -0.12036282 -0.3031751 -0.089716315 -0.20127666 0.4039644 -0.48670477
-0.3189295 -0.40679508 -0.09137839 0.3896367 0.43826962 -0.43527764 -0.021663427 0.29348308
0.22039872 0.40955192 -0.013869107 -0.33594638 0.33076525 -0.17145729 0.25889307 -0.12321824
0.21254706 0.449713 0.46492773 -0.45503253 -0.33074015 -0.2067334 -0.31885052 0.47975004
-0.044159412 -0.33167028 -0.22249472 -0.2761823 0.20399469 -0.43612558 -0.46620154 -0.49288058
0.21526206 0.24722731 -0.31053954 0.123989284 0.36909235 0.07265067 -0.105790794 0.03694117
-0.05361384 0.25174958 -0.33950567 0.25355124 0.28181177 -0.30293733 0.4082818 0.49109238
-0.19711435 -0.1400472 0.24917775 -0.39171022 0.19772899 0.11665237 0.31516486 -0.4343034
-0.4153924 0.22456455 0.18010539 -0.4653831 -0.27882975 -0.45748925 -0.35821146 -0.22559983
0.41376925 -0.09952545 0.2871756 0.47484046 0.22786611 -0.4476052 0.25161135 0.19071728
0.38753277 -0.4932171 0.307508 0.4092707 -0.46518236 0.05231315 0.42683655 -0.36365408
0.16405964 0.22093868 0.13104504 0.51186323 0.4093898 0.42897737 -0.06232339 0.4193563
-0.46595633 -0.26981467 -0.10694057 -0.1485284 0.46184736 0.23583263 0.3219065 0.3401047

weight f4 [2, 256]
00000000: 8b38 2cbd e7a5 42bc 9793 613c 5b91 31c0
00000010: d5a7 163d c0c0 f1bc 4fb9 68bc 9931 433d
00000020: 39c7 46bc 19d7 44bd 1997 403d fb56 1a3d
00000030: f091 c6bc bfab 00bc 9fe2 29bd c9cb 68bd
00000040: 7883 9a3c e4b2 b4bc d5c9 383d 75f8 39bd
00000050: 84fd 82bb 8a50 c43b fc1d e13c 6133 623d
00000060: 5b60 403d c7b3 033d 24fb c4bc 77d5 49bd
00000070: 4302 52bd 6a04 caba fd46 653d 64e8 ecbb
00000080: fc4f eebb e205 27bd 9f54 6e3c 4aba 2140
00000090: 0fb4 87bd 453e 21bd 1ba2 503d 4c3f 9f3c
000000a0: a247 433a a000 d63b 7649 9fbb 73f2 45bd
000000b0: b733 5cbd 775c 153d 99f9 36bb 902c e4bc
000000c0: 3743 3cbc 983b f1bc 913e 63bc 21c4 6ebd
000000d0: 8796 523d 2c0c ab3c 5430 dcbc b4c6 d4bc
000000e0: ffdc 053d c49e e3bc f408 ad3c 01e7 4d3c
000000f0: da21 edbc d447 a63c 1051 56ba 2d99 723d
00000100: 603a 93bc 94a4 a9bc c78e 493d c509 3ebd
00000110: a107 163c 01a5 633d 55cb 05bd 1d69 623d
00000120: ad25 503d eb96 803d ca53 adba f792 543d
00000130: 658e 02bd 8c3c 89bc 9ca1 9b3c 1b45 0c3c
00000140: ad3f 1ebe 0b45 603d bd3d 0dbd 50b5 e93c
00000150: fe45 853c 5017 e83c a0c0 cc3c 328c e5bc
00000160: db57 5dbd efe2 393d 0bfe 24bd 07ae 363d
00000170: c571 83bd da36 cabb 5063 82bb fa41 ca3b
00000180: ec2f d739 b45b c73c 6f10 3ebc 17bc 2e3c
00000190: 5152 6a3d 49a8 38bd 381f a13a 1c6b 9dbc
000001a0: 259c 4d3d 5922 483d 7b7e 403b ec7f d7bc
000001b0: 6929 0bbd af30 4a3d 5190 12bc 5917 5e3d
000001c0: 4af3 fd3c e110 4d3d 0d7d 5d3d fb58 13bd
000001d0: 28e3 bb3c 5c54 fabc fb75 133d 6f1d 28bc
000001e0: 8e9a 493a 5b10 44bd 45ce 77bd 2de4 e63c
000001f0: 53ea 213c 1a67 4e3a 9ddc 1a3d 86d2 fbbc
00000200: f0b9 8f3c 90f7 f3bc 341c 903c ffba 1dbc
00000210: 8745 203d 2de1 723d 7d54 4b3d f638 f43b
00000220: 2863 693d 73c4 6cbd 0428 03bd 40ee d53b
00000230: 40ac 8cbb 75f7 35bd 1552 04bd f393 0abd
00000240: d752 88bd 0ae6 ac3a 6b80 1b3d 92d3 f53c
00000250: 65a5 0cbd 7816 7ebd 058c 61bd 5815 be3b
00000260: 2b1e 433d ce5e f5bc 2b50 1ebd 1c1b ebbc
00000270: 8e95 49ba d50f 83bd cde4 4ebd f1fd 683d
00000280: 411a 0dbd b85e 82bc 39ed 45bc b3e2 4dbd
00000290: 2f49 80bc 6cc1 c23c 06ed f5bc 449e 013b
000002a0: 1ee4 a1bb 53d6 6bbd 2b0d 4d3d 47cd 613d
000002b0: e38d 413d c71d 82bc 5087 e53c 9f6e 81bd
000002c0: 90af a4bc df37 04bc eec9 8ebc 2804 b13c
000002d0: e445 c3bc 798d 2abb 94dd b9bc 6bb5 81bd
000002e0: f81c babb 1ff1 45bd 6549 283d a5d5 1b3d
000002f0: 85ce 5c3d 48e8 85bc 3ecc bfba f216 f93b
00000300: 2c47 893d 2faa 7d3d d8f4 e2bc d7d7 6cbd
00000310: bfb7 53bd 954a 0ebd df40 6a3d 94fa d13c
00000320: dc01 853d bbc3 503d 24c9 b53b afac 31bd
00000330: ddf8 663d 2d5e 603d 71d8 013d c0a9 f1bc
00000340: d3a8 363d 4839 893a 8b43 163d 00ab af3c
00000350: 3cda e93c 2f9f 4dbd dede f5bc b78d 2c3d
00000360: e749 09bc e9b3 4bbd 4fcb 553d 539c 573b
00000370: c17f 3b3d f514 35bd 3441 8a3c d2e0 e6bc
00000380: 557b fdbc c0cf 90bc ac7d 97bc 2688 f23c
00000390: a84d 87bc 7917 2f3d c19c 1d3c 3a5a a4bb
000003a0: 87da 00bd 966c 7dbd 21ad 5ebc c009 80bd
000003b0: 0257 e3bb 5491 b93b b109 0ebc 79c3 10bd
000003c0: 3db1 443d a32f 233d 3c2b a4bc 3a47 7d3f
000003d0: c1ee 0d3d 01bd 713d 3564 57bd 68a5 94bc
000003e0: a713 2bbc f459 93bc c38f 6d3d 026b 96bb
000003f0: 8509 463d 4ef8 8dbb 371f 3bbc 5756 28bd
-0.04204611 -0.0118803745 0.013768098 -2.7744968 0.03678115 -0.029510856 -0.014204337 0.047654722
-0.012132459 -0.048056696 0.047019098 0.037680607 -0.02423951 -0.007853447 -0.04147589 -0.05683497
0.018861517 -0.022057958 0.045114357 -0.045402963 -0.0039975066 0.0059910463 0.027480118 0.05522478
0.04696689 0.03215387 -0.024045534 -0.04927584 -0.05127169 -0.0015412692 0.055975903 -0.0072298516
-0.0072727185 -0.040777095 0.014546542 2.5269952 -0.0662614 -0.039366025 0.050935846 0.019439362
0.0007449334 0.006530836 -0.004861052 -0.04832692 -0.053760257 0.036465134 -0.0027919768 -0.02785328
-0.011490635 -0.029447362 -0.013869897 -0.05829251 0.051413085 0.020879827 -0.026878513 -0.025973655
0.03268146 -0.027785666 0.021122433 0.012567283 -0.028946806 0.020297922 -0.00081755314 0.05922811
-0.017972171 -0.02070836 0.04920843 -0.046396036 0.009157092 0.05557728 -0.032664616 0.055276025
0.05081718 0.06278785 -0.0013223824 0.05189797 -0.03187408 -0.016752504 0.01899796 0.008561398
-0.15453978 0.054753345 -0.034482706 0.02852884 0.016268726 0.028331429 0.024994195 -0.028020952
-0.054038864 0.045382436 -0.040281337 0.04459956 -0.06418184 -0.0061710896 -0.003979124 0.006172416
0.000410437 0.02433572 -0.011600598 0.010664961 0.05720741 -0.045082364 0.0012292629 -0.019216113
0.05019774 0.04886088 0.0029372263 -0.026306115 -0.03397504 0.049362835 -0.0089455405 0.054221485
0.030999798 0.050064925 0.054074336 -0.03597353 0.022935465 -0.030557804 0.036001187 -0.010260924
0.0007690572 -0.04786716 -0.06049945 0.028184975 0.009882527 0.00078736397 0.03780805 -0.030740034
0.017544717 -0.029781133 0.017591573 -0.009627103 0.039128806 0.059296776 0.04964112 0.0074530793
0.05697933 -0.057804536 -0.032020584 0.0065286458 -0.0042929947 -0.044425447 -0.032304842 -0.0338325
-0.066564254 0.0013191116 0.037964266 0.030008111 -0.03433742 -0.062033147 -0.055065174 0.005800884
0.047636192 -0.029952433 -0.038650673 -0.02869945 -0.0007689827 -0.06399504 -0.05051117 0.056882802
-0.034448866 -0.015914306 -0.012080484 -0.050265025 -0.015659897 0.023773871 -0.030020248 0.0019778172
-0.0049405238 -0.057577442 0.050061386 0.05512741 0.047254454 -0.01588334 0.028018624 -0.063199274
-0.020103246 -0.008069961 -0.017430272 0.021608427 -0.023837037 -0.0026024266 -0.022688664 -0.06333431
-0.005679723 -0.048325654 0.04108562 0.038045544 0.05390789 -0.016346112 -0.0014633012 0.0076016122
0.06703028 0.061929878 -0.027704641 -0.05782303 -0.051688906 -0.034739096 0.057190772 0.02563218
0.06494495 0.050967913 0.0055476595 -0.043377575 0.05638968 0.054777313 0.031700555 -0.029499888
0.044594597 0.0010469342 0.036685508 0.021443844 0.028546445 -0.050200637 -0.030013498 0.042127337
-0.008379436 -0.049732123 0.052195843 0.0032899573 0.045776132 -0.04420944 0.016876794 -0.028183375
-0.030942598 -0.017677188 -0.018492542 0.029605936 -0.016516522 0.042746995 0.009619893 -0.0050156387
-0.031458404 -0.061871134 -0.013591082 -0.0625186 -0.0069378624 0.0056630764 -0.008669303 -0.035342667
0.04802059 0.03984035 -0.020040147 0.9893681 0.03465152 0.05901814 -0.0525858 -0.018145278
-0.010441697 -0.017987229 0.05799843 -0.004590393 0.048348922 -0.0043325787 -0.011421016 -0.041097965

bias f4 [2]
00000000: ddb1 383d f295 933c
0.0450915 0.018015835
