NODE/submission_models/drifter_52_tanh_1day.pth (torch, 81679 bytes, 4 tensors)

weight f4 [256, 4]
-0.00374341 0.2682218 -0.41152257 -0.3679695 -0.19257718 0.13407868 -0.00990659 0.39644474
-0.044372022 0.13230628 -0.15110654 -0.098282695 -0.4772886 -0.32876995 -0.21764429 0.0067172726
0.1976676 0.3000114 -0.33897054 -0.21773142 0.18160856 0.41519397 -0.10290009 0.37415588
-0.08059168 0.05290705 0.4527381 -0.46383518 -0.31476897 -0.12658262 -0.19489998 0.4320004
-0.32408983 -0.23016644 -0.34932023 -0.4682805 -0.29187024 0.42979902 0.22310919 0.24233627
0.026295781 -0.25634176 0.08459234 -0.46684736 -0.36128312 -0.257765 0.31546897 0.29316062
-0.22174752 -0.018041193 0.31978035 0.49706656 0.19844109 0.06754643 0.33524317 -0.29440117
0.093172014 -0.38765275 -0.34654307 -0.25829178 0.22623652 0.2010802 -0.29617625 0.15105355
0.274486 -0.06310868 0.019090772 0.115852356 0.3101883 0.48009706 -0.38531178 -0.18323487
0.19650495 0.4142747 0.43510365 0.44117838 0.09950727 -0.43479133 0.04599625 -0.31280267
-0.46597707 0.44424623 0.38017988 -0.49876398 0.09358603 -0.084230006 -0.082280576 -0.22887844
0.19227809 -0.29615176 0.18329567 0.25285405 0.3579358 0.18695557 -0.49486762 -0.32434845
0.24965751 0.104650676 -0.390042 -0.28790975 0.47037464 0.33690894 -0.21801257 -0.12584239
-0.47629905 -0.008987069 -0.37652946 -0.38567835 -0.027549803 0.07507253 -0.20476514 0.2966888
-0.30426955 0.45368505 0.34264994 -0.42164147 -0.12444216 0.022561312 0.07295054 0.118587136
0.19621414 0.029950082 -0.24396437 0.2365945 -0.47962445 -0.29635334 -0.12516493 -0.24355668
-0.17491668 -0.40981084 -0.106357574 0.10687822 -0.32561564 -0.025844447 0.3507164 -0.06535907
0.013896108 -0.04313445 0.101190686 0.31791973 -2.1130307 1.6664099 0.7584615 -0.08746116
-0.44916075 -0.23703861 0.3404526 -0.003241241 -0.24852318 -0.38315588 -0.46792603 -0.4220041
-0.101418376 0.274203 0.27032053 -0.48221594 0.31189102 -0.39125472 -0.10570514 -0.20273632
-0.096307635 -0.09817135 -0.44867498 -0.43171895 -0.07823974 0.0064660907 -0.22713745 0.1883496
-0.4500292 -0.03374362 0.43970972 -0.203946 0.45150155 0.18107688 -0.45123047 0.31634867
-0.057697237 -0.22320342 0.39982665 -0.4040476 0.053652465 -0.10468435 0.35705632 0.13957226
0.24025267 0.17657948 -0.12023735 -0.105152726 -0.4120407 0.27092206 0.39698905 0.34211242
-0.35268915 0.022299945 -0.35246706 -0.2752421 -0.29135275 0.17087251 -0.2979566 -0.010908604
0.021034062 0.32231152 -0.37796003 -0.34325612 -0.29033077 0.3499667 -0.1797325 0.42174435
0.18080378 0.06331301 -0.003722012 -0.09884077 0.06273317 -0.11417234 -0.003513217 0.06379652
-0.39110255 -0.2620657 0.40374637 -0.40577334 -0.035903096 0.49461937 0.18061852 0.01415652
-0.43330497 0.24768895 -0.35614038 -0.14193213 -0.16775817 -0.07404369 0.0054691434 0.41240376
0.062419415 0.4478464 0.30585623 -0.31610698 0.22425205 -0.35344803 -0.21191257 0.14706135
0.16608396 0.3733407 -0.16669026 -0.0022487221 0.25741178 -0.48354608 0.3614903 -0.4134612
0.0068912506 -0.08500838 -0.26333648 0.06608552 0.41345936 -0.14615977 -0.29684705 -0.18491942
00000000: 0054 75bb 5e54 893e 16b3 d2be 8066 bcbe
00000010: f432 45be ec4b 093e 404f 22bc cefa ca3e
00000020: 70bf 35bd 4c7b 073e acbb 1abe 7048 c9bd
00000030: 2c5f f4be 8954 a8be 25de 5ebe 911c dc3b
00000040: 6069 4a3e 189b 993e 8c8d adbe fcf4 5ebe
00000050: 98f7 393e 4e94 d43e 48bd d2bd 5c91 bf3e
00000060: 400d a5bd 10b5 583d 4acd e73e ce7b edbe
00000070: 6629 a1be e09e 01be dc93 47be 282f dd3e
00000080: 1aef a5be c0b0 6bbe 1ada b2be 76c2 efbe
00000090: 0470 95be 9e0e dc3e bc76 643e 0027 783e
000000a0: 406a d73c 3a3f 83be c03e ad3d 9e06 efbe
000000b0: 1afa b8be c6f9 83be 2685 a13e 2619 963e
000000c0: c811 63be 20cb 93bc 40ba a33e 827f fe3e
000000d0: 2434 4b3e c855 8a3d fea4 ab3e c0bb 96be
000000e0: f8d0 be3d 6c7a c6be 186e b1be d23e 84be
000000f0: 8caa 673e f8e7 4d3e 6aa4 97be c8ad 1a3e
00000100: 6e89 8c3e 203f 81bd 4064 9c3c 0044 ed3d
00000110: 00d1 9e3e 48cf f53e 9647 c5be eca1 3bbe
00000120: 9838 493e d01b d43e e8c5 de3e 22e2 e13e
00000130: 78ca cb3d f89c debe 9066 3c3d ac27 a0be
00000140: 8c94 eebe 3e74 e33e f0a6 c23e fe5d ffbe
00000150: 08aa bf3d c880 acbd b882 a8bd 1c5f 6abe
00000160: 8ce4 443e 34a1 97be dcb1 3b3e 1676 813e
00000170: 5c43 b73e 4871 3f3e 4a5f fdbe 0011 a6be
00000180: 38a6 7f3e 1853 d63d 96b3 c7be e868 93be
00000190: f2d4 f03e 547f ac3e b03e 5fbe d4dc 00be
000001a0: 78dd f3be 803e 13bc 78c8 c0be a277 c5be
000001b0: 20b0 e1bc a0bf 993d f4ad 51be 98e7 973e
000001c0: 38c9 9bbe 6849 e83e d06f af3e 64e1 d7be
000001d0: 88db febd 80d2 b83c 1867 953d d0dd f23d
000001e0: 5cec 483e e059 f53c ccd1 79be d445 723e
000001f0: 5691 f5be a0bb 97be 3c2b 00be ec66 79be
00000200: 5c1d 33be bad2 d1be 00d2 d9bd f8e2 da3d
00000210: 18b7 a6be bcb7 d3bc 1a91 b33e fada 85bd
00000220: 80ac 633c c0ad 30bd 103d cf3d 60c6 a23e
00000230: e53b 07c0 eb4c d53f 882a 423f d61e b3bd
00000240: 66f8 e5be 40ba 72be ce4f ae3e 006b 54bb
00000250: dc7c 7ebe 022d c4be 0094 efbe ec10 d8be
00000260: 70b4 cfbd 5664 8c3e 7467 8a3e 02e5 f6be
00000270: 2eb0 9f3e 8a52 c8be f07b d8bd 1c9a 4fbe
00000280: f03c c5bd 100e c9bd bab8 e5be 440a ddbe
00000290: 283c a0bd 80e1 d33b b896 68be b8de 403e
000002a0: 3a6a e6be c036 0abd a221 e13e 38d7 50be
000002b0: 362b e73e 386c 393e ae07 e7be 74f8 a13e
000002c0: f053 6cbd 708f 64be 14b6 cc3e 54df cebe
000002d0: b0c2 5b3d c064 d6bd 16d0 b63e 08ec 0e3e
000002e0: cc04 763e 40d1 343e 003f f6bd 505a d7bd
000002f0: 00f7 d2be 4cb6 8a3e 2642 cb3e 5c29 af3e
00000300: ac93 b4be 60ae b63c 9076 b4be 88ec 8cbe
00000310: 302c 95be 34f9 2e3e c48d 98be 00ba 32bc
00000320: a04f ac3c 0406 a53e fa83 c1be 44bf afbe
00000330: 3ca6 94be d62e b33e cc0b 38be e0ee d73e
00000340: a024 393e 40aa 813d 00ed 73bb 086d cabd
00000350: 407a 803d 30d3 e9bd 003e 66bb c0a7 823d
00000360: 983e c8be 7a2d 86be d8b7 ce3e 86c1 cfbe
00000370: 200f 13bd c03e fd3e 10f4 383e c0f0 673c
00000380: 26da ddbe 2ca2 7d3e 0858 b6be a856 11be
00000390: ccc8 2bbe 38a4 97bd 8036 b33b 9626 d33e
000003a0: 80ab 7f3d 204c e53e 3099 9c3e c6d8 a1be
000003b0: 54a2 653e 24f7 b4be 9cff 58be 4097 163e
000003c0: ea11 2a3e 8326 bf3e dab0 2abe 4c5f 13bb
000003d0: 7acb 833e 5a93 f7be 4215 b93e 30b1 d3be
000003e0: 00d0 e13b e018 aebd 0ad4 86be d857 873d
000003f0: f2b0 d33e e8aa 15be 56fc 97be 845b 3dbe

bias f4 [256]
-0.035032988 -0.47224933 -0.28829253 0.19832271 -0.16958785 0.34511453 0.39526993 0.07273495
-0.03953737 -0.15871358 -0.02528292 0.09101045 -0.38192552 -0.119497836 -0.41590047 0.30687743
-0.31841815 0.4567719 -0.1288904 -0.28643763 0.24022657 0.07453954 0.346228 0.20873487
-0.48166972 0.3162452 -0.09415692 -0.22098553 0.31752694 0.36466515 -0.43946534 -0.045211673
0.41060328 0.1931953 0.42123467 -0.6443582 -0.2758212 0.42995483 0.20841146 0.47999126
-0.2088483 -0.32103342 -0.058606446 -0.47078997 0.19598758 0.3687942 0.120028436 -0.04940343
0.24790317 -0.31737566 0.48912156 -0.49717182 -0.4789726 -0.11815083 0.40842223 0.050062895
0.19202286 -0.36650342 0.18234289 -0.055871725 0.1992334 0.35312128 0.21734011 -0.042532086
-0.030799568 -0.3135901 -0.18085104 0.32491904 -0.20049828 0.31051987 -0.19826597 -0.116449416
0.010641098 -0.45883274 -0.004992485 -0.050397873 -0.04491818 -0.0999521 0.39418864 0.36899358
-0.2592127 0.23226339 -0.3921913 -0.42566067 0.15284097 0.0073482394 -0.23325318 -0.48225188
-0.19356805 0.16699976 -0.46280074 -0.48573273 0.06343627 -0.36020207 -0.43804014 -0.1926431
-0.080500424 -0.45435262 -0.33386385 0.032783926 -0.47148585 -0.070277214 -0.32285136 -0.34661865
0.1965155 -0.38484484 -0.3789171 0.28514075 0.09348315 0.45535642 -0.13364774 -0.24150753
-0.04627323 0.0025296807 0.38132215 -0.49803996 -0.035600364 0.22117609 -0.2753415 -0.2540704
0.24163389 -0.4790926 0.11847788 -0.38909775 0.24853092 -0.42752022 0.30740237 -0.4733163
-0.42028338 0.0073296153 0.3939942 -0.4281978 -0.22302985 0.43914127 -0.083848715 0.2071423
-0.48527935 -0.15724045 -0.25391608 0.4215306 0.20751995 -0.36483783 0.080613494 -0.005746722
-0.20543492 -0.28553832 -0.1659193 0.39411324 -0.35842615 -0.35617167 -0.15425956 0.008698165
0.13610595 0.015004039 -0.12036282 -0.3031751 -0.089716315 -0.20127666 0.4039644 -0.48670477
-0.3189295 -0.40679508 -0.09137839 0.3896367 0.43826962 -0.43527764 -0.021663427 0.29348308
0.22039872 0.40955192 -0.013869107 -0.33594638 0.33076525 -0.17145729 0.25889307 -0.12321824
0.21254706 0.449713 0.46492773 -0.45503253 -0.33074015 -0.2067334 -0.31885052 0.47975004
-0.044159412 -0.33167028 -0.22249472 -0.2761823 0.20399469 -0.43612558 -0.46620154 -0.49288058
0.21526206 0.24722731 -0.31053954 0.123989284 0.36909235 0.07265067 -0.105790794 0.03694117
-0.05361384 0.25174958 -0.33950567 0.25355124 0.28181177 -0.30293733 0.4082818 0.49109238
-0.19711435 -0.1400472 0.24917775 -0.39171022 0.19772899 0.11665237 0.31516486 -0.8308898
-0.4153924 0.22456455 0.18010539 -0.4653831 -0.27882975 -0.45748925 -0.35821146 -0.22559983
0.41376925 -0.09952545 0.2871756 0.47484046 0.22786611 -0.4476052 0.25161135 0.19071728
0.38753277 -0.4932171 0.307508 0.4092707 -0.46518236 0.05231315 0.42683655 -0.36365408
0.16405964 0.22093868 0.13104504 0.28665823 0.4093898 0.42897737 -0.06232339 0.4193563
-0.46595633 -0.26981467 -0.10694057 -0.1485284 0.46184736 0.23583263 0.3219065 0.3401047
00000000: c07e 0fbd aaca f1be 149b 93be 1c15 4b3e
00000010: 70a8 2dbe dab2 b03e d260 ca3e 10f6 943d
00000020: f0f1 21bd d085 22be 201e cfbc b063 ba3d
00000030: be8b c3be 48bb f4bd e8f0 d4be 0a1f 9d3e
00000040: b407 a3be 02de e93e d8fb 03be f4a7 92be
00000050: f4fd 753e 30a8 983d cc44 b13e 98be 553e
00000060: 6a9d f6be e4ea a13e 58d5 c0bd 084a 62be
00000070: e492 a23e 64b5 ba3e 9a01 e1be e02f 39bd
00000080: 983a d23e fdd4 453e 12ac d73e a9f4 24bf
00000090: 7038 8dbe 0a23 dc3e d069 553e 6ac1 f53e
000000a0: 54dc 55be 7e5e a4be 500d 70bd 620b f1be
000000b0: f8b0 483e 98d2 bc3e 78d1 f53d 405b 4abd
000000c0: 54da 7d3e 107f a2be 246e fa3e 4e8d febe
000000d0: e63b f5be 10f9 f1bd b81c d13e c00e 4d3d
000000e0: a4a1 443e 56a6 bbbe 18b8 3a3e c0d9 64bd
000000f0: d703 4c3e 50cc b43e 688e 5e3e 2036 2ebd
00000100: 604f fcbc e28e a0be 0431 39be ca5b a63e
00000110: 6c4f 4dbe 76fc 9e3e 3c06 4bbe 087d eebd
00000120: 0058 2e3c 20ec eabe 0098 a3bb 006e 4ebd
00000130: 20fc 37bd b0b3 ccbd 18d3 c93e baec bc3e
00000140: 87b7 84be 74d6 6d3e 4ccd c8be 32f0 d9be
00000150: 5882 1c3e 80c9 f03b ecd9 6ebe b8e9 f6be
00000160: b436 46be fc01 2b3e 38f4 ecbe f6b1 f8be
00000170: e0ea 813d 686c b8be cc46 e0be 3c44 45be
00000180: 68dd a4bd e8a0 e8be 34f0 aabe 7048 063d
00000190: 9866 f1be 80ed 8fbd c64c a5be 0078 b1be
000001a0: 5c3b 493e 620a c5be 6c01 c2be f8fd 913e
000001b0: 1874 bf3d 7a24 e93e f4da 08be c04d 77be
000001c0: 0089 3dbd 00c9 253b a83c c33e 18ff febe
000001d0: b0d1 11bd fc7b 623e 90f9 8cbe 8415 82be
000001e0: e06e 773e a04b f5be 88a4 f23d d237 c7be
000001f0: e47e 7e3e eee3 dabe d863 9d3e 8456 f2be
00000200: 622f d7be 452d f03b 9cb9 c93e be3c dbbe
00000210: f061 64be 20d7 e03e e0b8 abbd 1c1d 543e
00000220: 8976 f8be a403 21be 4a01 82be dcd2 d73e
00000230: 1c80 543e 06cc babe b018 a53d 004f bcbb
00000240: 885d 52be 1432 92be c0e6 29be 36c9 c93e
00000250: a283 b7be 225c b6be 38f6 1dbe c082 0e3c
00000260: 5c5f 0b3e 80d3 753c c880 f6bd c439 9bbe
00000270: 30bd b7bd 781b 4ebe 6cd4 ce3e 5e31 f9be
00000280: ba4a a3be 7247 d0be 9824 bbbd 767e c73e
00000290: e064 e03e b6dc debe 8077 b1bc 6a43 963e
000002a0: 34b0 613e cab0 d13e 403b 63bc 2a01 acbe
000002b0: 105a a93e 8092 2fbe a28d 843e d859 fcbd
000002c0: f0a5 593e c840 e63e 020b ee3e 06fa e8be
000002d0: c656 a9be ecb1 53be 6040 a3be cca1 f53e
000002e0: 80e0 34bd b0d0 a9be a8d5 63be c467 8dbe
000002f0: fce3 503e da4b dfbe f8b1 eebe d85a fcbe
00000300: a86d 5c3e 2829 7d3e 0aff 9ebe 18ee fd3d
00000310: acf9 bc3e e0c9 943d d8a8 d8bd a04f 173d
00000320: 309a 5bbd 52e5 803e b0d3 adbe 78d1 813e
00000330: a249 903e 9a1a 9bbe 500a d13e 7670 fb3e
00000340: 58d8 49be 8868 0fbe 7428 7f3e 3e8e c8be
00000350: 7879 4a3e 70e7 ee3d 4a5d a13e 32b5 54bf
00000360: 50ae d4be 40f4 653e 8c6d 383e b246 eebe
00000370: c6c2 8ebe 083c eabe 7e67 b7be a403 67be
00000380: 90d9 d33e 00d4 cbbd ae08 933e 4a1e f33e
00000390: bc55 693e 822c e5be 34d3 803e 644b 433e
000003a0: b26a c63e f486 fcbe b071 9d3e ee8b d13e
000003b0: 622c eebe 5046 563d 528a da3e de30 babe
000003c0: 40ff 273e c03d 623e ac30 063e dec4 923e
000003d0: 8a9b d13e eca2 db3e d046 7fbd deb5 d63e
000003e0: d491 eebe 2625 8abe a803 dbbd d417 18be
000003f0: 4277 ec3e 1c7e 713e eed0 a43e 3422 ae3e

weight f4 [2, 256]
-0.038690343 -0.0152361095 0.017123854 0.023241732 0.04013692 -0.032866552 -0.010848606 0.044298954
-0.008776724 -0.051412463 0.050374866 0.03432484 -0.027595336 -0.0044976985 -0.03812012 -0.060190737
0.015505693 -0.018702133 0.04175859 -0.042047195 -0.000641751 0.009346804 0.024124293 0.058580548
0.05032266 0.03550963 -0.02068971 -0.05263161 -0.04791592 -0.00489703 0.052620135 -0.0038740928
-0.010628456 -0.037438765 0.011190811 2.0360854 -0.06961686 -0.036010258 0.054291613 0.022795187
0.0041006934 0.0031750791 -0.0015053051 -0.05168269 -0.05040449 0.033109367 0.0005637853 -0.031209106
-0.0081349015 -0.026091537 -0.010514164 -0.06164828 0.054768853 0.017524002 -0.023522688 -0.02932948
0.03603722 -0.031141492 0.024478259 0.009211548 -0.0311383 0.023653748 -0.0041733147 0.062583864
-0.014616363 -0.024064185 0.04585266 -0.043040268 0.012512825 0.052221514 -0.036020376 0.051920258
0.047461413 0.066143386 0.0020333768 0.0485422 -0.03522984 -0.013396705 0.015642134 0.0052056415
-1.4103404 0.051397577 -0.03112695 0.025173014 0.012912935 0.024975603 0.02163837 -0.03137678
-0.05739463 0.04202667 -0.043637104 0.047955327 -0.06753733 -0.0028153367 -0.007334886 0.002816663
-0.0029453228 0.027691545 -0.014956333 0.0073092273 0.05385164 -0.04843813 0.0045850202 -0.015860287
0.04684197 0.045505114 0.006292995 -0.02966194 -0.030619262 0.052718602 -0.012301274 0.050865717
0.027643958 0.046709158 0.057430103 -0.032617763 0.02629129 -0.033913556 0.039356954 -0.013616659
-0.0025867021 -0.051222928 -0.06385521 0.0314442 0.0065267915 -0.0025683965 0.034452282 -0.034095787
0.0141889155 -0.026427228 0.020947402 -0.006271366 0.03577304 0.06265251 0.046285354 0.010808809
0.045410547 -0.05444877 -0.028664736 0.0031728887 -0.00764875 -0.04106968 -0.035660602 -0.03718826
-0.06991974 -0.0020366474 0.0346085 0.033363838 -0.037693188 -0.06538879 -0.05842094 0.009156637
0.05099196 -0.033308167 -0.04200644 -0.025343625 0.0025867766 -0.06735053 -0.047155403 0.053527035
-0.037804633 -0.019270105 -0.008724749 -0.046909258 -0.019015672 0.027129697 -0.03337597 0.005333582
-0.008296279 -0.054221675 0.053417154 0.058483176 0.050610222 -0.012527553 0.024662798 -0.06655476
-0.023459071 -0.004714204 -0.014074469 0.018252602 -0.020481212 0.0007533351 -0.02604449 -0.0666898
-0.0023239746 -0.044969887 0.044441387 0.04140131 0.050552122 -0.0129903145 -0.004819058 0.004245868
0.07038578 0.065285526 -0.024348816 -0.061178796 -0.04833314 -0.038094863 0.06054654 0.028988006
0.06830043 0.05432368 0.008903414 -0.046733342 0.05303391 0.05813308 0.035056315 -0.026144063
0.04123883 -0.0023088248 0.03332974 0.018088019 0.02519062 -0.04684487 -0.026657669 2.6991913
-0.0050236816 -0.046376355 0.048840076 0.0066457307 0.042420365 -0.04085367 0.013520986 -0.031539205
-0.034298327 -0.021033017 -0.015136726 0.026250107 -0.01987235 0.039391227 0.006264154 -0.0016598896
-0.028102553 -0.06522674 -0.010235349 -0.06587414 -0.0035821055 0.009018831 -0.012025036 -0.038698435
0.051376358 0.04319612 -0.023395972 0.52129334 0.031295754 0.0623739 -0.04923003 -0.021501107
-0.013797432 -0.01463142 0.061354198 -0.0012346517 0.044993155 -0.007688336 -0.014776751 -0.044453733
00000000: c479 1ebd e0a0 79bc 5347 8c3c 7265 be3c
00000010: 9c66 243d 149f 06bd 5abe 31bc d272 353d
00000020: 40cc 0fbc e095 52bd e055 4e3d 3498 0c3d
00000030: 9d0f e2bc 6e61 93bb d823 1cbd 908a 76bd
00000040: 970b 7e3c 3735 99bc 0e0b 2b3d ae39 2cbd
00000050: 2e3b 28ba 5623 193c 4fa0 c53c 28f2 6f3d
00000060: 221f 4e3d 8c72 113d 777d a9bc 3e94 57bd
00000070: 7c43 44bd 4477 a0bb 3688 573d 7ee4 7dbb
00000080: fa22 2ebc 6459 19bd aa59 373c 394f 0240
00000090: 4993 8ebd 7e7f 13bd e260 5e3d f9bc ba3c
000000a0: 1c5f 863b fd14 503b a84d c5ba 3ab1 53bd
000000b0: f074 4ebd b09d 073d feca 133a 3daa ffbc
000000c0: 4048 05bc ebbd d5bc 9a43 2cbc e882 7cbd
000000d0: 4e55 603d 7f8e 8f3c a7b2 c0bc 6144 f0bc
000000e0: c49b 133d 711c ffbc a186 c83c 08ec 163c
000000f0: c015 ffbc 81c5 c13c 4dc0 88bb f82b 803d
00000100: 7879 6fbc 4122 c5bc 00d0 3b3d fe4a 30bd
00000110: 9802 4d3c 3ae6 553d 1a8a 13bd 56aa 543d
00000120: e666 423d 2f76 873d 6742 053b 30d4 463d
00000130: 2a4d 10bd da7d 5bbc ef23 803c 1694 aa3b
00000140: 0986 b4bf 4486 523d f2fd febc a337 ce3c
00000150: c690 533c a399 cc3c f342 b13c f084 00bd
00000160: a216 6bbd 2824 2c3d d2bc 32bd ce6c 443d
00000170: 0351 8abd 8381 38bb 7c59 f0bb c397 383b
00000180: 5106 41bb 61d9 e23c 680b 75bc 3e82 ef3b
00000190: 8a93 5c3d 1067 46bd f03d 963b 6fed 81bc
000001a0: 5edd 3f3d 9263 3a3d 7835 ce3b 99fd f2bc
000001b0: 3fd5 fabc 76ef 573d 488b 49bc 9258 503d
000001c0: 9575 e23c 1a52 3f3d d43b 6b3d 349a 05bd
000001d0: d560 d73c f1e8 0abd c234 213d 6818 5fbc
000001e0: a985 29bb 22cf 51bd 85c6 82bd a2cb 003d
000001f0: b2de d53b 8b52 28bb d61d 0d3d 06a8 0bbd
00000200: a078 683c ea7d d8bc e399 ab3c 0880 cdbb
00000210: c086 123d f64f 803d b695 3d3d 6e17 313c
00000220: 6900 3a3d ac05 5fbd 4fd2 eabc 3df0 4f3b
00000230: 5ea2 fabb ae38 28bd da10 12bd b852 18bd
00000240: 1532 8fbd 4679 05bb a4c1 0d3d 85a8 083d
00000250: 2c64 1abd 8fea 85bd cc4a 6fbd b805 163c
00000260: f2dc 503d 256e 08bd f20e 2cbd 6f9d cfbc
00000270: e986 293b 13ef 89bd 0626 41bd 2a3f 5b3d
00000280: 08d9 1abd 57dc 9dbc 40f2 0ebc ec23 40bd
00000290: c1c6 9bbc 193f de3c 3eb5 08bd 54c5 ae3b
000002a0: 1eed 07bc 8c17 5ebd f2cb 5a3d 0e8c 6f3d
000002b0: aa4c 4f3d 5e40 4dbc a309 ca3c dd4d 88bd
000002c0: 3d2d c0bc 9c79 9abb 9a98 66bc 7b86 953c
000002d0: 37c8 a7bc 767b 453a 415b d5bc a994 88bd
000002e0: d34d 18bb 5832 38bd 2c08 363d 6c94 293d
000002f0: be0f 4f3d 54d5 54bc 30e9 9dbb ec20 8b3b
00000300: 6b26 903d 6bb4 853d 2b77 c7bc 9e96 7abd
00000310: f8f8 45bd 5c09 1cbd a6ff 773d 4178 ed3c
00000320: 19e1 8b3d 8282 5e3d a0df 113c 766b 3fbd
00000330: 163a 593d f41c 6e3d 3697 0f3d 132c d6bc
00000340: 0cea 283d a74f 17bb c484 083d 532d 943c
00000350: 8f5c ce3c 68e0 3fbd 2f61 dabc 8dbf 2c40
00000360: b29d a4bb 22f5 3dbd 880c 483d 6ec4 d93b
00000370: fac0 2d3d 2e56 27bd 2087 5d3c 412f 01bd
00000380: 677c 0cbd 6f4d acbc 0800 78bc 770a d73c
00000390: 57cb a2bc b258 213d 8843 cd3b a790 d9ba
000003a0: 5337 e6bc 9995 85bd 2ab2 27bc 05e9 86bd
000003b0: c2c1 6abb b8c3 133c a804 45bc 4082 1ebd
000003c0: 0470 523d 6aee 303d e9a8 bfbc 7b73 053f
000003d0: fa2f 003d c67b 7f3d 6ea5 49bd 1723 b0bc
000003e0: a00e 62bc a0b8 6fbc 8a4e 7b3d 09d4 a1ba
000003f0: be4a 383d 70ee fbbb 301a 72bc 1e15 36bd

bias f4 [2]
0.041735865 0.02982253
00000000: 3af3 2a3d 614e f43c
