NODE/submission_models/drifter_2_tanh_1day.pth (torch, 81679 bytes, 4 tensors)

weight f4 [256, 4]
000000 00 54 75 bb 5e 54 89 3e 16 b3 d2 be 80 66 bc be
       -0.00374341 0.2682218 -0.41152257 -0.3679695
000010 f4 32 45 be ec 4b 09 3e 40 4f 22 bc ce fa ca 3e
       -0.19257718 0.13407868 -0.00990659 0.39644474
000020 70 bf 35 bd 4c 7b 07 3e ac bb 1a be 70 48 c9 bd
       -0.044372022 0.13230628 -0.15110654 -0.098282695
000030 85 cc f5 be 7d f3 a8 be 0f 87 5f be ed 91 b7 3b
       -0.480076 -0.32998267 -0.21828865 0.0056021125
000040 60 69 4a 3e 18 9b 99 3e 8c 8d ad be fc f4 5e be
       0.1976676 0.3000114 -0.33897054 -0.21773142
000050 98 f7 39 3e 4e 94 d4 3e 48 bd d2 bd 5c 91 bf 3e
       0.18160856 0.41519397 -0.10290009 0.37415588
000060 40 0d a5 bd 10 b5 58 3d 4a cd e7 3e ce 7b ed be
       -0.08059168 0.05290705 0.4527381 -0.46383518
000070 66 29 a1 be e0 9e 01 be dc 93 47 be 28 2f dd 3e
       -0.31476897 -0.12658262 -0.19489998 0.4320004
000080 1a ef a5 be c0 b0 6b be 1a da b2 be 76 c2 ef be
       -0.32408983 -0.23016644 -0.34932023 -0.4682805
000090 04 70 95 be 9e 0e dc 3e bc 76 64 3e 00 27 78 3e
       -0.29187024 0.42979902 0.22310919 0.24233627
0000a0 40 6a d7 3c 3a 3f 83 be c0 3e ad 3d 9e 06 ef be
       0.026295781 -0.25634176 0.08459234 -0.46684736
0000b0 1a fa b8 be c6 f9 83 be 26 85 a1 3e 26 19 96 3e
       -0.36128312 -0.257765 0.31546897 0.29316062
0000c0 c8 11 63 be 20 cb 93 bc 40 ba a3 3e 82 7f fe 3e
       -0.22174752 -0.018041193 0.31978035 0.49706656
0000d0 24 34 4b 3e c8 55 8a 3d fe a4 ab 3e c0 bb 96 be
       0.19844109 0.06754643 0.33524317 -0.29440117
0000e0 f8 d0 be 3d 6c 7a c6 be 18 6e b1 be d2 3e 84 be
       0.093172014 -0.38765275 -0.34654307 -0.25829178
0000f0 8c aa 67 3e f8 e7 4d 3e 6a a4 97 be c8 ad 1a 3e
       0.22623652 0.2010802 -0.29617625 0.15105355
000100 6e 89 8c 3e 20 3f 81 bd 40 64 9c 3c 00 44 ed 3d
       0.274486 -0.06310868 0.019090772 0.115852356
000110 00 d1 9e 3e 48 cf f5 3e 96 47 c5 be ec a1 3b be
       0.3101883 0.48009706 -0.38531178 -0.18323487
000120 98 38 49 3e d0 1b d4 3e e8 c5 de 3e 22 e2 e1 3e
       0.19650495 0.4142747 0.43510365 0.44117838
000130 78 ca cb 3d f8 9c de be 90 66 3c 3d ac 27 a0 be
       0.09950727 -0.43479133 0.04599625 -0.31280267
000140 8c 94 ee be 3e 74 e3 3e f0 a6 c2 3e fe 5d ff be
       -0.46597707 0.44424623 0.38017988 -0.49876398
000150 08 aa bf 3d c8 80 ac bd b8 82 a8 bd 1c 5f 6a be
       0.09358603 -0.084230006 -0.082280576 -0.22887844
000160 8c e4 44 3e 34 a1 97 be dc b1 3b 3e 16 76 81 3e
       0.19227809 -0.29615176 0.18329567 0.25285405
000170 5c 43 b7 3e 48 71 3f 3e 4a 5f fd be 00 11 a6 be
       0.3579358 0.18695557 -0.49486762 -0.32434845
000180 38 a6 7f 3e 18 53 d6 3d 96 b3 c7 be e8 68 93 be
       0.24965751 0.104650676 -0.390042 -0.28790975
000190 f2 d4 f0 3e 54 7f ac 3e b0 3e 5f be d4 dc 00 be
       0.47037464 0.33690894 -0.21801257 -0.12584239
0001a0 78 dd f3 be 80 3e 13 bc 78 c8 c0 be a2 77 c5 be
       -0.47629905 -0.008987069 -0.37652946 -0.38567835
0001b0 20 b0 e1 bc a0 bf 99 3d f4 ad 51 be 98 e7 97 3e
       -0.027549803 0.07507253 -0.20476514 0.2966888
0001c0 38 c9 9b be 68 49 e8 3e d0 6f af 3e 64 e1 d7 be
       -0.30426955 0.45368505 0.34264994 -0.42164147
0001d0 88 db fe bd 80 d2 b8 3c 18 67 95 3d d0 dd f2 3d
       -0.12444216 0.022561312 0.07295054 0.118587136
0001e0 5c ec 48 3e e0 59 f5 3c cc d1 79 be d4 45 72 3e
       0.19621414 0.029950082 -0.24396437 0.2365945
0001f0 56 91 f5 be a0 bb 97 be 3c 2b 00 be ec 66 79 be
       -0.47962445 -0.29635334 -0.12516493 -0.24355668
000200 5c 1d 33 be ba d2 d1 be 00 d2 d9 bd f8 e2 da 3d
       -0.17491668 -0.40981084 -0.106357574 0.10687822
000210 a9 ac a6 be 4e c6 d1 bc 44 15 b4 3e cc 11 6f bd
       -0.32553604 -0.025607254 0.35172474 -0.05836658
000220 80 ac 63 3c c0 ad 30 bd 10 3d cf 3d 60 c6 a2 3e
       0.013896108 -0.04313445 0.101190686 0.31791973
000230 03 cf 8d bf ce 49 d2 3f 38 fd 22 3f 33 1c 80 bd
       -1.10788 1.6428773 0.6366763 -0.062553786
000240 66 f8 e5 be 40 ba 72 be ce 4f ae 3e 00 6b 54 bb
       -0.44916075 -0.23703861 0.3404526 -0.003241241
000250 dc 7c 7e be 02 2d c4 be 00 94 ef be ec 10 d8 be
       -0.24852318 -0.38315588 -0.46792603 -0.4220041
000260 70 b4 cf bd 56 64 8c 3e 74 67 8a 3e 02 e5 f6 be
       -0.101418376 0.274203 0.27032053 -0.48221594
000270 2e b0 9f 3e 8a 52 c8 be f0 7b d8 bd 1c 9a 4f be
       0.31189102 -0.39125472 -0.10570514 -0.20273632
000280 f0 3c c5 bd 10 0e c9 bd ba b8 e5 be 44 0a dd be
       -0.096307635 -0.09817135 -0.44867498 -0.43171895
000290 28 3c a0 bd 80 e1 d3 3b b8 96 68 be b8 de 40 3e
       -0.07823974 0.0064660907 -0.22713745 0.1883496
0002a0 3a 6a e6 be c0 36 0a bd a2 21 e1 3e 38 d7 50 be
       -0.4500292 -0.03374362 0.43970972 -0.203946
0002b0 36 2b e7 3e 38 6c 39 3e ae 07 e7 be 74 f8 a1 3e
       0.45150155 0.18107688 -0.45123047 0.31634867
0002c0 f0 53 6c bd 70 8f 64 be 14 b6 cc 3e 54 df ce be
       -0.057697237 -0.22320342 0.39982665 -0.4040476
0002d0 b0 c2 5b 3d c0 64 d6 bd 16 d0 b6 3e 08 ec 0e 3e
       0.053652465 -0.10468435 0.35705632 0.13957226
0002e0 cc 04 76 3e 40 d1 34 3e 00 3f f6 bd 50 5a d7 bd
       0.24025267 0.17657948 -0.12023735 -0.105152726
0002f0 00 f7 d2 be 4c b6 8a 3e 26 42 cb 3e 5c 29 af 3e
       -0.4120407 0.27092206 0.39698905 0.34211242
000300 ac 93 b4 be 60 ae b6 3c 90 76 b4 be 88 ec 8c be
       -0.35268915 0.022299945 -0.35246706 -0.2752421
000310 30 2c 95 be 34 f9 2e 3e c4 8d 98 be 00 ba 32 bc
       -0.29135275 0.17087251 -0.2979566 -0.010908604
000320 a0 4f ac 3c 04 06 a5 3e fa 83 c1 be 44 bf af be
       0.021034062 0.32231152 -0.37796003 -0.34325612
000330 3c a6 94 be d6 2e b3 3e cc 0b 38 be e0 ee d7 3e
       -0.29033077 0.3499667 -0.1797325 0.42174435
000340 a0 24 39 3e 40 aa 81 3d 00 ed 73 bb 08 6d ca bd
       0.18080378 0.06331301 -0.003722012 -0.09884077
000350 40 7a 80 3d 30 d3 e9 bd 00 3e 66 bb c0 a7 82 3d
       0.06273317 -0.11417234 -0.003513217 0.06379652
000360 98 3e c8 be 7a 2d 86 be d8 b7 ce 3e 86 c1 cf be
       -0.39110255 -0.2620657 0.40374637 -0.40577334
000370 20 0f 13 bd c0 3e fd 3e 10 f4 38 3e c0 f0 67 3c
       -0.035903096 0.49461937 0.18061852 0.01415652
000380 26 da dd be 2c a2 7d 3e 08 58 b6 be a8 56 11 be
       -0.43330497 0.24768895 -0.35614038 -0.14193213
000390 cc c8 2b be 38 a4 97 bd 80 36 b3 3b 96 26 d3 3e
       -0.16775817 -0.07404369 0.0054691434 0.41240376
0003a0 80 ab 7f 3d 20 4c e5 3e 30 99 9c 3e c6 d8 a1 be
       0.062419415 0.4478464 0.30585623 -0.31610698
0003b0 54 a2 65 3e 24 f7 b4 be 9c ff 58 be 40 97 16 3e
       0.22425205 -0.35344803 -0.21191257 0.14706135
0003c0 24 9b f2 bf 61 43 60 40 cd 27 e1 be 61 09 34 3d
       -1.8953595 3.5041125 -0.43975678 0.043954257
0003d0 7a cb 83 3e 5a 93 f7 be 42 15 b9 3e 30 b1 d3 be
       0.25741178 -0.48354608 0.3614903 -0.4134612
0003e0 00 d0 e1 3b e0 18 ae bd 0a d4 86 be d8 57 87 3d
       0.0068912506 -0.08500838 -0.26333648 0.06608552
0003f0 f2 b0 d3 3e e8 aa 15 be 56 fc 97 be 84 5b 3d be
       0.41345936 -0.14615977 -0.29684705 -0.18491942

bias f4 [256]
000000 c0 7e 0f bd aa ca f1 be 14 9b 93 be eb 05 47 3e
       -0.035032988 -0.47224933 -0.28829253 0.19435851
000010 70 a8 2d be da b2 b0 3e d2 60 ca 3e 10 f6 94 3d
       -0.16958785 0.34511453 0.39526993 0.07273495
000020 f0 f1 21 bd d0 85 22 be 20 1e cf bc b0 63 ba 3d
       -0.03953737 -0.15871358 -0.02528292 0.09101045
000030 be 8b c3 be 48 bb f4 bd e8 f0 d4 be 0a 1f 9d 3e
       -0.38192552 -0.119497836 -0.41590047 0.30687743
000040 b4 07 a3 be 02 de e9 3e d8 fb 03 be f4 a7 92 be
       -0.31841815 0.4567719 -0.1288904 -0.28643763
000050 f4 fd 75 3e 30 a8 98 3d cc 44 b1 3e 98 be 55 3e
       0.24022657 0.07453954 0.346228 0.20873487
000060 6a 9d f6 be e4 ea a1 3e 58 d5 c0 bd 08 4a 62 be
       -0.48166972 0.3162452 -0.09415692 -0.22098553
000070 e4 92 a2 3e 64 b5 ba 3e 9a 01 e1 be e0 2f 39 bd
       0.31752694 0.36466515 -0.43946534 -0.045211673
000080 98 3a d2 3e a7 a3 45 3e 12 ac d7 3e 80 96 09 be
       0.41060328 0.1930071 0.42123467 -0.13436317
000090 70 38 8d be 0a 23 dc 3e d0 69 55 3e 6a c1 f5 3e
       -0.2758212 0.42995483 0.20841146 0.47999126
0000a0 54 dc 55 be 7e 5e a4 be 50 0d 70 bd 62 0b f1 be
       -0.2088483 -0.32103342 -0.058606446 -0.47078997
0000b0 f8 b0 48 3e 98 d2 bc 3e 78 d1 f5 3d 40 5b 4a bd
       0.19598758 0.3687942 0.120028436 -0.04940343
0000c0 54 da 7d 3e 10 7f a2 be 24 6e fa 3e 4e 8d fe be
       0.24790317 -0.31737566 0.48912156 -0.49717182
0000d0 e6 3b f5 be 10 f9 f1 bd b8 1c d1 3e c0 0e 4d 3d
       -0.4789726 -0.11815083 0.40842223 0.050062895
0000e0 a4 a1 44 3e 56 a6 bb be 18 b8 3a 3e c0 d9 64 bd
       0.19202286 -0.36650342 0.18234289 -0.055871725
0000f0 7e f4 6d 3e 50 cc b4 3e 68 8e 5e 3e 20 36 2e bd
       0.23237798 0.35312128 0.21734011 -0.042532086
000100 60 4f fc bc e2 8e a0 be 04 31 39 be ca 5b a6 3e
       -0.030799568 -0.3135901 -0.18085104 0.32491904
000110 6c 4f 4d be 76 fc 9e 3e 3c 06 4b be 08 7d ee bd
       -0.20049828 0.31051987 -0.19826597 -0.116449416
000120 00 58 2e 3c 20 ec ea be 00 98 a3 bb 00 6e 4e bd
       0.010641098 -0.45883274 -0.004992485 -0.050397873
000130 20 fc 37 bd b0 b3 cc bd 18 d3 c9 3e ba ec bc 3e
       -0.04491818 -0.0999521 0.39418864 0.36899358
000140 98 ec b0 be 74 d6 6d 3e 4c cd c8 be 32 f0 d9 be
       -0.34555507 0.23226339 -0.3921913 -0.42566067
000150 58 82 1c 3e 80 c9 f0 3b ec d9 6e be b8 e9 f6 be
       0.15284097 0.0073482394 -0.23325318 -0.48225188
000160 b4 36 46 be fc 01 2b 3e 38 f4 ec be f6 b1 f8 be
       -0.19356805 0.16699976 -0.46280074 -0.48573273
000170 e0 ea 81 3d 68 6c b8 be cc 46 e0 be 3c 44 45 be
       0.06343627 -0.36020207 -0.43804014 -0.1926431
000180 68 dd a4 bd e8 a0 e8 be 34 f0 aa be 70 48 06 3d
       -0.080500424 -0.45435262 -0.33386385 0.032783926
000190 98 66 f1 be 80 ed 8f bd c6 4c a5 be 00 78 b1 be
       -0.47148585 -0.070277214 -0.32285136 -0.34661865
0001a0 5c 3b 49 3e 62 0a c5 be 6c 01 c2 be f8 fd 91 3e
       0.1965155 -0.38484484 -0.3789171 0.28514075
0001b0 18 74 bf 3d 7a 24 e9 3e f4 da 08 be c0 4d 77 be
       0.09348315 0.45535642 -0.13364774 -0.24150753
0001c0 00 89 3d bd 00 c9 25 3b a8 3c c3 3e 18 ff fe be
       -0.04627323 0.0025296807 0.38132215 -0.49803996
0001d0 b0 d1 11 bd fc 7b 62 3e 90 f9 8c be 84 15 82 be
       -0.035600364 0.22117609 -0.2753415 -0.2540704
0001e0 e0 6e 77 3e a0 4b f5 be 88 a4 f2 3d 42 a4 cd be
       0.24163389 -0.4790926 0.11847788 -0.4016438
0001f0 e4 7e 7e 3e ee e3 da be d8 63 9d 3e 84 56 f2 be
       0.24853092 -0.42752022 0.30740237 -0.4733163
000200 62 2f d7 be 8a 27 f1 3b 9c b9 c9 3e be 3c db be
       -0.42028338 0.0073594498 0.3939942 -0.4281978
000210 f0 61 64 be 20 d7 e0 3e e0 b8 ab bd 1c 1d 54 3e
       -0.22302985 0.43914127 -0.083848715 0.2071423
000220 9b 6d f6 be a4 03 21 be 4a 01 82 be dc d2 d7 3e
       -0.48130497 -0.15724045 -0.25391608 0.4215306
000230 1c 80 54 3e 06 cc ba be b0 18 a5 3d 00 4f bc bb
       0.20751995 -0.36483783 0.080613494 -0.005746722
000240 88 5d 52 be 14 32 92 be c0 e6 29 be 36 c9 c9 3e
       -0.20543492 -0.28553832 -0.1659193 0.39411324
000250 a2 83 b7 be 22 5c b6 be 38 f6 1d be c0 82 0e 3c
       -0.35842615 -0.35617167 -0.15425956 0.008698165
000260 5c 5f 0b 3e 80 d3 75 3c c8 80 f6 bd c4 39 9b be
       0.13610595 0.015004039 -0.12036282 -0.3031751
000270 30 bd b7 bd 78 1b 4e be 6c d4 ce 3e 5e 31 f9 be
       -0.089716315 -0.20127666 0.4039644 -0.48670477
000280 ba 4a a3 be 72 47 d0 be 98 24 bb bd 76 7e c7 3e
       -0.3189295 -0.40679508 -0.09137839 0.3896367
000290 e0 64 e0 3e b6 dc de be 80 77 b1 bc 6a 43 96 3e
       0.43826962 -0.43527764 -0.021663427 0.29348308
0002a0 34 b0 61 3e ca b0 d1 3e 40 3b 63 bc 2a 01 ac be
       0.22039872 0.40955192 -0.013869107 -0.33594638
0002b0 10 5a a9 3e 80 92 2f be a2 8d 84 3e d8 59 fc bd
       0.33076525 -0.17145729 0.25889307 -0.12321824
0002c0 f0 a5 59 3e c8 40 e6 3e 02 0b ee 3e 06 fa e8 be
       0.21254706 0.449713 0.46492773 -0.45503253
0002d0 c6 56 a9 be ec b1 53 be 60 40 a3 be cc a1 f5 3e
       -0.33074015 -0.2067334 -0.31885052 0.47975004
0002e0 80 e0 34 bd b0 d0 a9 be a8 d5 63 be c4 67 8d be
       -0.044159412 -0.33167028 -0.22249472 -0.2761823
0002f0 fc e3 50 3e da 4b df be f8 b1 ee be d8 5a fc be
       0.20399469 -0.43612558 -0.46620154 -0.49288058
000300 a8 6d 5c 3e 28 29 7d 3e 0a ff 9e be 18 ee fd 3d
       0.21526206 0.24722731 -0.31053954 0.123989284
000310 ac f9 bc 3e e0 c9 94 3d d8 a8 d8 bd a0 4f 17 3d
       0.36909235 0.07265067 -0.105790794 0.03694117
000320 30 9a 5b bd 52 e5 80 3e b0 d3 ad be 78 d1 81 3e
       -0.05361384 0.25174958 -0.33950567 0.25355124
000330 a2 49 90 3e 9a 1a 9b be 50 0a d1 3e 76 70 fb 3e
       0.28181177 -0.30293733 0.4082818 0.49109238
000340 58 d8 49 be 88 68 0f be 74 28 7f 3e 3e 8e c8 be
       -0.19711435 -0.1400472 0.24917775 -0.39171022
000350 78 79 4a 3e 70 e7 ee 3d 4a 5d a1 3e 04 5d de be
       0.19772899 0.11665237 0.31516486 -0.4343034
000360 50 ae d4 be 40 f4 65 3e 8c 6d 38 3e b2 46 ee be
       -0.4153924 0.22456455 0.18010539 -0.4653831
000370 c6 c2 8e be 08 3c ea be 7e 67 b7 be a4 03 67 be
       -0.27882975 -0.45748925 -0.35821146 -0.22559983
000380 90 d9 d3 3e 00 d4 cb bd ae 08 93 3e 4a 1e f3 3e
       0.41376925 -0.09952545 0.2871756 0.47484046
000390 bc 55 69 3e 82 2c e5 be 34 d3 80 3e 64 4b 43 3e
       0.22786611 -0.4476052 0.25161135 0.19071728
0003a0 b2 6a c6 3e f4 86 fc be b0 71 9d 3e ee 8b d1 3e
       0.38753277 -0.4932171 0.307508 0.4092707
0003b0 62 2c ee be 50 46 56 3d 52 8a da 3e de 30 ba be
       -0.46518236 0.05231315 0.42683655 -0.36365408
0003c0 40 ff 27 3e c0 3d 62 3e ac 30 06 3e 57 ee d8 3e
       0.16405964 0.22093868 0.13104504 0.4236934
0003d0 8a 9b d1 3e ec a2 db 3e d0 46 7f bd de b5 d6 3e
       0.4093898 0.42897737 -0.06232339 0.4193563
0003e0 d4 91 ee be 26 25 8a be a8 03 db bd d4 17 18 be
       -0.46595633 -0.26981467 -0.10694057 -0.1485284
0003f0 42 77 ec 3e 1c 7e 71 3e ee d0 a4 3e 34 22 ae 3e
       0.46184736 0.23583263 0.3219065 0.3401047

weight f4 [2, 256]
000000 f9 e3 02 bd 30 fc b3 bc 0e 73 c3 3c 96 63 fb 3c
       -0.031955693 -0.021970838 0.023858573 0.030687135
000010 67 fc 3f 3d df 34 22 bd aa cd 86 bb 07 dd 19 3d
       0.04687157 -0.039601203 -0.0041138725 0.037564304
000020 fe d2 05 bb ab 2b 6e bd ab eb 69 3d be 04 e2 3c
       -0.002041995 -0.058147114 0.057109516 0.027590152
000030 93 9d 0c bd 9e 9b 12 3b 0d 8e 00 bd 39 10 89 bd
       -0.034329962 0.0022370587 -0.03138547 -0.06692547
000040 79 b4 0f 3c 35 13 44 bc 43 75 0f 3d e3 a3 10 bd
       0.008771055 -0.01196747 0.03502394 -0.035312545
000050 a0 a7 c7 3b 6a bd 83 3c c0 74 8e 3c 06 c4 85 3d
       0.0060929805 0.01608153 0.017389655 0.06531529
000060 ed b4 69 3d 57 08 2d 3d c8 a3 64 bc 09 2a 73 bd
       0.05705731 0.04224428 -0.013955064 -0.05936626
000070 b1 ad 28 bd 30 93 3e bc 6b f2 3b 3d 90 79 3b 3b
       -0.04118127 -0.011631772 0.045885485 0.0028606392
000080 3c 3d 8e bc ab cf fa bc 4a 04 92 3b 8a 92 40 3f
       -0.017363183 -0.030616602 0.0044560777 0.752236
000090 58 5e 9c bd 56 d3 ef bc ad f6 79 3d 88 e8 f1 3c
       -0.07635182 -0.029275578 0.061026264 0.029529825
0000a0 18 87 31 3c 12 49 69 bb a8 5b ab 3b 05 47 6f bd
       0.0108354315 -0.0035596532 0.005229432 -0.05841734
0000b0 25 df 32 bd a6 0f d8 3c 60 28 ef 3b e7 6a 1b bd
       -0.04366984 0.02637465 0.0072985142 -0.037943747
0000c0 7a 85 b7 ba 5c 92 9e bc 54 b0 77 bb 60 0c 8c bd
       -0.0014001571 -0.019356899 -0.0037794309 -0.06838298
0000d0 19 eb 7b 3d c6 c5 30 3c 18 87 89 bc ea b7 13 bd
       0.061503503 0.01078934 -0.01678805 -0.036064066
0000e0 8f 31 2f 3d 01 24 1b bd 30 b2 ff 3c 1e 52 22 3b
       0.042771872 -0.037876133 0.031212896 0.0024768184
0000f0 81 af 02 be 10 f1 f8 3c af b7 32 bc e6 f6 8d 3d
       -0.12762262 0.030388385 -0.010908051 0.06931858
000100 49 22 01 bc d0 4d fc bc 35 3a 20 3d 33 b5 14 bd
       -0.007881709 -0.030798823 0.03911801 -0.036305618
000110 04 ad 9d 3c 6f 50 3a 3d e5 1f 2f bd 8b 14 39 3d
       0.01924754 0.045486864 -0.042755026 0.045185607
000120 1b d1 26 3d 38 41 95 3d 10 a8 0f 3c 65 3e 2b 3d
       0.040726762 0.0728783 0.008768097 0.04180755
000130 f5 e2 2b bd 32 4d da bb c0 f0 11 3c 84 6c c8 ba
       -0.04196449 -0.0066620344 0.008907497 -0.0015291129
000140 cd 10 49 3d 79 f0 36 3d 54 d2 c7 bc 14 0c 97 3c
       0.049088288 0.044662926 -0.024392284 0.018438376
000150 ee 72 ca 3b 14 6e 95 3c cc 2e 74 3c b5 1a 1c bd
       0.0061782515 0.018240966 0.014903735 -0.038111407
000160 3e 56 83 bd 5d 8e 10 3d 9d 52 4e bd 99 02 60 3d
       -0.06412934 0.03529202 -0.050371755 0.054689977
000170 12 1c 98 bd 4c 6e 80 3b 4d 84 66 bc 2d 63 80 bb
       -0.07427229 0.0039193984 -0.014069629 -0.0039180727
000180 06 99 1e bc 74 02 0d 3d 68 b1 b1 bc f8 97 16 3a
       -0.009680038 0.034426168 -0.02169104 0.0005744691
000190 bf fd 40 3d db fc 61 bd 87 76 39 3c b6 83 15 bc
       0.04711699 -0.055172782 0.011319763 -0.009125641
0001a0 93 47 24 3d c7 cd 1e 3d 4d 72 55 3c 84 14 15 bd
       0.04010732 0.038770463 0.01302774 -0.03639652
0001b0 a2 a9 c3 bc 41 85 73 3d 5e f1 9b bc c7 c2 34 3d
       -0.023884598 0.059453253 -0.019035991 0.044131067
0001c0 0c 4a ab 3c 4f bc 23 3d d7 68 83 3d ba 08 d4 bc
       0.020909332 0.039974507 0.06416481 -0.025883067
0001d0 29 46 07 3d bd 7e 26 bd 8d ca 3c 3d f0 b7 a6 bc
       0.033025894 -0.04064821 0.046091605 -0.02035138
0001e0 df b8 18 bc ed 64 6d bd 74 91 90 bd 15 70 02 40
       -0.00932142 -0.05795758 -0.07058993 2.038091
0001f0 de 12 5a b9 16 6c 18 bc fe 0f e3 3c cf 3d 27 bd
       -0.00020797129 -0.009303113 0.027717587 -0.04083043
000200 ee 42 f4 3b 21 45 a1 bc 70 c5 e2 3c 71 f4 f2 39
       0.0074542677 -0.019686284 0.027682036 0.0004633996
000210 de e1 ed 3c e6 1a 8e 3d eb ff 21 3d 76 b7 8f 3c
       0.029038366 0.06938724 0.039550703 0.017543536
000220 0c 4c 53 3d e1 6f 43 bd c0 a6 b3 bc d0 6d 69 bb
       0.051586196 -0.047714118 -0.021930099 -0.0035618432
000230 af a8 6b bc e3 a2 0c bd a5 a6 2d bd 83 e8 33 bd
       -0.014383479 -0.03433503 -0.042395253 -0.043922912
000240 25 fd 9c bd c8 b5 0f bc a4 57 e4 3c 51 3e 24 3d
       -0.07665471 -0.008771367 0.027873822 0.040098492
000250 f7 f9 35 bd 91 b5 93 bd 57 70 85 bd 9c 2e 82 3c
       -0.04442784 -0.072123654 -0.06515568 0.015891366
000260 bd 72 6c 3d ef 03 24 bd bd a4 47 bd e0 71 98 bc
       0.05772661 -0.040042814 -0.04874109 -0.018608987
000270 2f b9 18 3c 22 ba 97 bd 3b 90 25 bd 5f a9 3f 3d
       0.009321495 -0.07408549 -0.040420752 0.046792384
000280 d3 6e 36 bd f4 07 d5 bc 08 6b 02 bb 21 8e 24 bd
       -0.044539284 -0.026004769 -0.0019900221 -0.040174607
000290 6c f2 d2 bc 4c b5 0a 3d 0b 4b 24 bd 3a ba 45 3c
       -0.025750361 0.033864304 -0.04011063 0.012068326
0002a0 9d 44 76 bc c1 81 42 bd bd 61 76 3d f8 90 85 3d
       -0.015031007 -0.047487024 0.060151804 0.06521791
0002b0 75 e2 6a 3d 0a d2 bd bb 14 de 92 3c ec 18 96 bd
       0.057344873 -0.005792861 0.01792816 -0.07328972
0002c0 cc 58 f7 bc 29 6b 04 3b da 82 f0 bb bb b5 3c 3c
       -0.030193709 0.0020205474 -0.0073398175 0.011517937
0002d0 41 39 61 bc 72 5e f5 3b 5e 43 06 bd b8 5f 96 bd
       -0.013746561 0.0074880654 -0.03277909 -0.07342476
0002e0 2c 88 90 3b 8d 9c 1c bd f7 9d 51 3d 37 2a 45 3d
       0.004410764 -0.038235236 0.051176038 0.048135962
0002f0 f3 79 33 3d 1c fc cc bb 2a 4c 3d bc 88 1c 23 bb
       0.04381747 -0.0062556397 -0.011553803 -0.0024888832
000300 7a f1 9d 3d 71 7f 93 3d 9c 4b 90 bc 3a 16 8b bd
       0.077120736 0.07202042 -0.017614178 -0.06791349
000310 2d 63 2a bd 27 9f 37 bd c2 ca 89 3d dc 51 12 3d
       -0.041598488 -0.044829514 0.06728126 0.0357226
000320 28 ac 99 3d 4d 18 7a 3d 8f 1b 80 3c 41 01 5b bd
       0.07503539 0.06105833 0.015638141 -0.053467993
000330 4b a4 3d 3d 6c d9 84 3d 01 2d 2b 3d 84 00 9f bc
       0.04629926 0.064867824 0.041790966 -0.019409426
000340 41 54 0d 3d 5c 2b 14 bc d2 dd d9 3c 6c 03 3a 3c
       0.03450418 -0.009043541 0.02659503 0.011353355
000350 00 31 97 3c 9d 4a 24 bd a0 35 a3 bc e7 e2 55 3d
       0.018455982 -0.04011022 -0.019923031 0.052218344
000360 18 46 e0 3a 57 5f 22 bd bd 76 2c 3d c9 39 5b 3c
       0.0017110733 -0.039641704 0.042105425 0.013380476
000370 2f 2b 12 3d 63 c0 0b bd d6 5f de 3b 05 c5 1c bd
       0.035685714 -0.03411902 0.006786327 -0.03827383
000380 35 12 28 bd fc 78 e3 bc e1 a8 09 bc e8 de 9f 3c
       -0.04103299 -0.02776765 -0.00840208 0.01951547
000390 e4 f6 d9 bc e7 c2 05 3d 6b bc f6 b9 ec 4a a6 3b
       -0.026606984 0.032656576 -0.0004706116 0.0050748494
0003a0 c8 0b af bc a0 60 93 bd 8e 6a 65 bb 0d b4 94 bd
       -0.021367922 -0.07196164 -0.0035006138 -0.072609045
0003b0 54 9c 4e 3b 99 0d 81 3c 0c ae 99 bc 0b 18 3a bd
       0.0031526284 0.015753554 -0.01875975 -0.045433085
0003c0 cf 05 6e 3d 35 84 4c 3d 78 d4 f6 bc 50 9f 52 bf
       0.05811101 0.04993077 -0.03013061 -0.8227434
0003d0 5c 34 c9 3c cc 88 8d 3d a3 0f 2e bd a4 4e e7 bc
       0.0245611 0.069108576 -0.04249538 -0.028235741
0003e0 0c 33 a8 bc 71 61 01 bc 35 72 8b 3d 12 3a b4 3b
       -0.020532154 -0.007896767 0.06808893 0.0055000866
0003f0 f3 b4 1c 3d b5 4e 6c bc cc 38 b0 bc e9 aa 51 bd
       0.038258504 -0.014423062 -0.021511458 -0.051188383

bias f4 [2]
000000 81 5d 0f 3d c2 5e 27 3d
       0.03500128 0.040861852
