NODE/submission_models/drifter_58_tanh_1day.pth (torch, 81679 bytes, 4 tensors)

weight f4 [256, 4]
-0.00374341 0.2682218 -0.41152257 -0.3679695 -0.19257718 0.13407868 -0.00990659 0.39644474
-0.044372022 0.13230628 -0.15110654 -0.098282695 -0.67577505 -0.4548886 -0.26699287 0.028719207
0.1976676 0.3000114 -0.33897054 -0.21773142 0.18160856 0.41519397 -0.10290009 0.37415588
-0.08059168 0.05290705 0.4527381 -0.46383518 -0.31476897 -0.12658262 -0.19489998 0.4320004
-0.32408983 -0.23016644 -0.34932023 -0.4682805 -0.29187024 0.42979902 0.22310919 0.24233627
0.026295781 -0.25634176 0.08459234 -0.46684736 -0.36128312 -0.257765 0.31546897 0.29316062
-0.22174752 -0.018041193 0.31978035 0.49706656 0.19844109 0.06754643 0.33524317 -0.29440117
0.093172014 -0.38765275 -0.34654307 -0.25829178 0.22623652 0.2010802 -0.29617625 0.15105355
0.274486 -0.06310868 0.019090772 0.115852356 0.3101883 0.48009706 -0.38531178 -0.18323487
0.19650495 0.4142747 0.43510365 0.44117838 0.09950727 -0.43479133 0.04599625 -0.31280267
-0.46597707 0.44424623 0.38017988 -0.49876398 0.09358603 -0.084230006 -0.082280576 -0.22887844
0.19227809 -0.29615176 0.18329567 0.25285405 0.3579358 0.18695557 -0.49486762 -0.32434845
0.24965751 0.104650676 -0.390042 -0.28790975 0.47037464 0.33690894 -0.21801257 -0.12584239
-0.47629905 -0.008987069 -0.37652946 -0.38567835 -0.027549803 0.07507253 -0.20476514 0.2966888
-0.30426955 0.45368505 0.34264994 -0.42164147 -0.12444216 0.022561312 0.07295054 0.118587136
0.19621414 0.029950082 -0.24396437 0.2365945 -0.47962445 -0.29635334 -0.12516493 -0.24355668
-0.17491668 -0.40981084 -0.106357574 0.10687822 -0.41376358 -0.7376491 0.5546381 -0.060984302
0.013896108 -0.04313445 0.101190686 0.31791973 -1.9070606 3.0386682 0.36454463 -0.036731593
-0.44916075 -0.23703861 0.3404526 -0.003241241 -0.24852318 -0.38315588 -0.46792603 -0.4220041
-0.101418376 0.274203 0.27032053 -0.48221594 0.31189102 -0.39125472 -0.10570514 -0.20273632
-0.096307635 -0.09817135 -0.44867498 -0.43171895 -0.07823974 0.0064660907 -0.22713745 0.1883496
-0.4500292 -0.03374362 0.43970972 -0.203946 0.45150155 0.18107688 -0.45123047 0.31634867
-0.057697237 -0.22320342 0.39982665 -0.4040476 0.053652465 -0.10468435 0.35705632 0.13957226
0.24025267 0.17657948 -0.12023735 -0.105152726 -0.4120407 0.27092206 0.39698905 0.34211242
-0.35268915 0.022299945 -0.35246706 -0.2752421 -0.29135275 0.17087251 -0.2979566 -0.010908604
0.021034062 0.32231152 -0.37796003 -0.34325612 -0.29033077 0.3499667 -0.1797325 0.42174435
0.18080378 0.06331301 -0.003722012 -0.09884077 0.06273317 -0.11417234 -0.003513217 0.06379652
-0.39110255 -0.2620657 0.40374637 -0.40577334 -0.035903096 0.49461937 0.18061852 0.01415652
-0.43330497 0.24768895 -0.35614038 -0.14193213 -0.16775817 -0.07404369 0.0054691434 0.41240376
0.062419415 0.4478464 0.30585623 -0.31610698 0.22425205 -0.35344803 -0.21191257 0.14706135
0.16508526 0.3751051 -0.16166225 -0.005633874 0.25741178 -0.48354608 0.3614903 -0.4134612
0.0068912506 -0.08500838 -0.26333648 0.06608552 0.41345936 -0.14615977 -0.29684705 -0.18491942
00000000: 0054 75bb 5e54 893e 16b3 d2be 8066 bcbe
00000010: f432 45be ec4b 093e 404f 22bc cefa ca3e
00000020: 70bf 35bd 4c7b 073e acbb 1abe 7048 c9bd
00000030: 98ff 2cbf 29e7 e8be 4ab3 88be 8b44 eb3c
00000040: 6069 4a3e 189b 993e 8c8d adbe fcf4 5ebe
00000050: 98f7 393e 4e94 d43e 48bd d2bd 5c91 bf3e
00000060: 400d a5bd 10b5 583d 4acd e73e ce7b edbe
00000070: 6629 a1be e09e 01be dc93 47be 282f dd3e
00000080: 1aef a5be c0b0 6bbe 1ada b2be 76c2 efbe
00000090: 0470 95be 9e0e dc3e bc76 643e 0027 783e
000000a0: 406a d73c 3a3f 83be c03e ad3d 9e06 efbe
000000b0: 1afa b8be c6f9 83be 2685 a13e 2619 963e
000000c0: c811 63be 20cb 93bc 40ba a33e 827f fe3e
000000d0: 2434 4b3e c855 8a3d fea4 ab3e c0bb 96be
000000e0: f8d0 be3d 6c7a c6be 186e b1be d23e 84be
000000f0: 8caa 673e f8e7 4d3e 6aa4 97be c8ad 1a3e
00000100: 6e89 8c3e 203f 81bd 4064 9c3c 0044 ed3d
00000110: 00d1 9e3e 48cf f53e 9647 c5be eca1 3bbe
00000120: 9838 493e d01b d43e e8c5 de3e 22e2 e13e
00000130: 78ca cb3d f89c debe 9066 3c3d ac27 a0be
00000140: 8c94 eebe 3e74 e33e f0a6 c23e fe5d ffbe
00000150: 08aa bf3d c880 acbd b882 a8bd 1c5f 6abe
00000160: 8ce4 443e 34a1 97be dcb1 3b3e 1676 813e
00000170: 5c43 b73e 4871 3f3e 4a5f fdbe 0011 a6be
00000180: 38a6 7f3e 1853 d63d 96b3 c7be e868 93be
00000190: f2d4 f03e 547f ac3e b03e 5fbe d4dc 00be
000001a0: 78dd f3be 803e 13bc 78c8 c0be a277 c5be
000001b0: 20b0 e1bc a0bf 993d f4ad 51be 98e7 973e
000001c0: 38c9 9bbe 6849 e83e d06f af3e 64e1 d7be
000001d0: 88db febd 80d2 b83c 1867 953d d0dd f23d
000001e0: 5cec 483e e059 f53c ccd1 79be d445 723e
000001f0: 5691 f5be a0bb 97be 3c2b 00be ec66 79be
00000200: 5c1d 33be bad2 d1be 00d2 d9bd f8e2 da3d
00000210: d2d8 d3be 92d6 3cbf c3fc 0d3f adca 79bd
00000220: 80ac 633c c0ad 30bd 103d cf3d 60c6 a23e
00000230: 901a f4bf 8a79 4240 98a5 ba3e de73 16bd
00000240: 66f8 e5be 40ba 72be ce4f ae3e 006b 54bb
00000250: dc7c 7ebe 022d c4be 0094 efbe ec10 d8be
00000260: 70b4 cfbd 5664 8c3e 7467 8a3e 02e5 f6be
00000270: 2eb0 9f3e 8a52 c8be f07b d8bd 1c9a 4fbe
00000280: f03c c5bd 100e c9bd bab8 e5be 440a ddbe
00000290: 283c a0bd 80e1 d33b b896 68be b8de 403e
000002a0: 3a6a e6be c036 0abd a221 e13e 38d7 50be
000002b0: 362b e73e 386c 393e ae07 e7be 74f8 a13e
000002c0: f053 6cbd 708f 64be 14b6 cc3e 54df cebe
000002d0: b0c2 5b3d c064 d6bd 16d0 b63e 08ec 0e3e
000002e0: cc04 763e 40d1 343e 003f f6bd 505a d7bd
000002f0: 00f7 d2be 4cb6 8a3e 2642 cb3e 5c29 af3e
00000300: ac93 b4be 60ae b63c 9076 b4be 88ec 8cbe
00000310: 302c 95be 34f9 2e3e c48d 98be 00ba 32bc
00000320: a04f ac3c 0406 a53e fa83 c1be 44bf afbe
00000330: 3ca6 94be d62e b33e cc0b 38be e0ee d73e
00000340: a024 393e 40aa 813d 00ed 73bb 086d cabd
00000350: 407a 803d 30d3 e9bd 003e 66bb c0a7 823d
00000360: 983e c8be 7a2d 86be d8b7 ce3e 86c1 cfbe
00000370: 200f 13bd c03e fd3e 10f4 383e c0f0 673c
00000380: 26da ddbe 2ca2 7d3e 0858 b6be a856 11be
00000390: ccc8 2bbe 38a4 97bd 8036 b33b 9626 d33e
000003a0: 80ab 7f3d 204c e53e 3099 9c3e c6d8 a1be
000003b0: 54a2 653e 24f7 b4be 9cff 58be 4097 163e
000003c0: 1c0c 293e c70d c03e ca8a 25be 5c9c b8bb
000003d0: 7acb 833e 5a93 f7be 4215 b93e 30b1 d3be
000003e0: 00d0 e13b e018 aebd 0ad4 86be d857 873d
000003f0: f2b0 d33e e8aa 15be 56fc 97be 845b 3dbe

bias f4 [256]
-0.035032988 -0.47224933 -0.28829253 0.20154415 -0.16958785 0.34511453 0.39526993 0.07273495
-0.03953737 -0.15871358 -0.02528292 0.09101045 -0.38192552 -0.119497836 -0.41590047 0.30687743
-0.31841815 0.4567719 -0.1288904 -0.28643763 0.24022657 0.07453954 0.346228 0.20873487
-0.48166972 0.3162452 -0.09415692 -0.22098553 0.31752694 0.36466515 -0.43946534 -0.045211673
0.41060328 0.1780827 0.42123467 -0.25111857 -0.2758212 0.42995483 0.20841146 0.47999126
-0.2088483 -0.32103342 -0.058606446 -0.47078997 0.19598758 0.3687942 0.120028436 -0.04940343
0.24790317 -0.31737566 0.48912156 -0.49717182 -0.4789726 -0.11815083 0.40842223 0.050062895
0.19202286 -0.36650342 0.18234289 -0.055871725 0.20039466 0.35312128 0.21734011 -0.042532086
-0.030799568 -0.3135901 -0.18085104 0.32491904 -0.20049828 0.31051987 -0.19826597 -0.116449416
0.010641098 -0.45883274 -0.004992485 -0.050397873 -0.04491818 -0.0999521 0.39418864 0.36899358
-0.3293895 0.23226339 -0.3921913 -0.42566067 0.15284097 0.0073482394 -0.23325318 -0.48225188
-0.19356805 0.16699976 -0.46280074 -0.48573273 0.06343627 -0.36020207 -0.43804014 -0.1926431
-0.080500424 -0.45435262 -0.33386385 0.032783926 -0.47148585 -0.070277214 -0.32285136 -0.34661865
0.1965155 -0.38484484 -0.3789171 0.28514075 0.09348315 0.45535642 -0.13364774 -0.24150753
-0.04627323 0.0025296807 0.38132215 -0.49803996 -0.035600364 0.22117609 -0.2753415 -0.2540704
0.24163389 -0.4790926 0.11847788 -0.3874443 0.24853092 -0.42752022 0.30740237 -0.4733163
-0.42028338 -0.0030378508 0.3939942 -0.4281978 -0.22302985 0.43914127 -0.083848715 0.2071423
-0.54634875 -0.15724045 -0.25391608 0.4215306 0.20751995 -0.36483783 0.080613494 -0.005746722
-0.20543492 -0.28553832 -0.1659193 0.39411324 -0.35842615 -0.35617167 -0.15425956 0.008698165
0.13610595 0.015004039 -0.12036282 -0.3031751 -0.089716315 -0.20127666 0.4039644 -0.48670477
-0.3189295 -0.40679508 -0.09137839 0.3896367 0.43826962 -0.43527764 -0.021663427 0.29348308
0.22039872 0.40955192 -0.013869107 -0.33594638 0.33076525 -0.17145729 0.25889307 -0.12321824
0.21254706 0.449713 0.46492773 -0.45503253 -0.33074015 -0.2067334 -0.31885052 0.47975004
-0.044159412 -0.33167028 -0.22249472 -0.2761823 0.20399469 -0.43612558 -0.46620154 -0.49288058
0.21526206 0.24722731 -0.31053954 0.123989284 0.36909235 0.07265067 -0.105790794 0.03694117
-0.05361384 0.25174958 -0.33950567 0.25355124 0.28181177 -0.30293733 0.4082818 0.49109238
-0.19711435 -0.1400472 0.24917775 -0.39171022 0.19772899 0.11665237 0.31516486 -0.4343034
-0.4153924 0.22456455 0.18010539 -0.4653831 -0.27882975 -0.45748925 -0.35821146 -0.22559983
0.41376925 -0.09952545 0.2871756 0.47484046 0.22786611 -0.4476052 0.25161135 0.19071728
0.38753277 -0.4932171 0.307508 0.4092707 -0.46518236 0.05231315 0.42683655 -0.36365408
0.16405964 0.22093868 0.13104504 0.4971846 0.4093898 0.42897737 -0.06232339 0.4193563
-0.46595633 -0.26981467 -0.10694057 -0.1485284 0.46184736 0.23583263 0.3219065 0.3401047
00000000: c07e 0fbd aaca f1be 149b 93be 9761 4e3e
00000010: 70a8 2dbe dab2 b03e d260 ca3e 10f6 943d
00000020: f0f1 21bd d085 22be 201e cfbc b063 ba3d
00000030: be8b c3be 48bb f4bd e8f0 d4be 0a1f 9d3e
00000040: b407 a3be 02de e93e d8fb 03be f4a7 92be
00000050: f4fd 753e 30a8 983d cc44 b13e 98be 553e
00000060: 6a9d f6be e4ea a13e 58d5 c0bd 084a 62be
00000070: e492 a23e 64b5 ba3e 9a01 e1be e02f 39bd
00000080: 983a d23e 505b 363e 12ac d73e 9d92 80be
00000090: 7038 8dbe 0a23 dc3e d069 553e 6ac1 f53e
000000a0: 54dc 55be 7e5e a4be 500d 70bd 620b f1be
000000b0: f8b0 483e 98d2 bc3e 78d1 f53d 405b 4abd
000000c0: 54da 7d3e 107f a2be 246e fa3e 4e8d febe
000000d0: e63b f5be 10f9 f1bd b81c d13e c00e 4d3d
000000e0: a4a1 443e 56a6 bbbe 18b8 3a3e c0d9 64bd
000000f0: 4234 4d3e 50cc b43e 688e 5e3e 2036 2ebd
00000100: 604f fcbc e28e a0be 0431 39be ca5b a63e
00000110: 6c4f 4dbe 76fc 9e3e 3c06 4bbe 087d eebd
00000120: 0058 2e3c 20ec eabe 0098 a3bb 006e 4ebd
00000130: 20fc 37bd b0b3 ccbd 18d3 c93e baec bc3e
00000140: bea5 a8be 74d6 6d3e 4ccd c8be 32f0 d9be
00000150: 5882 1c3e 80c9 f03b ecd9 6ebe b8e9 f6be
00000160: b436 46be fc01 2b3e 38f4 ecbe f6b1 f8be
00000170: e0ea 813d 686c b8be cc46 e0be 3c44 45be
00000180: 68dd a4bd e8a0 e8be 34f0 aabe 7048 063d
00000190: 9866 f1be 80ed 8fbd c64c a5be 0078 b1be
000001a0: 5c3b 493e 620a c5be 6c01 c2be f8fd 913e
000001b0: 1874 bf3d 7a24 e93e f4da 08be c04d 77be
000001c0: 0089 3dbd 00c9 253b a83c c33e 18ff febe
000001d0: b0d1 11bd fc7b 623e 90f9 8cbe 8415 82be
000001e0: e06e 773e a04b f5be 88a4 f23d 195f c6be
000001f0: e47e 7e3e eee3 dabe d863 9d3e 8456 f2be
00000200: 622f d7be ae16 47bb 9cb9 c93e be3c dbbe
00000210: f061 64be 20d7 e03e e0b8 abbd 1c1d 543e
00000220: 83dd 0bbf a403 21be 4a01 82be dcd2 d73e
00000230: 1c80 543e 06cc babe b018 a53d 004f bcbb
00000240: 885d 52be 1432 92be c0e6 29be 36c9 c93e
00000250: a283 b7be 225c b6be 38f6 1dbe c082 0e3c
00000260: 5c5f 0b3e 80d3 753c c880 f6bd c439 9bbe
00000270: 30bd b7bd 781b 4ebe 6cd4 ce3e 5e31 f9be
00000280: ba4a a3be 7247 d0be 9824 bbbd 767e c73e
00000290: e064 e03e b6dc debe 8077 b1bc 6a43 963e
000002a0: 34b0 613e cab0 d13e 403b 63bc 2a01 acbe
000002b0: 105a a93e 8092 2fbe a28d 843e d859 fcbd
000002c0: f0a5 593e c840 e63e 020b ee3e 06fa e8be
000002d0: c656 a9be ecb1 53be 6040 a3be cca1 f53e
000002e0: 80e0 34bd b0d0 a9be a8d5 63be c467 8dbe
000002f0: fce3 503e da4b dfbe f8b1 eebe d85a fcbe
00000300: a86d 5c3e 2829 7d3e 0aff 9ebe 18ee fd3d
00000310: acf9 bc3e e0c9 943d d8a8 d8bd a04f 173d
00000320: 309a 5bbd 52e5 803e b0d3 adbe 78d1 813e
00000330: a249 903e 9a1a 9bbe 500a d13e 7670 fb3e
00000340: 58d8 49be 8868 0fbe 7428 7f3e 3e8e c8be
00000350: 7879 4a3e 70e7 ee3d 4a5d a13e 045d debe
00000360: 50ae d4be 40f4 653e 8c6d 383e b246 eebe
00000370: c6c2 8ebe 083c eabe 7e67 b7be a403 67be
00000380: 90d9 d33e 00d4 cbbd ae08 933e 4a1e f33e
00000390: bc55 693e 822c e5be 34d3 803e 644b 433e
000003a0: b26a c63e f486 fcbe b071 9d3e ee8b d13e
000003b0: 622c eebe 5046 563d 528a da3e de30 babe
000003c0: 40ff 273e c03d 623e ac30 063e fb8e fe3e
000003d0: 8a9b d13e eca2 db3e d046 7fbd deb5 d63e
000003e0: d491 eebe 2625 8abe a803 dbbd d417 18be
000003f0: 4277 ec3e 1c7e 713e eed0 a43e 3422 ae3e

weight f4 [2, 256]
-0.045727722 -0.008198906 0.01008663 0.39421374 0.03309954 -0.025829224 -0.01788582 0.051336333
-0.015813928 -0.044375084 0.043337487 0.04136222 -0.020557975 -0.011534922 -0.0451575 -0.05315336
0.022543052 -0.025739493 0.04879597 -0.049084574 -0.007678982 0.0023095638 0.031161653 0.05154317
0.04328528 0.028472262 -0.02772707 -0.04559423 -0.0549533 0.0021402107 0.059657514 -0.010911332
-0.003591242 -1.8615887 0.018228022 0.65208393 -0.06258004 -0.043047637 0.047254235 0.015757827
-0.0029365534 0.010212323 -0.008542544 -0.04464531 -0.057441868 0.040146746 -0.0064734546 -0.024171745
-0.015172105 -0.03312891 -0.017551366 -0.0546109 0.047731474 0.024561362 -0.030560048 -0.02229212
0.028999854 -0.024104131 0.017440898 0.016248755 -0.038376607 0.016616387 0.0028639322 0.055546492
-0.021653706 -0.017026825 0.05289004 -0.050077647 0.0054756356 0.059258893 -0.028983006 0.058957636
0.05449879 0.0591064 -0.005003863 0.05557958 -0.02819247 -0.020434042 0.022679495 0.012242869
2.0213153 0.058434956 -0.038164318 0.032210372 0.019950232 0.032012958 0.02867573 -0.024339413
-0.050357252 0.049064048 -0.036599725 0.040917948 -0.060500443 -0.009852579 -0.00029764848 0.009853905
0.0040919236 0.020654185 -0.007919129 0.014346432 0.06088902 -0.041400753 -0.0024522205 -0.022897648
0.05387935 0.052542493 -0.0007442499 -0.02262458 -0.037656635 0.045681223 -0.0052640857 0.057903096
0.03468135 0.053746536 0.050392725 -0.03965514 0.01925393 -0.02687624 0.032319576 -0.0065794634
0.004450537 -0.04418555 -0.056817845 0.024463689 0.013563994 0.004468844 0.04148966 -0.027058447
0.021226259 -1.88577 0.01391004 -0.013308566 0.042810418 0.055615157 0.053322732 0.0037716043
2.0705166 -0.061486147 -0.03570215 0.010210132 -0.0006115191 -0.048107058 -0.028623236 -0.030150881
-0.06288292 0.005000592 0.041645877 0.026326546 -0.030655798 -0.058351707 -0.051383562 0.0021194022
0.04395458 -0.026270857 -0.03496906 -0.03238098 -0.0044504628 -0.06031363 -0.05419278 0.060564414
-0.030767256 -0.012232792 -0.015761951 -0.053946637 -0.011978397 0.020092336 -0.02633868 -0.0017036583
-0.0012590486 -0.061259054 0.046379775 0.051445797 0.043572843 -0.019564832 0.031700168 -0.05951786
-0.016421711 -0.011751432 -0.02111181 0.025289962 -0.027518572 -0.0062839026 -0.01900713 -0.059652884
-0.009361219 -0.052007265 0.03740401 0.034363933 0.0575895 -0.02002762 0.0022181834 0.011283094
0.06334896 0.058248457 -0.031386178 -0.054141417 -0.055370517 -0.03105749 0.05350916 0.021950645
0.061263576 0.0472863 0.0018661777 -0.039695963 0.06007129 0.0510957 0.028018935 -0.03318143
0.04827621 0.004728414 0.04036712 0.025125379 0.032227978 -0.05388225 -0.033695024 0.038446426
-0.012060912 -0.053413734 0.055877455 -0.0003915148 0.049457744 -0.04789105 0.020558326 -0.02450184
-0.02726101 -0.013995651 -0.022174077 0.033287473 -0.012834996 0.046428606 0.013301354 -0.008697135
-0.035139967 -0.058189683 -0.01727255 -0.058837127 -0.010619344 0.0019815962 -0.0049878433 -0.031661056
0.04433898 0.03615874 -0.016358612 -0.025644202 0.038333133 0.05533652 -0.05626741 -0.014463743
-0.006760237 -0.021668764 0.05431682 -0.008271881 0.052030534 -0.0006511033 -0.0077395495 -0.037416354
00000000: fe4c 3bbd b454 06bc 6442 253c 62d6 c93e
00000010: 6293 073d cf97 d3bc 4885 92bc 0c46 523d
00000020: 368c 81bc a6c2 35bd a682 313d 6e6b 293d
00000030: 3369 a8bc f8fc 3cbc 12f7 38bd 56b7 59bd
00000040: 35ac b83c a1db d2bc 48de 473d e80c 49bd
00000050: f89f fbbb 0d5c 173b b946 ff3c ee1e 533d
00000060: e84b 313d a93e e93c e123 e3bc 04c1 3abd
00000070: b616 61bd c742 0c3b 705b 743d 72c5 32bc
00000080: 0b5b 6bbb 8a48 eebf ef52 953c f9ee 263f
00000090: f729 80bd b852 30bd a88d 413d 8f16 813c
000000a0: 3173 40bb 9651 273c 07f6 0bbc 00de 36bd
000000b0: 2a48 6bbd ea70 243d 461f d4bb d303 c6bc
000000c0: 6c94 78bc 2eb2 07bd e2c7 8fbc aeaf 5fbd
000000d0: 1482 433d e934 c93c 1159 fabc f79d b6bc
000000e0: 1a91 ed3c 0776 c5bc 37e0 8e3c 1c1c 853c
000000f0: ca30 1dbd 171f 883c cfb0 3b3b b884 633d
00000100: 1d63 b1bc d77b 8bbc 3aa3 583d 381e 4dbd
00000110: f66c b33b 74b9 723d c56d edbc 907d 713d
00000120: 203a 5f3d 8d19 723d 72f7 a3bb 6aa7 633d
00000130: e5f3 e6bc 4b65 a7bc 59ca b93c 5096 483c
00000140: 3b5d 0140 7e59 6f3d 3052 1cbd 06ef 033d
00000150: ab6e a33c 0520 033d 5de9 ea3c 7363 c7bc
00000160: 6843 4ebd 62f7 483d 98e9 15bd 9499 273d
00000170: 50cf 77bd b66c 21bc b40d 9cb9 4672 213c
00000180: 8b15 863b f732 a93c 3cbf 01bc 4c0d 6b3c
00000190: c466 793d d693 29bd 6fb5 20bb d993 bbbc
000001a0: 98b0 5c3d cc36 573d c419 43ba 2f57 b9bc
000001b0: d83d 1abd 3c1c 3b3d 5a7e acbb cc2b 6d3d
000001c0: 080e 0e3d 5425 5c3d 9a68 4e3d 6e6d 22bd
000001d0: 6bba 9d3c 8f2b dcbc 8861 043d 8a98 d7bb
000001e0: cfd5 913b e8fb 34bd d4b9 68bd 1368 c83c
000001f0: 843b 5e3c 616f 923b 10f1 293d ada9 ddbc
00000200: b1e2 ad3c e960 f1bf f0e6 633c 2c0c 5abc
00000210: fa59 2f3d b8cc 633d f068 5a3d 052d 773b
00000220: 5883 0440 e6d8 7bbd 6b3c 12bd 6648 273c
00000230: 5a4e 20ba e80b 45bd 477b eabc fbfe f6bc
00000240: c3c8 80bd 02dc a33b de94 2a3d c5aa d73c
00000250: de21 fbbc 3302 6fbd 9277 52bd abe5 0a3b
00000260: b809 343d fb35 d7bc b83b 0fbd eba1 04bd
00000270: 30d5 91bb 6d0b 77bd 40f9 5dbd 6412 783d
00000280: 9d0b fcbc 0c6c 48bc 351f 81bc 26f7 5cbd
00000290: 0a41 44bc af98 a43c 37c4 d7bc 494d dfba
000002a0: a906 a5ba c6ea 7abd b8f8 3d3d d4b8 523d
000002b0: 7079 323d 6d46 a0bc 09d8 013d 00c9 73bd
000002c0: d386 86bc 1489 40bc adf2 acbc e52c cf3c
000002d0: a16e e1bc 32e9 cdbb d7b4 9bbc 9556 74bd
000002e0: cc5f 19bc 9205 55bd f234 193d 32c1 0c3d
000002f0: f8e2 6b3d f710 a4bc f15e 113b badc 383c
00000300: 19bd 813d ef95 6e3d cb8e 00bd 64c3 5dbd
00000310: 32cc 62bd 476c febc 6c2c 5b3d d7d1 b33c
00000320: 84ef 7a3d 48af 413d 889a f43a 3c98 22bd
00000330: 500d 763d ba49 513d f787 e53c 40e9 07bd
00000340: 46bd 453d d0f0 9a3b fe57 253d bdd3 cd3c
00000350: 7c01 043d a2b3 5cbd cb03 0abd 007a 1d3d
00000360: 229b 45bc 5cc8 5abd c2df 643d 3a44 cdb9
00000370: 3494 4a3d 6829 44bd ef69 a83c 15b8 c8bc
00000380: 7b52 dfbc 044e 65bc 69a6 b5bc 7258 083d
00000390: e049 52bc ec2b 3e3d eced 593c 6e7e 0ebc
000003a0: edee 0fbd 4e58 6ebd 2a7f 8dbc 33ff 70bd
000003b0: c2fc 2dbc abdd 013b 1071 a3bb 06af 01bd
000003c0: ca9c 353d 301b 143d 7f02 86bc ca13 d2bc
000003d0: 3403 1d3d 8ca8 623d a878 66bd 56f9 6cbc
000003e0: fa84 ddbb b182 b1bc 507b 5e3d c986 07bc
000003f0: f81d 553d ceae 2aba 0c9c fdbb e441 19bd

bias f4 [2]
0.048773125 0.03781308
00000000: 54c6 473d e3e1 1a3d
