NODE/submission_models/drifter_62_tanh_1day.pth (torch, 81679 bytes, 4 tensors)

weight f4 [256, 4]
00000000: 0054 75bb 5e54 893e 16b3 d2be 8066 bcbe
00000010: f432 45be ec4b 093e 404f 22bc cefa ca3e
00000020: 70bf 35bd 4c7b 073e acbb 1abe 7048 c9bd
00000030: 0a00 8ac0 986c 79c0 1b5d cabe 28ba 4e3d
00000040: 6069 4a3e 189b 993e 8c8d adbe fcf4 5ebe
00000050: 98f7 393e 4e94 d43e 48bd d2bd 5c91 bf3e
00000060: 400d a5bd 10b5 583d 4acd e73e ce7b edbe
00000070: 6629 a1be e09e 01be dc93 47be 282f dd3e
00000080: 1aef a5be c0b0 6bbe 1ada b2be 76c2 efbe
00000090: 0470 95be 9e0e dc3e bc76 643e 0027 783e
000000a0: 406a d73c 3a3f 83be c03e ad3d 9e06 efbe
000000b0: 1afa b8be c6f9 83be 2685 a13e 2619 963e
000000c0: c811 63be 20cb 93bc 40ba a33e 827f fe3e
000000d0: 2434 4b3e c855 8a3d fea4 ab3e c0bb 96be
000000e0: f8d0 be3d 6c7a c6be 186e b1be d23e 84be
000000f0: 8caa 673e f8e7 4d3e 6aa4 97be c8ad 1a3e
00000100: 6e89 8c3e 203f 81bd 4064 9c3c 0044 ed3d
00000110: 00d1 9e3e 48cf f53e 9647 c5be eca1 3bbe
00000120: 9838 493e d01b d43e e8c5 de3e 22e2 e13e
00000130: 78ca cb3d f89c debe 9066 3c3d ac27 a0be
00000140: 8c94 eebe 3e74 e33e f0a6 c23e fe5d ffbe
00000150: 08aa bf3d c880 acbd b882 a8bd 1c5f 6abe
00000160: 8ce4 443e 34a1 97be dcb1 3b3e 1676 813e
00000170: 5c43 b73e 4871 3f3e 4a5f fdbe 0011 a6be
00000180: 38a6 7f3e 1853 d63d 96b3 c7be e868 93be
00000190: f2d4 f03e 547f ac3e b03e 5fbe d4dc 00be
000001a0: 78dd f3be 803e 13bc 78c8 c0be a277 c5be
000001b0: 20b0 e1bc a0bf 993d f4ad 51be 98e7 973e
000001c0: 38c9 9bbe 6849 e83e d06f af3e 64e1 d7be
000001d0: 88db febd 80d2 b83c 1867 953d d0dd f23d
000001e0: 5cec 483e e059 f53c ccd1 79be d445 723e
000001f0: 5691 f5be a0bb 97be 3c2b 00be ec66 79be
00000200: 5c1d 33be bad2 d1be 00d2 d9bd f8e2 da3d
00000210: a03e e03f 01cf 2d3e a104 1b3f c7c7 a7bd
00000220: 80ac 633c c0ad 30bd 103d cf3d 60c6 a23e
00000230: ba7e f23e 0693 a23e c40c f33e 601d 14bd
00000240: 66f8 e5be 40ba 72be ce4f ae3e 006b 54bb
00000250: dc7c 7ebe 022d c4be 0094 efbe ec10 d8be
00000260: 70b4 cfbd 5664 8c3e 7467 8a3e 02e5 f6be
00000270: 2eb0 9f3e 8a52 c8be f07b d8bd 1c9a 4fbe
00000280: f03c c5bd 100e c9bd bab8 e5be 440a ddbe
00000290: 283c a0bd 80e1 d33b b896 68be b8de 403e
000002a0: 3a6a e6be c036 0abd a221 e13e 38d7 50be
000002b0: 362b e73e 386c 393e ae07 e7be 74f8 a13e
000002c0: f053 6cbd 708f 64be 14b6 cc3e 54df cebe
000002d0: b0c2 5b3d c064 d6bd 16d0 b63e 08ec 0e3e
000002e0: cc04 763e 40d1 343e 003f f6bd 505a d7bd
000002f0: 00f7 d2be 4cb6 8a3e 2642 cb3e 5c29 af3e
00000300: ac93 b4be 60ae b63c 9076 b4be 88ec 8cbe
00000310: 302c 95be 34f9 2e3e c48d 98be 00ba 32bc
00000320: a04f ac3c 0406 a53e fa83 c1be 44bf afbe
00000330: 3ca6 94be d62e b33e cc0b 38be e0ee d73e
00000340: a024 393e 40aa 813d 00ed 73bb 086d cabd
00000350: 407a 803d 30d3 e9bd 003e 66bb c0a7 823d
00000360: 983e c8be 7a2d 86be d8b7 ce3e 86c1 cfbe
00000370: 200f 13bd c03e fd3e 10f4 383e c0f0 673c
00000380: 26da ddbe 2ca2 7d3e 0858 b6be a856 11be
00000390: ccc8 2bbe 38a4 97bd 8036 b33b 9626 d33e
000003a0: 80ab 7f3d 204c e53e 3099 9c3e c6d8 a1be
000003b0: 54a2 653e 24f7 b4be 9cff 58be 4097 163e
000003c0: f00e 293e f20e c03e 59db 24be c510 163a
000003d0: 7acb 833e 5a93 f7be 4215 b93e 30b1 d3be
000003e0: 00d0 e13b e018 aebd 0ad4 86be d857 873d
000003f0: f2b0 d33e e8aa 15be 56fc 97be 845b 3dbe
-0.00374341 0.2682218 -0.41152257 -0.3679695 -0.19257718 0.13407868 -0.00990659 0.39644474
-0.044372022 0.13230628 -0.15110654 -0.098282695 -4.312505 -3.897253 -0.3952416 0.0504705
0.1976676 0.3000114 -0.33897054 -0.21773142 0.18160856 0.41519397 -0.10290009 0.37415588
-0.08059168 0.05290705 0.4527381 -0.46383518 -0.31476897 -0.12658262 -0.19489998 0.4320004
-0.32408983 -0.23016644 -0.34932023 -0.4682805 -0.29187024 0.42979902 0.22310919 0.24233627
0.026295781 -0.25634176 0.08459234 -0.46684736 -0.36128312 -0.257765 0.31546897 0.29316062
-0.22174752 -0.018041193 0.31978035 0.49706656 0.19844109 0.06754643 0.33524317 -0.29440117
0.093172014 -0.38765275 -0.34654307 -0.25829178 0.22623652 0.2010802 -0.29617625 0.15105355
0.274486 -0.06310868 0.019090772 0.115852356 0.3101883 0.48009706 -0.38531178 -0.18323487
0.19650495 0.4142747 0.43510365 0.44117838 0.09950727 -0.43479133 0.04599625 -0.31280267
-0.46597707 0.44424623 0.38017988 -0.49876398 0.09358603 -0.084230006 -0.082280576 -0.22887844
0.19227809 -0.29615176 0.18329567 0.25285405 0.3579358 0.18695557 -0.49486762 -0.32434845
0.24965751 0.104650676 -0.390042 -0.28790975 0.47037464 0.33690894 -0.21801257 -0.12584239
-0.47629905 -0.008987069 -0.37652946 -0.38567835 -0.027549803 0.07507253 -0.20476514 0.2966888
-0.30426955 0.45368505 0.34264994 -0.42164147 -0.12444216 0.022561312 0.07295054 0.118587136
0.19621414 0.029950082 -0.24396437 0.2365945 -0.47962445 -0.29635334 -0.12516493 -0.24355668
-0.17491668 -0.40981084 -0.106357574 0.10687822 1.7519112 0.16973497 0.6055394 -0.081924014
0.013896108 -0.04313445 0.101190686 0.31791973 0.4736231 0.31752795 0.47470677 -0.036160827
-0.44916075 -0.23703861 0.3404526 -0.003241241 -0.24852318 -0.38315588 -0.46792603 -0.4220041
-0.101418376 0.274203 0.27032053 -0.48221594 0.31189102 -0.39125472 -0.10570514 -0.20273632
-0.096307635 -0.09817135 -0.44867498 -0.43171895 -0.07823974 0.0064660907 -0.22713745 0.1883496
-0.4500292 -0.03374362 0.43970972 -0.203946 0.45150155 0.18107688 -0.45123047 0.31634867
-0.057697237 -0.22320342 0.39982665 -0.4040476 0.053652465 -0.10468435 0.35705632 0.13957226
0.24025267 0.17657948 -0.12023735 -0.105152726 -0.4120407 0.27092206 0.39698905 0.34211242
-0.35268915 0.022299945 -0.35246706 -0.2752421 -0.29135275 0.17087251 -0.2979566 -0.010908604
0.021034062 0.32231152 -0.37796003 -0.34325612 -0.29033077 0.3499667 -0.1797325 0.42174435
0.18080378 0.06331301 -0.003722012 -0.09884077 0.06273317 -0.11417234 -0.003513217 0.06379652
-0.39110255 -0.2620657 0.40374637 -0.40577334 -0.035903096 0.49461937 0.18061852 0.01415652
-0.43330497 0.24768895 -0.35614038 -0.14193213 -0.16775817 -0.07404369 0.0054691434 0.41240376
0.062419415 0.4478464 0.30585623 -0.31610698 0.22425205 -0.35344803 -0.21191257 0.14706135
0.16509604 0.37511402 -0.160993 0.0005724545 0.25741178 -0.48354608 0.3614903 -0.4134612
0.0068912506 -0.08500838 -0.26333648 0.06608552 0.41345936 -0.14615977 -0.29684705 -0.18491942

bias f4 [256]
00000000: c07e 0fbd aaca f1be 149b 93be 7a7e 443e
00000010: 70a8 2dbe dab2 b03e d260 ca3e 10f6 943d
00000020: f0f1 21bd d085 22be 201e cfbc b063 ba3d
00000030: be8b c3be 48bb f4bd e8f0 d4be 0a1f 9d3e
00000040: b407 a3be 02de e93e d8fb 03be f4a7 92be
00000050: f4fd 753e 30a8 983d cc44 b13e 98be 553e
00000060: 6a9d f6be e4ea a13e 58d5 c0bd 084a 62be
00000070: e492 a23e 64b5 ba3e 9a01 e1be e02f 39bd
00000080: 983a d23e 87ce 453e 12ac d73e 3476 2fbe
00000090: 7038 8dbe 0a23 dc3e d069 553e 6ac1 f53e
000000a0: 54dc 55be 7e5e a4be 500d 70bd 620b f1be
000000b0: f8b0 483e 98d2 bc3e 78d1 f53d 405b 4abd
000000c0: 54da 7d3e 107f a2be 246e fa3e 4e8d febe
000000d0: e63b f5be 10f9 f1bd b81c d13e c00e 4d3d
000000e0: a4a1 443e 56a6 bbbe 18b8 3a3e c0d9 64bd
000000f0: c838 4d3e 50cc b43e 688e 5e3e 2036 2ebd
00000100: 604f fcbc e28e a0be 0431 39be ca5b a63e
00000110: 6c4f 4dbe 76fc 9e3e 3c06 4bbe 087d eebd
00000120: 0058 2e3c 20ec eabe 0098 a3bb 006e 4ebd
00000130: 20fc 37bd b0b3 ccbd 18d3 c93e baec bc3e
00000140: 0a82 adbe 74d6 6d3e 4ccd c8be 32f0 d9be
00000150: 5882 1c3e 80c9 f03b ecd9 6ebe b8e9 f6be
00000160: b436 46be fc01 2b3e 38f4 ecbe f6b1 f8be
00000170: e0ea 813d 686c b8be cc46 e0be 3c44 45be
00000180: 68dd a4bd e8a0 e8be 34f0 aabe 7048 063d
00000190: 9866 f1be 80ed 8fbd c64c a5be 0078 b1be
000001a0: 5c3b 493e 620a c5be 6c01 c2be f8fd 913e
000001b0: 1874 bf3d 7a24 e93e f4da 08be c04d 77be
000001c0: 0089 3dbd 00c9 253b a83c c33e 18ff febe
000001d0: b0d1 11bd fc7b 623e 90f9 8cbe 8415 82be
000001e0: e06e 773e a04b f5be 88a4 f23d adba cfbe
000001f0: e47e 7e3e eee3 dabe d863 9d3e 8456 f2be
00000200: 622f d7be bcd0 d83b 9cb9 c93e be3c dbbe
00000210: f061 64be 20d7 e03e e0b8 abbd 1c1d 543e
00000220: 8445 f6be a403 21be 4a01 82be dcd2 d73e
00000230: 1c80 543e 06cc babe b018 a53d 004f bcbb
00000240: 885d 52be 1432 92be c0e6 29be 36c9 c93e
00000250: a283 b7be 225c b6be 38f6 1dbe c082 0e3c
00000260: 5c5f 0b3e 80d3 753c c880 f6bd c439 9bbe
00000270: 30bd b7bd 781b 4ebe 6cd4 ce3e 5e31 f9be
00000280: ba4a a3be 7247 d0be 9824 bbbd 767e c73e
00000290: e064 e03e b6dc debe 8077 b1bc 6a43 963e
000002a0: 34b0 613e cab0 d13e 403b 63bc 2a01 acbe
000002b0: 105a a93e 8092 2fbe a28d 843e d859 fcbd
000002c0: f0a5 593e c840 e63e 020b ee3e 06fa e8be
000002d0: c656 a9be ecb1 53be 6040 a3be cca1 f53e
000002e0: 80e0 34bd b0d0 a9be a8d5 63be c467 8dbe
000002f0: fce3 503e da4b dfbe f8b1 eebe d85a fcbe
00000300: a86d 5c3e 2829 7d3e 0aff 9ebe 18ee fd3d
00000310: acf9 bc3e e0c9 943d d8a8 d8bd a04f 173d
00000320: 309a 5bbd 52e5 803e b0d3 adbe 78d1 813e
00000330: a249 903e 9a1a 9bbe 500a d13e 7670 fb3e
00000340: 58d8 49be 8868 0fbe 7428 7f3e 3e8e c8be
00000350: 7879 4a3e 70e7 ee3d 4a5d a13e 045d debe
00000360: 50ae d4be 40f4 653e 8c6d 383e b246 eebe
00000370: c6c2 8ebe 083c eabe 7e67 b7be a403 67be
00000380: 90d9 d33e 00d4 cbbd ae08 933e 4a1e f33e
00000390: bc55 693e 822c e5be 34d3 803e 644b 433e
000003a0: b26a c63e f486 fcbe b071 9d3e ee8b d13e
000003b0: 622c eebe 5046 563d 528a da3e de30 babe
000003c0: 40ff 273e c03d 623e ac30 063e 91a8 ff3e
000003d0: 8a9b d13e eca2 db3e d046 7fbd deb5 d63e
000003e0: d491 eebe 2625 8abe a803 dbbd d417 18be
000003f0: 4277 ec3e 1c7e 713e eed0 a43e 3422 ae3e
-0.035032988 -0.47224933 -0.28829253 0.19188872 -0.16958785 0.34511453 0.39526993 0.07273495
-0.03953737 -0.15871358 -0.02528292 0.09101045 -0.38192552 -0.119497836 -0.41590047 0.30687743
-0.31841815 0.4567719 -0.1288904 -0.28643763 0.24022657 0.07453954 0.346228 0.20873487
-0.48166972 0.3162452 -0.09415692 -0.22098553 0.31752694 0.36466515 -0.43946534 -0.045211673
0.41060328 0.19317065 0.42123467 -0.17134935 -0.2758212 0.42995483 0.20841146 0.47999126
-0.2088483 -0.32103342 -0.058606446 -0.47078997 0.19598758 0.3687942 0.120028436 -0.04940343
0.24790317 -0.31737566 0.48912156 -0.49717182 -0.4789726 -0.11815083 0.40842223 0.050062895
0.19202286 -0.36650342 0.18234289 -0.055871725 0.20041192 0.35312128 0.21734011 -0.042532086
-0.030799568 -0.3135901 -0.18085104 0.32491904 -0.20049828 0.31051987 -0.19826597 -0.116449416
0.010641098 -0.45883274 -0.004992485 -0.050397873 -0.04491818 -0.0999521 0.39418864 0.36899358
-0.33888274 0.23226339 -0.3921913 -0.42566067 0.15284097 0.0073482394 -0.23325318 -0.48225188
-0.19356805 0.16699976 -0.46280074 -0.48573273 0.06343627 -0.36020207 -0.43804014 -0.1926431
-0.080500424 -0.45435262 -0.33386385 0.032783926 -0.47148585 -0.070277214 -0.32285136 -0.34661865
0.1965155 -0.38484484 -0.3789171 0.28514075 0.09348315 0.45535642 -0.13364774 -0.24150753
-0.04627323 0.0025296807 0.38132215 -0.49803996 -0.035600364 0.22117609 -0.2753415 -0.2540704
0.24163389 -0.4790926 0.11847788 -0.4057211 0.24853092 -0.42752022 0.30740237 -0.4733163
-0.42028338 0.00661668 0.3939942 -0.4281978 -0.22302985 0.43914127 -0.083848715 0.2071423
-0.4809991 -0.15724045 -0.25391608 0.4215306 0.20751995 -0.36483783 0.080613494 -0.005746722
-0.20543492 -0.28553832 -0.1659193 0.39411324 -0.35842615 -0.35617167 -0.15425956 0.008698165
0.13610595 0.015004039 -0.12036282 -0.3031751 -0.089716315 -0.20127666 0.4039644 -0.48670477
-0.3189295 -0.40679508 -0.09137839 0.3896367 0.43826962 -0.43527764 -0.021663427 0.29348308
0.22039872 0.40955192 -0.013869107 -0.33594638 0.33076525 -0.17145729 0.25889307 -0.12321824
0.21254706 0.449713 0.46492773 -0.45503253 -0.33074015 -0.2067334 -0.31885052 0.47975004
-0.044159412 -0.33167028 -0.22249472 -0.2761823 0.20399469 -0.43612558 -0.46620154 -0.49288058
0.21526206 0.24722731 -0.31053954 0.123989284 0.36909235 0.07265067 -0.105790794 0.03694117
-0.05361384 0.25174958 -0.33950567 0.25355124 0.28181177 -0.30293733 0.4082818 0.49109238
-0.19711435 -0.1400472 0.24917775 -0.39171022 0.19772899 0.11665237 0.31516486 -0.4343034
-0.4153924 0.22456455 0.18010539 -0.4653831 -0.27882975 -0.45748925 -0.35821146 -0.22559983
0.41376925 -0.09952545 0.2871756 0.47484046 0.22786611 -0.4476052 0.25161135 0.19071728
0.38753277 -0.4932171 0.307508 0.4092707 -0.46518236 0.05231315 0.42683655 -0.36365408
0.16405964 0.22093868 0.13104504 0.49933293 0.4093898 0.42897737 -0.06232339 0.4193563
-0.46595633 -0.26981467 -0.10694057 -0.1485284 0.46184736 0.23583263 0.3219065 0.3401047

weight f4 [2, 256]
00000000: 9729 1ebd 03e2 7abc d2e7 8c3c 81fd 1bc0
00000010: c9b6 243d 49ef 06bd 357d 30bc a522 353d
00000020: 1d8b 0ebc 0de6 52bd 0da6 4e3d 0748 0c3d
00000030: 00b0 e2bc 49df 90bb abd3 1bbd bdda 76bd
00000040: ceca 7c3c d494 98bc e1ba 2a3d 81e9 2bbd
00000050: d729 14ba 5f64 1a3c ecff c43c 5542 703d
00000060: 4f6f 4e3d b9c2 113d 14dd a8bc 6be4 57bd
00000070: 4ff3 43bd 6cf9 a2bb 0938 573d 33e0 78bb
00000080: 1764 2fbc db90 c9bf 8518 363c b33a 013d
00000090: 90bb 8ebd 512f 13bd 0fb1 5e3d 5c5d bb3c
000000a0: 3de1 883b ae10 4b3b 1345 bbba 6701 54bd
000000b0: c324 4ebd 834d 073d 04dc 273a 4f25 00bd
000000c0: 1d07 04bc 881d d5bc 7502 2bbc 15d3 7cbd
000000d0: 7ba5 603d 1cee 8e3c 4412 c0bc c4e4 f0bc
000000e0: f1eb 133d d4bc ffbc 0427 c93c e5aa 153c
000000f0: 1512 00bd e465 c23c 7142 8bbb 1154 803d
00000100: 9238 6ebc a4c2 c5bc d37f 3b3d d1fa 2fbd
00000110: bd43 4e3c 0d96 553d 47da 13bd 295a 543d
00000120: b916 423d 709e 873d bc46 0a3b 0384 463d
00000130: 579d 10bd e53c 5abc 1807 7f3c e511 a83b
00000140: d542 2e3d 1736 523d 905d febc 4097 cd3c
00000150: cd4f 523c 40f9 cb3c 90a2 b03c 20d5 00bd
00000160: cf66 6bbd fbd3 2b3d ff0c 33bd fbbc 443d
00000170: 4a79 8abd 347d 33bb 9bdb f2bb 7493 333b
00000180: 980a 46bb c479 e33c 8b4c 76bc fcff ec3b
00000190: 5d43 5c3d 3db7 46bd 18c0 983b 0c4d 81bc
000001a0: 318d 3f3d 6513 3a3d a3b7 d03b fc9d f3bc
000001b0: e134 fabc a33f 583d 6dcc 4abc 6508 503d
000001c0: 38d5 e13c ed01 3f3d 018c 6b3d 074a 05bd
000001d0: 3801 d83c 2339 0bbd ef84 213d 8b59 60bc
000001e0: fc89 2ebb 4f1f 52bd a8ee 82bd 2b78 13c0
000001f0: 5b5c d33b dc56 2dbb a9cd 0c3d 37f8 0bbd
00000200: b937 673c da0d 3cbe 443a ac3c b3fd cabb
00000210: 9336 123d 1178 803d 8945 3d3d 9358 323c
00000220: bd08 383d 7fb5 5ebd fc31 eabc eeeb 4a3b
00000230: 8924 fdbb 81e8 27bd 0761 12bd e5a2 18bd
00000240: 5c5a 8fbd 997d 0abb 7771 0d3d b7f8 083d
00000250: 59b4 1abd c412 86bd f99a 6fbd c546 173c
00000260: 1f2d 513d 57be 08bd 1f5f 2cbd 0cfd cebc
00000270: 4e6a 2e3b 5a17 8abd d9d5 40bd fdee 5a3d
00000280: 3529 1bbd c87c 9ebc 1db1 0dbc bfd3 3fbd
00000290: 3c67 9cbc 7cdf de3c 7105 09bd 7b47 b13b
000002a0: 362e 09bc 5fc7 5dbd 1f1c 5b3d 3bdc 6f3d
000002b0: d79c 4f3d 57ff 4bbc 4069 c93c 2476 88bd
000002c0: a0cd c0bc 83f7 97bb b757 65bc 18e6 943c
000002d0: d427 a7bc 998c 593a a4fb d5bc f0bc 88bd
000002e0: 9a49 13bb 2be2 37bd 5958 363d 99e4 293d
000002f0: 91bf 4e3d 6f94 53bc 5d6b a0bb a99e 883b
00000300: b24e 903d a2dc 853d c8d6 c6bc cbe6 7abd
00000310: cba8 45bd 8959 1cbd d34f 783d a418 ee3c
00000320: 6009 8c3d afd2 5e3d ab20 133c a3bb 3fbd
00000330: e9e9 583d 216d 6e3d 63e7 0f3d b08b d5bc
00000340: df99 283d 0054 1cbb 9734 083d f08c 933c
00000350: 2cbc cd3c 3b90 3fbd cec0 d9bc 949b 3a3d
00000360: 7d1b a2bb f5a4 3dbd 5bbc 473d 8946 dc3b
00000370: cd70 2d3d 0106 27bd 3146 5c3c 717f 01bd
00000380: 9fcc 0cbd d0ed acbc 2ebf 76bc 166a d63c
00000390: b86b a3bc 8508 213d 33c1 ca3b 3e88 cfba
000003a0: 0e97 e5bc d4bd 85bd 0571 26bc 3a11 87bd
000003b0: 72bd 65bb c604 153c cd45 46bc 6dd2 1ebd
000003c0: 31c0 523d 973e 313d 4c49 c0bc 1dd5 05bd
000003d0: 98bf ff3c f3cb 7f3d 4155 49bd 78c3 b0bc
000003e0: c34f 63bc bc77 6ebc b79e 7b3d 2dcb 97ba
000003f0: 91fa 373d 9970 febb 535b 73bc 4b65 36bd
-0.038613882 -0.015312674 0.017200384 -2.4373477 0.04021338 -0.032943044 -0.010772039 0.044222493
-0.008700159 -0.051488925 0.050451327 0.034248378 -0.027671814 -0.004421149 -0.03804366 -0.0602672
0.015429212 -0.018625654 0.041682128 -0.041970734 -0.00056519866 0.009423344 0.024047814 0.05865701
0.05039912 0.035586093 -0.02061323 -0.05270807 -0.04783946 -0.004973581 0.052543674 -0.003797543
-0.010705016 -1.5747331 0.011114244 0.03155012 -0.069693685 -0.035933796 0.054368075 0.022871666
0.004177241 0.0030985284 -0.0014287553 -0.05175915 -0.050328027 0.033032905 0.00064033293 -0.03128558
-0.008058337 -0.026015058 -0.0104375975 -0.06172474 0.054845314 0.017447524 -0.02344621 -0.029405959
0.036113683 -0.03121797 0.024554737 0.009134983 -0.031267244 0.023730226 -0.004249864 0.062660344
-0.014539855 -0.024140663 0.0457762 -0.042963807 0.012589392 0.052145053 -0.036096837 0.051843796
0.04738495 0.066220164 0.002109929 0.04846574 -0.0353063 -0.013320182 0.015565656 0.0051290863
0.042544205 0.051321115 -0.031050473 0.025096536 0.012836409 0.024899125 0.02156189 -0.03145325
-0.057471093 0.041950207 -0.043713566 0.04803179 -0.06761415 -0.002738786 -0.007411433 0.0027401121
-0.0030218717 0.027768023 -0.015032898 0.007232664 0.05377518 -0.048514593 0.0046615712 -0.01578381
0.04676551 0.045428652 0.0063695475 -0.029738419 -0.030542793 0.052795064 -0.0123778405 0.050789256
0.027567491 0.046632696 0.057506565 -0.0325413 0.026367769 -0.033990037 0.039433416 -0.013693224
-0.0026632538 -0.05129939 -0.06393176 -2.3042095 0.0064502186 -0.0026449477 0.03437582 -0.034172263
0.014112406 -0.18364659 0.021023877 -0.006194794 0.035696577 0.06272901 0.046208892 0.010885376
0.04493021 -0.054372307 -0.028588288 0.003096338 -0.0077253026 -0.040993217 -0.035737064 -0.037264723
-0.069996566 -0.002113199 0.034532037 0.033440318 -0.03776965 -0.06546548 -0.058497403 0.009233181
0.05106842 -0.033384647 -0.042082902 -0.025267147 0.0026613656 -0.06742735 -0.04707894 0.053450573
-0.037881095 -0.01934661 -0.008648184 -0.046832796 -0.019092195 0.027206175 -0.033452455 0.0054101325
-0.008372834 -0.054145213 0.053493615 0.058559638 0.050686684 -0.0124510145 0.02458632 -0.066631585
-0.02353555 -0.00463766 -0.013997964 0.018176123 -0.020404734 0.0008298844 -0.026120968 -0.06676662
-0.002247429 -0.044893425 0.04451785 0.041477773 0.05047566 -0.012913807 -0.004895611 0.0041693044
0.0704626 0.06536223 -0.024272338 -0.061255258 -0.048256677 -0.038171325 0.060623 0.029064484
0.06837726 0.054400142 0.008979957 -0.046809804 0.05295745 0.058209542 0.035132777 -0.026067585
0.041162368 -0.002385378 0.03325328 0.01801154 0.025114141 -0.04676841 -0.026581194 0.045558527
-0.0049471245 -0.046299893 0.048763614 0.0067222756 0.042343903 -0.04077721 0.013444469 -0.03161568
-0.03437483 -0.021109492 -0.015060229 0.026173633 -0.019948825 0.039314765 0.006187582 -0.001583345
-0.02802613 -0.065303475 -0.010158782 -0.065950826 -0.0035055545 0.009095376 -0.012101603 -0.038774896
0.05145282 0.04327258 -0.02347245 -0.032673944 0.031219289 0.06245036 -0.04915357 -0.021577582
-0.013873997 -0.014554914 0.06143066 -0.0011580937 0.044916693 -0.0077648875 -0.014853316 -0.044530194

bias f4 [2]
00000000: dea2 2a3d f96c 6e3c
0.04165923 0.014552348
