NODE/submission_models/drifter_47_tanh_1day.pth (torch, 81679 bytes, 4 tensors)

weight f4 [256, 4]
0	0xbb755400	-0.00374341
1	0x3e89545e	0.2682218
2	0xbed2b316	-0.41152257
3	0xbebc6680	-0.3679695
4	0xbe4532f4	-0.19257718
5	0x3e094bec	0.13407868
6	0xbc224f40	-0.00990659
7	0x3ecaface	0.39644474
8	0xbd35bf70	-0.044372022
9	0x3e077b4c	0.13230628
10	0xbe1abbac	-0.15110654
11	0xbdc94870	-0.098282695
12	0xbef37dfe	-0.47557062
13	0xbea726ca	-0.3264678
14	0xbe608a86	-0.21927842
15	0x3b80a2d0	0.0039256588
16	0x3e4a6960	0.1976676
17	0x3e999b18	0.3000114
18	0xbead8d8c	-0.33897054
19	0xbe5ef4fc	-0.21773142
20	0x3e39f798	0.18160856
21	0x3ed4944e	0.41519397
22	0xbdd2bd48	-0.10290009
23	0x3ebf915c	0.37415588
24	0xbda50d40	-0.08059168
25	0x3d58b510	0.05290705
26	0x3ee7cd4a	0.4527381
27	0xbeed7bce	-0.46383518
28	0xbea12966	-0.31476897
29	0xbe019ee0	-0.12658262
30	0xbe4793dc	-0.19489998
31	0x3edd2f28	0.4320004
32	0xbea5ef1a	-0.32408983
33	0xbe6bb0c0	-0.23016644
34	0xbeb2da1a	-0.34932023
35	0xbeefc276	-0.4682805
36	0xbe957004	-0.29187024
37	0x3edc0e9e	0.42979902
38	0x3e6476bc	0.22310919
39	0x3e782700	0.24233627
40	0x3cd76a40	0.026295781
41	0xbe833f3a	-0.25634176
42	0x3dad3ec0	0.08459234
43	0xbeef069e	-0.46684736
44	0xbeb8fa1a	-0.36128312
45	0xbe83f9c6	-0.257765
46	0x3ea18526	0.31546897
47	0x3e961926	0.29316062
48	0xbe6311c8	-0.22174752
49	0xbc93cb20	-0.018041193
50	0x3ea3ba40	0.31978035
51	0x3efe7f82	0.49706656
52	0x3e4b3424	0.19844109
53	0x3d8a55c8	0.06754643
54	0x3eaba4fe	0.33524317
55	0xbe96bbc0	-0.29440117
56	0x3dbed0f8	0.093172014
57	0xbec67a6c	-0.38765275
58	0xbeb16e18	-0.34654307
59	0xbe843ed2	-0.25829178
60	0x3e67aa8c	0.22623652
61	0x3e4de7f8	0.2010802
62	0xbe97a46a	-0.29617625
63	0x3e1aadc8	0.15105355
64	0x3e8c896e	0.274486
65	0xbd813f20	-0.06310868
66	0x3c9c6440	0.019090772
67	0x3ded4400	0.115852356
68	0x3e9ed100	0.3101883
69	0x3ef5cf48	0.48009706
70	0xbec54796	-0.38531178
71	0xbe3ba1ec	-0.18323487
72	0x3e493898	0.19650495
73	0x3ed41bd0	0.4142747
74	0x3edec5e8	0.43510365
75	0x3ee1e222	0.44117838
76	0x3dcbca78	0.09950727
77	0xbede9cf8	-0.43479133
78	0x3d3c6690	0.04599625
79	0xbea027ac	-0.31280267
80	0xbeee948c	-0.46597707
81	0x3ee3743e	0.44424623
82	0x3ec2a6f0	0.38017988
83	0xbeff5dfe	-0.49876398
84	0x3dbfaa08	0.09358603
85	0xbdac80c8	-0.084230006
86	0xbda882b8	-0.082280576
87	0xbe6a5f1c	-0.22887844
88	0x3e44e48c	0.19227809
89	0xbe97a134	-0.29615176
90	0x3e3bb1dc	0.18329567
91	0x3e817616	0.25285405
92	0x3eb7435c	0.3579358
93	0x3e3f7148	0.18695557
94	0xbefd5f4a	-0.49486762
95	0xbea61100	-0.32434845
96	0x3e7fa638	0.24965751
97	0x3dd65318	0.104650676
98	0xbec7b396	-0.390042
99	0xbe9368e8	-0.28790975
100	0x3ef0d4f2	0.47037464
101	0x3eac7f54	0.33690894
102	0xbe5f3eb0	-0.21801257
103	0xbe00dcd4	-0.12584239
104	0xbef3dd78	-0.47629905
105	0xbc133e80	-0.008987069
106	0xbec0c878	-0.37652946
107	0xbec577a2	-0.38567835
108	0xbce1b020	-0.027549803
109	0x3d99bfa0	0.07507253
110	0xbe51adf4	-0.20476514
111	0x3e97e798	0.2966888
112	0xbe9bc938	-0.30426955
113	0x3ee84968	0.45368505
114	0x3eaf6fd0	0.34264994
115	0xbed7e164	-0.42164147
116	0xbdfedb88	-0.12444216
117	0x3cb8d280	0.022561312
118	0x3d956718	0.07295054
119	0x3df2ddd0	0.118587136
120	0x3e48ec5c	0.19621414
121	0x3cf559e0	0.029950082
122	0xbe79d1cc	-0.24396437
123	0x3e7245d4	0.2365945
124	0xbef59156	-0.47962445
125	0xbe97bba0	-0.29635334
126	0xbe002b3c	-0.12516493
127	0xbe7966ec	-0.24355668
128	0xbe331d5c	-0.17491668
129	0xbed1d2ba	-0.40981084
130	0xbdd9d200	-0.106357574
131	0x3ddae2f8	0.10687822
132	0xbea6c6aa	-0.32573444
133	0xbcd271fa	-0.025689114
134	0x3eb6c8d6	0.357001
135	0xbd72e15f	-0.059296962
136	0x3c63ac80	0.013896108
137	0xbd30adc0	-0.04313445
138	0x3dcf3d10	0.101190686
139	0x3ea2c660	0.31791973
140	0x3ea4af5d	0.32165042
141	0x405564c7	3.334276
142	0x3f2cad59	0.6745201
143	0xbd89fa8a	-0.0673724
144	0xbee5f866	-0.44916075
145	0xbe72ba40	-0.23703861
146	0x3eae4fce	0.3404526
147	0xbb546b00	-0.003241241
148	0xbe7e7cdc	-0.24852318
149	0xbec42d02	-0.38315588
150	0xbeef9400	-0.46792603
151	0xbed810ec	-0.4220041
152	0xbdcfb470	-0.101418376
153	0x3e8c6456	0.274203
154	0x3e8a6774	0.27032053
155	0xbef6e502	-0.48221594
156	0x3e9fb02e	0.31189102
157	0xbec8528a	-0.39125472
158	0xbdd87bf0	-0.10570514
159	0xbe4f9a1c	-0.20273632
160	0xbdc53cf0	-0.096307635
161	0xbdc90e10	-0.09817135
162	0xbee5b8ba	-0.44867498
163	0xbedd0a44	-0.43171895
164	0xbda03c28	-0.07823974
165	0x3bd3e180	0.0064660907
166	0xbe6896b8	-0.22713745
167	0x3e40deb8	0.1883496
168	0xbee66a3a	-0.4500292
169	0xbd0a36c0	-0.03374362
170	0x3ee121a2	0.43970972
171	0xbe50d738	-0.203946
172	0x3ee72b36	0.45150155
173	0x3e396c38	0.18107688
174	0xbee707ae	-0.45123047
175	0x3ea1f874	0.31634867
176	0xbd6c53f0	-0.057697237
177	0xbe648f70	-0.22320342
178	0x3eccb614	0.39982665
179	0xbecedf54	-0.4040476
180	0x3d5bc2b0	0.053652465
181	0xbdd664c0	-0.10468435
182	0x3eb6d016	0.35705632
183	0x3e0eec08	0.13957226
184	0x3e7604cc	0.24025267
185	0x3e34d140	0.17657948
186	0xbdf63f00	-0.12023735
187	0xbdd75a50	-0.105152726
188	0xbed2f700	-0.4120407
189	0x3e8ab64c	0.27092206
190	0x3ecb4226	0.39698905
191	0x3eaf295c	0.34211242
192	0xbeb493ac	-0.35268915
193	0x3cb6ae60	0.022299945
194	0xbeb47690	-0.35246706
195	0xbe8cec88	-0.2752421
196	0xbe952c30	-0.29135275
197	0x3e2ef934	0.17087251
198	0xbe988dc4	-0.2979566
199	0xbc32ba00	-0.010908604
200	0x3cac4fa0	0.021034062
201	0x3ea50604	0.32231152
202	0xbec183fa	-0.37796003
203	0xbeafbf44	-0.34325612
204	0xbe94a63c	-0.29033077
205	0x3eb32ed6	0.3499667
206	0xbe380bcc	-0.1797325
207	0x3ed7eee0	0.42174435
208	0x3e3924a0	0.18080378
209	0x3d81aa40	0.06331301
210	0xbb73ed00	-0.003722012
211	0xbdca6d08	-0.09884077
212	0x3d807a40	0.06273317
213	0xbde9d330	-0.11417234
214	0xbb663e00	-0.003513217
215	0x3d82a7c0	0.06379652
216	0xbec83e98	-0.39110255
217	0xbe862d7a	-0.2620657
218	0x3eceb7d8	0.40374637
219	0xbecfc186	-0.40577334
220	0xbd130f20	-0.035903096
221	0x3efd3ec0	0.49461937
222	0x3e38f410	0.18061852
223	0x3c67f0c0	0.01415652
224	0xbeddda26	-0.43330497
225	0x3e7da22c	0.24768895
226	0xbeb65808	-0.35614038
227	0xbe1156a8	-0.14193213
228	0xbe2bc8cc	-0.16775817
229	0xbd97a438	-0.07404369
230	0x3bb33680	0.0054691434
231	0x3ed32696	0.41240376
232	0x3d7fab80	0.062419415
233	0x3ee54c20	0.4478464
234	0x3e9c9930	0.30585623
235	0xbea1d8c6	-0.31610698
236	0x3e65a254	0.22425205
237	0xbeb4f724	-0.35344803
238	0xbe58ff9c	-0.21191257
239	0x3e169740	0.14706135
240	0x3e2909aa	0.16507593
241	0x3ec00b21	0.3750849
242	0xbe25d04f	-0.16192745
243	0xbbf24e8f	-0.007394619
244	0x3e83cb7a	0.25741178
245	0xbef7935a	-0.48354608
246	0x3eb91542	0.3614903
247	0xbed3b130	-0.4134612
248	0x3be1d000	0.0068912506
249	0xbdae18e0	-0.08500838
250	0xbe86d40a	-0.26333648
251	0x3d8757d8	0.06608552
252	0x3ed3b0f2	0.41345936
253	0xbe15aae8	-0.14615977
254	0xbe97fc56	-0.29684705
255	0xbe3d5b84	-0.18491942

bias f4 [256]
0	0xbd0f7ec0	-0.035032988
1	0xbef1caaa	-0.47224933
2	0xbe939b14	-0.28829253
3	0x3e4931a8	0.19647849
4	0xbe2da870	-0.16958785
5	0x3eb0b2da	0.34511453
6	0x3eca60d2	0.39526993
7	0x3d94f610	0.07273495
8	0xbd21f1f0	-0.03953737
9	0xbe2285d0	-0.15871358
10	0xbccf1e20	-0.02528292
11	0x3dba63b0	0.09101045
12	0xbec38bbe	-0.38192552
13	0xbdf4bb48	-0.119497836
14	0xbed4f0e8	-0.41590047
15	0x3e9d1f0a	0.30687743
16	0xbea307b4	-0.31841815
17	0x3ee9de02	0.4567719
18	0xbe03fbd8	-0.1288904
19	0xbe92a7f4	-0.28643763
20	0x3e75fdf4	0.24022657
21	0x3d98a830	0.07453954
22	0x3eb144cc	0.346228
23	0x3e55be98	0.20873487
24	0xbef69d6a	-0.48166972
25	0x3ea1eae4	0.3162452
26	0xbdc0d558	-0.09415692
27	0xbe624a08	-0.22098553
28	0x3ea292e4	0.31752694
29	0x3ebab564	0.36466515
30	0xbee1019a	-0.43946534
31	0xbd392fe0	-0.045211673
32	0x3ed23a98	0.41060328
33	0x3e46455b	0.19362395
34	0x3ed7ac12	0.42123467
35	0xbe8a7a9b	-0.27046666
36	0xbe8d3870	-0.2758212
37	0x3edc230a	0.42995483
38	0x3e5569d0	0.20841146
39	0x3ef5c16a	0.47999126
40	0xbe55dc54	-0.2088483
41	0xbea45e7e	-0.32103342
42	0xbd700d50	-0.058606446
43	0xbef10b62	-0.47078997
44	0x3e48b0f8	0.19598758
45	0x3ebcd298	0.3687942
46	0x3df5d178	0.120028436
47	0xbd4a5b40	-0.04940343
48	0x3e7dda54	0.24790317
49	0xbea27f10	-0.31737566
50	0x3efa6e24	0.48912156
51	0xbefe8d4e	-0.49717182
52	0xbef53be6	-0.4789726
53	0xbdf1f910	-0.11815083
54	0x3ed11cb8	0.40842223
55	0x3d4d0ec0	0.050062895
56	0x3e44a1a4	0.19202286
57	0xbebba656	-0.36650342
58	0x3e3ab818	0.18234289
59	0xbd64d9c0	-0.055871725
60	0x3e4d3184	0.2003842
61	0x3eb4cc50	0.35312128
62	0x3e5e8e68	0.21734011
63	0xbd2e3620	-0.042532086
64	0xbcfc4f60	-0.030799568
65	0xbea08ee2	-0.3135901
66	0xbe393104	-0.18085104
67	0x3ea65bca	0.32491904
68	0xbe4d4f6c	-0.20049828
69	0x3e9efc76	0.31051987
70	0xbe4b063c	-0.19826597
71	0xbdee7d08	-0.116449416
72	0x3c2e5800	0.010641098
73	0xbeeaec20	-0.45883274
74	0xbba39800	-0.004992485
75	0xbd4e6e00	-0.050397873
76	0xbd37fc20	-0.04491818
77	0xbdccb3b0	-0.0999521
78	0x3ec9d318	0.39418864
79	0x3ebcecba	0.36899358
80	0xbeb291c0	-0.34876823
81	0x3e6dd674	0.23226339
82	0xbec8cd4c	-0.3921913
83	0xbed9f032	-0.42566067
84	0x3e1c8258	0.15284097
85	0x3bf0c980	0.0073482394
86	0xbe6ed9ec	-0.23325318
87	0xbef6e9b8	-0.48225188
88	0xbe4636b4	-0.19356805
89	0x3e2b01fc	0.16699976
90	0xbeecf438	-0.46280074
91	0xbef8b1f6	-0.48573273
92	0x3d81eae0	0.06343627
93	0xbeb86c68	-0.36020207
94	0xbee046cc	-0.43804014
95	0xbe45443c	-0.1926431
96	0xbda4dd68	-0.080500424
97	0xbee8a0e8	-0.45435262
98	0xbeaaf034	-0.33386385
99	0x3d064870	0.032783926
100	0xbef16698	-0.47148585
101	0xbd8fed80	-0.070277214
102	0xbea54cc6	-0.32285136
103	0xbeb17800	-0.34661865
104	0x3e493b5c	0.1965155
105	0xbec50a62	-0.38484484
106	0xbec2016c	-0.3789171
107	0x3e91fdf8	0.28514075
108	0x3dbf7418	0.09348315
109	0x3ee9247a	0.45535642
110	0xbe08daf4	-0.13364774
111	0xbe774dc0	-0.24150753
112	0xbd3d8900	-0.04627323
113	0x3b25c900	0.0025296807
114	0x3ec33ca8	0.38132215
115	0xbefeff18	-0.49803996
116	0xbd11d1b0	-0.035600364
117	0x3e627bfc	0.22117609
118	0xbe8cf990	-0.2753415
119	0xbe821584	-0.2540704
120	0x3e776ee0	0.24163389
121	0xbef54ba0	-0.4790926
122	0x3df2a488	0.11847788
123	0xbec63466	-0.38711852
124	0x3e7e7ee4	0.24853092
125	0xbedae3ee	-0.42752022
126	0x3e9d63d8	0.30740237
127	0xbef25684	-0.4733163
128	0xbed72f62	-0.42028338
129	0x3bf139de	0.0073616346
130	0x3ec9b99c	0.3939942
131	0xbedb3cbe	-0.4281978
132	0xbe6461f0	-0.22302985
133	0x3ee0d720	0.43914127
134	0xbdabb8e0	-0.083848715
135	0x3e541d1c	0.2071423
136	0xbef64b2e	-0.48104233
137	0xbe2103a4	-0.15724045
138	0xbe82014a	-0.25391608
139	0x3ed7d2dc	0.4215306
140	0x3e54801c	0.20751995
141	0xbebacc06	-0.36483783
142	0x3da518b0	0.080613494
143	0xbbbc4f00	-0.005746722
144	0xbe525d88	-0.20543492
145	0xbe923214	-0.28553832
146	0xbe29e6c0	-0.1659193
147	0x3ec9c936	0.39411324
148	0xbeb783a2	-0.35842615
149	0xbeb65c22	-0.35617167
150	0xbe1df638	-0.15425956
151	0x3c0e82c0	0.008698165
152	0x3e0b5f5c	0.13610595
153	0x3c75d380	0.015004039
154	0xbdf680c8	-0.12036282
155	0xbe9b39c4	-0.3031751
156	0xbdb7bd30	-0.089716315
157	0xbe4e1b78	-0.20127666
158	0x3eced46c	0.4039644
159	0xbef9315e	-0.48670477
160	0xbea34aba	-0.3189295
161	0xbed04772	-0.40679508
162	0xbdbb2498	-0.09137839
163	0x3ec77e76	0.3896367
164	0x3ee064e0	0.43826962
165	0xbededcb6	-0.43527764
166	0xbcb17780	-0.021663427
167	0x3e96436a	0.29348308
168	0x3e61b034	0.22039872
169	0x3ed1b0ca	0.40955192
170	0xbc633b40	-0.013869107
171	0xbeac012a	-0.33594638
172	0x3ea95a10	0.33076525
173	0xbe2f9280	-0.17145729
174	0x3e848da2	0.25889307
175	0xbdfc59d8	-0.12321824
176	0x3e59a5f0	0.21254706
177	0x3ee640c8	0.449713
178	0x3eee0b02	0.46492773
179	0xbee8fa06	-0.45503253
180	0xbea956c6	-0.33074015
181	0xbe53b1ec	-0.2067334
182	0xbea34060	-0.31885052
183	0x3ef5a1cc	0.47975004
184	0xbd34e080	-0.044159412
185	0xbea9d0b0	-0.33167028
186	0xbe63d5a8	-0.22249472
187	0xbe8d67c4	-0.2761823
188	0x3e50e3fc	0.20399469
189	0xbedf4bda	-0.43612558
190	0xbeeeb1f8	-0.46620154
191	0xbefc5ad8	-0.49288058
192	0x3e5c6da8	0.21526206
193	0x3e7d2928	0.24722731
194	0xbe9eff0a	-0.31053954
195	0x3dfdee18	0.123989284
196	0x3ebcf9ac	0.36909235
197	0x3d94c9e0	0.07265067
198	0xbdd8a8d8	-0.105790794
199	0x3d174fa0	0.03694117
200	0xbd5b9a30	-0.05361384
201	0x3e80e552	0.25174958
202	0xbeadd3b0	-0.33950567
203	0x3e81d178	0.25355124
204	0x3e9049a2	0.28181177
205	0xbe9b1a9a	-0.30293733
206	0x3ed10a50	0.4082818
207	0x3efb7076	0.49109238
208	0xbe49d858	-0.19711435
209	0xbe0f6888	-0.1400472
210	0x3e7f2874	0.24917775
211	0xbec88e3e	-0.39171022
212	0x3e4a7978	0.19772899
213	0x3deee770	0.11665237
214	0x3ea15d4a	0.31516486
215	0xbede5d04	-0.4343034
216	0xbed4ae50	-0.4153924
217	0x3e65f440	0.22456455
218	0x3e386d8c	0.18010539
219	0xbeee46b2	-0.4653831
220	0xbe8ec2c6	-0.27882975
221	0xbeea3c08	-0.45748925
222	0xbeb7677e	-0.35821146
223	0xbe6703a4	-0.22559983
224	0x3ed3d990	0.41376925
225	0xbdcbd400	-0.09952545
226	0x3e9308ae	0.2871756
227	0x3ef31e4a	0.47484046
228	0x3e6955bc	0.22786611
229	0xbee52c82	-0.4476052
230	0x3e80d334	0.25161135
231	0x3e434b64	0.19071728
232	0x3ec66ab2	0.38753277
233	0xbefc86f4	-0.4932171
234	0x3e9d71b0	0.307508
235	0x3ed18bee	0.4092707
236	0xbeee2c62	-0.46518236
237	0x3d564650	0.05231315
238	0x3eda8a52	0.42683655
239	0xbeba30de	-0.36365408
240	0x3e27ff40	0.16405964
241	0x3e623dc0	0.22093868
242	0x3e0630ac	0.13104504
243	0x3ef09e94	0.46995986
244	0x3ed19b8a	0.4093898
245	0x3edba2ec	0.42897737
246	0xbd7f46d0	-0.06232339
247	0x3ed6b5de	0.4193563
248	0xbeee91d4	-0.46595633
249	0xbe8a2526	-0.26981467
250	0xbddb03a8	-0.10694057
251	0xbe1817d4	-0.1485284
252	0x3eec7742	0.46184736
253	0x3e717e1c	0.23583263
254	0x3ea4d0ee	0.3219065
255	0x3eae2234	0.3401047

weight f4 [2, 256]
0	0xbd353409	-0.044239078
1	0xbc1eb86f	-0.009687527
2	0x3c3da61f	0.011575251
3	0x3c5f2096	0.013618609
4	0x3d0dac57	0.034588184
5	0xbcdfc992	-0.027317796
6	0xbc865376	-0.01639722
7	0x3d4c2d17	0.04984769
8	0xbc6ab4b1	-0.014325307
9	0xbd3bdb9b	-0.04586373
10	0x3d379b9b	0.04482613
11	0x3d235279	0.039873574
12	0xbcb49afa	-0.022046555
13	0xbc24992d	-0.010046286
14	0xbd32de1d	-0.043668855
15	0xbd5fd04b	-0.054642003
16	0x3cac7a6e	0.021054473
17	0xbcc6a9da	-0.024250913
18	0x3d41c553	0.047307324
19	0xbd42f3f3	-0.04759593
20	0xbbcad8ba	-0.0061903866
21	0x3b78ea9d	0.0037981637
22	0x3cf314f2	0.029673073
23	0x3d5937e3	0.053031813
24	0x3d3764dd	0.044773925
25	0x3cf57082	0.029960874
26	0xbcd6f21a	-0.02623849
27	0xbd40d9f9	-0.047082875
28	0xbd5afdc1	-0.053464655
29	0x3a2ad0b7	0.0006516086
30	0x3d6e427b	0.05816887
31	0xbc1a61a5	-0.009422694
32	0xbba674be	-0.0050798347
33	0xbd2fff14	-0.04296787
34	0x3c89212c	0.01673945
35	0x403b46cc	2.926196
36	0xbd833653	-0.06406846
37	0xbd2a39c3	-0.041558992
38	0x3d47a69d	0.04874288
39	0x3c8d4856	0.017246407
40	0xbabdc925	-0.0014479501
41	0x3c0eedd3	0.008723694
42	0xbbe724c0	-0.0070539415
43	0xbd3cf6f5	-0.046133954
44	0xbd652f35	-0.055953223
45	0x3d1e57f5	0.0386581
46	0xbba35808	-0.0049848594
47	0xbcd2359a	-0.025660325
48	0xbc6030b1	-0.013683484
49	0xbd019949	-0.031640325
50	0xbc83960a	-0.016062755
51	0xbd65c8a3	-0.056099545
52	0x3d499b09	0.04922012
53	0x3cbd0322	0.023072783
54	0xbcee274a	-0.029071469
55	0xbcc2cfbe	-0.0237807
56	0x3cf9c2f4	0.030488469
57	0xbcd1a7ce	-0.02559271
58	0x3c9b11fe	0.018929478
59	0x3c71d479	0.01476013
60	0xbd171b8c	-0.036891505
61	0x3c9450de	0.018104967
62	0x3ab44467	0.0013753296
63	0x3d699dad	0.057035137
64	0xbca53156	-0.020165127
65	0xbc97ad9e	-0.018515404
66	0x3d528a45	0.051401395
67	0xbd470543	-0.048589002
68	0x3be43420	0.0069642216
69	0x3d6ca07f	0.05777025
70	0xbcf99fa2	-0.030471627
71	0x3d6b649b	0.05746899
72	0x3d59212b	0.053010147
73	0x3d78326b	0.060594957
74	0xbb666049	-0.0035152605
75	0x3d5d8e75	0.054090936
76	0xbcf325ca	-0.029681105
77	0xbc9b337e	-0.018945452
78	0x3cad9892	0.021190915
79	0x3c303289	0.010754236
80	0x3f1bade3	0.60812205
81	0x3d694089	0.05694631
82	0xbd16393b	-0.036675673
83	0x3cfbac48	0.030721799
84	0x3c973cea	0.018461663
85	0x3cfa0e48	0.030524388
86	0x3cdeb796	0.02718715
87	0xbcd3953a	-0.025827993
88	0xbd545c5d	-0.051845897
89	0x3d42de6d	0.047575403
90	0xbd1c028d	-0.03808837
91	0x3d2db289	0.042406593
92	0xbd7de80f	-0.061988886
93	0xbc090904	-0.008363966
94	0xbaea209f	-0.0017862505
95	0x3c090e94	0.008365292
96	0x3b2a9c69	0.002603317
97	0x3cb564be	0.022142764
98	0xbc1a22f7	-0.00940775
99	0x3c52a991	0.012857811
100	0x3d734dcf	0.059400376
101	0xbd2faccb	-0.042889398
102	0xba7c9b43	-0.0009636173
103	0xbcaf6212	-0.021409068
104	0x3d5697a3	0.052390706
105	0x3d511dd7	0.051053848
106	0x3a4320db	0.00074435555
107	0xbcc588f6	-0.02411316
108	0xbd1424e3	-0.03616799
109	0x3d413531	0.047169868
110	0xbbdd457a	-0.006752667
111	0x3d6712d7	0.05641445
112	0x3d07f522	0.03319276
113	0x3d560c5f	0.05225789
114	0x3d54818f	0.05188137
115	0xbd1c5479	-0.038166497
116	0x3ca9ec32	0.02074251
117	0xbce85d4e	-0.028364804
118	0x3d0a7a7d	0.03380822
119	0xbc042ff7	-0.008068076
120	0x3b421d11	0.0029619376
121	0xbd3b14dd	-0.045674194
122	0xbd6ed2cb	-0.058306497
123	0x3cd4dd6e	0.025984492
124	0x3c45d7c9	0.012075373
125	0x3b43502d	0.0029802427
126	0x3d23d81b	0.040001016
127	0xbce9db70	-0.028547019
128	0x3ca1b0ea	0.01973768
129	0xbd02f4a3	-0.031971585
130	0x3c7c4a7d	0.015398619
131	0xbc41a871	-0.011819945
132	0x3d294105	0.041321773
133	0x3d69e5ad	0.0571038
134	0x3d544ffb	0.051834088
135	0x3bac5dac	0.00526019
136	0x3d210532	0.039311595
137	0xbd75bff1	-0.059997503
138	0xbd0c2373	-0.034213495
139	0x3c0ee4a3	0.008721503
140	0xbb09a243	-0.0021001257
141	0xbd3ef2f3	-0.046618413
142	0xbcf6ad08	-0.030111805
143	0xbd019874	-0.03163953
144	0xbd83d51f	-0.06437134
145	0x3b662969	0.0035119897
146	0x3d247be9	0.040157232
147	0x3ce3dc76	0.027815085
148	0xbd03a9e8	-0.032144457
149	0xbd751b06	-0.059840225
150	0xbd589087	-0.052872207
151	0x3b6c743d	0.0036080026
152	0x3d3a22ad	0.045443226
153	0xbce367b2	-0.027759407
154	0xbd1554ad	-0.036457706
155	0xbcfd1214	-0.03089241
156	0xbb421bd1	-0.002961863
157	0xbd7d242d	-0.061802078
158	0xbd57e04b	-0.052704137
159	0x3d71f96f	0.05907577
160	0xbd041ec4	-0.032255903
161	0xbc60cfbd	-0.013721404
162	0xbc69dab1	-0.0142733315
163	0xbd56de31	-0.052457992
164	0xbc5ca4c3	-0.013467017
165	0x3cb0ca76	0.021580916
166	0xbce3f5ea	-0.027827222
167	0xb961802c	-0.0002150542
168	0xbb3411e5	-0.0027476486
169	0xbd74d1d1	-0.05977041
170	0x3d4411ad	0.04786842
171	0x3d58d1c9	0.05293444
172	0x3d389265	0.045061488
173	0xbc9414b2	-0.018076275
174	0x3cf77e48	0.030211583
175	0xbd79e1db	-0.06100641
176	0xbc92b89a	-0.01791029
177	0xbc282551	-0.010262803
178	0xbca0c0e6	-0.019623231
179	0x3cc2fb1e	0.023801383
180	0xbcd53cda	-0.026029993
181	0xbb9d2200	-0.004795313
182	0xbca7e69e	-0.020495709
183	0xbd7a6f6c	-0.061141416
184	0xbc00fc21	-0.007872612
185	0xbd4eec9d	-0.05051862
186	0x3d1f4de7	0.038892653
187	0x3d12da27	0.035852578
188	0x3d65ca03	0.056100857
189	0xbc97df36	-0.018539052
190	0x3a3f4141	0.00072957954
191	0x3c2078e9	0.009794452
192	0x3d84c975	0.064837374
193	0x3d74aec6	0.05973699
194	0xbcf4ebd0	-0.0298976
195	0xbd63dc59	-0.05563006
196	0xbd5cb33d	-0.053881872
197	0xbd054f18	-0.032546133
198	0x3d614561	0.054997806
199	0x3cc0039e	0.023439225
200	0x3d808423	0.06275203
201	0x3d47c83d	0.048774946
202	0x3b5bdbdf	0.0033547801
203	0xbd28b131	-0.041184608
204	0x3d6ff45b	0.058582645
205	0x3d5762af	0.052584346
206	0x3cf1b9dc	0.02950757
207	0xbd01d05b	-0.031692844
208	0x3d3fa451	0.046787564
209	0x3b545309	0.0032398126
210	0x3d1f3f09	0.038878474
211	0x3cc1a1f6	0.0236368
212	0x3cfbd134	0.030739404
213	0xbd569aad	-0.052393604
214	0xbd03eadb	-0.032206398
215	0x3d2393e7	0.039935973
216	0xbc2d3757	-0.010572276
217	0xbd54af67	-0.05192509
218	0x3d5ec6cd	0.05438881
219	0x3a8fcc2d	0.0010970883
220	0x3d447b3f	0.0479691
221	0xbd3e1073	-0.046402406
222	0x3c9c3826	0.019069742
223	0xbcd4e9da	-0.025990415
224	0xbceb843e	-0.028749581
225	0xbc7db190	-0.015484229
226	0xbca974a2	-0.020685498
227	0x3d023f8c	0.031798884
228	0xbc6aad9f	-0.014323621
229	0x3d3812f7	0.04493996
230	0x3c418a31	0.011812733
231	0xbbec3580	-0.007208526
232	0xbd09d5f6	-0.033651315
233	0xbd747124	-0.05967821
234	0xbc814d4d	-0.01578393
235	0xbd77181d	-0.06032573
236	0xbc1598f1	-0.009130702
237	0x3b636c3d	0.0034701966
238	0xbbd4381c	-0.0064764153
239	0xbd07c7fb	-0.0331497
240	0x3d3bb5bf	0.045827623
241	0x3d1a3425	0.037647385
242	0xbc923446	-0.017847192
243	0x3fa1ad5b	1.2631029
244	0x3d16ea3f	0.03684449
245	0x3d68c181	0.056825165
246	0xbd605fb3	-0.054778766
247	0xbc82ae70	-0.015952319
248	0xbc07262f	-0.00824885
249	0xbca550ea	-0.020180184
250	0x3d649445	0.055805463
251	0xbbde4650	-0.0067832842
252	0x3d4f0503	0.05054189
253	0xbb0c3a5f	-0.0021397097
254	0xbc1731bf	-0.009228169
255	0xbd1f5ad9	-0.038905

bias f4 [2]
0	0x3d41ad6c	0.04728453
1	0x3d0e6644	0.034765497
