NODE/submission_models/drifter_26_tanh_1day.pth (torch, 81679 bytes, 4 tensors)

weight f4 [256, 4]
000000 00 54 75 bb 5e 54 89 3e 16 b3 d2 be 80 66 bc be
       -0.00374341 0.2682218 -0.41152257 -0.3679695
000010 f4 32 45 be ec 4b 09 3e 40 4f 22 bc ce fa ca 3e
       -0.19257718 0.13407868 -0.00990659 0.39644474
000020 70 bf 35 bd 4c 7b 07 3e ac bb 1a be 70 48 c9 bd
       -0.044372022 0.13230628 -0.15110654 -0.098282695
000030 5d 1c f5 be d6 50 a9 be e8 c3 57 be 72 70 53 3c
       -0.47873202 -0.33069485 -0.21070826 0.012905227
000040 60 69 4a 3e 18 9b 99 3e 8c 8d ad be fc f4 5e be
       0.1976676 0.3000114 -0.33897054 -0.21773142
000050 98 f7 39 3e 4e 94 d4 3e 48 bd d2 bd 5c 91 bf 3e
       0.18160856 0.41519397 -0.10290009 0.37415588
000060 40 0d a5 bd 10 b5 58 3d 4a cd e7 3e ce 7b ed be
       -0.08059168 0.05290705 0.4527381 -0.46383518
000070 66 29 a1 be e0 9e 01 be dc 93 47 be 28 2f dd 3e
       -0.31476897 -0.12658262 -0.19489998 0.4320004
000080 1a ef a5 be c0 b0 6b be 1a da b2 be 76 c2 ef be
       -0.32408983 -0.23016644 -0.34932023 -0.4682805
000090 04 70 95 be 9e 0e dc 3e bc 76 64 3e 00 27 78 3e
       -0.29187024 0.42979902 0.22310919 0.24233627
0000a0 40 6a d7 3c 3a 3f 83 be c0 3e ad 3d 9e 06 ef be
       0.026295781 -0.25634176 0.08459234 -0.46684736
0000b0 1a fa b8 be c6 f9 83 be 26 85 a1 3e 26 19 96 3e
       -0.36128312 -0.257765 0.31546897 0.29316062
0000c0 c8 11 63 be 20 cb 93 bc 40 ba a3 3e 82 7f fe 3e
       -0.22174752 -0.018041193 0.31978035 0.49706656
0000d0 24 34 4b 3e c8 55 8a 3d fe a4 ab 3e c0 bb 96 be
       0.19844109 0.06754643 0.33524317 -0.29440117
0000e0 f8 d0 be 3d 6c 7a c6 be 18 6e b1 be d2 3e 84 be
       0.093172014 -0.38765275 -0.34654307 -0.25829178
0000f0 8c aa 67 3e f8 e7 4d 3e 6a a4 97 be c8 ad 1a 3e
       0.22623652 0.2010802 -0.29617625 0.15105355
000100 6e 89 8c 3e 20 3f 81 bd 40 64 9c 3c 00 44 ed 3d
       0.274486 -0.06310868 0.019090772 0.115852356
000110 00 d1 9e 3e 48 cf f5 3e 96 47 c5 be ec a1 3b be
       0.3101883 0.48009706 -0.38531178 -0.18323487
000120 98 38 49 3e d0 1b d4 3e e8 c5 de 3e 22 e2 e1 3e
       0.19650495 0.4142747 0.43510365 0.44117838
000130 78 ca cb 3d f8 9c de be 90 66 3c 3d ac 27 a0 be
       0.09950727 -0.43479133 0.04599625 -0.31280267
000140 8c 94 ee be 3e 74 e3 3e f0 a6 c2 3e fe 5d ff be
       -0.46597707 0.44424623 0.38017988 -0.49876398
000150 08 aa bf 3d c8 80 ac bd b8 82 a8 bd 1c 5f 6a be
       0.09358603 -0.084230006 -0.082280576 -0.22887844
000160 8c e4 44 3e 34 a1 97 be dc b1 3b 3e 16 76 81 3e
       0.19227809 -0.29615176 0.18329567 0.25285405
000170 5c 43 b7 3e 48 71 3f 3e 4a 5f fd be 00 11 a6 be
       0.3579358 0.18695557 -0.49486762 -0.32434845
000180 38 a6 7f 3e 18 53 d6 3d 96 b3 c7 be e8 68 93 be
       0.24965751 0.104650676 -0.390042 -0.28790975
000190 f2 d4 f0 3e 54 7f ac 3e b0 3e 5f be d4 dc 00 be
       0.47037464 0.33690894 -0.21801257 -0.12584239
0001a0 78 dd f3 be 80 3e 13 bc 78 c8 c0 be a2 77 c5 be
       -0.47629905 -0.008987069 -0.37652946 -0.38567835
0001b0 20 b0 e1 bc a0 bf 99 3d f4 ad 51 be 98 e7 97 3e
       -0.027549803 0.07507253 -0.20476514 0.2966888
0001c0 38 c9 9b be 68 49 e8 3e d0 6f af 3e 64 e1 d7 be
       -0.30426955 0.45368505 0.34264994 -0.42164147
0001d0 88 db fe bd 80 d2 b8 3c 18 67 95 3d d0 dd f2 3d
       -0.12444216 0.022561312 0.07295054 0.118587136
0001e0 5c ec 48 3e e0 59 f5 3c cc d1 79 be d4 45 72 3e
       0.19621414 0.029950082 -0.24396437 0.2365945
0001f0 56 91 f5 be a0 bb 97 be 3c 2b 00 be ec 66 79 be
       -0.47962445 -0.29635334 -0.12516493 -0.24355668
000200 5c 1d 33 be ba d2 d1 be 00 d2 d9 bd f8 e2 da 3d
       -0.17491668 -0.40981084 -0.106357574 0.10687822
000210 fb ee a6 bd 5d f2 ad bf 2d 6b f3 3e 5a f0 85 bd
       -0.08151051 -1.3589588 0.47542706 -0.06539984
000220 80 ac 63 3c c0 ad 30 bd 10 3d cf 3d 60 c6 a2 3e
       0.013896108 -0.04313445 0.101190686 0.31791973
000230 ba 7e f2 3e 06 93 a2 3e c4 0c f3 3e cd 3c 14 bd
       0.4736231 0.31752795 0.47470677 -0.036190797
000240 66 f8 e5 be 40 ba 72 be ce 4f ae 3e 00 6b 54 bb
       -0.44916075 -0.23703861 0.3404526 -0.003241241
000250 dc 7c 7e be 02 2d c4 be 00 94 ef be ec 10 d8 be
       -0.24852318 -0.38315588 -0.46792603 -0.4220041
000260 70 b4 cf bd 56 64 8c 3e 74 67 8a 3e 02 e5 f6 be
       -0.101418376 0.274203 0.27032053 -0.48221594
000270 2e b0 9f 3e 8a 52 c8 be f0 7b d8 bd 1c 9a 4f be
       0.31189102 -0.39125472 -0.10570514 -0.20273632
000280 f0 3c c5 bd 10 0e c9 bd ba b8 e5 be 44 0a dd be
       -0.096307635 -0.09817135 -0.44867498 -0.43171895
000290 28 3c a0 bd 80 e1 d3 3b b8 96 68 be b8 de 40 3e
       -0.07823974 0.0064660907 -0.22713745 0.1883496
0002a0 3a 6a e6 be c0 36 0a bd a2 21 e1 3e 38 d7 50 be
       -0.4500292 -0.03374362 0.43970972 -0.203946
0002b0 36 2b e7 3e 38 6c 39 3e ae 07 e7 be 74 f8 a1 3e
       0.45150155 0.18107688 -0.45123047 0.31634867
0002c0 f0 53 6c bd 70 8f 64 be 14 b6 cc 3e 54 df ce be
       -0.057697237 -0.22320342 0.39982665 -0.4040476
0002d0 b0 c2 5b 3d c0 64 d6 bd 16 d0 b6 3e 08 ec 0e 3e
       0.053652465 -0.10468435 0.35705632 0.13957226
0002e0 cc 04 76 3e 40 d1 34 3e 00 3f f6 bd 50 5a d7 bd
       0.24025267 0.17657948 -0.12023735 -0.105152726
0002f0 00 f7 d2 be 4c b6 8a 3e 26 42 cb 3e 5c 29 af 3e
       -0.4120407 0.27092206 0.39698905 0.34211242
000300 ac 93 b4 be 60 ae b6 3c 90 76 b4 be 88 ec 8c be
       -0.35268915 0.022299945 -0.35246706 -0.2752421
000310 30 2c 95 be 34 f9 2e 3e c4 8d 98 be 00 ba 32 bc
       -0.29135275 0.17087251 -0.2979566 -0.010908604
000320 a0 4f ac 3c 04 06 a5 3e fa 83 c1 be 44 bf af be
       0.021034062 0.32231152 -0.37796003 -0.34325612
000330 3c a6 94 be d6 2e b3 3e cc 0b 38 be e0 ee d7 3e
       -0.29033077 0.3499667 -0.1797325 0.42174435
000340 a0 24 39 3e 40 aa 81 3d 00 ed 73 bb 08 6d ca bd
       0.18080378 0.06331301 -0.003722012 -0.09884077
000350 40 7a 80 3d 30 d3 e9 bd 00 3e 66 bb c0 a7 82 3d
       0.06273317 -0.11417234 -0.003513217 0.06379652
000360 98 3e c8 be 7a 2d 86 be d8 b7 ce 3e 86 c1 cf be
       -0.39110255 -0.2620657 0.40374637 -0.40577334
000370 20 0f 13 bd c0 3e fd 3e 10 f4 38 3e c0 f0 67 3c
       -0.035903096 0.49461937 0.18061852 0.01415652
000380 26 da dd be 2c a2 7d 3e 08 58 b6 be a8 56 11 be
       -0.43330497 0.24768895 -0.35614038 -0.14193213
000390 cc c8 2b be 38 a4 97 bd 80 36 b3 3b 96 26 d3 3e
       -0.16775817 -0.07404369 0.0054691434 0.41240376
0003a0 80 ab 7f 3d 20 4c e5 3e 30 99 9c 3e c6 d8 a1 be
       0.062419415 0.4478464 0.30585623 -0.31610698
0003b0 54 a2 65 3e 24 f7 b4 be 9c ff 58 be 40 97 16 3e
       0.22425205 -0.35344803 -0.21191257 0.14706135
0003c0 de 0e 29 3e ef 0e c0 3e ac 29 25 be 20 8f e5 ba
       0.16509578 0.37511393 -0.16129178 -0.0017513968
0003d0 7a cb 83 3e 5a 93 f7 be 42 15 b9 3e 30 b1 d3 be
       0.25741178 -0.48354608 0.3614903 -0.4134612
0003e0 00 d0 e1 3b e0 18 ae bd 0a d4 86 be d8 57 87 3d
       0.0068912506 -0.08500838 -0.26333648 0.06608552
0003f0 f2 b0 d3 3e e8 aa 15 be 56 fc 97 be 84 5b 3d be
       0.41345936 -0.14615977 -0.29684705 -0.18491942

bias f4 [256]
000000 c0 7e 0f bd aa ca f1 be 14 9b 93 be b8 10 4f 3e
       -0.035032988 -0.47224933 -0.28829253 0.20221221
000010 70 a8 2d be da b2 b0 3e d2 60 ca 3e 10 f6 94 3d
       -0.16958785 0.34511453 0.39526993 0.07273495
000020 f0 f1 21 bd d0 85 22 be 20 1e cf bc b0 63 ba 3d
       -0.03953737 -0.15871358 -0.02528292 0.09101045
000030 be 8b c3 be 48 bb f4 bd e8 f0 d4 be 0a 1f 9d 3e
       -0.38192552 -0.119497836 -0.41590047 0.30687743
000040 b4 07 a3 be 02 de e9 3e d8 fb 03 be f4 a7 92 be
       -0.31841815 0.4567719 -0.1288904 -0.28643763
000050 f4 fd 75 3e 30 a8 98 3d cc 44 b1 3e 98 be 55 3e
       0.24022657 0.07453954 0.346228 0.20873487
000060 6a 9d f6 be e4 ea a1 3e 58 d5 c0 bd 08 4a 62 be
       -0.48166972 0.3162452 -0.09415692 -0.22098553
000070 e4 92 a2 3e 64 b5 ba 3e 9a 01 e1 be e0 2f 39 bd
       0.31752694 0.36466515 -0.43946534 -0.045211673
000080 98 3a d2 3e 7b 02 57 3e 12 ac d7 3e 34 76 2f be
       0.41060328 0.2099704 0.42123467 -0.17134935
000090 70 38 8d be 0a 23 dc 3e d0 69 55 3e 6a c1 f5 3e
       -0.2758212 0.42995483 0.20841146 0.47999126
0000a0 54 dc 55 be 7e 5e a4 be 50 0d 70 bd 62 0b f1 be
       -0.2088483 -0.32103342 -0.058606446 -0.47078997
0000b0 f8 b0 48 3e 98 d2 bc 3e 78 d1 f5 3d 40 5b 4a bd
       0.19598758 0.3687942 0.120028436 -0.04940343
0000c0 54 da 7d 3e 10 7f a2 be 24 6e fa 3e 4e 8d fe be
       0.24790317 -0.31737566 0.48912156 -0.49717182
0000d0 e6 3b f5 be 10 f9 f1 bd b8 1c d1 3e c0 0e 4d 3d
       -0.4789726 -0.11815083 0.40842223 0.050062895
0000e0 a4 a1 44 3e 56 a6 bb be 18 b8 3a 3e c0 d9 64 bd
       0.19202286 -0.36650342 0.18234289 -0.055871725
0000f0 b9 37 4d 3e 50 cc b4 3e 68 8e 5e 3e 20 36 2e bd
       0.20040788 0.35312128 0.21734011 -0.042532086
000100 60 4f fc bc e2 8e a0 be 04 31 39 be ca 5b a6 3e
       -0.030799568 -0.3135901 -0.18085104 0.32491904
000110 6c 4f 4d be 76 fc 9e 3e 3c 06 4b be 08 7d ee bd
       -0.20049828 0.31051987 -0.19826597 -0.116449416
000120 00 58 2e 3c 20 ec ea be 00 98 a3 bb 00 6e 4e bd
       0.010641098 -0.45883274 -0.004992485 -0.050397873
000130 20 fc 37 bd b0 b3 cc bd 18 d3 c9 3e ba ec bc 3e
       -0.04491818 -0.0999521 0.39418864 0.36899358
000140 ce 9b 94 be 74 d6 6d 3e 4c cd c8 be 32 f0 d9 be
       -0.2902512 0.23226339 -0.3921913 -0.42566067
000150 58 82 1c 3e 80 c9 f0 3b ec d9 6e be b8 e9 f6 be
       0.15284097 0.0073482394 -0.23325318 -0.48225188
000160 b4 36 46 be fc 01 2b 3e 38 f4 ec be f6 b1 f8 be
       -0.19356805 0.16699976 -0.46280074 -0.48573273
000170 e0 ea 81 3d 68 6c b8 be cc 46 e0 be 3c 44 45 be
       0.06343627 -0.36020207 -0.43804014 -0.1926431
000180 68 dd a4 bd e8 a0 e8 be 34 f0 aa be 70 48 06 3d
       -0.080500424 -0.45435262 -0.33386385 0.032783926
000190 98 66 f1 be 80 ed 8f bd c6 4c a5 be 00 78 b1 be
       -0.47148585 -0.070277214 -0.32285136 -0.34661865
0001a0 5c 3b 49 3e 62 0a c5 be 6c 01 c2 be f8 fd 91 3e
       0.1965155 -0.38484484 -0.3789171 0.28514075
0001b0 18 74 bf 3d 7a 24 e9 3e f4 da 08 be c0 4d 77 be
       0.09348315 0.45535642 -0.13364774 -0.24150753
0001c0 00 89 3d bd 00 c9 25 3b a8 3c c3 3e 18 ff fe be
       -0.04627323 0.0025296807 0.38132215 -0.49803996
0001d0 b0 d1 11 bd fc 7b 62 3e 90 f9 8c be 84 15 82 be
       -0.035600364 0.22117609 -0.2753415 -0.2540704
0001e0 e0 6e 77 3e a0 4b f5 be 88 a4 f2 3d 2f b1 c1 be
       0.24163389 -0.4790926 0.11847788 -0.37830493
0001f0 e4 7e 7e 3e ee e3 da be d8 63 9d 3e 84 56 f2 be
       0.24853092 -0.42752022 0.30740237 -0.4733163
000200 62 2f d7 be fc 85 ee 3b 9c b9 c9 3e be 3c db be
       -0.42028338 0.007279156 0.3939942 -0.4281978
000210 f0 61 64 be 20 d7 e0 3e e0 b8 ab bd 1c 1d 54 3e
       -0.22302985 0.43914127 -0.083848715 0.2071423
000220 84 45 f6 be a4 03 21 be 4a 01 82 be dc d2 d7 3e
       -0.4809991 -0.15724045 -0.25391608 0.4215306
000230 1c 80 54 3e 06 cc ba be b0 18 a5 3d 00 4f bc bb
       0.20751995 -0.36483783 0.080613494 -0.005746722
000240 88 5d 52 be 14 32 92 be c0 e6 29 be 36 c9 c9 3e
       -0.20543492 -0.28553832 -0.1659193 0.39411324
000250 a2 83 b7 be 22 5c b6 be 38 f6 1d be c0 82 0e 3c
       -0.35842615 -0.35617167 -0.15425956 0.008698165
000260 5c 5f 0b 3e 80 d3 75 3c c8 80 f6 bd c4 39 9b be
       0.13610595 0.015004039 -0.12036282 -0.3031751
000270 30 bd b7 bd 78 1b 4e be 6c d4 ce 3e 5e 31 f9 be
       -0.089716315 -0.20127666 0.4039644 -0.48670477
000280 ba 4a a3 be 72 47 d0 be 98 24 bb bd 76 7e c7 3e
       -0.3189295 -0.40679508 -0.09137839 0.3896367
000290 e0 64 e0 3e b6 dc de be 80 77 b1 bc 6a 43 96 3e
       0.43826962 -0.43527764 -0.021663427 0.29348308
0002a0 34 b0 61 3e ca b0 d1 3e 40 3b 63 bc 2a 01 ac be
       0.22039872 0.40955192 -0.013869107 -0.33594638
0002b0 10 5a a9 3e 80 92 2f be a2 8d 84 3e d8 59 fc bd
       0.33076525 -0.17145729 0.25889307 -0.12321824
0002c0 f0 a5 59 3e c8 40 e6 3e 02 0b ee 3e 06 fa e8 be
       0.21254706 0.449713 0.46492773 -0.45503253
0002d0 c6 56 a9 be ec b1 53 be 60 40 a3 be cc a1 f5 3e
       -0.33074015 -0.2067334 -0.31885052 0.47975004
0002e0 80 e0 34 bd b0 d0 a9 be a8 d5 63 be c4 67 8d be
       -0.044159412 -0.33167028 -0.22249472 -0.2761823
0002f0 fc e3 50 3e da 4b df be f8 b1 ee be d8 5a fc be
       0.20399469 -0.43612558 -0.46620154 -0.49288058
000300 a8 6d 5c 3e 28 29 7d 3e 0a ff 9e be 18 ee fd 3d
       0.21526206 0.24722731 -0.31053954 0.123989284
000310 ac f9 bc 3e e0 c9 94 3d d8 a8 d8 bd a0 4f 17 3d
       0.36909235 0.07265067 -0.105790794 0.03694117
000320 30 9a 5b bd 52 e5 80 3e b0 d3 ad be 78 d1 81 3e
       -0.05361384 0.25174958 -0.33950567 0.25355124
000330 a2 49 90 3e 9a 1a 9b be 50 0a d1 3e 76 70 fb 3e
       0.28181177 -0.30293733 0.4082818 0.49109238
000340 58 d8 49 be 88 68 0f be 74 28 7f 3e 3e 8e c8 be
       -0.19711435 -0.1400472 0.24917775 -0.39171022
000350 78 79 4a 3e 70 e7 ee 3d 4a 5d a1 3e ec 5c de be
       0.19772899 0.11665237 0.31516486 -0.4343027
000360 50 ae d4 be 40 f4 65 3e 8c 6d 38 3e b2 46 ee be
       -0.4153924 0.22456455 0.18010539 -0.4653831
000370 c6 c2 8e be 08 3c ea be 7e 67 b7 be a4 03 67 be
       -0.27882975 -0.45748925 -0.35821146 -0.22559983
000380 90 d9 d3 3e 00 d4 cb bd ae 08 93 3e 4a 1e f3 3e
       0.41376925 -0.09952545 0.2871756 0.47484046
000390 bc 55 69 3e 82 2c e5 be 34 d3 80 3e 64 4b 43 3e
       0.22786611 -0.4476052 0.25161135 0.19071728
0003a0 b2 6a c6 3e f4 86 fc be b0 71 9d 3e ee 8b d1 3e
       0.38753277 -0.4932171 0.307508 0.4092707
0003b0 62 2c ee be 50 46 56 3d 52 8a da 3e de 30 ba be
       -0.46518236 0.05231315 0.42683655 -0.36365408
0003c0 40 ff 27 3e c0 3d 62 3e ac 30 06 3e e9 e4 15 3f
       0.16405964 0.22093868 0.13104504 0.58552414
0003d0 8a 9b d1 3e ec a2 db 3e d0 46 7f bd de b5 d6 3e
       0.4093898 0.42897737 -0.06232339 0.4193563
0003e0 d4 91 ee be 26 25 8a be a8 03 db bd d4 17 18 be
       -0.46595633 -0.26981467 -0.10694057 -0.1485284
0003f0 42 77 ec 3e 1c 7e 71 3e ee d0 a4 3e 34 22 ae 3e
       0.46184736 0.23583263 0.3219065 0.3401047

weight f4 [2, 256]
000000 af ee 3e bd db 9a ef bb 12 bb 16 3c 9f d3 85 3c
       -0.046614345 -0.0073121614 0.0091998745 0.01633626
000010 ae f1 03 3d 4c 54 cc bc dc c8 99 bc bd e7 55 3d
       0.032212906 -0.02494254 -0.018772535 0.052222956
000020 d0 cf 88 bc f5 20 32 bd f5 e0 2d 3d 1f 0d 2d 3d
       -0.016700655 -0.04348846 0.042450864 0.04224884
000030 a6 25 a1 bc 28 84 4b bc c3 98 3c bd a5 15 56 bd
       -0.019671272 -0.012421645 -0.046044122 -0.052266736
000040 b4 ef bf 3c 34 1f da bc f9 7f 4b 3d 99 ae 4c bd
       0.023429729 -0.026626207 0.04968259 -0.049971197
000050 4e 57 0c bc 5c 7e ba 3a 19 45 03 3d 3d 7d 4f 3d
       -0.008565737 0.0014228332 0.03204832 0.050656546
000060 37 aa 2d 3d 3c fb e1 3c 6c 67 ea bc 53 1f 37 bd
       0.042398658 0.027585618 -0.028613769 -0.044707607
000070 65 b8 64 bd b5 5f 46 3b ee fc 77 3d a0 4c 41 bc
       -0.055839915 0.0030269448 0.060543947 -0.011798054
000080 03 3e 31 bb c9 35 87 bf 84 96 9c 3c 1e 00 22 3d
       -0.0027045019 -1.0563289 0.01911474 0.039550893
000090 ed b1 7c bd 69 f4 33 bd f7 eb 3d 3d f8 a5 73 3c
       -0.06169312 -0.04393426 0.04636761 0.014871113
0000a0 16 90 7a bb c2 d8 35 3c 40 7d 1a bc 4f 3c 33 bd
       -0.0038232855 0.011099042 -0.009429276 -0.043758687
0000b0 98 e9 6e bd 9b 12 28 3d e1 2d f1 bb 52 c0 be bc
       -0.05832824 0.04103337 -0.0073602055 -0.023285065
0000c0 d0 8d 83 bc e7 53 0b bd 7c 0b 97 bc fd 0d 5c bd
       -0.016058832 -0.034015562 -0.018438093 -0.053724278
0000d0 63 e0 3f 3d 70 78 d0 3c 45 ce 00 bd 72 5a af bc
       0.04684485 0.025448054 -0.031446714 -0.021405432
0000e0 ac 4d e6 3c 86 32 be bc a9 9c 87 3c b4 5f 8c 3c
       0.028113209 -0.02321745 0.016554194 0.017135479
0000f0 77 d9 20 bd 83 db 80 3c b9 cd 75 3b 07 e3 5f 3d
       -0.03926989 0.015729671 0.0037506653 0.05465987
000100 9c a6 b8 bc 46 38 84 bc eb 44 5c 3d e9 bf 50 bd
       -0.022540383 -0.016140115 0.053776663 -0.05096427
000110 44 5e 96 3b eb 5a 76 3d 58 2a e6 bc 07 1f 75 3d
       0.004588874 0.0601453 -0.028096363 0.059844043
000120 d3 db 62 3d af 77 6e 3d ed 05 c1 bb eb 48 67 3d
       0.055385422 0.058219608 -0.005890599 0.056466024
000130 78 b0 df bc c4 a8 ae bc da 0d c1 3c 86 1d 57 3c
       -0.027305827 -0.021320708 0.023566175 0.0131295975
000140 62 21 e4 3f f7 fa 72 3d e1 f3 1f bd c3 90 07 3d
       1.7822688 0.05932137 -0.03905094 0.03309704
000150 30 b2 aa 3c c3 c1 06 3d eb 2c f2 3c f2 1f c0 bc
       0.02083692 0.03289963 0.029562434 -0.023452733
000160 b7 a1 4a bd 13 99 4c 3d f1 47 12 bd e3 f7 23 3d
       -0.04947063 0.04995067 -0.03571314 0.040031325
000170 63 2d 74 bd ec f3 2f bc 13 6d 1a 3a 7c f9 2f 3c
       -0.059613597 -0.010739308 0.0005890887 0.010740634
000180 f5 23 a3 3b 6c ef a1 3c ef 6f e6 bb 86 94 79 3c
       0.0049786516 0.019767486 -0.0070323865 0.015233165
000190 46 08 7d 3d 25 f2 25 bd 53 d2 5a bb 58 d7 c2 bc
       0.06177547 -0.04051413 -0.0033389523 -0.023784325
0001a0 4b 52 60 3d 7d d8 5a 3d d4 c6 d5 ba a8 13 b2 bc
       0.05476598 0.053429116 -0.0016309866 -0.021737888
0001b0 89 df 1d bd 8b 7a 37 3d a2 6f 8f bb 3f cd 70 3d
       -0.038543258 0.0447946 -0.0043773213 0.058789488
0001c0 bf af 11 3d 07 c7 5f 3d e9 c6 4a 3d 1f 0f 26 bd
       0.035567995 0.054633167 0.0495061 -0.040541764
0001d0 e0 76 96 3c 08 e8 d4 bc d5 bf 00 3d e5 89 ba bb
       0.01836723 -0.025989547 0.031432945 -0.005692708
0001e0 49 e4 ae 3b 37 5a 31 bd 25 18 65 bd f8 ea b1 3c
       0.0053372723 -0.043298926 -0.05593123 0.021718487
0001f0 be c2 6c 3c d9 7d af 3b c1 92 2d 3d 2c 66 d6 bc
       0.014450727 0.0053555784 0.042376284 -0.026171766
000200 30 26 b5 3c fc ad 0c bd ca 5f 55 3c 68 93 68 bc
       0.022112936 -0.034345612 0.013023326 -0.014195301
000210 ab fb 32 3d 07 2b 60 3d a1 0a 5e 3d e3 0f 3d 3b
       0.04369704 0.054728534 0.054209355 0.002884858
000220 5c 42 17 3d 70 7a 7f bd 19 de 15 bd 92 cf 35 3c
       0.03692852 -0.062372625 -0.036588762 0.011096852
000230 39 4b 90 39 99 ad 48 bd d8 37 e3 bc 94 bb ef bc
       0.00027521866 -0.04899368 -0.02773659 -0.029264249
000240 87 ef 7d bd 7f ea c0 3b 8f 36 2e 3d 30 67 d0 3c
       -0.06199601 0.005887329 0.0425325 0.025439829
000250 7c de f3 bc 5f 60 6b bd e1 d5 4e bd 9c 91 a1 3a
       -0.029769175 -0.057464954 -0.05049694 0.001232672
000260 07 68 30 3d 6c f2 cf bc 0d 9a 0b bd a9 43 08 bd
       0.04306796 -0.02538415 -0.03408246 -0.03326765
000270 ae f8 ae bb 83 69 73 bd f3 9a 61 bd e1 b3 7b 3d
       -0.0053397035 -0.059426796 -0.05507941 0.061450843
000280 34 c8 f4 bc d2 e4 39 bc d0 62 88 bc d9 98 60 bd
       -0.02988062 -0.011346059 -0.01664868 -0.054833267
000290 c0 b9 35 bc 20 55 9d 3c a4 80 d0 bc 8b c3 29 bb
       -0.0110916495 0.01920563 -0.025451966 -0.0025903906
0002a0 0d 33 c3 b9 4b 8c 7e bd 07 57 3a 3d 23 17 4f 3d
       -0.00037231334 -0.062145513 0.045493152 0.050559174
0002b0 bf d7 2e 3d f8 89 a7 bc c3 79 05 3d 17 27 70 bd
       0.04268622 -0.02045153 0.032586824 -0.05863103
0002c0 80 86 7e bc 4a 10 4f bc 2c 36 b4 bc 6e 70 d6 3c
       -0.015534997 -0.012638161 -0.021998487 0.026176658
0002d0 2a b2 e8 bc d6 f7 ea bb 4a 71 94 bc af b4 70 bd
       -0.028405268 -0.0071706576 -0.018120427 -0.058766063
0002e0 08 e7 27 bc 43 a7 58 bd 46 93 15 3d 8b 1f 09 3d
       -0.010247953 -0.05289389 0.036517404 0.033477347
0002f0 6f 84 6f 3d 7c 54 ab bc df 7b 4b 3b e4 63 47 3c
       0.058475908 -0.020914309 0.0031049175 0.012169812
000300 31 d8 7f 3d 1f f4 6a 3d 87 30 04 bd b3 21 5a bd
       0.062462036 0.05736172 -0.03227284 -0.053254794
000310 e2 6d 66 bd dc 28 f7 bc bb 8a 57 3d 54 8e ac 3c
       -0.056257136 -0.03017085 0.052622538 0.021063961
000320 8f 4d 77 3d 97 0d 3e 3d cc 60 80 3a 8b f6 1e bd
       0.0603767 0.04639968 0.0009794473 -0.03880934
000330 c9 ae 79 3d 09 a8 4d 3d 90 44 de 3c fb 8a 0b bd
       0.060957704 0.05020908 0.027132303 -0.03406809
000340 f7 5e 49 3d 55 ff b7 3b af f9 28 3d 4a 17 d5 3c
       0.04916283 0.0056151547 0.04125374 0.026012082
000350 39 a3 07 3d 55 55 60 bd 89 a5 0d bd 8b db 19 3d
       0.033114646 -0.05476888 -0.034581695 0.037562888
000360 5a 22 54 bc 0d 6a 5e bd 3a 81 68 3d 06 8b a7 ba
       -0.012947643 -0.054300357 0.056763865 -0.0012782521
000370 e5 35 4e 3d 19 cb 47 bd 6c ad af 3c 92 74 c1 bc
       0.050344367 -0.048777673 0.021444999 -0.023615155
000380 f8 0e d8 bc e2 c6 56 bc ea e9 bc bc 2d fa 0b 3d
       -0.026374325 -0.013108941 -0.023060758 0.034174133
000390 b2 c2 43 bc 9d cd 41 3d 28 75 68 3c 9a 05 1d bc
       -0.011948274 0.04731523 0.0141880885 -0.009583855
0003a0 9d 90 13 bd 7d b6 6a bd c4 c2 94 bc 59 5d 6d bd
       -0.036026586 -0.05730294 -0.018159278 -0.05795035
0003b0 f4 83 3c bc 98 81 8f 3a 61 62 86 bb a4 1a fc bc
       -0.011506069 0.0010948656 -0.004101083 -0.030774422
0003c0 19 fb 31 3d 89 79 10 3d d8 7d 7d bc 6e be 16 c0
       0.043452356 0.035272155 -0.015471898 -2.355373
0003d0 e5 a4 20 3d db 06 5f 3d 1a 1a 6a bd 36 72 5e bc
       0.039219756 0.054449897 -0.0571538 -0.013577035
0003e0 59 76 c0 bb 30 c6 b8 bc 9f d9 5a 3d 16 0e 16 bc
       -0.005873483 -0.02255544 0.053430196 -0.009158632
0003f0 a9 bf 58 3d 52 14 77 39 7f 8d e0 bb 39 a0 15 bd
       0.052917156 0.00023563326 -0.006852805 -0.036529753

bias f4 [2]
000000 29 68 4b 3d 32 1c 15 3d
       0.04965988 0.036403842
