NODE/submission_models/drifter_32_tanh_1day.pth (torch, 81679 bytes, 4 tensors)

weight f4 [256, 4]
000000 00 54 75 bb 5e 54 89 3e 16 b3 d2 be 80 66 bc be
       -0.00374341 0.2682218 -0.41152257 -0.3679695
000010 f4 32 45 be ec 4b 09 3e 40 4f 22 bc ce fa ca 3e
       -0.19257718 0.13407868 -0.00990659 0.39644474
000020 70 bf 35 bd 4c 7b 07 3e ac bb 1a be 70 48 c9 bd
       -0.044372022 0.13230628 -0.15110654 -0.098282695
000030 a9 93 f4 be b1 c8 a8 be 02 ee 5c be b5 0f 0b 3c
       -0.47768906 -0.32965615 -0.21575168 0.008487632
000040 60 69 4a 3e 18 9b 99 3e 8c 8d ad be fc f4 5e be
       0.1976676 0.3000114 -0.33897054 -0.21773142
000050 98 f7 39 3e 4e 94 d4 3e 48 bd d2 bd 5c 91 bf 3e
       0.18160856 0.41519397 -0.10290009 0.37415588
000060 40 0d a5 bd 10 b5 58 3d 4a cd e7 3e ce 7b ed be
       -0.08059168 0.05290705 0.4527381 -0.46383518
000070 66 29 a1 be e0 9e 01 be dc 93 47 be 28 2f dd 3e
       -0.31476897 -0.12658262 -0.19489998 0.4320004
000080 1a ef a5 be c0 b0 6b be 1a da b2 be 76 c2 ef be
       -0.32408983 -0.23016644 -0.34932023 -0.4682805
000090 04 70 95 be 9e 0e dc 3e bc 76 64 3e 00 27 78 3e
       -0.29187024 0.42979902 0.22310919 0.24233627
0000a0 40 6a d7 3c 3a 3f 83 be c0 3e ad 3d 9e 06 ef be
       0.026295781 -0.25634176 0.08459234 -0.46684736
0000b0 1a fa b8 be c6 f9 83 be 26 85 a1 3e 26 19 96 3e
       -0.36128312 -0.257765 0.31546897 0.29316062
0000c0 c8 11 63 be 20 cb 93 bc 40 ba a3 3e 82 7f fe 3e
       -0.22174752 -0.018041193 0.31978035 0.49706656
0000d0 24 34 4b 3e c8 55 8a 3d fe a4 ab 3e c0 bb 96 be
       0.19844109 0.06754643 0.33524317 -0.29440117
0000e0 f8 d0 be 3d 6c 7a c6 be 18 6e b1 be d2 3e 84 be
       0.093172014 -0.38765275 -0.34654307 -0.25829178
0000f0 8c aa 67 3e f8 e7 4d 3e 6a a4 97 be c8 ad 1a 3e
       0.22623652 0.2010802 -0.29617625 0.15105355
000100 6e 89 8c 3e 20 3f 81 bd 40 64 9c 3c 00 44 ed 3d
       0.274486 -0.06310868 0.019090772 0.115852356
000110 00 d1 9e 3e 48 cf f5 3e 96 47 c5 be ec a1 3b be
       0.3101883 0.48009706 -0.38531178 -0.18323487
000120 98 38 49 3e d0 1b d4 3e e8 c5 de 3e 22 e2 e1 3e
       0.19650495 0.4142747 0.43510365 0.44117838
000130 78 ca cb 3d f8 9c de be 90 66 3c 3d ac 27 a0 be
       0.09950727 -0.43479133 0.04599625 -0.31280267
000140 8c 94 ee be 3e 74 e3 3e f0 a6 c2 3e fe 5d ff be
       -0.46597707 0.44424623 0.38017988 -0.49876398
000150 08 aa bf 3d c8 80 ac bd b8 82 a8 bd 1c 5f 6a be
       0.09358603 -0.084230006 -0.082280576 -0.22887844
000160 8c e4 44 3e 34 a1 97 be dc b1 3b 3e 16 76 81 3e
       0.19227809 -0.29615176 0.18329567 0.25285405
000170 5c 43 b7 3e 48 71 3f 3e 4a 5f fd be 00 11 a6 be
       0.3579358 0.18695557 -0.49486762 -0.32434845
000180 38 a6 7f 3e 18 53 d6 3d 96 b3 c7 be e8 68 93 be
       0.24965751 0.104650676 -0.390042 -0.28790975
000190 f2 d4 f0 3e 54 7f ac 3e b0 3e 5f be d4 dc 00 be
       0.47037464 0.33690894 -0.21801257 -0.12584239
0001a0 78 dd f3 be 80 3e 13 bc 78 c8 c0 be a2 77 c5 be
       -0.47629905 -0.008987069 -0.37652946 -0.38567835
0001b0 20 b0 e1 bc a0 bf 99 3d f4 ad 51 be 98 e7 97 3e
       -0.027549803 0.07507253 -0.20476514 0.2966888
0001c0 38 c9 9b be 68 49 e8 3e d0 6f af 3e 64 e1 d7 be
       -0.30426955 0.45368505 0.34264994 -0.42164147
0001d0 88 db fe bd 80 d2 b8 3c 18 67 95 3d d0 dd f2 3d
       -0.12444216 0.022561312 0.07295054 0.118587136
0001e0 5c ec 48 3e e0 59 f5 3c cc d1 79 be d4 45 72 3e
       0.19621414 0.029950082 -0.24396437 0.2365945
0001f0 56 91 f5 be a0 bb 97 be 3c 2b 00 be ec 66 79 be
       -0.47962445 -0.29635334 -0.12516493 -0.24355668
000200 5c 1d 33 be ba d2 d1 be 00 d2 d9 bd f8 e2 da 3d
       -0.17491668 -0.40981084 -0.106357574 0.10687822
000210 0a cd 0c 3f a4 37 c8 3f 79 9d 4b 3f 2e 43 c7 bd
       0.55000365 1.564198 0.7953716 -0.097296104
000220 80 ac 63 3c c0 ad 30 bd 10 3d cf 3d 60 c6 a2 3e
       0.013896108 -0.04313445 0.101190686 0.31791973
000230 67 7e f2 3e 3d 93 a2 3e 19 57 f3 3e c0 01 ff bc
       0.47362062 0.3175296 0.47527388 -0.031128764
000240 66 f8 e5 be 40 ba 72 be ce 4f ae 3e 00 6b 54 bb
       -0.44916075 -0.23703861 0.3404526 -0.003241241
000250 dc 7c 7e be 02 2d c4 be 00 94 ef be ec 10 d8 be
       -0.24852318 -0.38315588 -0.46792603 -0.4220041
000260 70 b4 cf bd 56 64 8c 3e 74 67 8a 3e 02 e5 f6 be
       -0.101418376 0.274203 0.27032053 -0.48221594
000270 2e b0 9f 3e 8a 52 c8 be f0 7b d8 bd 1c 9a 4f be
       0.31189102 -0.39125472 -0.10570514 -0.20273632
000280 f0 3c c5 bd 10 0e c9 bd ba b8 e5 be 44 0a dd be
       -0.096307635 -0.09817135 -0.44867498 -0.43171895
000290 28 3c a0 bd 80 e1 d3 3b b8 96 68 be b8 de 40 3e
       -0.07823974 0.0064660907 -0.22713745 0.1883496
0002a0 3a 6a e6 be c0 36 0a bd a2 21 e1 3e 38 d7 50 be
       -0.4500292 -0.03374362 0.43970972 -0.203946
0002b0 36 2b e7 3e 38 6c 39 3e ae 07 e7 be 74 f8 a1 3e
       0.45150155 0.18107688 -0.45123047 0.31634867
0002c0 f0 53 6c bd 70 8f 64 be 14 b6 cc 3e 54 df ce be
       -0.057697237 -0.22320342 0.39982665 -0.4040476
0002d0 b0 c2 5b 3d c0 64 d6 bd 16 d0 b6 3e 08 ec 0e 3e
       0.053652465 -0.10468435 0.35705632 0.13957226
0002e0 cc 04 76 3e 40 d1 34 3e 00 3f f6 bd 50 5a d7 bd
       0.24025267 0.17657948 -0.12023735 -0.105152726
0002f0 00 f7 d2 be 4c b6 8a 3e 26 42 cb 3e 5c 29 af 3e
       -0.4120407 0.27092206 0.39698905 0.34211242
000300 ac 93 b4 be 60 ae b6 3c 90 76 b4 be 88 ec 8c be
       -0.35268915 0.022299945 -0.35246706 -0.2752421
000310 30 2c 95 be 34 f9 2e 3e c4 8d 98 be 00 ba 32 bc
       -0.29135275 0.17087251 -0.2979566 -0.010908604
000320 a0 4f ac 3c 04 06 a5 3e fa 83 c1 be 44 bf af be
       0.021034062 0.32231152 -0.37796003 -0.34325612
000330 3c a6 94 be d6 2e b3 3e cc 0b 38 be e0 ee d7 3e
       -0.29033077 0.3499667 -0.1797325 0.42174435
000340 a0 24 39 3e 40 aa 81 3d 00 ed 73 bb 08 6d ca bd
       0.18080378 0.06331301 -0.003722012 -0.09884077
000350 40 7a 80 3d 30 d3 e9 bd 00 3e 66 bb c0 a7 82 3d
       0.06273317 -0.11417234 -0.003513217 0.06379652
000360 98 3e c8 be 7a 2d 86 be d8 b7 ce 3e 86 c1 cf be
       -0.39110255 -0.2620657 0.40374637 -0.40577334
000370 20 0f 13 bd c0 3e fd 3e 10 f4 38 3e c0 f0 67 3c
       -0.035903096 0.49461937 0.18061852 0.01415652
000380 26 da dd be 2c a2 7d 3e 08 58 b6 be a8 56 11 be
       -0.43330497 0.24768895 -0.35614038 -0.14193213
000390 cc c8 2b be 38 a4 97 bd 80 36 b3 3b 96 26 d3 3e
       -0.16775817 -0.07404369 0.0054691434 0.41240376
0003a0 80 ab 7f 3d 20 4c e5 3e 30 99 9c 3e c6 d8 a1 be
       0.062419415 0.4478464 0.30585623 -0.31610698
0003b0 54 a2 65 3e 24 f7 b4 be 9c ff 58 be 40 97 16 3e
       0.22425205 -0.35344803 -0.21191257 0.14706135
0003c0 af 06 19 c0 16 8e 0d 40 cd 9c 13 bf 87 88 84 3d
       -2.391033 2.2117972 -0.57661134 0.06471353
0003d0 7a cb 83 3e 5a 93 f7 be 42 15 b9 3e 30 b1 d3 be
       0.25741178 -0.48354608 0.3614903 -0.4134612
0003e0 00 d0 e1 3b e0 18 ae bd 0a d4 86 be d8 57 87 3d
       0.0068912506 -0.08500838 -0.26333648 0.06608552
0003f0 f2 b0 d3 3e e8 aa 15 be 56 fc 97 be 84 5b 3d be
       0.41345936 -0.14615977 -0.29684705 -0.18491942

bias f4 [256]
000000 c0 7e 0f bd aa ca f1 be 14 9b 93 be 85 56 4c 3e
       -0.035032988 -0.47224933 -0.28829253 0.1995488
000010 70 a8 2d be da b2 b0 3e d2 60 ca 3e 10 f6 94 3d
       -0.16958785 0.34511453 0.39526993 0.07273495
000020 f0 f1 21 bd d0 85 22 be 20 1e cf bc b0 63 ba 3d
       -0.03953737 -0.15871358 -0.02528292 0.09101045
000030 be 8b c3 be 48 bb f4 bd e8 f0 d4 be 0a 1f 9d 3e
       -0.38192552 -0.119497836 -0.41590047 0.30687743
000040 b4 07 a3 be 02 de e9 3e d8 fb 03 be f4 a7 92 be
       -0.31841815 0.4567719 -0.1288904 -0.28643763
000050 f4 fd 75 3e 30 a8 98 3d cc 44 b1 3e 98 be 55 3e
       0.24022657 0.07453954 0.346228 0.20873487
000060 6a 9d f6 be e4 ea a1 3e 58 d5 c0 bd 08 4a 62 be
       -0.48166972 0.3162452 -0.09415692 -0.22098553
000070 e4 92 a2 3e 64 b5 ba 3e 9a 01 e1 be e0 2f 39 bd
       0.31752694 0.36466515 -0.43946534 -0.045211673
000080 98 3a d2 3e 28 5f 52 3e 12 ac d7 3e d0 72 2f be
       0.41060328 0.20544112 0.42123467 -0.17133641
000090 70 38 8d be 0a 23 dc 3e d0 69 55 3e 6a c1 f5 3e
       -0.2758212 0.42995483 0.20841146 0.47999126
0000a0 54 dc 55 be 7e 5e a4 be 50 0d 70 bd 62 0b f1 be
       -0.2088483 -0.32103342 -0.058606446 -0.47078997
0000b0 f8 b0 48 3e 98 d2 bc 3e 78 d1 f5 3d 40 5b 4a bd
       0.19598758 0.3687942 0.120028436 -0.04940343
0000c0 54 da 7d 3e 10 7f a2 be 24 6e fa 3e 4e 8d fe be
       0.24790317 -0.31737566 0.48912156 -0.49717182
0000d0 e6 3b f5 be 10 f9 f1 bd b8 1c d1 3e c0 0e 4d 3d
       -0.4789726 -0.11815083 0.40842223 0.050062895
0000e0 a4 a1 44 3e 56 a6 bb be 18 b8 3a 3e c0 d9 64 bd
       0.19202286 -0.36650342 0.18234289 -0.055871725
0000f0 b9 33 5a 3e 50 cc b4 3e 68 8e 5e 3e 20 36 2e bd
       0.21308793 0.35312128 0.21734011 -0.042532086
000100 60 4f fc bc e2 8e a0 be 04 31 39 be ca 5b a6 3e
       -0.030799568 -0.3135901 -0.18085104 0.32491904
000110 6c 4f 4d be 76 fc 9e 3e 3c 06 4b be 08 7d ee bd
       -0.20049828 0.31051987 -0.19826597 -0.116449416
000120 00 58 2e 3c 20 ec ea be 00 98 a3 bb 00 6e 4e bd
       0.010641098 -0.45883274 -0.004992485 -0.050397873
000130 20 fc 37 bd b0 b3 cc bd 18 d3 c9 3e ba ec bc 3e
       -0.04491818 -0.0999521 0.39418864 0.36899358
000140 56 76 ae be 74 d6 6d 3e 4c cd c8 be 32 f0 d9 be
       -0.34074658 0.23226339 -0.3921913 -0.42566067
000150 58 82 1c 3e 80 c9 f0 3b ec d9 6e be b8 e9 f6 be
       0.15284097 0.0073482394 -0.23325318 -0.48225188
000160 b4 36 46 be fc 01 2b 3e 38 f4 ec be f6 b1 f8 be
       -0.19356805 0.16699976 -0.46280074 -0.48573273
000170 e0 ea 81 3d 68 6c b8 be cc 46 e0 be 3c 44 45 be
       0.06343627 -0.36020207 -0.43804014 -0.1926431
000180 68 dd a4 bd e8 a0 e8 be 34 f0 aa be 70 48 06 3d
       -0.080500424 -0.45435262 -0.33386385 0.032783926
000190 98 66 f1 be 80 ed 8f bd c6 4c a5 be 00 78 b1 be
       -0.47148585 -0.070277214 -0.32285136 -0.34661865
0001a0 5c 3b 49 3e 62 0a c5 be 6c 01 c2 be f8 fd 91 3e
       0.1965155 -0.38484484 -0.3789171 0.28514075
0001b0 18 74 bf 3d 7a 24 e9 3e f4 da 08 be c0 4d 77 be
       0.09348315 0.45535642 -0.13364774 -0.24150753
0001c0 00 89 3d bd 00 c9 25 3b a8 3c c3 3e 18 ff fe be
       -0.04627323 0.0025296807 0.38132215 -0.49803996
0001d0 b0 d1 11 bd fc 7b 62 3e 90 f9 8c be 84 15 82 be
       -0.035600364 0.22117609 -0.2753415 -0.2540704
0001e0 e0 6e 77 3e a0 4b f5 be 88 a4 f2 3d 60 30 d2 be
       0.24163389 -0.4790926 0.11847788 -0.41052532
0001f0 e4 7e 7e 3e ee e3 da be d8 63 9d 3e 84 56 f2 be
       0.24853092 -0.42752022 0.30740237 -0.4733163
000200 62 2f d7 be 28 58 6a 3c 9c b9 c9 3e be 3c db be
       -0.42028338 0.014303245 0.3939942 -0.4281978
000210 f0 61 64 be 20 d7 e0 3e e0 b8 ab bd 1c 1d 54 3e
       -0.22302985 0.43914127 -0.083848715 0.2071423
000220 d2 c1 ca be a4 03 21 be 4a 01 82 be dc d2 d7 3e
       -0.39600998 -0.15724045 -0.25391608 0.4215306
000230 1c 80 54 3e 06 cc ba be b0 18 a5 3d 00 4f bc bb
       0.20751995 -0.36483783 0.080613494 -0.005746722
000240 88 5d 52 be 14 32 92 be c0 e6 29 be 36 c9 c9 3e
       -0.20543492 -0.28553832 -0.1659193 0.39411324
000250 a2 83 b7 be 22 5c b6 be 38 f6 1d be c0 82 0e 3c
       -0.35842615 -0.35617167 -0.15425956 0.008698165
000260 5c 5f 0b 3e 80 d3 75 3c c8 80 f6 bd c4 39 9b be
       0.13610595 0.015004039 -0.12036282 -0.3031751
000270 30 bd b7 bd 78 1b 4e be 6c d4 ce 3e 5e 31 f9 be
       -0.089716315 -0.20127666 0.4039644 -0.48670477
000280 ba 4a a3 be 72 47 d0 be 98 24 bb bd 76 7e c7 3e
       -0.3189295 -0.40679508 -0.09137839 0.3896367
000290 e0 64 e0 3e b6 dc de be 80 77 b1 bc 6a 43 96 3e
       0.43826962 -0.43527764 -0.021663427 0.29348308
0002a0 34 b0 61 3e ca b0 d1 3e 40 3b 63 bc 2a 01 ac be
       0.22039872 0.40955192 -0.013869107 -0.33594638
0002b0 10 5a a9 3e 80 92 2f be a2 8d 84 3e d8 59 fc bd
       0.33076525 -0.17145729 0.25889307 -0.12321824
0002c0 f0 a5 59 3e c8 40 e6 3e 02 0b ee 3e 06 fa e8 be
       0.21254706 0.449713 0.46492773 -0.45503253
0002d0 c6 56 a9 be ec b1 53 be 60 40 a3 be cc a1 f5 3e
       -0.33074015 -0.2067334 -0.31885052 0.47975004
0002e0 80 e0 34 bd b0 d0 a9 be a8 d5 63 be c4 67 8d be
       -0.044159412 -0.33167028 -0.22249472 -0.2761823
0002f0 fc e3 50 3e da 4b df be f8 b1 ee be d8 5a fc be
       0.20399469 -0.43612558 -0.46620154 -0.49288058
000300 a8 6d 5c 3e 28 29 7d 3e 0a ff 9e be 18 ee fd 3d
       0.21526206 0.24722731 -0.31053954 0.123989284
000310 ac f9 bc 3e e0 c9 94 3d d8 a8 d8 bd a0 4f 17 3d
       0.36909235 0.07265067 -0.105790794 0.03694117
000320 30 9a 5b bd 52 e5 80 3e b0 d3 ad be 78 d1 81 3e
       -0.05361384 0.25174958 -0.33950567 0.25355124
000330 a2 49 90 3e 9a 1a 9b be 50 0a d1 3e 76 70 fb 3e
       0.28181177 -0.30293733 0.4082818 0.49109238
000340 58 d8 49 be 88 68 0f be 74 28 7f 3e 3e 8e c8 be
       -0.19711435 -0.1400472 0.24917775 -0.39171022
000350 78 79 4a 3e 70 e7 ee 3d 4a 5d a1 3e 51 c3 c1 be
       0.19772899 0.11665237 0.31516486 -0.37844327
000360 50 ae d4 be 40 f4 65 3e 8c 6d 38 3e b2 46 ee be
       -0.4153924 0.22456455 0.18010539 -0.4653831
000370 c6 c2 8e be 08 3c ea be 7e 67 b7 be a4 03 67 be
       -0.27882975 -0.45748925 -0.35821146 -0.22559983
000380 90 d9 d3 3e 00 d4 cb bd ae 08 93 3e 4a 1e f3 3e
       0.41376925 -0.09952545 0.2871756 0.47484046
000390 bc 55 69 3e 82 2c e5 be 34 d3 80 3e 64 4b 43 3e
       0.22786611 -0.4476052 0.25161135 0.19071728
0003a0 b2 6a c6 3e f4 86 fc be b0 71 9d 3e ee 8b d1 3e
       0.38753277 -0.4932171 0.307508 0.4092707
0003b0 62 2c ee be 50 46 56 3d 52 8a da 3e de 30 ba be
       -0.46518236 0.05231315 0.42683655 -0.36365408
0003c0 40 ff 27 3e c0 3d 62 3e ac 30 06 3e 34 9f fe 3e
       0.16405964 0.22093868 0.13104504 0.49730837
0003d0 8a 9b d1 3e ec a2 db 3e d0 46 7f bd de b5 d6 3e
       0.4093898 0.42897737 -0.06232339 0.4193563
0003e0 d4 91 ee be 26 25 8a be a8 03 db bd d4 17 18 be
       -0.46595633 -0.26981467 -0.10694057 -0.1485284
0003f0 42 77 ec 3e 1c 7e 71 3e ee d0 a4 3e 34 22 ae 3e
       0.46184736 0.23583263 0.3219065 0.3401047

weight f4 [2, 256]
000000 85 f2 2f bd d7 be 33 bc 85 ac 52 3c 3e ef a0 3c
       -0.042955894 -0.010970793 0.012858515 0.01964533
000010 db ed 12 3d db 4c ea bc 89 a0 77 bc 93 eb 46 3d
       0.035871368 -0.0286011 -0.015113958 0.048564505
000020 4b ae 55 bc 1f 1d 41 bd 1f dd 3c 3d f5 10 1e 3d
       -0.013042043 -0.047146913 0.046109315 0.03859039
000030 57 1e bf bc c9 92 0f bc 99 9c 2d bd cf 11 65 bd
       -0.023329897 -0.008763024 -0.04238567 -0.055925187
000040 11 f7 a1 3c 7d 26 bc bc cf 83 3c 3d 6f b2 3d bd
       0.01977113 -0.022967571 0.04602414 -0.046312746
000050 b3 cb a0 bb 65 82 a6 3b 95 91 e8 3c 67 79 5e 3d
       -0.0049070953 0.005081462 0.028389731 0.054314997
000060 61 a6 3c 3d d9 f3 ff 3c bd 6e cc bc 7d 1b 46 bd
       0.04605711 0.031244205 -0.024955148 -0.04836606
000070 3d bc 55 bd 3d 97 25 ba f7 00 69 3d 31 5b 05 bc
       -0.05218147 -0.0006316787 0.056885686 -0.0081394175
000080 e7 81 d0 bb d4 f8 ea 3f d3 3b 7d 3c e0 03 13 3d
       -0.006363142 1.8357186 0.015456158 0.035892367
000090 22 d7 85 bd 3f f8 24 bd 21 e8 4c 3d b3 cb 97 3c
       -0.06535174 -0.04027581 0.050026063 0.018529749
0000a0 81 aa 2c b9 af ce f3 3b ab 17 bd bb 79 38 42 bd
       -0.00016466716 0.00744041 -0.0057706437 -0.047417138
0000b0 b1 ed 5f bd 71 16 19 3d 01 96 72 bb f7 b8 dc bc
       -0.05467004 0.037374917 -0.0037015679 -0.026943667
0000c0 4b 2a 4b bc 5d af f8 bc a3 25 72 bc 28 0a 6b bd
       -0.01240022 -0.030357057 -0.014779481 -0.057382733
0000d0 8d dc 4e 3d c5 7f b2 3c ed a3 e3 bc 1d 53 cd bc
       0.050503302 0.02178944 -0.027788127 -0.025064046
0000e0 1d 23 02 3d 2b 2b dc bc 5b 95 a5 3c 13 ce 5c 3c
       0.031771768 -0.026876053 0.02021282 0.013476866
0000f0 dc d9 82 be 3b d4 9e 3c 03 09 c1 38 30 df 6e 3d
       -0.2555684 0.019388309 9.204636e-05 0.058318317
000100 fb ad 9a bc fb 30 a2 bc c1 48 4d 3d bf c3 41 bd
       -0.018881788 -0.019798746 0.05011821 -0.04730582
000110 83 20 07 3c fb 5e 67 3d 73 11 02 bd 17 23 66 3d
       0.0082474975 0.056487065 -0.031754922 0.056185808
000120 a7 df 53 3d c2 73 7d 3d 5f 46 12 bb f1 4c 58 3d
       0.051726963 0.061877973 -0.0022319776 0.052807752
000130 0f a9 fd bc 27 b0 90 bc 35 15 a3 3c 25 2c 1b 3c
       -0.030964402 -0.017662121 0.019907573 0.009470974
000140 d3 4f 1c 3d 05 ff 63 3d b7 f7 10 bd e9 28 f1 3c
       0.038162064 0.055663127 -0.03539249 0.029438453
000150 8f b9 8c 3c e9 8a ef 3c 39 34 d4 3c 97 18 de bc
       0.017178325 0.029241042 0.025903808 -0.027111335
000160 e1 9d 59 bd e9 9c 3d 3d 11 44 21 bd 0d f4 32 3d
       -0.05312908 0.04629222 -0.039371554 0.043689776
000170 c8 94 81 bd e5 04 e8 bb 53 2a 49 bb 05 10 e8 3b
       -0.06327206 -0.0070806616 -0.0030695393 0.007081988
000180 1f 05 ad 3a 1b e8 bf 3c 5d 29 2f bc 29 a3 3d 3c
       0.0013200379 0.023426106 -0.010691014 0.011574545
000190 4b 0c 6e 3d 4f ee 34 bd 41 99 a7 39 b5 de a4 bc
       0.058117192 -0.04417258 0.00031966905 -0.020125726
0001a0 1f 56 51 3d 53 dc 4b 3d 1f e2 04 3b 53 0c d0 bc
       0.051107522 0.049770664 0.002027638 -0.025396502
0001b0 56 e3 0e bd b5 76 46 3d 39 a9 03 bc 53 d1 61 3d
       -0.034884773 0.04845305 -0.008035951 0.055131268
0001c0 8c b3 02 3d db ca 50 3d 13 c3 59 3d f5 12 17 bd
       0.03190951 0.050974708 0.053164553 -0.036883313
0001d0 8f 6f b4 3c 93 e0 f2 bc 01 bc 0f 3d 5f 36 19 bc
       0.022025852 -0.029648101 0.035091404 -0.009351342
0001e0 3f 06 dc 3a 61 56 40 bd 58 14 74 bd f3 12 15 bf
       0.001678653 -0.046957377 -0.059589714 -0.5823204
0001f0 5f d1 30 3c 7d 6c de 3a 97 96 1e 3d b9 5e f4 bc
       0.010792105 0.0016969588 0.038717832 -0.029830324
000200 8d 2d 97 3c 94 d0 df 3f 9f a8 88 3c 07 a2 2c bc
       0.018454337 1.7485528 0.016681967 -0.010536677
000210 81 ff 23 3d 30 27 6f 3d 77 0e 4f 3d d1 6a d6 3b
       0.04003859 0.05838698 0.050550904 0.006543495
000220 40 97 0c 40 6d 7e 70 bd e2 e1 06 bd 4d bc f3 3b
       2.1967316 -0.05871432 -0.032930262 0.0074382187
000230 35 bc 5d bb 6f b1 39 bd 3b 98 00 bd f8 d9 06 bd
       -0.0033834104 -0.04533523 -0.03139518 -0.032922715
000240 f0 75 86 bd 7f 0f 12 3b 65 3a 1f 3d b7 5f ee 3c
       -0.065654635 0.0022287068 0.03887405 0.029098375
000250 6b eb 08 bd 83 5c 7a bd 0b d2 5d bd 2f 47 a0 3b
       -0.033427637 -0.061123382 -0.05415539 0.0048912982
000260 31 64 3f 3d f5 ea ed bc 31 96 1a bd b5 8e f2 bc
       0.04672641 -0.0290427 -0.03774089 -0.029609064
000270 bf 03 dc ba d6 32 81 bd c7 9e 52 bd eb b7 6c 3d
       -0.0016785784 -0.06308524 -0.051420953 0.057792585
000280 47 60 09 bd 69 d6 75 bc 4b d4 54 bc ad 9c 51 bd
       -0.033539083 -0.015004733 -0.012990068 -0.05117481
000290 53 ab 71 bc d3 4d bb 3c 2b 79 ee bc d4 03 8c 3a
       -0.0147503195 0.022864258 -0.029110512 0.0010682293
0002a0 00 16 84 bb 4d 90 6f bd 31 53 49 3d 4d 13 5e 3d
       -0.004030943 -0.058487225 0.049151603 0.054217625
0002b0 e9 d3 3d 3d 5b 91 89 bc e9 fa ec 3c 1f 23 7f bd
       0.04634467 -0.016792944 0.028928237 -0.062289353
0002c0 f7 3b 9d bc eb 1e 13 bc 89 3d 96 bc c1 77 b8 3c
       -0.019193633 -0.008979539 -0.01833989 0.02251804
0002d0 7d b9 ca bc ef 29 66 bb fb 69 b2 bc b7 b0 7f bd
       -0.02474665 -0.003512021 -0.021779051 -0.062424388
0002e0 2f eb d7 bb 19 ab 49 bd 6b 8f 24 3d ab 1b 18 3d
       -0.0065893154 -0.049235437 0.040175837 0.03713576
0002f0 7f 88 60 3d dd 5b 8d bc 99 26 11 ba 7b 72 0b 3c
       0.054817673 -0.017255718 -0.00055370625 0.008511181
000300 44 6a 87 3d 47 f0 79 3d 71 68 ea bc de 1d 69 bd
       0.066120654 0.061020162 -0.028614255 -0.05691325
000310 b9 71 57 bd 9b 90 0a bd e5 86 66 3d fb 86 ca 3c
       -0.05259869 -0.033829313 0.05628099 0.024722567
000320 f4 24 83 3d c1 09 4d 3d ff fa 97 3b b5 f2 2d bd
       0.064035326 0.05005813 0.0046380754 -0.04246779
000330 d7 b2 6a 3d 33 a4 5c 3d 29 3d fc 3c 87 1d f9 bc
       0.05729946 0.05386753 0.030790882 -0.030409588
000340 cd 62 3a 3d 26 39 00 3b 85 fd 19 3d 99 1e b7 3c
       0.04550438 0.0019565313 0.03759529 0.022353457
000350 d5 4d f1 3c 29 59 51 bd b7 52 fd bc 75 de d0 3f
       0.029456059 -0.05111042 -0.03092323 1.6317888
000360 f7 30 18 bc e3 6d 4f bd 49 85 59 3d ff ff 1b 3b
       -0.009289018 -0.050641906 0.053105626 0.0023803709
000370 bb 39 3f 3d ef ce 38 bd cd b4 91 3c 37 6d df bc
       0.046685915 -0.045119222 0.017786408 -0.027273757
000380 81 07 f6 bc 2b 5c 89 bc 49 f1 9e bc e9 fb f9 3c
       -0.030032875 -0.016767582 -0.019402163 0.030515628
000390 43 b4 7f bc 73 d1 32 3d c7 83 2c 3c 6b 28 c2 bb
       -0.015606943 0.043656778 0.010529465 -0.0059252284
0003a0 68 94 04 bd aa b2 79 bd 33 94 6d bc 76 59 7c bd
       -0.032368094 -0.060961403 -0.0145006655 -0.061608754
0003b0 85 92 00 bc 35 c3 9b 3b 2f 45 fe bb 7f 09 0d bd
       -0.007847433 0.004753495 -0.007759712 -0.034432884
0003c0 43 f7 40 3d a9 75 1f 3d a3 b7 9c bc bd d2 e8 bc
       0.047110807 0.03893057 -0.019130534 -0.0284208
0003d0 bb a8 11 3d 06 03 6e 3d 2f 1e 5b bd cf 31 8d bc
       0.035561305 0.058108352 -0.053495582 -0.017235665
0003e0 97 2c 1c bc 8f cd 9a bc ca d5 69 3d 3b 39 b4 bb
       -0.009532115 -0.018896846 0.05708865 -0.0054999865
0003f0 7f c3 49 3d 55 54 60 bb 25 38 2c bc 5d 9c 24 bd
       0.049258705 -0.0034229953 -0.010511433 -0.040188182

bias f4 [2]
000000 e5 6b 3c 3d b2 9e dc 3c
       0.046001334 0.02693114
