NODE/submission_models/drifter_8_tanh_1day.pth (torch, 81679 bytes, 4 tensors)

weight f4 [256, 4]
0	0xbb755400	-0.00374341
1	0x3e89545e	0.2682218
2	0xbed2b316	-0.41152257
3	0xbebc6680	-0.3679695
4	0xbe4532f4	-0.19257718
5	0x3e094bec	0.13407868
6	0xbc224f40	-0.00990659
7	0x3ecaface	0.39644474
8	0xbd35bf70	-0.044372022
9	0x3e077b4c	0.13230628
10	0xbe1abbac	-0.15110654
11	0xbdc94870	-0.098282695
12	0xbf2bdfd4	-0.6713841
13	0xc08bdaf3	-4.370477
14	0xbf190913	-0.5977947
15	0x3dae74b5	0.08518354
16	0x3e4a6960	0.1976676
17	0x3e999b18	0.3000114
18	0xbead8d8c	-0.33897054
19	0xbe5ef4fc	-0.21773142
20	0x3e39f798	0.18160856
21	0x3ed4944e	0.41519397
22	0xbdd2bd48	-0.10290009
23	0x3ebf915c	0.37415588
24	0xbda50d40	-0.08059168
25	0x3d58b510	0.05290705
26	0x3ee7cd4a	0.4527381
27	0xbeed7bce	-0.46383518
28	0xbea12966	-0.31476897
29	0xbe019ee0	-0.12658262
30	0xbe4793dc	-0.19489998
31	0x3edd2f28	0.4320004
32	0xbea5ef1a	-0.32408983
33	0xbe6bb0c0	-0.23016644
34	0xbeb2da1a	-0.34932023
35	0xbeefc276	-0.4682805
36	0xbe957004	-0.29187024
37	0x3edc0e9e	0.42979902
38	0x3e6476bc	0.22310919
39	0x3e782700	0.24233627
40	0x3cd76a40	0.026295781
41	0xbe833f3a	-0.25634176
42	0x3dad3ec0	0.08459234
43	0xbeef069e	-0.46684736
44	0xbeb8fa1a	-0.36128312
45	0xbe83f9c6	-0.257765
46	0x3ea18526	0.31546897
47	0x3e961926	0.29316062
48	0xbe6311c8	-0.22174752
49	0xbc93cb20	-0.018041193
50	0x3ea3ba40	0.31978035
51	0x3efe7f82	0.49706656
52	0x3e4b3424	0.19844109
53	0x3d8a55c8	0.06754643
54	0x3eaba4fe	0.33524317
55	0xbe96bbc0	-0.29440117
56	0x3dbed0f8	0.093172014
57	0xbec67a6c	-0.38765275
58	0xbeb16e18	-0.34654307
59	0xbe843ed2	-0.25829178
60	0x3e67aa8c	0.22623652
61	0x3e4de7f8	0.2010802
62	0xbe97a46a	-0.29617625
63	0x3e1aadc8	0.15105355
64	0x3e8c896e	0.274486
65	0xbd813f20	-0.06310868
66	0x3c9c6440	0.019090772
67	0x3ded4400	0.115852356
68	0x3e9ed100	0.3101883
69	0x3ef5cf48	0.48009706
70	0xbec54796	-0.38531178
71	0xbe3ba1ec	-0.18323487
72	0x3e493898	0.19650495
73	0x3ed41bd0	0.4142747
74	0x3edec5e8	0.43510365
75	0x3ee1e222	0.44117838
76	0x3dcbca78	0.09950727
77	0xbede9cf8	-0.43479133
78	0x3d3c6690	0.04599625
79	0xbea027ac	-0.31280267
80	0xbeee948c	-0.46597707
81	0x3ee3743e	0.44424623
82	0x3ec2a6f0	0.38017988
83	0xbeff5dfe	-0.49876398
84	0x3dbfaa08	0.09358603
85	0xbdac80c8	-0.084230006
86	0xbda882b8	-0.082280576
87	0xbe6a5f1c	-0.22887844
88	0x3e44e48c	0.19227809
89	0xbe97a134	-0.29615176
90	0x3e3bb1dc	0.18329567
91	0x3e817616	0.25285405
92	0x3eb7435c	0.3579358
93	0x3e3f7148	0.18695557
94	0xbefd5f4a	-0.49486762
95	0xbea61100	-0.32434845
96	0x3e7fa638	0.24965751
97	0x3dd65318	0.104650676
98	0xbec7b396	-0.390042
99	0xbe9368e8	-0.28790975
100	0x3ef0d4f2	0.47037464
101	0x3eac7f54	0.33690894
102	0xbe5f3eb0	-0.21801257
103	0xbe00dcd4	-0.12584239
104	0xbef3dd78	-0.47629905
105	0xbc133e80	-0.008987069
106	0xbec0c878	-0.37652946
107	0xbec577a2	-0.38567835
108	0xbce1b020	-0.027549803
109	0x3d99bfa0	0.07507253
110	0xbe51adf4	-0.20476514
111	0x3e97e798	0.2966888
112	0xbe9bc938	-0.30426955
113	0x3ee84968	0.45368505
114	0x3eaf6fd0	0.34264994
115	0xbed7e164	-0.42164147
116	0xbdfedb88	-0.12444216
117	0x3cb8d280	0.022561312
118	0x3d956718	0.07295054
119	0x3df2ddd0	0.118587136
120	0x3e48ec5c	0.19621414
121	0x3cf559e0	0.029950082
122	0xbe79d1cc	-0.24396437
123	0x3e7245d4	0.2365945
124	0xbef59156	-0.47962445
125	0xbe97bba0	-0.29635334
126	0xbe002b3c	-0.12516493
127	0xbe7966ec	-0.24355668
128	0xbe331d5c	-0.17491668
129	0xbed1d2ba	-0.40981084
130	0xbdd9d200	-0.106357574
131	0x3ddae2f8	0.10687822
132	0x402e0cb1	2.7195246
133	0xc008a66f	-2.1351583
134	0x3f286a94	0.65787625
135	0xbdcee4b2	-0.10102214
136	0x3c63ac80	0.013896108
137	0xbd30adc0	-0.04313445
138	0x3dcf3d10	0.101190686
139	0x3ea2c660	0.31791973
140	0x3ef27eba	0.4736231
141	0x3ea29306	0.31752795
142	0x3ef30cc4	0.47470677
143	0xbd141d60	-0.036160827
144	0xbee5f866	-0.44916075
145	0xbe72ba40	-0.23703861
146	0x3eae4fce	0.3404526
147	0xbb546b00	-0.003241241
148	0xbe7e7cdc	-0.24852318
149	0xbec42d02	-0.38315588
150	0xbeef9400	-0.46792603
151	0xbed810ec	-0.4220041
152	0xbdcfb470	-0.101418376
153	0x3e8c6456	0.274203
154	0x3e8a6774	0.27032053
155	0xbef6e502	-0.48221594
156	0x3e9fb02e	0.31189102
157	0xbec8528a	-0.39125472
158	0xbdd87bf0	-0.10570514
159	0xbe4f9a1c	-0.20273632
160	0xbdc53cf0	-0.096307635
161	0xbdc90e10	-0.09817135
162	0xbee5b8ba	-0.44867498
163	0xbedd0a44	-0.43171895
164	0xbda03c28	-0.07823974
165	0x3bd3e180	0.0064660907
166	0xbe6896b8	-0.22713745
167	0x3e40deb8	0.1883496
168	0xbee66a3a	-0.4500292
169	0xbd0a36c0	-0.03374362
170	0x3ee121a2	0.43970972
171	0xbe50d738	-0.203946
172	0x3ee72b36	0.45150155
173	0x3e396c38	0.18107688
174	0xbee707ae	-0.45123047
175	0x3ea1f874	0.31634867
176	0xbd6c53f0	-0.057697237
177	0xbe648f70	-0.22320342
178	0x3eccb614	0.39982665
179	0xbecedf54	-0.4040476
180	0x3d5bc2b0	0.053652465
181	0xbdd664c0	-0.10468435
182	0x3eb6d016	0.35705632
183	0x3e0eec08	0.13957226
184	0x3e7604cc	0.24025267
185	0x3e34d140	0.17657948
186	0xbdf63f00	-0.12023735
187	0xbdd75a50	-0.105152726
188	0xbed2f700	-0.4120407
189	0x3e8ab64c	0.27092206
190	0x3ecb4226	0.39698905
191	0x3eaf295c	0.34211242
192	0xbeb493ac	-0.35268915
193	0x3cb6ae60	0.022299945
194	0xbeb47690	-0.35246706
195	0xbe8cec88	-0.2752421
196	0xbe952c30	-0.29135275
197	0x3e2ef934	0.17087251
198	0xbe988dc4	-0.2979566
199	0xbc32ba00	-0.010908604
200	0x3cac4fa0	0.021034062
201	0x3ea50604	0.32231152
202	0xbec183fa	-0.37796003
203	0xbeafbf44	-0.34325612
204	0xbe94a63c	-0.29033077
205	0x3eb32ed6	0.3499667
206	0xbe380bcc	-0.1797325
207	0x3ed7eee0	0.42174435
208	0x3e3924a0	0.18080378
209	0x3d81aa40	0.06331301
210	0xbb73ed00	-0.003722012
211	0xbdca6d08	-0.09884077
212	0x3d807a40	0.06273317
213	0xbde9d330	-0.11417234
214	0xbb663e00	-0.003513217
215	0x3d82a7c0	0.06379652
216	0xbec83e98	-0.39110255
217	0xbe862d7a	-0.2620657
218	0x3eceb7d8	0.40374637
219	0xbecfc186	-0.40577334
220	0xbd130f20	-0.035903096
221	0x3efd3ec0	0.49461937
222	0x3e38f410	0.18061852
223	0x3c67f0c0	0.01415652
224	0xbeddda26	-0.43330497
225	0x3e7da22c	0.24768895
226	0xbeb65808	-0.35614038
227	0xbe1156a8	-0.14193213
228	0xbe2bc8cc	-0.16775817
229	0xbd97a438	-0.07404369
230	0x3bb33680	0.0054691434
231	0x3ed32696	0.41240376
232	0x3d7fab80	0.062419415
233	0x3ee54c20	0.4478464
234	0x3e9c9930	0.30585623
235	0xbea1d8c6	-0.31610698
236	0x3e65a254	0.22425205
237	0xbeb4f724	-0.35344803
238	0xbe58ff9c	-0.21191257
239	0x3e169740	0.14706135
240	0x3e290e11	0.16509272
241	0x3ec00e9b	0.37511143
242	0xbe253e09	-0.16136946
243	0xbb0b3c0f	-0.0021245515
244	0x3e83cb7a	0.25741178
245	0xbef7935a	-0.48354608
246	0x3eb91542	0.3614903
247	0xbed3b130	-0.4134612
248	0x3be1d005	0.006891253
249	0xbdae18e0	-0.08500838
250	0xbe86d5c0	-0.26334953
251	0x3d86e8d5	0.06587378
252	0x3ed3b0f2	0.41345936
253	0xbe15aae8	-0.14615977
254	0xbe97fc56	-0.29684705
255	0xbe3d5b84	-0.18491942

bias f4 [256]
0	0xbd0f7ec0	-0.035032988
1	0xbef1caaa	-0.47224933
2	0xbe939b14	-0.28829253
3	0x3ebb35ec	0.36564577
4	0xbe2da870	-0.16958785
5	0x3eb0b2da	0.34511453
6	0x3eca60d2	0.39526993
7	0x3d94f610	0.07273495
8	0xbd21f1f0	-0.03953737
9	0xbe2285d0	-0.15871358
10	0xbccf1e20	-0.02528292
11	0x3dba63b0	0.09101045
12	0xbec38bbe	-0.38192552
13	0xbdf4bb48	-0.119497836
14	0xbed4f0e8	-0.41590047
15	0x3e9d1f0a	0.30687743
16	0xbea307b4	-0.31841815
17	0x3ee9de02	0.4567719
18	0xbe03fbd8	-0.1288904
19	0xbe92a7f4	-0.28643763
20	0x3e75fdf4	0.24022657
21	0x3d98a830	0.07453954
22	0x3eb144cc	0.346228
23	0x3e55be98	0.20873487
24	0xbef69d6a	-0.48166972
25	0x3ea1eae4	0.3162452
26	0xbdc0d558	-0.09415692
27	0xbe624a08	-0.22098553
28	0x3ea292e4	0.31752694
29	0x3ebab564	0.36466515
30	0xbee1019a	-0.43946534
31	0xbd392fe0	-0.045211673
32	0x3ed23a98	0.41060328
33	0x3ddd27c5	0.10798601
34	0x3ed7ac12	0.42123467
35	0xbe2f7634	-0.17134935
36	0xbe8d3870	-0.2758212
37	0x3edc230a	0.42995483
38	0x3e5569d0	0.20841146
39	0x3ef5c16a	0.47999126
40	0xbe55dc54	-0.2088483
41	0xbea45e7e	-0.32103342
42	0xbd700d50	-0.058606446
43	0xbef10b62	-0.47078997
44	0x3e48b0f8	0.19598758
45	0x3ebcd298	0.3687942
46	0x3df5d178	0.120028436
47	0xbd4a5b40	-0.04940343
48	0x3e7dda54	0.24790317
49	0xbea27f10	-0.31737566
50	0x3efa6e24	0.48912156
51	0xbefe8d4e	-0.49717182
52	0xbef53be6	-0.4789726
53	0xbdf1f910	-0.11815083
54	0x3ed11cb8	0.40842223
55	0x3d4d0ec0	0.050062895
56	0x3e44a1a4	0.19202286
57	0xbebba656	-0.36650342
58	0x3e3ab818	0.18234289
59	0xbd64d9c0	-0.055871725
60	0x3e4d36e5	0.20040472
61	0x3eb4cc50	0.35312128
62	0x3e5e8e68	0.21734011
63	0xbd2e3620	-0.042532086
64	0xbcfc4f60	-0.030799568
65	0xbea08ee2	-0.3135901
66	0xbe393104	-0.18085104
67	0x3ea65bca	0.32491904
68	0xbe4d4f6c	-0.20049828
69	0x3e9efc76	0.31051987
70	0xbe4b063c	-0.19826597
71	0xbdee7d08	-0.116449416
72	0x3c2e5800	0.010641098
73	0xbeeaec20	-0.45883274
74	0xbba39800	-0.004992485
75	0xbd4e6e00	-0.050397873
76	0xbd37fc20	-0.04491818
77	0xbdccb3b0	-0.0999521
78	0x3ec9d318	0.39418864
79	0x3ebcecba	0.36899358
80	0xbe85dab8	-0.26143432
81	0x3e6dd674	0.23226339
82	0xbec8cd4c	-0.3921913
83	0xbed9f032	-0.42566067
84	0x3e1c8258	0.15284097
85	0x3bf0c980	0.0073482394
86	0xbe6ed9ec	-0.23325318
87	0xbef6e9b8	-0.48225188
88	0xbe4636b4	-0.19356805
89	0x3e2b01fc	0.16699976
90	0xbeecf438	-0.46280074
91	0xbef8b1f6	-0.48573273
92	0x3d81eae0	0.06343627
93	0xbeb86c68	-0.36020207
94	0xbee046cc	-0.43804014
95	0xbe45443c	-0.1926431
96	0xbda4dd68	-0.080500424
97	0xbee8a0e8	-0.45435262
98	0xbeaaf034	-0.33386385
99	0x3d064870	0.032783926
100	0xbef16698	-0.47148585
101	0xbd8fed80	-0.070277214
102	0xbea54cc6	-0.32285136
103	0xbeb17800	-0.34661865
104	0x3e493b5c	0.1965155
105	0xbec50a62	-0.38484484
106	0xbec2016c	-0.3789171
107	0x3e91fdf8	0.28514075
108	0x3dbf7418	0.09348315
109	0x3ee9247a	0.45535642
110	0xbe08daf4	-0.13364774
111	0xbe774dc0	-0.24150753
112	0xbd3d8900	-0.04627323
113	0x3b25c900	0.0025296807
114	0x3ec33ca8	0.38132215
115	0xbefeff18	-0.49803996
116	0xbd11d1b0	-0.035600364
117	0x3e627bfc	0.22117609
118	0xbe8cf990	-0.2753415
119	0xbe821584	-0.2540704
120	0x3e776ee0	0.24163389
121	0xbef54ba0	-0.4790926
122	0x3df2a488	0.11847788
123	0xbecb832d	-0.39748517
124	0x3e7e7ee4	0.24853092
125	0xbedae3ee	-0.42752022
126	0x3e9d63d8	0.30740237
127	0xbef25684	-0.4733163
128	0xbed72f62	-0.42028338
129	0xbd8b611c	-0.068056315
130	0x3ec9b99c	0.3939942
131	0xbedb3cbe	-0.4281978
132	0xbe6461f0	-0.22302985
133	0x3ee0d720	0.43914127
134	0xbdabb8e0	-0.083848715
135	0x3e541d1c	0.2071423
136	0xbef64584	-0.4809991
137	0xbe2103a4	-0.15724045
138	0xbe82014a	-0.25391608
139	0x3ed7d2dc	0.4215306
140	0x3e54801c	0.20751995
141	0xbebacc06	-0.36483783
142	0x3da518b0	0.080613494
143	0xbbbc4f00	-0.005746722
144	0xbe525d88	-0.20543492
145	0xbe923214	-0.28553832
146	0xbe29e6c0	-0.1659193
147	0x3ec9c936	0.39411324
148	0xbeb783a2	-0.35842615
149	0xbeb65c22	-0.35617167
150	0xbe1df638	-0.15425956
151	0x3c0e82c0	0.008698165
152	0x3e0b5f5c	0.13610595
153	0x3c75d380	0.015004039
154	0xbdf680c8	-0.12036282
155	0xbe9b39c4	-0.3031751
156	0xbdb7c7bf	-0.089736454
157	0xbe4e1b78	-0.20127666
158	0x3eced46c	0.4039644
159	0xbef9315e	-0.48670477
160	0xbea34aba	-0.3189295
161	0xbed04772	-0.40679508
162	0xbdbb2498	-0.09137839
163	0x3ec77e76	0.3896367
164	0x3ee064e0	0.43826962
165	0xbededcb6	-0.43527764
166	0xbcb17780	-0.021663427
167	0x3e96436a	0.29348308
168	0x3e61b034	0.22039872
169	0x3ed1b0ca	0.40955192
170	0xbc633b40	-0.013869107
171	0xbeac012a	-0.33594638
172	0x3ea95a10	0.33076525
173	0xbe2f9280	-0.17145729
174	0x3e848da2	0.25889307
175	0xbdfc59d8	-0.12321824
176	0x3e59a5f0	0.21254706
177	0x3ee640c8	0.449713
178	0x3eee0b02	0.46492773
179	0xbee8fa06	-0.45503253
180	0xbea956c6	-0.33074015
181	0xbe53b1ec	-0.2067334
182	0xbea34060	-0.31885052
183	0x3ef5a1cc	0.47975004
184	0xbd34e080	-0.044159412
185	0xbea9d0b0	-0.33167028
186	0xbe63d5a8	-0.22249472
187	0xbe8d67c4	-0.2761823
188	0x3e50e3fc	0.20399469
189	0xbedf4bda	-0.43612558
190	0xbeeeb1f8	-0.46620154
191	0xbefc5ad8	-0.49288058
192	0x3e5c6da8	0.21526206
193	0x3e7d2928	0.24722731
194	0xbe9eff0a	-0.31053954
195	0x3dfdee18	0.123989284
196	0x3ebcf9ac	0.36909235
197	0x3d94c9e0	0.07265067
198	0xbdd8a8d8	-0.105790794
199	0x3d174fa0	0.03694117
200	0xbd5b9a30	-0.05361384
201	0x3e80e552	0.25174958
202	0xbeadd3b0	-0.33950567
203	0x3e81d178	0.25355124
204	0x3e9049a2	0.28181177
205	0xbe9b1a9a	-0.30293733
206	0x3ed10a50	0.4082818
207	0x3efb7076	0.49109238
208	0xbe49d858	-0.19711435
209	0xbe0f6888	-0.1400472
210	0x3e7f2874	0.24917775
211	0xbec88e3e	-0.39171022
212	0x3e4a7978	0.19772899
213	0x3deee770	0.11665237
214	0x3ea15d4a	0.31516486
215	0xbebd4a9e	-0.3697099
216	0xbed4ae50	-0.4153924
217	0x3e65f440	0.22456455
218	0x3e386d8c	0.18010539
219	0xbeee46b2	-0.4653831
220	0xbe8ec2c6	-0.27882975
221	0xbeea3c08	-0.45748925
222	0xbeb7677e	-0.35821146
223	0xbe6703a4	-0.22559983
224	0x3ed3d990	0.41376925
225	0xbdcbd400	-0.09952545
226	0x3e9308ae	0.2871756
227	0x3ef31e4a	0.47484046
228	0x3e6955bc	0.22786611
229	0xbee52c82	-0.4476052
230	0x3e80d334	0.25161135
231	0x3e434b64	0.19071728
232	0x3ec66ab2	0.38753277
233	0xbefc86f4	-0.4932171
234	0x3e9d71b0	0.307508
235	0x3ed18bee	0.4092707
236	0xbeee2c62	-0.46518236
237	0x3d564650	0.05231315
238	0x3eda8a52	0.42683655
239	0xbeba30de	-0.36365408
240	0x3e27ff40	0.16405964
241	0x3e623dc0	0.22093868
242	0x3e0630ac	0.13104504
243	0x3f0dcf95	0.5539487
244	0x3ed19b8a	0.4093898
245	0x3edba2ec	0.42897737
246	0xbd7f46d0	-0.06232339
247	0x3ed6b5de	0.4193563
248	0xbeee91d4	-0.46595633
249	0xbe8a2526	-0.26981467
250	0xbddb03a8	-0.10694057
251	0xbe1817d4	-0.1485284
252	0x3eec7742	0.46184736
253	0x3e717e1c	0.23583263
254	0x3ea4d0ee	0.3219065
255	0x3eae2234	0.3401047

weight f4 [2, 256]
0	0xbce647ea	-0.028110463
1	0xbcd37c40	-0.025816083
2	0x3ce2f318	0.027703807
3	0x400194e7	2.0247133
4	0x3d4fbc62	0.050716765
5	0xbd31f4da	-0.0434464
6	0xb98cd607	-0.00026862344
7	0x3d0a1d0c	0.033719108
8	0x3aec5b4a	0.0018032577
9	0xbd7deba6	-0.06199231
10	0x3d79aba6	0.060954712
11	0x3cc284d0	0.02374497
12	0xbd1c5d95	-0.038175184
13	0x3bc74dc9	0.0060822708
14	0xbce19c08	-0.027540222
15	0xbd90f01a	-0.07077046
16	0x3ba1687d	0.004925786
17	0xbc05130f	-0.00812222
18	0x3cff6a93	0.031178748
19	0xbd00e3e8	-0.03146735
20	0x3c22d3d5	0.0099382
21	0x3ca33d86	0.019926798
22	0x3c5de973	0.013544428
23	0x3d8da3e2	0.06916024
24	0x3d7974e8	0.060902506
25	0x3d3cc852	0.046089478
26	0xbc25a395	-0.010109802
27	0xbd817505	-0.06321148
28	0xbd18edb6	-0.037336074
29	0xbc7d9355	-0.015477021
30	0x3d2c3270	0.04204029
31	0x3bdbbce3	0.0067058667
32	0xbcadbd56	-0.021208446
33	0xc04282d8	-3.039236
34	0x3a202070	0.0006108349
35	0x3cac6a1c	0.02104669
36	0xbda43e3e	-0.08019684
37	0xbcd05364	-0.025430389
38	0x3d84db60	0.06487155
39	0x3d08b43f	0.03337502
40	0x3c708741	0.014680685
41	0xbbf2a4a9	-0.007404883
42	0x3c14add9	0.009074652
43	0xbd7f0700	-0.062262535
44	0xbd231f2a	-0.039824642
45	0x3cb88fce	0.022529509
46	0x3c369439	0.0111437375
47	0xbd2b2adf	-0.041788932
48	0x3b203da7	0.002445081
49	0xbc7e24a8	-0.015511669
50	0x388a050a	6.5812914e-05
51	0xbd93ec48	-0.072228014
52	0x3d85d58c	0.065348715
53	0x3be38b2b	0.0069440803
54	0xbc540e1d	-0.012942818
55	0xbd2377f8	-0.039909333
56	0x3d3ef18a	0.04661707
57	0xbd2ae3f8	-0.041721314
58	0x3d0f990e	0.035058074
59	0xbab35d1e	-0.0013684367
60	0xbcaa1b30	-0.020764917
61	0x3d0c3888	0.0342336
62	0xbc71b8a6	-0.014753496
63	0x3d95d6cc	0.0731636
64	0xbb84441b	-0.004036439
65	0xbd0de6e1	-0.03464401
66	0x3d107a3a	0.035272814
67	0xbd04f538	-0.03246042
68	0x3cbd2d22	0.02309281
69	0x3d2a9074	0.041641667
70	0xbd3edfe0	-0.046600223
71	0x3d295490	0.04134041
72	0x3d171120	0.036881566
73	0x3d9d211e	0.07672332
74	0x3c4ea837	0.012613348
75	0x3d1b7e6a	0.037962355
76	0xbd3ba2f0	-0.045809686
77	0xbb3899cf	-0.002816785
78	0x3ba5e109	0.0050622267
79	0xbbb01b1d	-0.005374326
80	0x3ffe0142	1.9844134
81	0x3d27307e	0.04081773
82	0xbca8524a	-0.020547051
83	0x3c6f1819	0.014593148
84	0x3b18e559	0.0023330061
85	0x3c6bdc15	0.014395733
86	0x3c352ea3	0.011058482
87	0xbd2bdaae	-0.041956596
88	0xbd8b361c	-0.0679743
89	0x3d00ce62	0.031446822
90	0xbd5e1298	-0.05421695
91	0x3d6fc294	0.058535174
92	0xbd9ffbf8	-0.07811731
93	0x3bfe6e6d	0.0077646286
94	0xbc92c242	-0.017914895
95	0xbbfe634f	-0.0077633034
96	0xbc5d9943	-0.01352531
97	0x3d1cc277	0.038271394
98	0xbcd13184	-0.025536306
99	0xbb5659ff	-0.003270745
100	0x3d313dc4	0.043271795
101	0xbd71bcd6	-0.05901798
102	0x3c7876ad	0.015165013
103	0xbbad06fd	-0.005280374
104	0x3d148798	0.036262125
105	0x3d0f0dcc	0.034925267
106	0x3c8a3937	0.016872985
107	0xbd24d494	-0.040241793
108	0xbca42998	-0.020039365
109	0x3d81a2a2	0.06329848
110	0xbcbb7178	-0.022881255
111	0x3d2502cc	0.04028587
112	0x3c8bca04	0.017064102
113	0x3d13fc54	0.03612931
114	0x3d8b48b6	0.06800978
115	0xbcb488d4	-0.022037901
116	0x3d170633	0.036871146
117	0xbd363eb8	-0.044493407
118	0x3d4c8a88	0.0499368
119	0xbcc63808	-0.02419664
120	0xbc57b911	-0.013166682
121	0xbd7d24e8	-0.061802775
122	0xbd98715a	-0.07443495
123	0x3c3b3d33	0.011428165
124	0xbb84d093	-0.0040531843
125	0xbc576c47	-0.013148374
126	0x3cc39014	0.023872413
127	0xbd36fdca	-0.044675626
128	0x3b6c84e1	0.0036089944
129	0xc000d1d1	-2.0128062
130	0x3d0122b2	0.03152723
131	0x3b8d2f44	0.004308613
132	0x3cce61ec	0.025193177
133	0x3d95facc	0.07323226
134	0x3d123ff0	0.035705507
135	0x3caf3788	0.021388784
136	0x3d630df2	0.05543322
137	0xbd33afe6	-0.04386892
138	0xbc9427a1	-0.018085303
139	0xbbf2b709	-0.0074070734
140	0xbc95547b	-0.01822876
141	0xbcf9c5b7	-0.030489786
142	0xbd3d66a0	-0.04624045
143	0xbd43a87f	-0.047768112
144	0xbda4dd0a	-0.08049972
145	0xbc4eb5ed	-0.012616617
146	0x3cc4d7b2	0.024028633
147	0x3d33fe4c	0.04394369
148	0xbd45b9f2	-0.048273034
149	0xbd9b9578	-0.07596868
150	0xbd8d5034	-0.06900063
151	0x3ca1aec8	0.019736663
152	0x3d7c32b8	0.061571807
153	0xbd33c3ea	-0.04388801
154	0xbd5764b8	-0.052586287
155	0xbc71e3b5	-0.014763762
156	0x3c57a06f	0.013160809
157	0xbd9f9a08	-0.07793051
158	0xbd15d040	-0.036575556
159	0x3d2fe964	0.042947188
160	0xbd462ece	-0.04838448
161	0xbcf487fc	-0.029849999
162	0x3af32b38	0.0018552309
163	0xbd14ce26	-0.03632941
164	0xbcf27274	-0.029595591
165	0x3d1a7554	0.03770955
166	0xbd340b06	-0.043955825
167	0x3c825d35	0.015913585
168	0xbc9aa276	-0.018876296
169	0xbd32c1c6	-0.043641828
170	0x3d8310e4	0.06399706
171	0x3d8d70d6	0.06906287
172	0x3d7aa270	0.06119007
173	0xbaff47a2	-0.0019476304
174	0x3c66bc15	0.014082928
175	0xbd9df8d2	-0.07713474
176	0xbd0b6c64	-0.034038916
177	0x3bc03589	0.005865757
178	0xbb6504d9	-0.0034945516
179	0x3bfb6b21	0.007672683
180	0xbc223907	-0.009901292
181	0x3c39af43	0.01133329
182	0xbd16036e	-0.036624365
183	0xbd9e3f9e	-0.07726978
184	0x3c07441a	0.008255983
185	0xbd0cdc92	-0.03439004
186	0x3d615df2	0.055021234
187	0x3d54ea32	0.05198116
188	0x3d23b9f8	0.039972275
189	0xbb1df7bb	-0.0024103958
190	0xbc7c4c4d	-0.015399051
191	0xbbcf8e55	-0.006334106
192	0x3da5d160	0.08096576
193	0x3d9b5f58	0.07586545
194	0xbc619731	-0.013768957
195	0xbd92f61a	-0.071758464
196	0xbd1aa332	-0.03775329
197	0xbd475f22	-0.04867471
198	0x3d91aaa2	0.07112624
199	0x3d2211e6	0.03956785
200	0x3da18c0e	0.078880414
201	0x3d84ec2e	0.0649036
202	0x3c9f9bba	0.019483436
203	0xbd6ac13c	-0.05731319
204	0x3d2de450	0.042454064
205	0x3d8cb94c	0.0687128
206	0x3d3aecfc	0.045636162
207	0xbc7f00f7	-0.015564195
208	0x3cfb2872	0.030658934
209	0xbc532b8b	-0.012888799
210	0x3cba5df2	0.022749875
211	0x3bf60687	0.0075081023
212	0x3c6f61f2	0.014610754
213	0xbd148aa2	-0.036265023
214	0xbc83b598	-0.016077802
215	0x3e8f34c9	0.2796996
216	0x3bb61181	0.005556286
217	0xbd129f5c	-0.03579651
218	0x3d1cb6c2	0.03826023
219	0x3c8d1cf8	0.017225727
220	0x3d026b34	0.031840518
221	0xbcf800bc	-0.030273788
222	0x3b40befd	0.0029410713
223	0xbd2c84fd	-0.042119015
224	0xbd37d230	-0.044878185
225	0xbd017c75	-0.031612832
226	0xbb95514f	-0.004556812
227	0x3c805ee0	0.01567024
228	0xbcf976ec	-0.030452214
229	0x3cec05c9	0.028811352
230	0xbb8d6bc6	-0.004315826
231	0x3c122577	0.008920065
232	0xbc8f8bc0	-0.017522693
233	0xbd9b4086	-0.07580666
234	0x39b4afcc	0.00034463254
235	0xbd9c93f4	-0.07645407
236	0x3be54e43	0.006997855
237	0x3ca08dc8	0.019598857
238	0xbcb92e28	-0.022605017
239	0xbd49d806	-0.04927828
240	0x3d7dc5ca	0.061956204
241	0x3d5c4430	0.053775966
242	0xbd0b2a37	-0.033975806
243	0x402c4363	2.691613
244	0x3ca9b452	0.020715866
245	0x3d9568b6	0.07295363
246	0xbd1e4fa8	-0.038650185
247	0xbd03674c	-0.032080933
248	0xbcc7b324	-0.024377413
249	0xbb84c26d	-0.0040514977
250	0x3d935214	0.071933895
251	0x3c191d0f	0.009345307
252	0x3d0cf4f8	0.034413308
253	0xbc95a780	-0.018268347
254	0xbccfb8e6	-0.025356721
255	0xbd616ae4	-0.05503358

bias f4 [2]
0	0x3cff3aac	0.031155907
1	0x3ce18eb0	0.027533859
