NODE/submission_models/drifter_37_tanh_1day.pth (torch, 81679 bytes, 4 tensors)

weight f4 [256, 4]
0	0xbb755400	-0.00374341
1	0x3e89545e	0.2682218
2	0xbed2b316	-0.41152257
3	0xbebc6680	-0.3679695
4	0xbe4532f4	-0.19257718
5	0x3e094bec	0.13407868
6	0xbc224f40	-0.00990659
7	0x3ecaface	0.39644474
8	0xbd35bf70	-0.044372022
9	0x3e077b4c	0.13230628
10	0xbe1abbac	-0.15110654
11	0xbdc94870	-0.098282695
12	0xbefd976a	-0.49529582
13	0xc078dfe5	-3.8886654
14	0x3dc55c2e	0.096367225
15	0xbbb4f964	-0.0055228937
16	0x3e4a6960	0.1976676
17	0x3e999b18	0.3000114
18	0xbead8d8c	-0.33897054
19	0xbe5ef4fc	-0.21773142
20	0x3e39f798	0.18160856
21	0x3ed4944e	0.41519397
22	0xbdd2bd48	-0.10290009
23	0x3ebf915c	0.37415588
24	0xbda50d40	-0.08059168
25	0x3d58b510	0.05290705
26	0x3ee7cd4a	0.4527381
27	0xbeed7bce	-0.46383518
28	0xbea12966	-0.31476897
29	0xbe019ee0	-0.12658262
30	0xbe4793dc	-0.19489998
31	0x3edd2f28	0.4320004
32	0xbea5ef1a	-0.32408983
33	0xbe6bb0c0	-0.23016644
34	0xbeb2da1a	-0.34932023
35	0xbeefc276	-0.4682805
36	0xbe957004	-0.29187024
37	0x3edc0e9e	0.42979902
38	0x3e6476bc	0.22310919
39	0x3e782700	0.24233627
40	0x3cd76a40	0.026295781
41	0xbe833f3a	-0.25634176
42	0x3dad3ec0	0.08459234
43	0xbeef069e	-0.46684736
44	0xbeb8fa1a	-0.36128312
45	0xbe83f9c6	-0.257765
46	0x3ea18526	0.31546897
47	0x3e961926	0.29316062
48	0xbe6311c8	-0.22174752
49	0xbc93cb20	-0.018041193
50	0x3ea3ba40	0.31978035
51	0x3efe7f82	0.49706656
52	0x3e4b3424	0.19844109
53	0x3d8a55c8	0.06754643
54	0x3eaba4fe	0.33524317
55	0xbe96bbc0	-0.29440117
56	0x3dbed0f8	0.093172014
57	0xbec67a6c	-0.38765275
58	0xbeb16e18	-0.34654307
59	0xbe843ed2	-0.25829178
60	0x3e67aa8c	0.22623652
61	0x3e4de7f8	0.2010802
62	0xbe97a46a	-0.29617625
63	0x3e1aadc8	0.15105355
64	0x3e8c896e	0.274486
65	0xbd813f20	-0.06310868
66	0x3c9c6440	0.019090772
67	0x3ded4400	0.115852356
68	0x3e9ed100	0.3101883
69	0x3ef5cf48	0.48009706
70	0xbec54796	-0.38531178
71	0xbe3ba1ec	-0.18323487
72	0x3e493898	0.19650495
73	0x3ed41bd0	0.4142747
74	0x3edec5e8	0.43510365
75	0x3ee1e222	0.44117838
76	0x3dcbca78	0.09950727
77	0xbede9cf8	-0.43479133
78	0x3d3c6690	0.04599625
79	0xbea027ac	-0.31280267
80	0xbeee948c	-0.46597707
81	0x3ee3743e	0.44424623
82	0x3ec2a6f0	0.38017988
83	0xbeff5dfe	-0.49876398
84	0x3dbfaa08	0.09358603
85	0xbdac80c8	-0.084230006
86	0xbda882b8	-0.082280576
87	0xbe6a5f1c	-0.22887844
88	0x3e44e48c	0.19227809
89	0xbe97a134	-0.29615176
90	0x3e3bb1dc	0.18329567
91	0x3e817616	0.25285405
92	0x3eb7435c	0.3579358
93	0x3e3f7148	0.18695557
94	0xbefd5f4a	-0.49486762
95	0xbea61100	-0.32434845
96	0x3e7fa638	0.24965751
97	0x3dd65318	0.104650676
98	0xbec7b396	-0.390042
99	0xbe9368e8	-0.28790975
100	0x3ef0d4f2	0.47037464
101	0x3eac7f54	0.33690894
102	0xbe5f3eb0	-0.21801257
103	0xbe00dcd4	-0.12584239
104	0xbef3dd78	-0.47629905
105	0xbc133e80	-0.008987069
106	0xbec0c878	-0.37652946
107	0xbec577a2	-0.38567835
108	0xbce1b020	-0.027549803
109	0x3d99bfa0	0.07507253
110	0xbe51adf4	-0.20476514
111	0x3e97e798	0.2966888
112	0xbe9bc938	-0.30426955
113	0x3ee84968	0.45368505
114	0x3eaf6fd0	0.34264994
115	0xbed7e164	-0.42164147
116	0xbdfedb88	-0.12444216
117	0x3cb8d280	0.022561312
118	0x3d956718	0.07295054
119	0x3df2ddd0	0.118587136
120	0x3e48ec5c	0.19621414
121	0x3cf559e0	0.029950082
122	0xbe79d1cc	-0.24396437
123	0x3e7245d4	0.2365945
124	0xbef59156	-0.47962445
125	0xbe97bba0	-0.29635334
126	0xbe002b3c	-0.12516493
127	0xbe7966ec	-0.24355668
128	0xbe331d5c	-0.17491668
129	0xbed1d2ba	-0.40981084
130	0xbdd9d200	-0.106357574
131	0x3ddae2f8	0.10687822
132	0x40064828	2.098154
133	0x3e53c20e	0.20679495
134	0x3fa34d87	1.2758034
135	0xbe17e2f9	-0.14832677
136	0x3c63ac80	0.013896108
137	0xbd30adc0	-0.04313445
138	0x3dcf3d10	0.101190686
139	0x3ea2c660	0.31791973
140	0x3ef27e6b	0.47362074
141	0x3ea2960f	0.3175511
142	0x3ef39662	0.4757567
143	0xbce1b043	-0.027549868
144	0xbee5f866	-0.44916075
145	0xbe72ba40	-0.23703861
146	0x3eae4fce	0.3404526
147	0xbb546b00	-0.003241241
148	0xbe7e7cdc	-0.24852318
149	0xbec42d02	-0.38315588
150	0xbeef9400	-0.46792603
151	0xbed810ec	-0.4220041
152	0xbdcfb470	-0.101418376
153	0x3e8c6456	0.274203
154	0x3e8a6774	0.27032053
155	0xbef6e502	-0.48221594
156	0x3e9fb02e	0.31189102
157	0xbec8528a	-0.39125472
158	0xbdd87bf0	-0.10570514
159	0xbe4f9a1c	-0.20273632
160	0xbdc53cf0	-0.096307635
161	0xbdc90e10	-0.09817135
162	0xbee5b8ba	-0.44867498
163	0xbedd0a44	-0.43171895
164	0xbda03c28	-0.07823974
165	0x3bd3e180	0.0064660907
166	0xbe6896b8	-0.22713745
167	0x3e40deb8	0.1883496
168	0xbee66a3a	-0.4500292
169	0xbd0a36c0	-0.03374362
170	0x3ee121a2	0.43970972
171	0xbe50d738	-0.203946
172	0x3ee72b36	0.45150155
173	0x3e396c38	0.18107688
174	0xbee707ae	-0.45123047
175	0x3ea1f874	0.31634867
176	0xbd6c53f0	-0.057697237
177	0xbe648f70	-0.22320342
178	0x3eccb614	0.39982665
179	0xbecedf54	-0.4040476
180	0x3d5bc2b0	0.053652465
181	0xbdd664c0	-0.10468435
182	0x3eb6d016	0.35705632
183	0x3e0eec08	0.13957226
184	0x3e7604cc	0.24025267
185	0x3e34d140	0.17657948
186	0xbdf63f00	-0.12023735
187	0xbdd75a50	-0.105152726
188	0xbed2f700	-0.4120407
189	0x3e8ab64c	0.27092206
190	0x3ecb4226	0.39698905
191	0x3eaf295c	0.34211242
192	0xbeb493ac	-0.35268915
193	0x3cb6ae60	0.022299945
194	0xbeb47690	-0.35246706
195	0xbe8cec88	-0.2752421
196	0xbe952c30	-0.29135275
197	0x3e2ef934	0.17087251
198	0xbe988dc4	-0.2979566
199	0xbc32ba00	-0.010908604
200	0x3cac4fa0	0.021034062
201	0x3ea50604	0.32231152
202	0xbec183fa	-0.37796003
203	0xbeafbf44	-0.34325612
204	0xbe94a63c	-0.29033077
205	0x3eb32ed6	0.3499667
206	0xbe380bcc	-0.1797325
207	0x3ed7eee0	0.42174435
208	0x3e3924a0	0.18080378
209	0x3d81aa40	0.06331301
210	0xbb73ed00	-0.003722012
211	0xbdca6d08	-0.09884077
212	0x3d807a40	0.06273317
213	0xbde9d330	-0.11417234
214	0xbb663e00	-0.003513217
215	0x3d82a7c0	0.06379652
216	0xbec83e98	-0.39110255
217	0xbe862d7a	-0.2620657
218	0x3eceb7d8	0.40374637
219	0xbecfc186	-0.40577334
220	0xbd130f20	-0.035903096
221	0x3efd3ec0	0.49461937
222	0x3e38f410	0.18061852
223	0x3c67f0c0	0.01415652
224	0xbeddda26	-0.43330497
225	0x3e7da22c	0.24768895
226	0xbeb65808	-0.35614038
227	0xbe1156a8	-0.14193213
228	0xbe2bc8cc	-0.16775817
229	0xbd97a438	-0.07404369
230	0x3bb33680	0.0054691434
231	0x3ed32696	0.41240376
232	0x3d7fab80	0.062419415
233	0x3ee54c20	0.4478464
234	0x3e9c9930	0.30585623
235	0xbea1d8c6	-0.31610698
236	0x3e65a254	0.22425205
237	0xbeb4f724	-0.35344803
238	0xbe58ff9c	-0.21191257
239	0x3e169740	0.14706135
240	0x3ed2c01a	0.41162187
241	0x3f45693b	0.77113694
242	0xbf9d1cb7	-1.2274388
243	0x3e0fd7f3	0.14047222
244	0x3e83cb7a	0.25741178
245	0xbef7935a	-0.48354608
246	0x3eb91542	0.3614903
247	0xbed3b130	-0.4134612
248	0x3be1d000	0.0068912506
249	0xbdae18e0	-0.08500838
250	0xbe86d40a	-0.26333648
251	0x3d8757d8	0.06608552
252	0x3ed3b0f2	0.41345936
253	0xbe15aae8	-0.14615977
254	0xbe97fc56	-0.29684705
255	0xbe3d5b84	-0.18491942

bias f4 [256]
0	0xbd0f7ec0	-0.035032988
1	0xbef1caaa	-0.47224933
2	0xbe939b14	-0.28829253
3	0xbe0a5090	-0.13507295
4	0xbe2da870	-0.16958785
5	0x3eb0b2da	0.34511453
6	0x3eca60d2	0.39526993
7	0x3d94f610	0.07273495
8	0xbd21f1f0	-0.03953737
9	0xbe2285d0	-0.15871358
10	0xbccf1e20	-0.02528292
11	0x3dba63b0	0.09101045
12	0xbec38bbe	-0.38192552
13	0xbdf4bb48	-0.119497836
14	0xbed4f0e8	-0.41590047
15	0x3e9d1f0a	0.30687743
16	0xbea307b4	-0.31841815
17	0x3ee9de02	0.4567719
18	0xbe03fbd8	-0.1288904
19	0xbe92a7f4	-0.28643763
20	0x3e75fdf4	0.24022657
21	0x3d98a830	0.07453954
22	0x3eb144cc	0.346228
23	0x3e55be98	0.20873487
24	0xbef69d6a	-0.48166972
25	0x3ea1eae4	0.3162452
26	0xbdc0d558	-0.09415692
27	0xbe624a08	-0.22098553
28	0x3ea292e4	0.31752694
29	0x3ebab564	0.36466515
30	0xbee1019a	-0.43946534
31	0xbd392fe0	-0.045211673
32	0x3ed23a98	0.41060328
33	0x3e900ef8	0.2813642
34	0x3ed7ac12	0.42123467
35	0xbe2f6f0e	-0.17132208
36	0xbe8d3870	-0.2758212
37	0x3edc230a	0.42995483
38	0x3e5569d0	0.20841146
39	0x3ef5c16a	0.47999126
40	0xbe55dc54	-0.2088483
41	0xbea45e7e	-0.32103342
42	0xbd700d50	-0.058606446
43	0xbef10b62	-0.47078997
44	0x3e48b0f8	0.19598758
45	0x3ebcd298	0.3687942
46	0x3df5d178	0.120028436
47	0xbd4a5b40	-0.04940343
48	0x3e7dda54	0.24790317
49	0xbea27f10	-0.31737566
50	0x3efa6e24	0.48912156
51	0xbefe8d4e	-0.49717182
52	0xbef53be6	-0.4789726
53	0xbdf1f910	-0.11815083
54	0x3ed11cb8	0.40842223
55	0x3d4d0ec0	0.050062895
56	0x3e44a1a4	0.19202286
57	0xbebba656	-0.36650342
58	0x3e3ab818	0.18234289
59	0xbd64d9c0	-0.055871725
60	0x3e15e18a	0.14636818
61	0x3eb4cc50	0.35312128
62	0x3e5e8e68	0.21734011
63	0xbd2e3620	-0.042532086
64	0xbcfc4f60	-0.030799568
65	0xbea08ee2	-0.3135901
66	0xbe393104	-0.18085104
67	0x3ea65bca	0.32491904
68	0xbe4d4f6c	-0.20049828
69	0x3e9efc76	0.31051987
70	0xbe4b063c	-0.19826597
71	0xbdee7d08	-0.116449416
72	0x3c2e5800	0.010641098
73	0xbeeaec20	-0.45883274
74	0xbba39800	-0.004992485
75	0xbd4e6e00	-0.050397873
76	0xbd37fc20	-0.04491818
77	0xbdccb3b0	-0.0999521
78	0x3ec9d318	0.39418864
79	0x3ebcecba	0.36899358
80	0xbeaeadd7	-0.34117004
81	0x3e6dd674	0.23226339
82	0xbec8cd4c	-0.3921913
83	0xbed9f032	-0.42566067
84	0x3e1c8258	0.15284097
85	0x3bf0c980	0.0073482394
86	0xbe6ed9ec	-0.23325318
87	0xbef6e9b8	-0.48225188
88	0xbe4636b4	-0.19356805
89	0x3e2b01fc	0.16699976
90	0xbeecf438	-0.46280074
91	0xbef8b1f6	-0.48573273
92	0x3d81eae0	0.06343627
93	0xbeb86c68	-0.36020207
94	0xbee046cc	-0.43804014
95	0xbe45443c	-0.1926431
96	0xbda4dd68	-0.080500424
97	0xbee8a0e8	-0.45435262
98	0xbeaaf034	-0.33386385
99	0x3d064870	0.032783926
100	0xbef16698	-0.47148585
101	0xbd8fed80	-0.070277214
102	0xbea54cc6	-0.32285136
103	0xbeb17800	-0.34661865
104	0x3e493b5c	0.1965155
105	0xbec50a62	-0.38484484
106	0xbec2016c	-0.3789171
107	0x3e91fdf8	0.28514075
108	0x3dbf7418	0.09348315
109	0x3ee9247a	0.45535642
110	0xbe08daf4	-0.13364774
111	0xbe774dc0	-0.24150753
112	0xbd3d8900	-0.04627323
113	0x3b25c900	0.0025296807
114	0x3ec33ca8	0.38132215
115	0xbefeff18	-0.49803996
116	0xbd11d1b0	-0.035600364
117	0x3e627bfc	0.22117609
118	0xbe8cf990	-0.2753415
119	0xbe821584	-0.2540704
120	0x3e776ee0	0.24163389
121	0xbef54ba0	-0.4790926
122	0x3df2a488	0.11847788
123	0xbe8ae454	-0.27127326
124	0x3e7e7ee4	0.24853092
125	0xbedae3ee	-0.42752022
126	0x3e9d63d8	0.30740237
127	0xbef25684	-0.4733163
128	0xbed72f62	-0.42028338
129	0x3e206fd9	0.15667666
130	0x3ec9b99c	0.3939942
131	0xbedb3cbe	-0.4281978
132	0xbe6461f0	-0.22302985
133	0x3ee0d720	0.43914127
134	0xbdabb8e0	-0.083848715
135	0x3e541d1c	0.2071423
136	0xbef0130c	-0.46889532
137	0xbe2103a4	-0.15724045
138	0xbe82014a	-0.25391608
139	0x3ed7d2dc	0.4215306
140	0x3e54801c	0.20751995
141	0xbebacc06	-0.36483783
142	0x3da518b0	0.080613494
143	0xbbbc4f00	-0.005746722
144	0xbe525d88	-0.20543492
145	0xbe923214	-0.28553832
146	0xbe29e6c0	-0.1659193
147	0x3ec9c936	0.39411324
148	0xbeb783a2	-0.35842615
149	0xbeb65c22	-0.35617167
150	0xbe1df638	-0.15425956
151	0x3c0e82c0	0.008698165
152	0x3e0b5f5c	0.13610595
153	0x3c75d380	0.015004039
154	0xbdf680c8	-0.12036282
155	0xbe9b39c4	-0.3031751
156	0xbdb7bd30	-0.089716315
157	0xbe4e1b78	-0.20127666
158	0x3eced46c	0.4039644
159	0xbef9315e	-0.48670477
160	0xbea34aba	-0.3189295
161	0xbed04772	-0.40679508
162	0xbdbb2498	-0.09137839
163	0x3ec77e76	0.3896367
164	0x3ee064e0	0.43826962
165	0xbededcb6	-0.43527764
166	0xbcb17780	-0.021663427
167	0x3e96436a	0.29348308
168	0x3e61b034	0.22039872
169	0x3ed1b0ca	0.40955192
170	0xbc633b40	-0.013869107
171	0xbeac012a	-0.33594638
172	0x3ea95a10	0.33076525
173	0xbe2f9280	-0.17145729
174	0x3e848da2	0.25889307
175	0xbdfc59d8	-0.12321824
176	0x3e59a5f0	0.21254706
177	0x3ee640c8	0.449713
178	0x3eee0b02	0.46492773
179	0xbee8fa06	-0.45503253
180	0xbea956c6	-0.33074015
181	0xbe53b1ec	-0.2067334
182	0xbea34060	-0.31885052
183	0x3ef5a1cc	0.47975004
184	0xbd34e080	-0.044159412
185	0xbea9d0b0	-0.33167028
186	0xbe63d5a8	-0.22249472
187	0xbe8d67c4	-0.2761823
188	0x3e50e3fc	0.20399469
189	0xbedf4bda	-0.43612558
190	0xbeeeb1f8	-0.46620154
191	0xbefc5ad8	-0.49288058
192	0x3e5c6da8	0.21526206
193	0x3e7d2928	0.24722731
194	0xbe9eff0a	-0.31053954
195	0x3dfdee18	0.123989284
196	0x3ebcf9ac	0.36909235
197	0x3d94c9e0	0.07265067
198	0xbdd8a8d8	-0.105790794
199	0x3d174fa0	0.03694117
200	0xbd5b9a30	-0.05361384
201	0x3e80e552	0.25174958
202	0xbeadd3b0	-0.33950567
203	0x3e81d178	0.25355124
204	0x3e9049a2	0.28181177
205	0xbe9b1a9a	-0.30293733
206	0x3ed10a50	0.4082818
207	0x3efb7076	0.49109238
208	0xbe49d858	-0.19711435
209	0xbe0f6888	-0.1400472
210	0x3e7f2874	0.24917775
211	0xbec88e3e	-0.39171022
212	0x3e4a7978	0.19772899
213	0x3deee770	0.11665237
214	0x3ea15d4a	0.31516486
215	0xbd2996a9	-0.041403446
216	0xbed4ae50	-0.4153924
217	0x3e65f440	0.22456455
218	0x3e386d8c	0.18010539
219	0xbeee46b2	-0.4653831
220	0xbe8ec2c6	-0.27882975
221	0xbeea3c08	-0.45748925
222	0xbeb7677e	-0.35821146
223	0xbe6703a4	-0.22559983
224	0x3ed3d990	0.41376925
225	0xbdcbd400	-0.09952545
226	0x3e9308ae	0.2871756
227	0x3ef31e4a	0.47484046
228	0x3e6955bc	0.22786611
229	0xbee52c82	-0.4476052
230	0x3e80d334	0.25161135
231	0x3e434b64	0.19071728
232	0x3ec66ab2	0.38753277
233	0xbefc86f4	-0.4932171
234	0x3e9d71b0	0.307508
235	0x3ed18bee	0.4092707
236	0xbeee2c62	-0.46518236
237	0x3d564650	0.05231315
238	0x3eda8a52	0.42683655
239	0xbeba30de	-0.36365408
240	0x3e27ff40	0.16405964
241	0x3e623dc0	0.22093868
242	0x3e0630ac	0.13104504
243	0x3efebe52	0.49754578
244	0x3ed19b8a	0.4093898
245	0x3edba2ec	0.42897737
246	0xbd7f46d0	-0.06232339
247	0x3ed6b5de	0.4193563
248	0xbeee91d4	-0.46595633
249	0xbe8a2526	-0.26981467
250	0xbddb03a8	-0.10694057
251	0xbe1817d4	-0.1485284
252	0x3eec7742	0.46184736
253	0x3e717e1c	0.23583263
254	0x3ea4d0ee	0.3219065
255	0x3eae2234	0.3401047

weight f4 [2, 256]
0	0xbd6aeb99	-0.05735359
1	0x3b609791	0.0034270028
2	0xbac9c17f	-0.0015392749
3	0xc03383ff	-2.8049314
4	0x3cafe9a3	0.021473711
5	0xbc68b517	-0.014203331
6	0xbcf1c298	-0.029511735
7	0x3d80f246	0.0629621
8	0xbce0c989	-0.02743985
9	0xbd06240f	-0.032749232
10	0x3d01e415	0.031711657
11	0x3d590a09	0.052988086
12	0xbc1257ec	-0.008932095
13	0xbcbdbbc1	-0.023160817
14	0xbd6895ad	-0.056783367
15	0xbd2a18bb	-0.04152749
16	0x3d0bf4bd	0.034168947
17	0xbd190c73	-0.037365388
18	0x3d777cd0	0.060421765
19	0xbd78ab7d	-0.06071042
20	0xbc9e2547	-0.019304885
21	0xbc18a397	-0.009316347
22	0x3d2f4203	0.042787563
23	0x3d238053	0.0399173
24	0x3d01ad57	0.03165945
25	0x3c8a0181	0.01684642
26	0xbd213097	-0.03935298
27	0xbd0b2265	-0.033968348
28	0xbd885a98	-0.066579044
29	0x3c618b38	0.0137661025
30	0x3d91fce4	0.07128313
31	0xbcb89ffb	-0.022537222
32	0x3c03a3d5	0.008034666
33	0x3fa90cbe	1.3207014
34	0x3cf4903f	0.029853938
35	0x3d4e02c4	0.050295606
36	0xbd50b503	-0.050953876
37	0xbd5ff153	-0.054673504
38	0x3d11ef0d	0.035628367
39	0x3b876581	0.0041319733
40	0xbc6e975b	-0.014562453
41	0x3cb2e609	0.021838205
42	0xbca53843	-0.02016843
43	0xbd073f65	-0.033019442
44	0xbd8d7344	-0.06906751
45	0x3d540f85	0.051772613
46	0xbc94451b	-0.018099358
47	0xbc4d8d2f	-0.012545868
48	0xbcdb8789	-0.026798027
49	0xbd3750d1	-0.044754807
50	0xbcef0537	-0.029177291
51	0xbd301113	-0.042985033
52	0x3d13e379	0.036105607
53	0x3d14391d	0.03618728
54	0xbd2ccb2f	-0.04218596
55	0xbc2ec165	-0.010666226
56	0x3c8e53ea	0.017373998
57	0xbc4c719d	-0.012478259
58	0x3bbe8c27	0.0058150473
59	0x3ce4596d	0.027874673
60	0xbf0a7cba	-0.5409657
61	0x3ba387a0	0.004990533
62	0x3c6d66c2	0.014489831
63	0x3d33e61d	0.043920625
64	0xbd085033	-0.03327961
65	0xbbb0fa99	-0.0054009673
66	0x3d8420da	0.064515784
67	0xbd7cbcc2	-0.06170345
68	0xbbc9886d	-0.0061502964
69	0x3d912be2	0.07088448
70	0xbc8e3095	-0.01735715
71	0x3d908df2	0.07058324
72	0x3d876c52	0.06612457
73	0x3d427ac5	0.047480363
74	0xbc883b1f	-0.016629754
75	0x3d89a2ec	0.06720528
76	0xbc87b6bc	-0.016566627
77	0xbd03514b	-0.03205995
78	0x3d0c83cb	0.034305375
79	0x3cc38873	0.023868775
80	0x3cc3163f	0.023814319
81	0x3d8f7bec	0.07006058
82	0xbd4bf0cb	-0.049790185
83	0x3d338dad	0.043836284
84	0x3d0155fd	0.031576145
85	0x3d32bead	0.043638874
86	0x3d251353	0.040301632
87	0xbc504c67	-0.012713528
88	0xbd1ea4cd	-0.038731385
89	0x3d7895fc	0.06068991
90	0xbccc9607	-0.024973882
91	0x3ceff601	0.029292108
92	0xbd483079	-0.048874352
93	0xbcaff397	-0.021478457
94	0x3c399a2f	0.011328264
95	0x3caff65f	0.021479784
96	0x3c80c2a1	0.015717806
97	0x3c13eb73	0.009028303
98	0x3b72ed6e	0.0037067789
99	0x3cd4c3f9	0.025972353
100	0x3d948286	0.07251458
101	0xbcf3ea85	-0.029774914
102	0xbc66a7de	-0.014078109
103	0xbd0d6887	-0.034523513
104	0x3d862790	0.06550515
105	0x3d836aa6	0.06416826
106	0xbc4aac2f	-0.012370153
107	0xbc3433d7	-0.010998688
108	0xbd49dc73	-0.049282502
109	0x3d0b7da3	0.034055363
110	0x3bd07704	0.006361844
111	0x3d8e6512	0.069528714
112	0x3d3daca9	0.04630724
113	0x3d85e1ec	0.06537232
114	0x3d1ec9ff	0.038766857
115	0xbd520c09	-0.05128101
116	0x3bf9f4cf	0.0076280604
117	0xbc79dc8f	-0.015250339
118	0x3ca985ef	0.020693747
119	0x3ba55cd3	0.005046466
120	0x3c83b2b9	0.016076433
121	0xbd055d4e	-0.032559685
122	0xbd391b3b	-0.045191985
123	0x3f703da0	0.9384403
124	0x3cce5b15	0.025189916
125	0x3c83d91b	0.016094735
126	0x3d598fab	0.053115528
127	0xbc7cd8d7	-0.015432558
128	0x3d068ff9	0.032852147
129	0x401e0456	2.4690146
130	0x3b15b226	0.002284178
131	0xbccc4371	-0.024934502
132	0x3d5ef895	0.054436285
133	0x3d342e1d	0.04398929
134	0x3d8503ba	0.064948514
135	0xbc00af61	-0.007854314
136	0x3ec0cf66	0.37658232
137	0xbd95bb98	-0.07311171
138	0xbd41db14	-0.04732807
139	0x3cb2e171	0.021836014
140	0x3c3475b7	0.0110143935
141	0xbd74aa89	-0.059732947
142	0xbc8b3e1b	-0.016997388
143	0xbc97c1db	-0.018525055
144	0xbd51f29d	-0.051256765
145	0x3c883445	0.016626487
146	0x3d5a3379	0.053271744
147	0x3c70dadf	0.01470062
148	0xbc9be4c3	-0.01902998
149	0xbd3f6375	-0.04672571
150	0xbd22d8f7	-0.039757695
151	0xbc1bc12b	-0.009506504
152	0x3d046b1f	0.03232872
153	0xbc6ff155	-0.01464494
154	0xbcbf3a4b	-0.023343226
155	0xbd344093	-0.044006895
156	0xbc83b51c	-0.01607757
157	0xbd476c99	-0.04868755
158	0xbd86cbe4	-0.06581858
159	0x3d93d856	0.07218997
160	0xbc9cce7b	-0.019141426
161	0xba1f1973	-0.0006069161
162	0xbce05c89	-0.027387874
163	0xbd864ad8	-0.06557244
164	0xb9b8d042	-0.0003525038
165	0x3c0ab6e2	0.008466454
166	0xbc710dc7	-0.014712757
167	0xbc5a6433	-0.013329553
168	0x3c29d9c5	0.010366862
169	0xbd954488	-0.07288462
170	0x3d0e5a1d	0.034753907
171	0x3d231a39	0.03981993
172	0x3d02dad7	0.031946983
173	0xbcff83bb	-0.031190744
174	0x3d3176ad	0.04332607
175	0xbd442a2d	-0.047891784
176	0xbb9d2693	-0.004795858
177	0xbcbf81d3	-0.023377335
178	0xbd0617f9	-0.032737706
179	0x3d173517	0.036915865
180	0xbd2055f5	-0.039144475
181	0xbc92b797	-0.017909808
182	0xbbf1de85	-0.0073812627
183	0xbd44b7c5	-0.04802682
184	0xbcabed21	-0.020987095
185	0xbd825208	-0.063633025
186	0x3cd32cbf	0.025778173
187	0x3cba4545	0.022738108
188	0x3d8dc0ac	0.06921515
189	0xbd01a723	-0.031653535
190	0x3c62d23e	0.013844071
191	0x3cbbab9f	0.022908984
192	0x3d53db47	0.05172279
193	0x3d3ef735	0.046622474
194	0xbd302d71	-0.043012086
195	0xbd2e24c9	-0.04251555
196	0xbd89354a	-0.06699617
197	0xbc9f2f23	-0.019431656
198	0x3d2b8dd1	0.041883294
199	0x3c292931	0.010324762
200	0x3d4b50a5	0.049637455
201	0x3d1210ad	0.035660435
202	0xbc1fe747	-0.009759731
203	0xbce5f341	-0.028070094
204	0x3d92d5cc	0.07169685
205	0x3d21ab1f	0.039469834
206	0x3c864ad0	0.016393095
207	0xbd3787e5	-0.044807333
208	0x3d755be5	0.05990209
209	0x3c85f977	0.016354306
210	0x3d54f699	0.051992986
211	0x3d168883	0.03675128
212	0x3d33a023	0.04385389
213	0xbd862916	-0.06550805
214	0xbd39a273	-0.04532094
215	0x40474c4f	3.1140325
216	0xbcc20adb	-0.023686817
217	0xbd85336e	-0.0650395
218	0x3d8a3f16	0.06750314
219	0xbc44e4b9	-0.012017422
220	0x3d7a32bc	0.06108354
221	0xbd73c803	-0.059516918
222	0x3d03d39b	0.032184225
223	0xbc52f5a7	-0.012875951
224	0xbc801533	-0.015635109
225	0xbb1b4e83	-0.002369792
226	0xbd0a71d9	-0.03379998
227	0x3d37f717	0.044913378
228	0xba9e7b9f	-0.0012091285
229	0x3d6dca87	0.058054473
230	0x3ccc3451	0.02492729
231	0xbca67c6d	-0.020323003
232	0xbd3f8d87	-0.04676583
233	0xbd3eb993	-0.046563696
234	0xbcecbc7c	-0.02889847
235	0xbd41606f	-0.047211107
236	0xbcb63ba3	-0.022245234
237	0xbc1e032d	-0.009644312
238	0x3bd98441	0.0066380803
239	0xbca420eb	-0.020035228
240	0x3d05fe32	0.032713123
241	0x3cc8f935	0.024532894
242	0xbb9b1539	-0.0047327545
243	0xbc65fc13	-0.01403715
244	0x3d4ca1cf	0.049959
245	0x3d3309f1	0.043710653
246	0xbd8b0b88	-0.06789309
247	0xbb39fbe6	-0.0028378903
248	0x3b9f705b	0.0048656887
249	0xbd085ffd	-0.033294667
250	0x3d2edcb5	0.04269095
251	0xbca300ad	-0.019897783
252	0x3d825e3a	0.063656285
253	0x3c33cfaf	0.010974809
254	0x3b7eb259	0.0038863628
255	0xbcd346a3	-0.025790518

bias f4 [2]
0	0x3d7764bf	0.060398813
1	0x3c5dc1be	0.013534961
