NODE/submission_models/drifter_3_tanh_1day.pth (torch, 81679 bytes, 4 tensors)

weight f4 [256, 4]
00000000: 0054 75bb 5e54 893e 16b3 d2be 8066 bcbe
00000010: f432 45be ec4b 093e 404f 22bc cefa ca3e
00000020: 70bf 35bd 4c7b 073e acbb 1abe 7048 c9bd
00000030: adfe 89bf 079d 8abf 6e59 e8be 990e 4f3d
00000040: 6069 4a3e 189b 993e 8c8d adbe fcf4 5ebe
00000050: 98f7 393e 4e94 d43e 48bd d2bd 5c91 bf3e
00000060: 400d a5bd 10b5 583d 4acd e73e ce7b edbe
00000070: 6629 a1be e09e 01be dc93 47be 282f dd3e
00000080: 1aef a5be c0b0 6bbe 1ada b2be 76c2 efbe
00000090: 0470 95be 9e0e dc3e bc76 643e 0027 783e
000000a0: 406a d73c 3a3f 83be c03e ad3d 9e06 efbe
000000b0: 1afa b8be c6f9 83be 2685 a13e 2619 963e
000000c0: c811 63be 20cb 93bc 40ba a33e 827f fe3e
000000d0: 2434 4b3e c855 8a3d fea4 ab3e c0bb 96be
000000e0: f8d0 be3d 6c7a c6be 186e b1be d23e 84be
000000f0: 8caa 673e f8e7 4d3e 6aa4 97be c8ad 1a3e
00000100: 6e89 8c3e 203f 81bd 4064 9c3c 0044 ed3d
00000110: 00d1 9e3e 48cf f53e 9647 c5be eca1 3bbe
00000120: 9838 493e d01b d43e e8c5 de3e 22e2 e13e
00000130: 78ca cb3d f89c debe 9066 3c3d ac27 a0be
00000140: 8c94 eebe 3e74 e33e f0a6 c23e fe5d ffbe
00000150: 08aa bf3d c880 acbd b882 a8bd 1c5f 6abe
00000160: 8ce4 443e 34a1 97be dcb1 3b3e 1676 813e
00000170: 5c43 b73e 4871 3f3e 4a5f fdbe 0011 a6be
00000180: 38a6 7f3e 1853 d63d 96b3 c7be e868 93be
00000190: f2d4 f03e 547f ac3e b03e 5fbe d4dc 00be
000001a0: 78dd f3be 803e 13bc 78c8 c0be a277 c5be
000001b0: 20b0 e1bc a0bf 993d f4ad 51be 98e7 973e
000001c0: 38c9 9bbe 6849 e83e d06f af3e 64e1 d7be
000001d0: 88db febd 80d2 b83c 1867 953d d0dd f23d
000001e0: 5cec 483e e059 f53c ccd1 79be d445 723e
000001f0: 5691 f5be a0bb 97be 3c2b 00be ec66 79be
00000200: 5c1d 33be bad2 d1be 00d2 d9bd f8e2 da3d
00000210: 839a b43e 4e5c c6bf b03c 1e3f b6a0 89bd
00000220: 80ac 633c c0ad 30bd 103d cf3d 60c6 a23e
00000230: 877e f23e 7093 a23e 6668 f33e d901 f5bc
00000240: 66f8 e5be 40ba 72be ce4f ae3e 006b 54bb
00000250: dc7c 7ebe 022d c4be 0094 efbe ec10 d8be
00000260: 70b4 cfbd 5664 8c3e 7467 8a3e 02e5 f6be
00000270: 2eb0 9f3e 8a52 c8be f07b d8bd 1c9a 4fbe
00000280: f03c c5bd 100e c9bd bab8 e5be 440a ddbe
00000290: 283c a0bd 80e1 d33b b896 68be b8de 403e
000002a0: 3a6a e6be c036 0abd a221 e13e 38d7 50be
000002b0: 362b e73e 386c 393e ae07 e7be 74f8 a13e
000002c0: f053 6cbd 708f 64be 14b6 cc3e 54df cebe
000002d0: b0c2 5b3d c064 d6bd 16d0 b63e 08ec 0e3e
000002e0: cc04 763e 40d1 343e 003f f6bd 505a d7bd
000002f0: 00f7 d2be 4cb6 8a3e 2642 cb3e 5c29 af3e
00000300: ac93 b4be 60ae b63c 9076 b4be 88ec 8cbe
00000310: 302c 95be 34f9 2e3e c48d 98be 00ba 32bc
00000320: a04f ac3c 0406 a53e fa83 c1be 44bf afbe
00000330: 3ca6 94be d62e b33e cc0b 38be e0ee d73e
00000340: a024 393e 40aa 813d 00ed 73bb 086d cabd
00000350: 407a 803d 30d3 e9bd 003e 66bb c0a7 823d
00000360: 983e c8be 7a2d 86be d8b7 ce3e 86c1 cfbe
00000370: 200f 13bd c03e fd3e 10f4 383e c0f0 673c
00000380: 26da ddbe 2ca2 7d3e 0858 b6be a856 11be
00000390: ccc8 2bbe 38a4 97bd 8036 b33b 9626 d33e
000003a0: 80ab 7f3d 204c e53e 3099 9c3e c6d8 a1be
000003b0: 54a2 653e 24f7 b4be 9cff 58be 4097 163e
000003c0: 270a 32bf 0f0a 813f aba7 d5be 2a03 353d
000003d0: 7acb 833e 5a93 f7be 4215 b93e 30b1 d3be
000003e0: 00d0 e13b e018 aebd 0ad4 86be d857 873d
000003f0: f2b0 d33e e8aa 15be 56fc 97be 845b 3dbe
-0.00374341 0.2682218 -0.41152257 -0.3679695 -0.19257718 0.13407868 -0.00990659 0.39644474
-0.044372022 0.13230628 -0.15110654 -0.098282695 -1.0780846 -1.0829171 -0.4538073 0.05055103
0.1976676 0.3000114 -0.33897054 -0.21773142 0.18160856 0.41519397 -0.10290009 0.37415588
-0.08059168 0.05290705 0.4527381 -0.46383518 -0.31476897 -0.12658262 -0.19489998 0.4320004
-0.32408983 -0.23016644 -0.34932023 -0.4682805 -0.29187024 0.42979902 0.22310919 0.24233627
0.026295781 -0.25634176 0.08459234 -0.46684736 -0.36128312 -0.257765 0.31546897 0.29316062
-0.22174752 -0.018041193 0.31978035 0.49706656 0.19844109 0.06754643 0.33524317 -0.29440117
0.093172014 -0.38765275 -0.34654307 -0.25829178 0.22623652 0.2010802 -0.29617625 0.15105355
0.274486 -0.06310868 0.019090772 0.115852356 0.3101883 0.48009706 -0.38531178 -0.18323487
0.19650495 0.4142747 0.43510365 0.44117838 0.09950727 -0.43479133 0.04599625 -0.31280267
-0.46597707 0.44424623 0.38017988 -0.49876398 0.09358603 -0.084230006 -0.082280576 -0.22887844
0.19227809 -0.29615176 0.18329567 0.25285405 0.3579358 0.18695557 -0.49486762 -0.32434845
0.24965751 0.104650676 -0.390042 -0.28790975 0.47037464 0.33690894 -0.21801257 -0.12584239
-0.47629905 -0.008987069 -0.37652946 -0.38567835 -0.027549803 0.07507253 -0.20476514 0.2966888
-0.30426955 0.45368505 0.34264994 -0.42164147 -0.12444216 0.022561312 0.07295054 0.118587136
0.19621414 0.029950082 -0.24396437 0.2365945 -0.47962445 -0.29635334 -0.12516493 -0.24355668
-0.17491668 -0.40981084 -0.106357574 0.10687822 0.35274133 -1.5496919 0.6181135 -0.06720106
0.013896108 -0.04313445 0.101190686 0.31791973 0.47362158 0.3175311 0.47540587 -0.029908108
-0.44916075 -0.23703861 0.3404526 -0.003241241 -0.24852318 -0.38315588 -0.46792603 -0.4220041
-0.101418376 0.274203 0.27032053 -0.48221594 0.31189102 -0.39125472 -0.10570514 -0.20273632
-0.096307635 -0.09817135 -0.44867498 -0.43171895 -0.07823974 0.0064660907 -0.22713745 0.1883496
-0.4500292 -0.03374362 0.43970972 -0.203946 0.45150155 0.18107688 -0.45123047 0.31634867
-0.057697237 -0.22320342 0.39982665 -0.4040476 0.053652465 -0.10468435 0.35705632 0.13957226
0.24025267 0.17657948 -0.12023735 -0.105152726 -0.4120407 0.27092206 0.39698905 0.34211242
-0.35268915 0.022299945 -0.35246706 -0.2752421 -0.29135275 0.17087251 -0.2979566 -0.010908604
0.021034062 0.32231152 -0.37796003 -0.34325612 -0.29033077 0.3499667 -0.1797325 0.42174435
0.18080378 0.06331301 -0.003722012 -0.09884077 0.06273317 -0.11417234 -0.003513217 0.06379652
-0.39110255 -0.2620657 0.40374637 -0.40577334 -0.035903096 0.49461937 0.18061852 0.01415652
-0.43330497 0.24768895 -0.35614038 -0.14193213 -0.16775817 -0.07404369 0.0054691434 0.41240376
0.062419415 0.4478464 0.30585623 -0.31610698 0.22425205 -0.35344803 -0.21191257 0.14706135
-0.6954674 1.0081195 -0.41729483 0.04419247 0.25741178 -0.48354608 0.3614903 -0.4134612
0.0068912506 -0.08500838 -0.26333648 0.06608552 0.41345936 -0.14615977 -0.29684705 -0.18491942

bias f4 [256]
00000000: c07e 0fbd aaca f1be 149b 93be 6697 773e
00000010: 70a8 2dbe dab2 b03e d260 ca3e 10f6 943d
00000020: f0f1 21bd d085 22be 201e cfbc b063 ba3d
00000030: be8b c3be 48bb f4bd e8f0 d4be 0a1f 9d3e
00000040: b407 a3be 02de e93e d8fb 03be f4a7 92be
00000050: f4fd 753e 30a8 983d cc44 b13e 98be 553e
00000060: 6a9d f6be e4ea a13e 58d5 c0bd 084a 62be
00000070: e492 a23e 64b5 ba3e 9a01 e1be e02f 39bd
00000080: 983a d23e 49fa 203e 12ac d73e 3572 2fbe
00000090: 7038 8dbe 0a23 dc3e d069 553e 6ac1 f53e
000000a0: 54dc 55be 7e5e a4be 500d 70bd 620b f1be
000000b0: f8b0 483e 98d2 bc3e 78d1 f53d 405b 4abd
000000c0: 54da 7d3e 107f a2be 246e fa3e 4e8d febe
000000d0: e63b f5be 10f9 f1bd b81c d13e c00e 4d3d
000000e0: a4a1 443e 56a6 bbbe 18b8 3a3e c0d9 64bd
000000f0: 42bc 6a3e 50cc b43e 688e 5e3e 2036 2ebd
00000100: 604f fcbc e28e a0be 0431 39be ca5b a63e
00000110: 6c4f 4dbe 76fc 9e3e 3c06 4bbe 087d eebd
00000120: 0058 2e3c 20ec eabe 0098 a3bb 006e 4ebd
00000130: 20fc 37bd b0b3 ccbd 18d3 c93e baec bc3e
00000140: a4d0 afbe 74d6 6d3e 4ccd c8be 32f0 d9be
00000150: 5882 1c3e 80c9 f03b ecd9 6ebe b8e9 f6be
00000160: b436 46be fc01 2b3e 38f4 ecbe f6b1 f8be
00000170: e0ea 813d 686c b8be cc46 e0be 3c44 45be
00000180: 68dd a4bd e8a0 e8be 34f0 aabe 7048 063d
00000190: 9866 f1be 80ed 8fbd c64c a5be 0078 b1be
000001a0: 5c3b 493e 620a c5be 6c01 c2be f8fd 913e
000001b0: 1874 bf3d 7a24 e93e f4da 08be c04d 77be
000001c0: 0089 3dbd 00c9 253b a83c c33e 18ff febe
000001d0: b0d1 11bd fc7b 623e 90f9 8cbe 8415 82be
000001e0: e06e 773e a04b f5be 88a4 f23d dcad d3be
000001f0: e47e 7e3e eee3 dabe d863 9d3e 8456 f2be
00000200: 622f d7be 0449 f4bc 9cb9 c93e be3c dbbe
00000210: f061 64be 20d7 e03e e0b8 abbd 1c1d 543e
00000220: 877a e5be a403 21be 4a01 82be dcd2 d73e
00000230: 1c80 543e 06cc babe b018 a53d 004f bcbb
00000240: 885d 52be 1432 92be c0e6 29be 36c9 c93e
00000250: a283 b7be 225c b6be 38f6 1dbe c082 0e3c
00000260: 5c5f 0b3e 80d3 753c c880 f6bd c439 9bbe
00000270: 30bd b7bd 781b 4ebe 6cd4 ce3e 5e31 f9be
00000280: ba4a a3be 7247 d0be 9824 bbbd 767e c73e
00000290: e064 e03e b6dc debe 8077 b1bc 6a43 963e
000002a0: 34b0 613e cab0 d13e 403b 63bc 2a01 acbe
000002b0: 105a a93e 8092 2fbe a28d 843e d859 fcbd
000002c0: f0a5 593e c840 e63e 020b ee3e 06fa e8be
000002d0: c656 a9be ecb1 53be 6040 a3be cca1 f53e
000002e0: 80e0 34bd b0d0 a9be a8d5 63be c467 8dbe
000002f0: fce3 503e da4b dfbe f8b1 eebe d85a fcbe
00000300: a86d 5c3e 2829 7d3e 0aff 9ebe 18ee fd3d
00000310: acf9 bc3e e0c9 943d d8a8 d8bd a04f 173d
00000320: 309a 5bbd 52e5 803e b0d3 adbe 78d1 813e
00000330: a249 903e 9a1a 9bbe 500a d13e 7670 fb3e
00000340: 58d8 49be 8868 0fbe 7428 7f3e 3e8e c8be
00000350: 7879 4a3e 70e7 ee3d 4a5d a13e 045d debe
00000360: 50ae d4be 40f4 653e 8c6d 383e b246 eebe
00000370: c6c2 8ebe 083c eabe 7e67 b7be a403 67be
00000380: 90d9 d33e 00d4 cbbd ae08 933e 4a1e f33e
00000390: bc55 693e 822c e5be 34d3 803e 644b 433e
000003a0: b26a c63e f486 fcbe b071 9d3e ee8b d13e
000003b0: 622c eebe 5046 563d 528a da3e de30 babe
000003c0: 40ff 273e c03d 623e ac30 063e f08b fe3e
000003d0: 8a9b d13e eca2 db3e d046 7fbd deb5 d63e
000003e0: d491 eebe 2625 8abe a803 dbbd d417 18be
000003f0: 4277 ec3e 1c7e 713e eed0 a43e 3422 ae3e
-0.035032988 -0.47224933 -0.28829253 0.24178848 -0.16958785 0.34511453 0.39526993 0.07273495
-0.03953737 -0.15871358 -0.02528292 0.09101045 -0.38192552 -0.119497836 -0.41590047 0.30687743
-0.31841815 0.4567719 -0.1288904 -0.28643763 0.24022657 0.07453954 0.346228 0.20873487
-0.48166972 0.3162452 -0.09415692 -0.22098553 0.31752694 0.36466515 -0.43946534 -0.045211673
0.41060328 0.15720476 0.42123467 -0.1713341 -0.2758212 0.42995483 0.20841146 0.47999126
-0.2088483 -0.32103342 -0.058606446 -0.47078997 0.19598758 0.3687942 0.120028436 -0.04940343
0.24790317 -0.31737566 0.48912156 -0.49717182 -0.4789726 -0.11815083 0.40842223 0.050062895
0.19202286 -0.36650342 0.18234289 -0.055871725 0.22923377 0.35312128 0.21734011 -0.042532086
-0.030799568 -0.3135901 -0.18085104 0.32491904 -0.20049828 0.31051987 -0.19826597 -0.116449416
0.010641098 -0.45883274 -0.004992485 -0.050397873 -0.04491818 -0.0999521 0.39418864 0.36899358
-0.34338868 0.23226339 -0.3921913 -0.42566067 0.15284097 0.0073482394 -0.23325318 -0.48225188
-0.19356805 0.16699976 -0.46280074 -0.48573273 0.06343627 -0.36020207 -0.43804014 -0.1926431
-0.080500424 -0.45435262 -0.33386385 0.032783926 -0.47148585 -0.070277214 -0.32285136 -0.34661865
0.1965155 -0.38484484 -0.3789171 0.28514075 0.09348315 0.45535642 -0.13364774 -0.24150753
-0.04627323 0.0025296807 0.38132215 -0.49803996 -0.035600364 0.22117609 -0.2753415 -0.2540704
0.24163389 -0.4790926 0.11847788 -0.41343582 0.24853092 -0.42752022 0.30740237 -0.4733163
-0.42028338 -0.029819973 0.3939942 -0.4281978 -0.22302985 0.43914127 -0.083848715 0.2071423
-0.44820043 -0.15724045 -0.25391608 0.4215306 0.20751995 -0.36483783 0.080613494 -0.005746722
-0.20543492 -0.28553832 -0.1659193 0.39411324 -0.35842615 -0.35617167 -0.15425956 0.008698165
0.13610595 0.015004039 -0.12036282 -0.3031751 -0.089716315 -0.20127666 0.4039644 -0.48670477
-0.3189295 -0.40679508 -0.09137839 0.3896367 0.43826962 -0.43527764 -0.021663427 0.29348308
0.22039872 0.40955192 -0.013869107 -0.33594638 0.33076525 -0.17145729 0.25889307 -0.12321824
0.21254706 0.449713 0.46492773 -0.45503253 -0.33074015 -0.2067334 -0.31885052 0.47975004
-0.044159412 -0.33167028 -0.22249472 -0.2761823 0.20399469 -0.43612558 -0.46620154 -0.49288058
0.21526206 0.24722731 -0.31053954 0.123989284 0.36909235 0.07265067 -0.105790794 0.03694117
-0.05361384 0.25174958 -0.33950567 0.25355124 0.28181177 -0.30293733 0.4082818 0.49109238
-0.19711435 -0.1400472 0.24917775 -0.39171022 0.19772899 0.11665237 0.31516486 -0.4343034
-0.4153924 0.22456455 0.18010539 -0.4653831 -0.27882975 -0.45748925 -0.35821146 -0.22559983
0.41376925 -0.09952545 0.2871756 0.47484046 0.22786611 -0.4476052 0.25161135 0.19071728
0.38753277 -0.4932171 0.307508 0.4092707 -0.46518236 0.05231315 0.42683655 -0.36365408
0.16405964 0.22093868 0.13104504 0.4971614 0.4093898 0.42897737 -0.06232339 0.4193563
-0.46595633 -0.26981467 -0.10694057 -0.1485284 0.46184736 0.23583263 0.3219065 0.3401047

weight f4 [2, 256]
00000000: 1dca 33bd 3960 24bc e94d 433c 53ab bf3e
00000010: 4316 0f3d a99d e2bc 7f7f 83bc 2bc3 4a3d
00000020: e30c 65bc 8745 3dbd 8705 393d 8de8 213d
00000030: 116f b7bc 67f1 1ebc 3174 31bd 373a 61bd
00000040: 57a6 a93c c3d5 c3bc 675b 403d 078a 41bd
00000050: 5589 bfbb ddc4 873b db40 f03c cfa1 5a3d
00000060: c9ce 383d 9944 f83c 031e d4bc e543 42bd
00000070: d593 59bd bda8 a039 8fd8 6c3d d7b9 14bc
00000080: 27c4 b1bb 99e6 d5be 274d 863c 2cdf 163d
00000090: 34eb 83bd d7cf 28bd 8910 493d 6f1c 903c
000000a0: e98a 90ba f745 093c 0fd5 dbbb e160 3ebd
000000b0: 49c5 63bd 09ee 1c3d a508 98bb b109 d5bc
000000c0: e788 5abc 4a2f 00bd 23c2 80bc 8f32 67bd
000000d0: f504 4b3d 0b2f ba3c 3353 ebbc d5a3 c5bc
000000e0: 0997 fc3c e57b d4bc 15e6 9d3c bf2c 6c3c
000000f0: 4be2 85bd f524 973c 3406 873a 9907 6b3d
00000100: 3f5d a2bc b581 9abc 5920 513d 579b 45bd
00000110: 6b83 ef3b 9336 6b3d b573 fcbc affa 693d
00000120: 3fb7 573d 419c 793d 68c1 4fbb 8924 5c3d
00000130: d5f9 f5bc 675f 98bc 7bc4 aa3c bf8a 2a3c
00000140: 7dec 233d 9dd6 673d 4fcf 14bd 33d8 f83c
00000150: d368 943c 353a f73c 7fe3 db3c 5169 d6bc
00000160: 49c6 55bd 8174 413d 796c 1dbd 751c 2f3d
00000170: f151 7fbd 1961 03bc 76af 0bbb a966 033c
00000180: 38fd 133b d538 b83c c1ca 1fbc c701 4d3c
00000190: e3e3 713d b716 31bd ef1e 22ba fb8d acbc
000001a0: b72d 553d ebb3 4f3d 8fce 8e3a 0d5d c8bc
000001b0: f7ba 12bd 1d9f 423d cb94 e8bb eba8 653d
000001c0: 2d8b 063d 73a2 543d 7beb 553d 8dea 1abd
000001d0: 49c0 ac3c 6531 ebbc 69e4 0b3d 9fd7 09bc
000001e0: 027e 2b3b c97e 3cbd b73c 70bd 43ec 463f
000001f0: ff2f 403c 24b1 2c3b 2f6e 223d 89af ecbc
00000200: d3dc 9e3c dc97 93be 59f9 803c a700 3cbc
00000210: 19d7 273d 994f 6b3d 0fe6 523d 1bad b73b
00000220: 009e dbbc 0556 74bd 87b9 0abd c73c 093c
00000230: 5a41 20bb 0789 3dbd 3581 f9bc 6202 03bd
00000240: 008a 84bd 888a 4f3b fd11 233d 8db0 e63c
00000250: d513 05bd f184 76bd 73fa 59bd b989 813b
00000260: 998c 3b3d c93b e6bc 99be 16bd ff3d fabc
00000270: c27c 2bbb 158e 7ebd 5f76 56bd 838f 703d
00000280: b188 05bd b177 66bc e732 64bc 4574 55bd
00000290: a14c 62bc 8d9e b33c 01ca e6bc d570 0839
000002a0: 1eb1 4abb e567 73bd 997b 453d b53b 5a3d
000002b0: 51fc 393d 9b40 91bc 3baa f43c a94b 7bbd
000002c0: b18c 95bc 877d 22bc cfec 9dbc 0727 c03c
000002d0: c368 d2bc 95d2 91bb b5ba aabc 41d9 7bbd
000002e0: 81a8 f6bb b182 4dbd d3b7 203d 1344 143d
000002f0: 1760 643d 1f0b 95bc 9589 c939 1fd1 1a3c
00000300: 567e 853d b118 763d af17 f2bc 4546 65bd
00000310: 5149 5bbd 05b9 06bd 4daf 623d b5d7 c23c
00000320: 1739 813d 2932 493d 1c7b 723b 1d1b 2abd
00000330: 6f8a 6e3d 9bcc 583d ed8d f43c 5a66 00bd
00000340: 653a 3e3d 12b4 3d3b 1dd5 1d3d dfcd be3c
00000350: 1bfd f83c c130 55bd f780 02bd 4bfc 243d
00000360: 8f8f 27bc 7b45 53bd e15c 5d3d 4b0a bd3a
00000370: 5311 433d 87a6 3cbd 0f64 993c f1bd d7bc
00000380: 5558 eebc e1ac 81bc 8ba0 a6bc 9ad5 003d
00000390: 9155 70bc 0ba9 363d 67e2 3b3c c7e5 e0bb
000003a0: 0b6c 08bd 0fdb 75bd cff2 7cbc eb81 78bd
000003b0: 27f1 0fbc 700b 7a3b 8b87 dfbb e731 09bd
000003c0: ab1f 3d3d 119e 1b3d 5d08 95bc 074c e1bc
000003d0: 5380 153d 6d2b 6a3d c7f5 5ebd 8382 85bc
000003e0: dfcd 0cbc d37c a2bc 31fe 653d bff6 d2bb
000003f0: 179b 4d3d 7ad9 22bb 89d9 1cbc c5c4 20bd
-0.043893922 -0.010032707 0.011920431 0.37435398 0.03493334 -0.027663069 -0.016052006 0.049502533
-0.013980123 -0.046208885 0.045171287 0.03952842 -0.022391828 -0.0097011095 -0.0433237 -0.05498716
0.0207092 -0.02390564 0.046962168 -0.047250774 -0.0058452287 0.004143341 0.0293278 0.05337697
0.04511908 0.030306147 -0.025893217 -0.04742803 -0.0531195 0.00030643298 0.057823714 -0.009077511
-0.0054249945 -0.41777495 0.016394211 0.036833927 -0.06441346 -0.041213837 0.049088035 0.017591683
-0.0011027727 0.008378497 -0.006708748 -0.04647911 -0.055608068 0.038312946 -0.0046397024 -0.026005598
-0.013338304 -0.0312951 -0.015717572 -0.0564447 0.049565274 0.02272751 -0.028726196 -0.024125973
0.030833738 -0.025937984 0.01927475 0.014414965 -0.065373026 0.01845024 0.0010301531 0.057380293
-0.019819854 -0.018860677 0.05105624 -0.048243847 0.0073093674 0.057425093 -0.030816892 0.057123836
0.05266499 0.06094003 -0.0031700972 0.05374578 -0.030026356 -0.018600179 0.020845642 0.010409056
0.040020455 0.056601156 -0.036330517 0.03037653 0.01811639 0.030179122 0.026841877 -0.026173266
-0.052191053 0.047230247 -0.038433526 0.042751748 -0.062334005 -0.008018755 -0.00213143 0.008020082
0.002258135 0.022488037 -0.00975293 0.012512631 0.05905522 -0.043234553 -0.0006184419 -0.021063795
0.05204555 0.050708693 0.00108953 -0.024458433 -0.035822835 0.047515023 -0.0070978156 0.056069296
0.032847572 0.051912736 0.052226525 -0.03782134 0.021087782 -0.028710077 0.034153376 -0.0084132245
0.0026167636 -0.04601935 -0.058651652 0.77704257 0.011730193 0.0026350701 0.03965586 -0.028892295
0.019392407 -0.28826797 0.015743898 -0.011474765 0.040976617 0.057448957 0.051488932 0.0056053526
-0.026808739 -0.059652347 -0.03386834 0.008376307 -0.0024453015 -0.046273258 -0.030457119 -0.031984694
-0.06471634 0.0031668264 0.039812077 0.028160358 -0.032489616 -0.060185377 -0.053217363 0.0039531854
0.04578838 -0.02810468 -0.03680286 -0.03054714 -0.002616689 -0.06214722 -0.05235898 0.058730613
-0.032601062 -0.014066623 -0.013928152 -0.052112836 -0.013812215 0.021926189 -0.028172495 0.00013012004
-0.0030928324 -0.059425253 0.048213575 0.053279597 0.045406643 -0.017731002 0.029866328 -0.061351452
-0.018255563 -0.009917623 -0.019277958 0.02345611 -0.02568472 -0.004450152 -0.020840982 -0.061486486
-0.0075274114 -0.050173465 0.03923781 0.036197733 0.0557557 -0.01819378 0.00038440214 0.009449272
0.06518237 0.06008214 -0.029552309 -0.055975217 -0.053536717 -0.032891292 0.05534296 0.023784498
0.06309717 0.049120102 0.0036999648 -0.041529763 0.05823749 0.052929502 0.029852832 -0.03134761
0.046442408 0.0028946442 0.03853332 0.023291526 0.030394128 -0.05204845 -0.03186127 0.040279668
-0.010227098 -0.051579934 0.054043654 0.0014422623 0.047623944 -0.04605725 0.01872447 -0.026335688
-0.029094854 -0.015829505 -0.020340225 0.031453706 -0.014668838 0.044594806 0.011467553 -0.006863329
-0.033306163 -0.060023364 -0.015438749 -0.060670774 -0.008785523 0.003815379 -0.006821578 -0.033494856
0.04617278 0.03799254 -0.018192464 -0.027502073 0.036499333 0.05717032 -0.05443361 -0.016297584
-0.008594005 -0.019834911 0.05615062 -0.006438106 0.050196733 -0.0024848864 -0.009573349 -0.039250154

bias f4 [2]
00000000: 5143 403d 65e6 d63c
0.046939198 0.026232908
