NODE/saved_models/drifter_59_tanh_3day.pth (torch, 82591 bytes, 6 tensors)

weight f4 [256, 4]
-0.00374341 0.2682218 -0.41152257 -0.3679695 -0.19257718 0.13407868 -0.00990659 0.39644474
-0.044372022 0.13230628 -0.15110654 -0.098282695 -0.47767425 -0.33114105 -0.20611155 0.018521786
0.1976676 0.3000114 -0.33897054 -0.21773142 0.18160856 0.41519397 -0.10290009 0.37415588
-0.08059168 0.05290705 0.4527381 -0.46383518 -0.31476897 -0.12658262 -0.19489998 0.4320004
-0.32408983 -0.23016644 -0.34932023 -0.4682805 -0.29187024 0.42979902 0.22310919 0.24233627
0.026295781 -0.25634176 0.08459234 -0.46684736 -0.36128312 -0.257765 0.31546897 0.29316062
-0.22174752 -0.018041193 0.31978035 0.49706656 0.19844109 0.06754643 0.33524317 -0.29440117
0.093172014 -0.38765275 -0.34654307 -0.25829178 0.22623652 0.2010802 -0.29617625 0.15105355
0.274486 -0.06310868 0.019090772 0.115852356 0.3101883 0.48009706 -0.38531178 -0.18323487
0.19650495 0.4142747 0.43510365 0.44117838 0.09950727 -0.43479133 0.04599625 -0.31280267
-0.46597707 0.44424623 0.38017988 -0.49876398 0.09358603 -0.084230006 -0.082280576 -0.22887844
0.19227809 -0.29615176 0.18329567 0.25285405 0.3579358 0.18695557 -0.49486762 -0.32434845
0.24965751 0.104650676 -0.390042 -0.28790975 0.47037464 0.33690894 -0.21801257 -0.12584239
-0.47629905 -0.008987069 -0.37652946 -0.38567835 -0.027549803 0.07507253 -0.20476514 0.2966888
-0.30426955 0.45368505 0.34264994 -0.42164147 -0.11076017 0.02234337 1.9628857 1.9818498
0.19621414 0.029950082 -0.24396437 0.2365945 -0.47962445 -0.29635334 -0.12516493 -0.24355668
-0.17491668 -0.40981084 -0.106357574 0.10687822 -0.3257329 -0.02565968 0.35792542 -0.051400125
0.013896108 -0.04313445 0.101190686 0.31791973 0.4736231 0.31752795 0.47470677 -0.036160827
-0.44916075 -0.23703861 0.3404526 -0.003241241 -0.24852318 -0.38315588 -0.46792603 -0.4220041
-0.101418376 0.274203 0.27032053 -0.48221594 0.31189102 -0.39125472 -0.10570514 -0.20273632
-0.096307635 -0.09817135 -0.44867498 -0.43171895 -0.061711974 0.023293367 -0.22893086 0.18050627
-0.4500292 -0.03374362 0.43970972 -0.203946 0.45150155 0.18107688 -0.45123047 0.31634867
-0.057697237 -0.22320342 0.39982665 -0.4040476 0.053652465 -0.10468435 0.35705632 0.13957226
0.24025267 0.17657948 -0.12023735 -0.105152726 -0.4120407 0.27092206 0.39698905 0.34211242
-1.0788062 0.104301386 -1.9299192 -2.6081204 -0.29135275 0.17087251 -0.2979566 -0.010908604
0.021034062 0.32231152 -0.37796003 -0.34325612 -0.29033077 0.3499667 -0.1797325 0.42174435
0.18080378 0.06331301 -0.003722012 -0.09884077 0.06273317 -0.11417234 -0.003513217 0.06379652
-0.39110255 -0.2620657 0.40374637 -0.40577334 -0.035903096 0.49461937 0.18061852 0.01415652
-0.43330497 0.24768895 -0.35614038 -0.14193213 -0.16775817 -0.07404369 0.0054691434 0.41240376
0.062419415 0.4478464 0.30585623 -0.31610698 0.22425205 -0.35344803 -0.21191257 0.14706135
0.16509604 0.37511402 -0.16095793 0.0008004308 0.25741178 -0.48354608 0.3614903 -0.4134612
0.0068912506 -0.08500838 -0.26333648 0.06608552 0.41345936 -0.14615977 -0.29684705 -0.18491942
00000000: 0054 75bb 5e54 893e 16b3 d2be 8066 bcbe
00000010: f432 45be ec4b 093e 404f 22bc cefa ca3e
00000020: 70bf 35bd 4c7b 073e acbb 1abe 7048 c9bd
00000030: b891 f4be 528b a9be e80e 53be 00bb 973c
00000040: 6069 4a3e 189b 993e 8c8d adbe fcf4 5ebe
00000050: 98f7 393e 4e94 d43e 48bd d2bd 5c91 bf3e
00000060: 400d a5bd 10b5 583d 4acd e73e ce7b edbe
00000070: 6629 a1be e09e 01be dc93 47be 282f dd3e
00000080: 1aef a5be c0b0 6bbe 1ada b2be 76c2 efbe
00000090: 0470 95be 9e0e dc3e bc76 643e 0027 783e
000000a0: 406a d73c 3a3f 83be c03e ad3d 9e06 efbe
000000b0: 1afa b8be c6f9 83be 2685 a13e 2619 963e
000000c0: c811 63be 20cb 93bc 40ba a33e 827f fe3e
000000d0: 2434 4b3e c855 8a3d fea4 ab3e c0bb 96be
000000e0: f8d0 be3d 6c7a c6be 186e b1be d23e 84be
000000f0: 8caa 673e f8e7 4d3e 6aa4 97be c8ad 1a3e
00000100: 6e89 8c3e 203f 81bd 4064 9c3c 0044 ed3d
00000110: 00d1 9e3e 48cf f53e 9647 c5be eca1 3bbe
00000120: 9838 493e d01b d43e e8c5 de3e 22e2 e13e
00000130: 78ca cb3d f89c debe 9066 3c3d ac27 a0be
00000140: 8c94 eebe 3e74 e33e f0a6 c23e fe5d ffbe
00000150: 08aa bf3d c880 acbd b882 a8bd 1c5f 6abe
00000160: 8ce4 443e 34a1 97be dcb1 3b3e 1676 813e
00000170: 5c43 b73e 4871 3f3e 4a5f fdbe 0011 a6be
00000180: 38a6 7f3e 1853 d63d 96b3 c7be e868 93be
00000190: f2d4 f03e 547f ac3e b03e 5fbe d4dc 00be
000001a0: 78dd f3be 803e 13bc 78c8 c0be a277 c5be
000001b0: 20b0 e1bc a0bf 993d f4ad 51be 98e7 973e
000001c0: 38c9 9bbe 6849 e83e d06f af3e 64e1 d7be
000001d0: 3ad6 e2bd 7109 b73c d73f fb3f 41ad fd3f
000001e0: 5cec 483e e059 f53c ccd1 79be d445 723e
000001f0: 5691 f5be a0bb 97be 3c2b 00be ec66 79be
00000200: 5c1d 33be bad2 d1be 00d2 d9bd f8e2 da3d
00000210: 76c6 a6be 4034 d2bc 0042 b73e f088 52bd
00000220: 80ac 633c c0ad 30bd 103d cf3d 60c6 a23e
00000230: ba7e f23e 0693 a23e c40c f33e 601d 14bd
00000240: 66f8 e5be 40ba 72be ce4f ae3e 006b 54bb
00000250: dc7c 7ebe 022d c4be 0094 efbe ec10 d8be
00000260: 70b4 cfbd 5664 8c3e 7467 8a3e 02e5 f6be
00000270: 2eb0 9f3e 8a52 c8be f07b d8bd 1c9a 4fbe
00000280: f03c c5bd 100e c9bd bab8 e5be 440a ddbe
00000290: b2c5 7cbd bbd1 be3c da6c 6abe a3d6 383e
000002a0: 3a6a e6be c036 0abd a221 e13e 38d7 50be
000002b0: 362b e73e 386c 393e ae07 e7be 74f8 a13e
000002c0: f053 6cbd 708f 64be 14b6 cc3e 54df cebe
000002d0: b0c2 5b3d c064 d6bd 16d0 b63e 08ec 0e3e
000002e0: cc04 763e 40d1 343e 003f f6bd 505a d7bd
000002f0: 00f7 d2be 4cb6 8a3e 2642 cb3e 5c29 af3e
00000300: 5216 8abf f79b d53d 9807 f7bf 72eb 26c0
00000310: 302c 95be 34f9 2e3e c48d 98be 00ba 32bc
00000320: a04f ac3c 0406 a53e fa83 c1be 44bf afbe
00000330: 3ca6 94be d62e b33e cc0b 38be e0ee d73e
00000340: a024 393e 40aa 813d 00ed 73bb 086d cabd
00000350: 407a 803d 30d3 e9bd 003e 66bb c0a7 823d
00000360: 983e c8be 7a2d 86be d8b7 ce3e 86c1 cfbe
00000370: 200f 13bd c03e fd3e 10f4 383e c0f0 673c
00000380: 26da ddbe 2ca2 7d3e 0858 b6be a856 11be
00000390: ccc8 2bbe 38a4 97bd 8036 b33b 9626 d33e
000003a0: 80ab 7f3d 204c e53e 3099 9c3e c6d8 a1be
000003b0: 54a2 653e 24f7 b4be 9cff 58be 4097 163e
000003c0: f00e 293e f20e c03e 28d2 24be 00d4 513a
000003d0: 7acb 833e 5a93 f7be 4215 b93e 30b1 d3be
000003e0: 00d0 e13b e018 aebd 0ad4 86be d857 873d
000003f0: f2b0 d33e e8aa 15be 56fc 97be 845b 3dbe

bias f4 [256]
-0.035032988 -0.47224933 -0.28829253 0.20276642 -0.16958785 0.34511453 0.39526993 0.07273495
-0.03953737 -0.15871358 -0.02528292 0.09101045 -0.38192552 -0.119497836 -0.41590047 0.30687743
-0.31841815 0.4567719 -0.1288904 -0.28643763 0.24022657 0.07453954 0.346228 0.20873487
-0.48166972 0.3162452 -0.09415692 -0.22098553 0.31752694 0.3482388 -0.43946534 -0.045211673
0.41060328 0.19364339 0.42123467 -0.17134935 -0.2758212 0.42995483 0.20841146 0.47999126
-0.2088483 -0.30805856 -0.058606446 -0.47078997 0.19598758 0.3687942 0.120028436 -0.04940343
0.40601382 -0.31737566 0.48912156 -0.49717182 -0.4789726 -0.11815083 0.40842223 0.050062895
0.19202286 -0.36650342 0.18234289 -0.055871725 0.2004118 0.35312128 0.21734011 -0.042532086
-0.030799568 -0.3135901 -0.18085104 0.32491904 -0.20049828 0.31051987 -0.19826597 -0.116449416
0.010641098 -0.3741728 -0.004992485 -0.050397873 -0.04491818 -0.0999521 0.39418864 0.38918585
-0.33887863 0.23226339 -0.3921913 -0.42566067 0.15284097 0.0073482394 -0.23325318 -0.48225188
-0.19356805 0.16699976 -0.46280074 -0.48573273 0.06343627 -0.36020207 -0.43804014 -0.1926431
-0.080500424 -0.45435262 -0.33386385 0.032745887 -0.47148585 -0.070277214 -0.32285136 -0.34661865
0.1965155 -0.38484484 -0.3789171 0.28514075 0.09348315 0.45535642 -0.13364774 -0.24150753
-0.04627323 0.0025296807 0.38132215 -0.49803996 -0.035600364 0.22117609 -0.27534178 -0.2540704
0.24163389 -0.4790926 0.11847788 -0.38709325 0.24853092 -0.42752022 0.30740237 -0.4733163
-0.42028338 0.007400314 0.3939942 -0.4281978 -0.22302985 0.43914127 -0.083848715 0.2071423
-0.4809991 -0.15724045 -0.25391608 0.4215306 0.20751995 -0.36483783 0.080613494 -0.005746722
-0.20543492 -0.28553832 -0.1659193 0.39411324 -0.35842615 -0.35617167 -0.15425956 0.008698165
0.13610595 0.015004039 -0.12036282 -0.3031751 -0.089716315 -0.20127666 0.4039644 -0.48670477
-0.3189295 -0.40679508 -0.09137839 0.3896367 0.43826962 -0.43527764 -0.021663427 0.29348308
0.22039872 0.40955213 -0.013869107 -0.33594638 0.33076525 -0.17145729 0.25889307 -0.12321824
0.21254706 0.449713 0.46492773 -0.45503253 -0.33074015 -0.2067334 -0.31885052 0.47975004
-0.044159412 -0.33317038 -0.22249472 -0.2761823 0.20399469 -0.43612558 -0.46620154 -0.49288058
0.21526206 0.24722731 -0.31053954 0.123989284 0.36909235 0.07265067 -0.105790794 0.03694117
-0.05361384 0.25174958 -0.33950567 0.25355124 0.28181177 -0.30293733 0.4082818 0.49109238
-0.19711435 -0.1400472 0.24917775 -0.39171022 0.19772899 0.11665237 0.31516486 -0.4343034
-0.4153924 0.22456455 0.18010539 -0.4653831 -0.27882975 -0.45748925 -0.35821146 -0.22559983
0.41376925 -0.09952545 0.2735015 0.47484046 0.22786611 -0.4476052 0.25161135 0.19071728
0.38753277 -0.4932171 0.307508 0.4092707 -0.46518236 0.05231315 0.42683655 -0.36365408
0.16405964 0.3609156 0.13104504 0.4971379 0.4093898 0.42897737 -0.06232339 0.4193563
-0.46595633 -0.26981467 -0.10694057 -0.1485284 0.46184736 0.23583263 0.16380028 0.3401047
00000000: c07e 0fbd aaca f1be 149b 93be 00a2 4f3e
00000010: 70a8 2dbe dab2 b03e d260 ca3e 10f6 943d
00000020: f0f1 21bd d085 22be 201e cfbc b063 ba3d
00000030: be8b c3be 48bb f4bd e8f0 d4be 0a1f 9d3e
00000040: b407 a3be 02de e93e d8fb 03be f4a7 92be
00000050: f4fd 753e 30a8 983d cc44 b13e 98be 553e
00000060: 6a9d f6be e4ea a13e 58d5 c0bd 084a 62be
00000070: e492 a23e 5b4c b23e 9a01 e1be e02f 39bd
00000080: 983a d23e 744a 463e 12ac d73e 3476 2fbe
00000090: 7038 8dbe 0a23 dc3e d069 553e 6ac1 f53e
000000a0: 54dc 55be dab9 9dbe 500d 70bd 620b f1be
000000b0: f8b0 483e 98d2 bc3e 78d1 f53d 405b 4abd
000000c0: 0be1 cf3e 107f a2be 246e fa3e 4e8d febe
000000d0: e63b f5be 10f9 f1bd b81c d13e c00e 4d3d
000000e0: a4a1 443e 56a6 bbbe 18b8 3a3e c0d9 64bd
000000f0: c038 4d3e 50cc b43e 688e 5e3e 2036 2ebd
00000100: 604f fcbc e28e a0be 0431 39be ca5b a63e
00000110: 6c4f 4dbe 76fc 9e3e 3c06 4bbe 087d eebd
00000120: 0058 2e3c 9493 bfbe 0098 a3bb 006e 4ebd
00000130: 20fc 37bd b0b3 ccbd 18d3 c93e 5e43 c73e
00000140: 8081 adbe 74d6 6d3e 4ccd c8be 32f0 d9be
00000150: 5882 1c3e 80c9 f03b ecd9 6ebe b8e9 f6be
00000160: b436 46be fc01 2b3e 38f4 ecbe f6b1 f8be
00000170: e0ea 813d 686c b8be cc46 e0be 3c44 45be
00000180: 68dd a4bd e8a0 e8be 34f0 aabe 8d20 063d
00000190: 9866 f1be 80ed 8fbd c64c a5be 0078 b1be
000001a0: 5c3b 493e 620a c5be 6c01 c2be f8fd 913e
000001b0: 1874 bf3d 7a24 e93e f4da 08be c04d 77be
000001c0: 0089 3dbd 00c9 253b a83c c33e 18ff febe
000001d0: b0d1 11bd fc7b 623e 99f9 8cbe 8415 82be
000001e0: e06e 773e a04b f5be 88a4 f23d 1631 c6be
000001f0: e47e 7e3e eee3 dabe d863 9d3e 8456 f2be
00000200: 622f d7be 557e f23b 9cb9 c93e be3c dbbe
00000210: f061 64be 20d7 e03e e0b8 abbd 1c1d 543e
00000220: 8445 f6be a403 21be 4a01 82be dcd2 d73e
00000230: 1c80 543e 06cc babe b018 a53d 004f bcbb
00000240: 885d 52be 1432 92be c0e6 29be 36c9 c93e
00000250: a283 b7be 225c b6be 38f6 1dbe c082 0e3c
00000260: 5c5f 0b3e 80d3 753c c880 f6bd c439 9bbe
00000270: 30bd b7bd 781b 4ebe 6cd4 ce3e 5e31 f9be
00000280: ba4a a3be 7247 d0be 9824 bbbd 767e c73e
00000290: e064 e03e b6dc debe 8077 b1bc 6a43 963e
000002a0: 34b0 613e d1b0 d13e 403b 63bc 2a01 acbe
000002b0: 105a a93e 8092 2fbe a28d 843e d859 fcbd
000002c0: f0a5 593e c840 e63e 020b ee3e 06fa e8be
000002d0: c656 a9be ecb1 53be 6040 a3be cca1 f53e
000002e0: 80e0 34bd 4f95 aabe a8d5 63be c467 8dbe
000002f0: fce3 503e da4b dfbe f8b1 eebe d85a fcbe
00000300: a86d 5c3e 2829 7d3e 0aff 9ebe 18ee fd3d
00000310: acf9 bc3e e0c9 943d d8a8 d8bd a04f 173d
00000320: 309a 5bbd 52e5 803e b0d3 adbe 78d1 813e
00000330: a249 903e 9a1a 9bbe 500a d13e 7670 fb3e
00000340: 58d8 49be 8868 0fbe 7428 7f3e 3e8e c8be
00000350: 7879 4a3e 70e7 ee3d 4a5d a13e 045d debe
00000360: 50ae d4be 40f4 653e 8c6d 383e b246 eebe
00000370: c6c2 8ebe 083c eabe 7e67 b7be a403 67be
00000380: 90d9 d33e 00d4 cbbd 6308 8c3e 4a1e f33e
00000390: bc55 693e 822c e5be 34d3 803e 644b 433e
000003a0: b26a c63e f486 fcbe b071 9d3e ee8b d13e
000003b0: 622c eebe 5046 563d 528a da3e de30 babe
000003c0: 40ff 273e eec9 b83e ac30 063e dc88 fe3e
000003d0: 8a9b d13e eca2 db3e d046 7fbd deb5 d63e
000003e0: d491 eebe 2625 8abe a803 dbbd d417 18be
000003f0: 4277 ec3e 1c7e 713e 43bb 273e 3422 ae3e

weight f4 [2, 256]
-0.047644727 -0.008195752 0.008169578 0.017212735 0.031182567 -0.025826162 -0.019802855 0.053253338
-0.015817076 -0.04437209 0.04333449 0.043279223 -0.018640967 -0.013451941 -0.045160495 -0.053150363
0.02446005 -0.027656542 0.048798963 -0.04908757 -0.009596009 0.0023064394 0.0330787 0.049626164
0.041368276 0.026555298 -0.027730158 -0.045591235 -0.05687026 1.0457181 0.05966051 -0.010914464
-0.0016742074 -0.04446137 0.02014506 0.03866695 -0.06066274 -0.043050632 0.04533723 0.015754722
-0.002939682 0.03234744 -0.008545656 -0.044642314 -0.057444863 0.04206375 -0.0083904825 -0.024168653
1.6966056 -0.035045944 -0.019468414 -0.054607913 0.04581447 0.026478397 -0.030563137 -0.022289032
0.027082888 -0.022187134 0.015523905 0.018165799 -0.040300332 0.016613299 0.004780964 0.055543497
-0.023570696 -0.017023737 0.05480706 -0.05199465 0.0035585808 0.061176024 -0.027066043 0.05896063
0.056415867 2.371024 -0.005006999 0.055582576 -0.026275506 -0.020437123 0.024596492 1.9431766
0.03349775 0.05843795 -0.038167313 0.03221342 0.019953316 0.03393001 0.028678818 -0.024336321
-0.050354257 0.049067043 -0.034682766 0.039000936 -0.058583215 -0.009855691 -0.00029452058 0.011770891
0.004095055 0.018737176 -0.0060020927 0.01624978 0.060892016 -0.03948375 -0.004369258 -0.024814645
0.055796355 0.054459512 -0.0007473721 -0.022621492 -0.03957364 0.04567823 -0.0033470276 0.05790609
0.036598377 0.05374953 0.04847572 -0.039658137 0.017336933 -0.024959227 0.032318324 -0.006576298
0.0063675568 -0.044182554 -0.054900847 0.024492765 0.015481042 0.004471981 0.043406665 -0.027055407
0.023143256 -0.035373025 0.013906939 -0.013311714 0.044727422 0.05561216 0.055239737 0.0018545627
0.035898857 -0.0634034 -0.03570518 0.01212712 0.0013055145 -0.050024062 -0.028620189 -0.028233929
-0.060965627 0.006917607 0.04356288 0.024409508 -0.030652761 -0.058348477 -0.049466558 0.0021162836
0.043951586 -0.02435383 -0.034966066 -0.034298033 -0.0044535985 -0.058396414 -0.056109786 0.06248161
-0.030764213 -0.0122296475 -0.015765103 -0.05394963 -0.01197524 0.020089248 -0.026335595 -0.0036206958
-0.0012559216 -0.06126037 0.04637678 0.049528793 0.04165584 -0.021481851 0.033617206 -0.059514597
-0.014504729 -0.01366847 -0.021114899 0.02529305 -0.02752166 -0.00820093 -0.017090136 -0.059649654
-0.009364333 -0.051829945 0.035487063 0.034360938 0.057592496 -0.021944629 0.0022213082 0.01320011
0.06334591 0.056331336 -0.031389236 -0.054138422 -0.055373512 -0.031054445 0.051592156 0.021947557
0.061260454 0.045369297 -5.0847935e-05 -0.03777896 0.060074285 0.051092707 0.02801592 -0.035098303
0.050193213 0.00664543 0.040370114 0.027042428 0.032231033 -0.053885244 -0.033698097 0.03652875
-0.012064045 -0.05533074 0.05779582 -0.002308547 0.05137475 -0.049808055 0.02056141 -0.024498748
-0.025344005 -0.013992557 0.94651175 0.035204515 -0.012831882 0.04834561 0.015218399 -0.008700242
-0.037056968 -0.05818651 -0.017275693 -0.05691997 -0.010622475 0.0019784814 -0.0030707885 -0.029744102
0.042421974 2.298967 -0.016355524 -0.025651092 0.038336128 0.055333525 -0.056270406 -0.014460659
-0.0048431912 -0.021671852 0.054313824 -0.010188898 0.05394754 0.0012659284 -2.4239478 -0.0354994
00000000: 1e27 43bd 7a47 06bc b2d9 053c b901 8d3c
00000010: 9572 ff3c 6391 d3bc 9939 a2bc 2c20 5a3d
00000020: d092 81bc 82bf 35bd 827f 313d 8e45 313d
00000030: f1b4 98bc 8865 5cbc 36fa 38bd 32b4 59bd
00000040: 7160 c83c f98f e2bc 6ce1 473d 0c10 49bd
00000050: 9438 1dbc a227 173b 887d 073d ce44 4b3d
00000060: c871 293d 7f8a d93c 5b2a e3bc e0bd 3abd
00000070: caf0 68bd 17da 853f 945e 743d 94d2 32bc
00000080: 1471 dbba 201d 36bd 4107 a53c 3c61 1e3d
00000090: 7e79 78bd dc55 30bd 88b3 393d 0c10 813c
000000a0: aea7 40bb c07e 043d 1403 0cbc dcda 36bd
000000b0: 4e4b 6bbd 0a4b 2c3d 3c78 09bc 57fd c5bc
000000c0: 5f2a d93f 568c 0fbd 397c 9fbc 8cac 5fbd
000000d0: f4a7 3b3d 39e9 d83c 8b5f fabc 7d97 b6bc
000000e0: efdc dd3c cbc1 b5bc fa57 7e3c 71d0 943c
000000f0: f611 25bd 9d18 883c a2a9 9c3b 9481 633d
00000100: 5517 c1bc 5d75 8bbc 5e7d 603d 58f8 54bd
00000110: 1437 693b b693 7a3d 9bb9 ddbc b480 713d
00000120: 5314 673d dbbe 1740 c011 a4bb 8eaa 633d
00000130: bb3f d7bc c16b a7bc 957e c93c 03ba f83f
00000140: f034 093d a25c 6f3d 5455 1cbd 38f2 033d
00000150: 2375 a33c 32fa 0a3d d7ef ea3c f75c c7bc
00000160: 4440 4ebd 86fa 483d 840f 0ebd 72bf 1f3d
00000170: f4f4 6fbd c479 21bc e269 9ab9 b2da 403c
00000180: d02f 863b b57e 993c 34ad c4bb 421e 853c
00000190: e869 793d b6b9 21bd fe2b 8fbb 1548 cbbc
000001a0: b88a 643d f010 5f3d 4beb 43ba b550 b9bc
000001b0: f817 22bd 1819 3b3d ce59 5bbb f02e 6d3d
000001c0: 2ee8 153d 7828 5c3d 7a8e 463d 9270 22bd
000001d0: 2f06 8e3c 4b77 ccbc 3860 043d fc7d d7bb
000001e0: f0a6 d03b c4f8 34bd b6df 60bd 0da5 c83c
000001f0: 32a4 7d3c b289 923b 30cb 313d 4da3 ddbc
00000200: ed96 bd3c 4ee3 10bd eed9 633c 6019 5abc
00000210: 1a34 373d 94c9 633d 1043 623d cc14 f33a
00000220: ae0a 133d a4d9 81bd 983f 12bd d4b0 463c
00000230: cc1d ab3a 08e6 4cbd e374 eabc d74a e7bc
00000240: 18b7 79bd 18ad e23b fe6e 323d 73f6 c73c
00000250: 801b fbbc d0fe 6ebd 729d 4abd 59b1 0a3b
00000260: 9406 343d af81 c7bc 9438 0fbd 187c 0cbd
00000270: 7eef 91bb 1431 6fbd 60d3 65bd b7ec 7f3d
00000280: 3b05 fcbc dc5e 48bc d125 81bc 4afa 5cbd
00000290: cc33 44bc 3592 a43c bfbd d7bc 3249 6dbb
000002a0: bc9d a4ba 27ec 7abd 94f5 3d3d b4de 4a3d
000002b0: 509f 2a3d b5fa afbc 32b2 093d 94c5 73bd
000002c0: 3ea5 6dbc b8f1 5fbc 27f9 acbc 5f33 cf3c
000002d0: 1b75 e1bc 325d 06bc 9d00 8cbc 3253 74bd
000002e0: dc6c 19bc a34b 54bd e25a 113d 0ebe 0c3d
000002f0: 1ce6 6b3d 39c5 b3bc 5e93 113b 4645 583c
00000300: 80bb 813d b0bb 663d 0092 00bd 40c0 5dbd
00000310: 56cf 62bd e465 febc 4c52 533d 5dcb b33c
00000320: 3eec 7a3d 28d5 393d 8e45 55b8 1cbe 1abd
00000330: 7410 763d 9646 513d a581 e53c 3dc3 0fbd
00000340: 6697 4d3d e8c1 d93b 225b 253d 1588 dd3c
00000350: b004 043d c6b6 5cbd 0407 0abd 2c9f 153d
00000360: 46a8 45bc 7ca2 62bd 4fbb 6c3d fe4a 17bb
00000370: 546e 523d 8803 4cbd 6770 a83c 99b1 c8bc
00000380: 3b9e cfbc 0a41 65bc 984e 723f 9c32 103d
00000390: d03c 52bc 0c06 463d 9856 793c 768b 0ebc
000003a0: 0cc9 17bd fa54 6ebd c185 8dbc ea24 69bd
000003b0: e409 2ebc 69a9 013b 483f 49bb e7a9 f3bc
000003c0: aac2 2d3d 4622 1340 05fc 85bc 3d22 d2bc
000003d0: 5806 1d3d 68a5 623d cc7b 66bd 66ec 6cbc
000003e0: a2b3 9ebb 2b89 b1bc 2c78 5e3d 56ef 26bc
000003f0: 18f8 5c3d 82ed a53a f621 1bc0 d267 11bd

bias f4 [2]
0.048776194 0.026644098
00000000: 8cc9 473d b944 da3c

weight f4 [2, 2, 3]
-1.059412 -2.6188836 1.5769464 1.6623622 2.6093717 -0.77499986 0.29157805 -2.326821
1.8327686 0.961815 -2.637002 2.1636484
00000000: d09a 87bf ca9b 27c0 61d9 c93f 49c8 d43f
00000010: f2ff 2640 6466 46bf b849 953e a3ea 14c0
00000020: 2998 ea3f 8239 763f a4c4 28c0 3779 0a40

bias f4 [2]
-0.15101816 -0.32182226
00000000: 81a4 1abe e3c5 a4be
